deploy/networks/go2/mk4/39000.pt (torch, 784904 bytes, 8 tensors)

weight f4 [512, 53]
000000 24 6f 4d be 7f 8f ef 3c 2a 28 e9 be a5 ec 8d 3e
       -0.20061928 0.029243229 -0.45538455 0.27719608
000010 13 48 93 3f ab c8 e1 3d 2d c7 1c 3c 89 39 97 3d
       1.150637 0.110246025 0.009568972 0.07384021
000020 fe 71 31 3e 94 9d 39 bf 06 f5 96 be c8 28 57 3e
       0.17328641 -0.7250607 -0.29483813 0.2101165
000030 68 72 cc bd ca 48 e5 3d 81 a2 4f be d8 c5 33 3e
       -0.09982759 0.11195524 -0.20276834 0.1755594
000040 5c 68 0b bd 62 e2 aa 3c 87 e3 5b be bd a6 30 3e
       -0.03403507 0.0208599 -0.21473514 0.17251106
000050 3e 75 df 3e 92 95 b2 bd 3e 7d 0e bd c4 0b b8 3e
       0.43644136 -0.087199345 -0.03478741 0.35946476
000060 ad 74 eb 3d bb dd 21 3f 0e 51 22 bd 8d aa 8f be
       0.114968635 0.6322896 -0.03962808 -0.28059807
000070 41 8d 87 be c9 59 47 3e 9a e8 19 3e e6 af 0f 3e
       -0.26474956 0.19467844 0.15030137 0.14031944
000080 b1 f6 82 3e 02 fb 4a bd e7 fd 1a 3c 2e 57 c0 bc
       0.25578836 -0.049555786 0.009459949 -0.02347907
000090 63 5d 98 bd ab 38 c4 bc 36 14 87 bd 9f 03 e2 bc
       -0.07439687 -0.023952803 -0.06595652 -0.027589617
0000a0 ef dc e9 bb 0e e9 46 bc 9f 97 4c 3c 37 df 43 3c
       -0.007136933 -0.0121405255 0.012487321 0.011955074
0000b0 c5 6f 8d bd 30 5a 7b 3d 0d 73 cb 3c 34 dd cc bd
       -0.06906084 0.061365306 0.024835134 -0.10003129
0000c0 2e 96 90 bd 6c e9 81 bc 6a 8f a2 3d c9 43 dc bd
       -0.070598945 -0.015858375 0.0793751 -0.107551165
0000d0 5e 36 cc 3d 74 7c 58 be 66 af d1 3e c8 1b 59 be
       0.09971307 -0.21141225 0.4095413 -0.21202004
0000e0 07 62 96 3e ed e8 4b 3f bc 43 cd bc 86 53 43 bc
       0.29371664 0.7965229 -0.025056712 -0.011921769
0000f0 ca aa 3b 3d c0 8a 14 3f 8d 33 f6 be 1b f4 a1 be
       0.045817174 0.58024216 -0.48086205 -0.3163155
000100 67 76 c0 be cd 5d 97 be fd e5 02 bf 9d 26 8a be
       -0.37590334 -0.29563752 -0.51132184 -0.26982585
000110 dc b9 b6 3c b6 dc 0c 3e 4a d3 06 3d ad 3a 16 bf
       0.022305422 0.1375607 0.032916345 -0.5868328
000120 bc c3 32 3e 9b c4 d9 3e f9 51 18 bf 76 b3 a3 3e
       0.17457479 0.4253281 -0.5950008 0.31972855
000130 0e 8b e4 3d 57 1d ef bd 9a eb 8d 3d 22 08 13 3e
       0.11159335 -0.11675518 0.06929703 0.14358571
000140 94 f7 e0 3b c7 c8 9d 3e 98 f8 ad 3c 44 4f 97 bd
       0.006865451 0.30817243 0.021236703 -0.073881656
000150 bd fc 7e 3e 6a 7b 1a 3e 35 ac 9e 3d b7 7f 3a bd
       0.249011 0.15086141 0.0774769 -0.045531955
000160 77 5f cc 3d 65 16 9d bb cd dd 09 ba 77 69 04 3c
       0.09979146 -0.0047939294 -0.0005259186 0.008081785
000170 ed 5d 8c bd 1c cd 01 3d d3 e1 40 3d f9 e7 f5 bc
       -0.068538524 0.03168975 0.047090363 -0.03001784
000180 74 6c 0c bd 35 8e 34 bd fd 87 1b bd 47 76 ec 3d
       -0.034283116 -0.04408093 -0.037971485 0.11545997
000190 f9 0e c0 bd 60 db 67 3c ff e5 68 bc ce d8 00 be
       -0.09377856 0.014151424 -0.014214992 -0.12582704
0001a0 b0 3d 64 3c 53 cb aa bd ad df 4a be c4 d2 a3 be
       0.013930723 -0.08339562 -0.19811888 -0.3199674
0001b0 e9 e4 17 3e 70 99 f0 3e 6a 05 72 3f 06 78 69 3e
       0.14833416 0.46992064 0.9453951 0.22799692
0001c0 de cd c4 3c 35 d7 54 bd cd e3 b7 bd 9e d1 c6 be
       0.024023946 -0.05196305 -0.089789964 -0.388318
0001d0 f0 26 a0 3b 7e 36 6b be 98 2d 34 3c d8 9c 92 3e
       0.004887454 -0.22970006 0.0109971985 0.28635287
0001e0 05 82 5f 3e f0 4b 0e 3b 41 8e 06 3f 31 b1 6d be
       0.21826942 0.0021712743 0.5256081 -0.23212124
0001f0 1e 09 73 be 19 e8 f4 bc 9e 7c 7c be c0 5b 04 bf
       -0.23733947 -0.029895829 -0.24656913 -0.517025
000200 be 8f 15 3e 31 3f c9 3e f4 a0 3a 3d 8a b6 29 bc
       0.14605615 0.39306024 0.045563653 -0.010358462
000210 63 ad 65 bd 04 93 8e be c5 a2 38 3e b7 45 84 3e
       -0.056073558 -0.2784654 0.18030842 0.25834438
000220 43 3b bc 3e 49 78 f3 3c ac e9 79 3c 5f bb 36 bd
       0.36763963 0.029720442 0.015253466 -0.044612285
000230 fa 67 30 3d 13 f1 fd 3d a6 64 e3 bd 54 1d 01 bc
       0.04306791 0.12399497 -0.111031815 -0.0078805275
000240 bd 42 23 bd ca 26 11 3e c5 4a d9 bd 7c 33 44 bd
       -0.03985857 0.14174953 -0.10609964 -0.04790066
000250 be 1d 77 3c 97 8b e5 bd dc d6 b2 bc 98 5c 90 3b
       0.015082775 -0.11208265 -0.021830969 0.0044055693
000260 9d 9d d9 3b 49 71 d1 3d f6 22 d2 bd 49 2d 41 3c
       0.0066411034 0.102266856 -0.102605745 0.011790582
000270 02 65 7a 3c f7 86 db bd 60 f4 10 3d 55 c3 00 3e
       0.015282871 -0.10719102 0.035389304 0.12574513
000280 ff d0 11 3e 78 d2 84 bd 6d 13 3e bf 0d 10 97 3e
       0.14239882 -0.06485456 -0.7424839 0.29504433
000290 0f 9e 44 3e 1d bd 09 bc 86 fd ef bd 32 54 46 3f
       0.1920092 -0.0084069045 -0.11718278 0.7747222
0002a0 8c 35 14 be 61 22 19 bf 0c 04 33 be ea d3 8d 3e
       -0.14473552 -0.59818083 -0.17482013 0.2770074
0002b0 19 16 6b be 99 0c 44 be e5 f3 9f be 06 77 8a be
       -0.22957648 -0.1914543 -0.31240764 -0.27043933
0002c0 c5 9a 96 3b c2 fb 9e be 33 b1 e1 3c 17 75 3b bd
       0.0045960867 -0.3105145 0.027550315 -0.045765962
0002d0 32 06 03 bf 98 30 b2 be 05 b7 ef be 6e 68 b4 3e
       -0.5118133 -0.348027 -0.4681932 0.35235924
0002e0 a4 b3 63 3e 62 c1 c8 bd 41 48 d3 3e a5 d9 66 be
       0.22236496 -0.0980251 0.41266063 -0.22543962
0002f0 99 40 ab bd 2a 51 6b be c0 e7 94 be 14 95 1a be
       -0.083619304 -0.2298018 -0.2908306 -0.15095931
000300 6a e8 23 3d 90 06 37 3d f0 33 d0 3c c5 df ab bd
       0.04001657 0.044683993 0.02541539 -0.0839229
000310 8d 87 c1 bd 12 19 77 3d 01 f6 b9 3c 6f ed c1 3c
       -0.094496824 0.060326643 0.022700312 0.023672787
000320 7d 49 40 bd b1 f2 71 bb f3 f5 fa 3c 07 f9 5e 3c
       -0.046945084 -0.0036918337 0.030634856 0.013609177
000330 92 6d 82 bc b2 0a 0c bd 31 98 48 bc c3 37 7b bc
       -0.015921388 -0.034189887 -0.0122433165 -0.015333119
000340 89 9f 86 3d 15 92 99 bd af ec 83 3d 5f ea 37 bc
       0.06573398 -0.07498566 0.06441628 -0.011225312
000350 79 dc f3 3d 75 47 b3 bd ee 3a b4 3e 6f 0a 37 3f
       0.11907286 -0.08753864 0.3520121 0.71500295
000360 ec 61 11 3f 71 a8 1d 3e 47 51 82 bc 7f 8d 0e be
       0.5679004 0.15396287 -0.015907897 -0.13921164
000370 dc df 23 bf 7e 51 60 be 51 92 e8 3d 5b 89 73 be
       -0.6401346 -0.21906087 0.11356033 -0.23782866
000380 85 e5 52 3e 01 9e eb bd e4 ba 22 3f e8 1e 8c be
       0.20595367 -0.11504746 0.6356642 -0.2736733
000390 1b d8 2e 3e 1f 72 39 3e 35 05 62 3e f4 61 c9 be
       0.17074625 0.1810994 0.22072299 -0.39332545
0003a0 4e 02 25 be e4 cb fd 3e 0c bf d2 be 57 89 9d be
       -0.1611416 0.4956962 -0.41161382 -0.30768844
0003b0 1c 03 81 3c 06 07 21 bc 5e a6 46 3f c6 d3 66 be
       0.015748553 -0.009828335 0.77597606 -0.22541723
0003c0 41 31 77 bc db 81 19 be 17 29 d3 3e 1a 33 3b be
       -0.015087427 -0.14990942 0.41242287 -0.18281212
0003d0 c4 8e 4b 3d 88 e3 09 be f6 83 92 3d 23 e0 f3 bb
       0.0496967 -0.13465703 0.07154076 -0.0074424907
0003e0 82 b7 d1 3d fd 72 b1 bd d2 28 40 bd a8 bc c7 3d
       0.102400795 -0.086645104 -0.04691393 0.0975278
0003f0 6d 6e 0d 3b ba 72 bf bd 09 be ac bc 66 7f ca 3d
       0.0021580711 -0.09348054 -0.02108671 0.098875806

bias f4 [512]
000000 48 c6 0b be 0f 22 88 be 37 5f f1 3d 4e 2d 14 be
       -0.13649857 -0.26588485 0.11785739 -0.14470407
000010 f5 1b 32 3e 21 58 0e 3e 19 1e 67 bd 35 e4 8d bd
       0.17393477 0.13900806 -0.056425188 -0.06928293
000020 93 bf 94 bc 64 d6 a0 be 4c 5a 00 bf 46 12 04 be
       -0.018157756 -0.31413567 -0.5013778 -0.12897596
000030 8a 2c 7a be 2b 60 eb be 6f 6b 6f be 25 38 2c be
       -0.24431053 -0.45971808 -0.23380826 -0.16818292
000040 63 46 54 be 98 ae e8 3d cb 8f 3f bd 87 d3 ab bc
       -0.20729975 0.11361426 -0.04676799 -0.020974888
000050 0a aa da bd 08 5c 0a 3e d7 8b dd bc 73 e1 4c bd
       -0.106769636 0.1351167 -0.02704422 -0.050019693
000060 91 47 e3 bb bb b3 93 bd fe fb 96 3c 7d f4 b5 bd
       -0.0069360216 -0.07212015 0.018430706 -0.08884523
000070 9b c6 a6 bd e8 d3 e9 3d c6 16 08 be 9f 58 a3 bc
       -0.0814335 0.11417371 -0.13289937 -0.019939719
000080 92 bf dd bc 30 54 6b bc 50 81 fe 3d 75 a3 06 be
       -0.027068887 -0.014363334 0.12427008 -0.13148291
000090 95 7b 6a 3e fa 0a f8 3c 77 5f 9e 3d 0c 65 0c bd
       0.22898705 0.030278672 0.07733052 -0.034276053
0000a0 0a c3 29 bd 3e bd 38 be 8c 4d e5 ba 37 ff c8 be
       -0.04144577 -0.1804094 -0.0017494424 -0.39257213
0000b0 e1 7a 1b 3e b8 0c 52 be aa 29 e6 be da 27 0e bd
       0.15183593 -0.20512664 -0.44953662 -0.034705974
0000c0 c6 a9 98 be 21 6f 76 be 13 73 2d 3d 05 8c ba be
       -0.29817027 -0.2406583 0.04234607 -0.3643495
0000d0 22 b4 e3 3d 73 1b fa bd 4a db 8f bd f7 0a 27 3e
       0.11118342 -0.12212267 -0.07024248 0.16312777
0000e0 b8 a2 b5 be 92 de 14 be 1c b4 b0 bd 4f 80 ee 3d
       -0.35475707 -0.14538029 -0.08628103 0.11645567
0000f0 12 65 91 3e 41 14 46 be 12 85 37 bd e5 e9 1b 3d
       0.28397423 -0.19343664 -0.04480464 0.038064856
000100 6f 45 27 3d 8f 36 01 bd de 3f e3 be 3e b2 32 be
       0.0408377 -0.03154617 -0.44384664 -0.17450806
000110 ae 19 ea bd a2 d3 0f 3d 71 c5 84 be 27 eb 81 3d
       -0.11430679 0.03511394 -0.25931886 0.0634368
000120 3c ea 91 bd 41 20 55 be b9 d6 30 bd 9c 1a 03 3d
       -0.07124755 -0.20813085 -0.043173525 0.0320078
000130 7a 23 50 be 0d b5 02 3e a3 89 5c be 7b bb 96 be
       -0.20326033 0.12764378 -0.21536879 -0.2943991
000140 00 0f 9b 3d 0f 88 6a bc 3e d7 9e 3c 76 cc 8d bd
       0.075712204 -0.014314665 0.019389745 -0.069237635
000150 71 12 32 3e 20 e5 ba 3d b2 56 7f be 3b 8e 71 bc
       0.17389847 0.091257334 -0.24935415 -0.014743383
000160 ce 79 47 3d fe 5e 9c bd 8e 90 34 be 37 b4 c1 bd
       0.048700146 -0.07635306 -0.17633268 -0.094582014
000170 87 df 7d bd 78 19 4d be 1e d7 b3 be e3 f8 14 3e
       -0.06198075 -0.20029247 -0.3512506 0.14548068
000180 b8 c3 e7 bd a4 53 99 3e 3d 7a f2 bb c0 82 56 bc
       -0.11316627 0.29946625 -0.007399826 -0.013092697
000190 08 59 ef bd 4f bd 03 3e eb 10 a1 be 61 36 9b bd
       -0.11686903 0.12865184 -0.3145822 -0.07578731
0001a0 de 33 6e 3e 23 4f 6b be 2d 33 e5 3c df d1 f2 bd
       0.23261973 -0.22979407 0.027978504 -0.11856436
0001b0 1e 9f 3b 3d 91 28 7c be a9 aa 2f 3e a2 3a 37 be
       0.045806043 -0.2462485 0.17154945 -0.1789346
0001c0 ab da a4 3d 9c 9e 8a be 6b f1 71 be 6a e3 8d 3d
       0.0804952 -0.27074134 -0.2362725 0.069281414
0001d0 e3 4a 75 bd 4d 4c 38 be a9 60 2b 3e 2a 9f f7 3d
       -0.05988587 -0.17997856 0.16736092 0.12090905
0001e0 e4 1e 96 be 5e f1 3b 3d 19 38 51 3e 84 c3 03 3e
       -0.29320443 0.045884483 0.20431556 0.12867552
0001f0 ed 00 62 be 8f 35 92 be 49 4f 97 bd e9 ba 45 be
       -0.22070666 -0.28556487 -0.07388169 -0.19309582
000200 5c 4f 4b bd 97 32 d6 3d a4 10 4c be cf 0b b3 bd
       -0.04963623 0.10458868 -0.19928223 -0.08742487
000210 fa 42 8d be f2 48 23 be 49 d7 9f 3d 16 35 e4 bd
       -0.27590162 -0.15945795 0.07804734 -0.11142938
000220 db a7 fd bd 71 dd d1 bd 5c 74 17 bd 84 49 ce be
       -0.123855315 -0.10247315 -0.036976203 -0.40290463
000230 9d 82 7e 3e 6e 8d cc bc 2d 7c 0a 3e ba 24 7b be
       0.24854513 -0.024969783 0.13523932 -0.24525729
000240 a2 a6 d1 3d af 29 94 bd b0 77 cd 3d 30 7d 06 bd
       0.10236861 -0.07234513 0.10032594 -0.03283423
000250 53 32 5f be bc 4b 22 3e 11 4b 4c 3c 02 59 50 3d
       -0.21796541 0.15849203 0.012469069 0.050866134
000260 b1 c8 e3 3c 11 b9 1a bd be a6 ef bd d9 06 de bd
       0.027805658 -0.03777415 -0.117017254 -0.1084115
000270 85 48 db be 50 87 3d be dd 8c 2f be 79 26 b3 3d
       -0.42828766 -0.18508649 -0.17143579 0.087475725
000280 15 34 0e 3e 3e 2c 3a bd c0 79 1f be db 49 01 bd
       0.13887055 -0.04545235 -0.15573788 -0.031564575
000290 65 ac 35 3e 44 7f f9 bd 9e 22 41 be 98 4f e9 bd
       0.17741545 -0.12182477 -0.18860862 -0.113921344
0002a0 71 8b f2 bc aa 7f 63 be f8 fa f2 be 00 b0 11 bd
       -0.029607506 -0.22216669 -0.474571 -0.035568237
0002b0 ee 9b 97 bd 31 81 b8 be 03 c1 52 be d3 ca eb bd
       -0.07402788 -0.36036065 -0.2058144 -0.11513295
0002c0 0c b9 3c 3d 07 1f 65 3d 0b 97 ba 3c 4e bf bc bc
       0.046074912 0.055937793 0.022777101 -0.02304044
0002d0 6c 76 c4 be 4b 33 7c bc 8e 52 ec bd 1c bf 9a 3d
       -0.383716 -0.015393089 -0.115391836 0.075559825
0002e0 73 91 1e 3c 18 b2 6a bc 8c f4 e4 bd 05 63 42 3c
       0.0096782325 -0.014324687 -0.11179456 0.011864428
0002f0 8d 05 3b 3e e8 ac 9c bd 12 2f 40 3e 7e 6e e4 bc
       0.18263836 -0.07650167 0.18767956 -0.027884718
000300 bf d8 47 bb c9 d8 cf bd 98 8f 64 be 64 96 76 be
       -0.003049418 -0.1014877 -0.22320402 -0.24080807
000310 1f 38 bc bd 24 aa 4d be 3b 15 14 be 90 c6 63 3e
       -0.09190392 -0.20084435 -0.14461224 0.22243714
000320 76 44 9d be 9f c5 15 be 29 03 76 3d 75 15 ec bd
       -0.30716294 -0.14626168 0.060061608 -0.1152753
000330 5a c7 3d 3e 64 f3 0a be 14 dc 3b be f5 6f a5 bd
       0.18533078 -0.13569409 -0.18345672 -0.08077995
000340 e5 21 9f be 42 6b 06 bc 9d 2d cb 3d 4e e8 a0 be
       -0.31080547 -0.008204283 0.099208094 -0.31427234
000350 02 02 a1 be 76 ff e8 bd cc 08 b5 be bf ca 17 be
       -0.31446844 -0.1137685 -0.35358274 -0.14823435
000360 69 37 2a 3e b0 8a d3 3d 87 e3 6b be 25 1d 07 be
       0.166227 0.10329187 -0.23036014 -0.13194712
000370 4b 27 2c be 1b 7d 35 3e d6 62 2b be 76 84 0f 3d
       -0.16811864 0.17723505 -0.16736922 0.035038434
000380 2b 86 91 be 7f 78 3e be 75 fb 22 be d0 00 28 be
       -0.28422675 -0.18600653 -0.15916236 -0.1640656
000390 88 4c fe 3d 48 dd 0b be e0 26 fc ba 43 7a 30 3e
       0.12416941 -0.13658631 -0.001923766 0.17234139
0003a0 b2 4a 6e bd a4 2c 88 be 38 34 1f 3e 23 a4 e7 bd
       -0.058176704 -0.26596558 0.15547264 -0.113106035
0003b0 65 f8 89 be 31 60 a5 bd ae 92 03 be db e1 97 be
       -0.26947322 -0.08074988 -0.12848923 -0.29664502
0003c0 71 79 56 3e a9 8c ee 3d 5f 0f d7 bd 1c 8f e8 bd
       0.20944764 0.116479225 -0.10500979 -0.11355421
0003d0 18 c8 eb bb 99 a3 39 be ff 58 28 be 6b 5d 32 3e
       -0.007195484 -0.18128814 -0.164402 0.17418449
0003e0 7d cd 05 3d 85 85 22 3e 63 35 fa bd 2b 09 86 3d
       0.032666672 0.15871246 -0.12217214 0.065447174
0003f0 10 26 de 3d f0 0f 84 3d 59 5c 45 3c 6e f3 6b bd
       0.108471036 0.06448352 0.012045943 -0.0576052

weight f4 [256, 512]
000000 90 79 54 bc 11 2d 1c 3e 2a aa 2f bd 89 ef 66 bd
       -0.012968436 0.15251566 -0.04288689 -0.056380782
000010 83 8f 55 3d 3f e6 14 be 56 d0 08 3e 6d 04 1c be
       0.052138817 -0.14540957 0.13360724 -0.15236063
000020 75 26 d0 3c 9d a4 74 3e 79 81 96 3d e2 23 cd bd
       0.025408963 0.2389092 0.07348914 -0.1001661
000030 a6 38 44 3e cb 1a a4 3e fd cf b7 bd 3d 1d 15 3d
       0.19162235 0.3205169 -0.089752175 0.036404837
000040 0d 4e 5d 3e 80 e2 1e be bc 46 4f 3e 3c 35 a3 3d
       0.21611805 -0.1551609 0.20241827 0.07969138
000050 d1 e0 93 3d 0e ff ef bd 40 84 df 3d 03 1d 18 3e
       0.07220615 -0.1171857 0.109138966 0.14854817
000060 fc 0d e5 bd de 53 b6 bd ac 9d 8a bd 20 0e 3a 3b
       -0.11184308 -0.08902715 -0.06768355 0.0028389767
000070 10 ea 02 3d 99 3c 91 bd bc 4a d6 bd b3 71 98 bd
       0.0319615 -0.07091636 -0.10463473 -0.074435614
000080 ff 22 9c bd 3d 1b 98 be 4f 03 4d 3d 4a 52 6e 3e
       -0.076238625 -0.2970828 0.050051983 0.23273578
000090 07 62 d6 bd 4c 59 43 3c 98 db 21 3d 4a 7b 04 bd
       -0.10467916 0.0119231455 0.03951606 -0.03234414
0000a0 54 9c ba bd 65 1d 36 3e 36 22 fb bd 76 78 e9 3d
       -0.091118485 0.1778465 -0.122623846 0.11399929
0000b0 3f ae 81 be b3 d4 a4 3d f7 09 b3 3d 0d 27 7c 3e
       -0.25328252 0.08048382 0.08742135 0.24624272
0000c0 f1 7c ba 3b 07 05 10 3e 29 2e a7 bd 2d 7d 14 3e
       0.0056911637 0.14064418 -0.08163101 0.14500876
0000d0 3b c0 0b be 34 a4 c7 3d dd 67 dc 3d 2b cd 34 be
       -0.13647549 0.09748116 0.10761998 -0.1765639
0000e0 dc 3e 38 bd 5b d9 f1 3c 83 22 08 be 99 5d 60 bd
       -0.044981822 0.029522588 -0.13294415 -0.05477676
0000f0 9b b8 df bc 18 e1 cd 3e 4f f6 5f be 62 6b 01 be
       -0.027309706 0.40210795 -0.21871303 -0.1263862
000100 66 4b b8 3c db d9 1a be ed c8 0e 3e 57 9d 59 bd
       0.02249689 -0.15122168 0.13943835 -0.053128567
000110 f8 71 a5 3d c7 cb 7b be ff 1d 28 3e 5d e4 36 bd
       0.080783784 -0.24589454 0.16417693 -0.044651378
000120 90 3f fb 3c 9a 6a d3 bd de 73 67 be 8d fa a7 bc
       0.030669957 -0.10323067 -0.22602794 -0.020505214
000130 01 9d 0d 3d 00 38 17 bd ca 5a b5 bd 18 34 31 3e
       0.03457356 -0.03691864 -0.08855207 0.17305028
000140 f4 0f 5b be 5d 1c b0 3d a5 55 96 bd 4b 85 2c be
       -0.21392804 0.0859916 -0.07340554 -0.16847722
000150 6c ea 1d be 2c 9a 2c 3d 62 62 90 bd ba 55 6c 3c
       -0.15421456 0.042139217 -0.07050015 0.014424736
000160 96 7c 26 bd 0a b1 e9 3d d3 0a 9c bd 53 ec 6a bd
       -0.04064616 0.11410721 -0.07619252 -0.057354283
000170 c4 4d d2 3d 0a 9c 2d be 0e b5 91 3e 4d d2 75 be
       0.10268739 -0.16954055 0.28458446 -0.24006005
000180 11 48 07 bd 33 82 4b bd e5 a9 78 bc a1 e5 23 be
       -0.033027712 -0.049684715 -0.015177225 -0.16005565
000190 61 30 f3 3d e9 b8 29 3c 64 2f cd bd c4 8d 91 bc
       0.11874462 0.010359027 -0.10018805 -0.017767794
0001a0 3f bc 63 bd de a6 b4 bd 3f 01 97 3d bb fa 53 3e
       -0.055599447 -0.0882089 0.073732845 0.20701115
0001b0 74 76 0a 3e 89 62 1c bd 7d a3 a9 bb 9d 48 e7 3a
       0.13521749 -0.038179908 -0.00517696 0.0017645542
0001c0 0d bd 95 3c 08 fc c8 bb b7 db 57 3d 3d 69 f8 bd
       0.018278623 -0.00613356 0.05269977 -0.121294476
0001d0 9b a7 20 bd 94 92 e4 3d da d6 e2 bd 38 c2 3c 3c
       -0.03922234 0.1116077 -0.11076136 0.011520915
0001e0 8f 98 2a 3e a3 67 30 bb fe a6 76 bd a6 9b 5f be
       0.16659759 -0.002691724 -0.06021785 -0.21836719
0001f0 ba 01 ba 3d ee 84 9f 3c 75 d5 af bd 6a f2 70 bd
       0.090823606 0.019472566 -0.085856356 -0.058824934
000200 47 92 45 bd a6 4b 55 bd a4 45 d9 bc 35 51 cc bd
       -0.048235204 -0.052074097 -0.026522465 -0.099764265
000210 81 b7 df 3c 1b e8 68 bd fb bf d0 bd df 2e 86 3d
       0.027309181 -0.056861978 -0.10192867 0.06551909
000220 b9 1f ad 3d 23 1d 48 3d 99 2c 32 be 3c 00 49 bb
       0.08453316 0.048855912 -0.17399825 -0.0030670306
000230 fe ec 03 be fa 03 88 3c bb 61 3c be 3e 7b 71 3d
       -0.12883374 0.016603459 -0.18396656 0.058955424
000240 6b 89 5b 3e 51 39 11 3d ea 13 45 be fd bc 0d 3e
       0.2143914 0.03545505 -0.19245878 0.13841625
000250 84 ef 24 be 25 73 74 3d 7c 22 70 3d 20 51 69 bd
       -0.16106993 0.059680123 0.058626637 -0.056962132
000260 0b ee 19 3d 9d 23 90 3d 6f 83 2f bc 03 b2 f6 bd
       0.03758053 0.07038043 -0.010712489 -0.12045672
000270 3c e8 93 bd fd 16 35 3d 4f 16 a3 bc fb 91 4d be
       -0.072220296 0.044211376 -0.019908099 -0.20075218
000280 8d e5 27 3d 28 17 a3 bd cd b3 07 3d 86 c1 34 bc
       0.0409904 -0.07963401 0.033130456 -0.011032468
000290 13 24 ab bd 51 e9 1d 3d 91 65 9b 3d e8 82 0d 3e
       -0.0835649 0.038552586 0.07587732 0.13819468
0002a0 88 40 b2 3d 4b 92 97 bd df e8 9c 3e 6f fd c7 3d
       0.087037146 -0.0740095 0.30646417 0.097651355
0002b0 bf 08 b5 3d 87 86 d5 3d 65 e6 5d bd 73 04 73 bd
       0.08839559 0.1042605 -0.0541748 -0.059330415
0002c0 d3 52 96 3b 0b 4f fa bc ce 3c 10 be b4 58 a2 be
       0.00458751 -0.030555269 -0.14085695 -0.317083
0002d0 1e 27 0d bb 6d 87 cf 3d e4 20 f4 3d b7 33 c4 bd
       -0.0021538208 0.10133252 0.11920336 -0.09580176
0002e0 a8 70 92 3c 02 82 1b 3e 77 39 47 bc 15 cb ac bd
       0.017875984 0.15186313 -0.012159697 -0.08437172
0002f0 8d 2e ae bd 4d e3 aa bd 9c 2b fc bd d4 b9 9b 3d
       -0.085049726 -0.083441354 -0.12313005 0.07603803
000300 69 ed 1d be 3e 22 fa bd ce 9a ab 3d ab 5b ed bc
       -0.15422596 -0.122135624 0.08379136 -0.028974375
000310 a5 4f bc bd 11 35 16 3d de ad 11 be 02 5b fa bc
       -0.091948785 0.0366717 -0.14226481 -0.030560974
000320 e6 fd 20 be 22 95 f6 bd 82 5d 06 3e c4 2b 88 bd
       -0.15721855 -0.120401636 0.13121608 -0.06648973
000330 f9 e0 d6 3b b6 1a fa 3c c2 d6 0d bd b5 c5 d9 bd
       0.0065575805 0.030530315 -0.034628637 -0.10633413
000340 61 bf 02 3e 10 68 14 be 76 00 72 bc 73 55 24 3e
       0.12768318 -0.14492822 -0.014770618 0.16048221
000350 51 df 0b be 57 94 b0 3d c2 9d 09 3e 77 bb a1 bd
       -0.13659407 0.086220436 0.13439086 -0.07897084
000360 d6 5b 76 3b 13 5c 83 be a9 f5 41 bd 2c 5f 09 bd
       0.003759136 -0.25656185 -0.04735342 -0.03353803
000370 6d a5 9e 3d 2d 06 72 bd 54 b5 d2 3d b7 ad f7 bd
       0.07746396 -0.05908792 0.10288492 -0.1209368
000380 18 32 23 3e 31 31 6d 3e c4 09 79 3d 8e 36 d2 bc
       0.15937078 0.23163296 0.06080033 -0.02566078
000390 2b 68 2c bd e6 ce 5f bd c5 de 06 be 78 30 0a 3d
       -0.04209153 -0.054640673 -0.13170917 0.03373763
0003a0 86 2d 27 3d ac 6c a2 3d 9c c0 24 be ac 8b 84 be
       0.0408149 0.07930884 -0.160891 -0.2588781
0003b0 61 a9 08 3e 1d 05 2b 3d 88 eb 03 3e 17 d9 00 3e
       0.13345863 0.041752923 0.12882817 0.12582813
0003c0 90 2c e3 bd 29 65 4e be 37 39 ac bb 16 c1 60 bd
       -0.11092484 -0.20155777 -0.005255844 -0.05487164
0003d0 85 e6 de bd 45 c1 0a 3e f7 e5 69 be 7f 7e 81 bd
       -0.10883812 0.13550289 -0.22841631 -0.06322955
0003e0 04 e1 d9 3c a1 a2 51 3d 2e 19 ce bd 00 f7 24 bd
       0.026596554 0.051180486 -0.100633964 -0.04027462
0003f0 e7 4f a3 bd 7d 78 09 be a2 83 3c 3d 33 01 48 bc
       -0.079742245 -0.13424869 0.046023972 -0.012207317

bias f4 [256]
000000 68 a0 79 be e9 93 04 be d5 5f 3b be f2 dd b7 be
       -0.24377596 -0.12947048 -0.18298276 -0.35911518
000010 42 ab 07 be 51 a1 f1 bc 00 9f 18 bc 22 5d 14 be
       -0.13248923 -0.029495867 -0.009315252 -0.14488652
000020 d6 d6 24 be 50 62 bf bc 7f 0c 83 bc 20 31 03 be
       -0.16097578 -0.023362309 -0.01599717 -0.12811708
000030 5b 0f a2 bd 45 1b 16 bc f8 d8 37 be 39 af 27 bd
       -0.07913085 -0.009161775 -0.17953861 -0.04093859
000040 40 b8 5f bd c1 43 09 be 11 64 4a be 78 11 4b 3d
       -0.054619074 -0.13404752 -0.19764735 0.049577206
000050 be dd da bd 1a e4 fd bd 80 94 2f be 9c 14 07 be
       -0.10686825 -0.123970225 -0.17146492 -0.13191456
000060 60 8d b7 bd 84 ce 92 3d 7d 24 89 be cd 0c 23 be
       -0.08962512 0.07168296 -0.2678565 -0.15922852
000070 fd f2 bd bc 4c 0d 3d bd 46 14 ef bc 05 82 93 be
       -0.023187155 -0.04615526 -0.029184472 -0.28810135
000080 0a 29 ae bd 7c 73 d6 bd 5f 2f 86 be 48 b8 36 bd
       -0.08503921 -0.10471246 -0.26208016 -0.044609338
000090 e8 1c 0c be ce f4 52 be 96 1d 87 bd 77 e6 2c be
       -0.13682902 -0.20601198 -0.0659744 -0.1688479
0000a0 f7 f7 f4 bd aa ae 2d be 30 17 fd bd bf 13 29 be
       -0.11961358 -0.1696116 -0.12357938 -0.16511439
0000b0 c8 7b 0a be 4a 58 fa bd e7 1c 90 bd 19 d9 c5 bd
       -0.13523781 -0.12223871 -0.07036763 -0.09660549
0000c0 f2 a9 26 be f7 af 8b bd 88 de 42 be ea 9a 45 be
       -0.16275766 -0.06820672 -0.19030201 -0.19297376
0000d0 27 1d 37 be a7 b2 bf be 8a ac 1d bd 6e 88 1d be
       -0.17882214 -0.37440988 -0.038494624 -0.15384075
0000e0 dc c6 65 be 44 a3 88 3c a4 bf b7 bd d6 1a 1b be
       -0.2243914 0.016679414 -0.089720994 -0.15146956
0000f0 61 4c a5 be ff 05 0a 3e ae 29 33 be 9d 3e 50 be
       -0.32284835 0.1347885 -0.17496368 -0.20336385
000100 d9 54 63 be 02 50 50 be 92 d0 3d be 8e 03 0f be
       -0.22200336 -0.2034302 -0.18536595 -0.139662
000110 ed a2 20 3c 82 47 1d be 31 a2 04 be a9 8f c2 be
       0.0098044695 -0.1535931 -0.12952496 -0.3800023
000120 4b d1 98 bd 6c ec 87 be bb 38 13 be ab 4d 87 3c
       -0.074617945 -0.26547563 -0.1437711 0.016516527
000130 8b 06 ed bd b4 a5 2e be 4a ee 34 3d a6 2e 80 bd
       -0.115735136 -0.17055398 0.044172563 -0.062588975
000140 f1 af 51 be 94 32 4d be 83 d1 42 3c cc 89 9a bd
       -0.20477273 -0.20038825 0.011890772 -0.07545814
000150 c0 31 5b bd 1f 1c cd bd fa 4d 95 bd c0 c9 b6 be
       -0.053514242 -0.10015129 -0.072902635 -0.35700798
000160 fb 77 d7 bc 93 2f 7d be 46 66 62 bd bd 12 98 be
       -0.026302328 -0.2472518 -0.055273317 -0.29701796
000170 47 38 9b 3d 30 1c 0d be c1 9b 36 be d3 6e da bd
       0.075790934 -0.13780284 -0.17832853 -0.10665669
000180 62 d8 e2 bc ab 3d 61 be c3 a3 67 bd c3 e1 ce bb
       -0.02769107 -0.2199618 -0.05655266 -0.006313534
000190 df 7e 49 bd 6b 43 30 bd 26 f3 4b be fb c2 47 be
       -0.04919326 -0.043033045 -0.19916973 -0.19507973
0001a0 a7 9b 7b bd 83 e4 9d bd 63 33 08 be 95 50 78 bd
       -0.06142774 -0.07709601 -0.13300852 -0.060623724
0001b0 78 95 1c be 68 42 82 bb b3 3e cd bd 03 11 77 be
       -0.15291393 -0.0039752014 -0.100217246 -0.24127583
0001c0 72 f2 de bd c2 b1 07 be 6b a4 c5 bc 8a d3 24 bd
       -0.108860865 -0.13251403 -0.024126252 -0.040240802
0001d0 82 13 10 be ab 07 79 be dc 57 85 bd 6e 71 e1 bd
       -0.14069942 -0.24319331 -0.065108985 -0.11007963
0001e0 05 89 6d bd 2e 4f 48 3d cf 20 16 be 94 3a 1f be
       -0.057992 0.048903637 -0.14660953 -0.1554969
0001f0 4e 31 24 be cb ed 1e be a1 eb dc bd 15 bb 8d be
       -0.16034433 -0.15520398 -0.1078713 -0.27681795
000200 31 b5 4e be 9e 68 60 be 88 1a 69 be 5d 74 06 be
       -0.20186307 -0.21914908 -0.22764027 -0.13130327
000210 8a 4d 86 3d e4 bf 8b bd ca 54 4b be ea f1 0e be
       0.06557758 -0.068237096 -0.19856563 -0.1395947
000220 92 5e 3d be fb 35 55 be 91 e5 0d be 6c 06 31 be
       -0.18493107 -0.20821373 -0.13857104 -0.17287606
000230 4a b6 ea bd 06 c3 1b be 98 6c 2f be 99 ee e1 bd
       -0.1146055 -0.15211114 -0.17131269 -0.11031837
000240 e4 8e ba be a6 0d 21 be eb 7e ec bd 45 33 b8 bc
       -0.36437142 -0.15727863 -0.11547645 -0.022485385
000250 9b a5 61 be ce f5 49 bd 22 8e 89 be 5f 7c 21 bd
       -0.2203583 -0.049306683 -0.2686625 -0.03942525
000260 07 32 ac bc 4d 36 c1 3b 0e 9a e9 bc e3 dd 14 3d
       -0.021019949 0.0058963657 -0.028515842 0.03634442
000270 be bd 84 be 2c 35 2e be fc 52 1e be df c4 15 be
       -0.25926012 -0.17012471 -0.15461344 -0.14625882
000280 72 e2 0c be a8 2e 23 be 52 11 9d bb 98 cc 85 be
       -0.13758257 -0.15935767 -0.0047933245 -0.26132655
000290 c5 c3 df bd a7 7b fb bd 19 1a 89 be 88 d3 5e be
       -0.10926012 -0.12279444 -0.26777723 -0.2176038
0002a0 16 e7 05 3d 7a 49 ec bd 89 6f 58 3b 42 89 e2 bc
       0.032691084 -0.11537452 0.0033025465 -0.02765334
0002b0 f8 27 a3 bd fd 98 0c be 24 9a 4b be df 58 d2 bd
       -0.07966608 -0.13730235 -0.19883019 -0.10270857
0002c0 23 9b bb bd de 0e 78 be 49 cb bd be f3 34 13 be
       -0.09160449 -0.24224421 -0.37069157 -0.14375667
0002d0 f0 fc 26 be 21 dd 74 be c1 97 b3 bc bd 4f 57 bd
       -0.16307425 -0.23912479 -0.021922948 -0.05256628
0002e0 14 3d 5e be f5 29 11 be 76 3f 67 be 8c 6c db bd
       -0.21702987 -0.14176162 -0.22582802 -0.10714063
0002f0 de 83 46 be 85 d3 84 3b 2a 6c e7 3b 31 6c c7 bd
       -0.19386241 0.0040535354 0.0070624547 -0.09737433
000300 c9 08 a6 bd b7 7c 67 bc 57 f8 53 be 78 7b 3f bd
       -0.081071444 -0.014128855 -0.20700203 -0.04674861
000310 46 e7 38 be 8f a1 5c be 31 3e af bd 0c 5c ec bc
       -0.18056974 -0.21546005 -0.08556784 -0.028852485
000320 65 87 ec bd f2 26 d5 bd c8 54 38 be 44 dc 4e be
       -0.11549262 -0.10407819 -0.18001091 -0.20201212
000330 b4 36 52 bc 47 2a 5a be ca b5 2e be 71 5d 84 be
       -0.012830425 -0.2130519 -0.17061535 -0.2585254
000340 55 1c dc bd fe a1 10 bc 1c 32 c5 bd 16 cd 60 be
       -0.107475914 -0.008827684 -0.09628698 -0.21953234
000350 bf 76 95 bc 9f 80 18 3d 4a 6c 1b be 5a e9 8d be
       -0.0182451 0.037232038 -0.15178028 -0.27717096
000360 d6 fa 89 be a0 7b 35 be b1 15 8d bd a0 58 07 be
       -0.26949185 -0.1772294 -0.06888903 -0.13217402
000370 0a d8 4d 3b ad ea fe bc 93 07 1a be eb 4e fc 3d
       0.0031409287 -0.031117762 -0.15041952 0.1231974
000380 c4 7d a8 3c 3d 83 a6 bd a7 20 95 be 11 2e 48 be
       0.020567782 -0.081305005 -0.29126474 -0.19548823
000390 50 57 89 bd 49 aa 3d be 43 33 23 be 91 6d 22 be
       -0.06706107 -0.1852199 -0.15937524 -0.15862109
0003a0 d4 91 8b be d0 f4 4f be 14 91 5f be 42 05 f2 be
       -0.27259696 -0.20308232 -0.21832687 -0.47269636
0003b0 bb 88 40 be f0 9a 36 bd 6b 6c 84 be 1c d3 0f be
       -0.18802159 -0.044581354 -0.25863966 -0.14045376
0003c0 cc cf 79 bd 89 60 7b be 8e df 49 be f5 08 ab be
       -0.060989186 -0.24548544 -0.19714186 -0.3340527
0003d0 9f 89 3e be 6d 38 af 3d 98 77 d8 bd 7a 04 03 be
       -0.18607186 0.08555684 -0.10569686 -0.12794676
0003e0 c9 a0 5b be 46 94 0f be 95 11 01 be 60 b0 16 be
       -0.21448053 -0.14021406 -0.12604363 -0.14715719
0003f0 1a 2d 7a 3d 7e 22 63 bd 4c 04 24 be 29 96 af be
       0.06107817 -0.055452816 -0.16017264 -0.3429425

weight f4 [128, 256]
000000 59 e5 dc 3c 60 f3 1e be a7 af 40 3d a1 af b5 bd
       0.02696483 -0.15522528 0.047042515 -0.08871389
000010 98 22 21 3a ad 82 1d be 19 74 f5 bc cc 21 eb 3d
       0.00061468175 -0.1538188 -0.029962586 0.114810556
000020 2d 0d 2d 3c 8b b6 00 3e a8 44 78 be f8 ec 66 3c
       0.010562223 0.12569635 -0.2424494 0.014094584
000030 6b 86 45 bb 02 12 00 be 8b 21 60 3d 9a cd 55 bc
       -0.0030139934 -0.1250687 0.05471949 -0.0130495075
000040 02 63 bd bc e8 cf 9c 3d 2b 1d 85 3d 9d a0 54 bd
       -0.0231185 0.076568425 0.06499704 -0.051910985
000050 81 70 c8 bd 0c 06 50 3d e6 2b 2e bc 70 45 5a bd
       -0.097870834 0.050787017 -0.010630583 -0.053288877
000060 01 18 2a bc 9a bf 87 bd 6e d2 c2 3d 92 55 dc bc
       -0.0103817 -0.06628342 0.095127925 -0.026896272
000070 71 31 f3 bd b2 50 19 be 7d 6c 78 3b 3d ff 0a 3e
       -0.118746646 -0.14972189 0.003790646 0.13573928
000080 d7 40 b7 bc 34 d9 6c bb f3 38 ad 3d 52 59 d7 bd
       -0.022369785 -0.0036140205 0.08458128 -0.105150834
000090 b9 e2 7e 3d 59 1d 04 3c 56 a3 54 3d 7f ed 10 be
       0.06222794 0.008063638 0.05191358 -0.14153098
0000a0 f1 f9 9d 3c d9 d2 73 bd bf 4a 2d 3e b4 fd 7c 3d
       0.01928422 -0.059527252 0.16923045 0.061765388
0000b0 40 46 29 be b1 07 76 bd 3b 6e 72 3c 18 4b de 3c
       -0.16530704 -0.06006593 0.014796789 0.027135417
0000c0 e6 2a cd bc de a0 58 3d 1e 94 f4 bd fe 43 2e 3e
       -0.02504487 0.05288779 -0.119423136 0.17018124
0000d0 ff f9 a6 3d 68 6c 91 3c e1 ce 28 be 5e fc 93 bd
       0.08153152 0.017751887 -0.16485168 -0.072258696
0000e0 5c 97 88 3d 35 fb d0 bd 21 87 74 bc f9 1a 3a be
       0.066694945 -0.10204164 -0.014924795 -0.18174352
0000f0 ab 3c bd 3d a3 76 3d be 4d c6 e5 3a db c1 51 3e
       0.09240087 -0.18502288 0.0017530412 0.20484106
000100 5b 2c 08 be 7c 73 96 3d a7 a0 a7 3d 3e 6e 4e bd
       -0.1329817 0.07346246 0.08184939 -0.050398104
000110 79 b6 df bc 05 58 0f be 1c c1 6c 3d b5 e9 45 bd
       -0.02730869 -0.1399842 0.05780135 -0.048318584
000120 ad f6 ca bd c5 09 16 3e 49 e6 b2 3d fc 29 0f be
       -0.09910331 0.14652164 0.0873533 -0.1398086
000130 fd 80 a2 3c ce 01 fb 3d 5b 97 b6 3c e3 9a 7a bd
       0.019836897 0.122562036 0.022288969 -0.061182868
000140 1c ee be 3d a9 8e 0a 3d 70 41 21 bc 36 3d 87 3d
       0.093227595 0.033827458 -0.009842262 0.06603472
000150 f9 6a f0 bd 14 b2 1b be ca de 38 3e 48 a3 28 bd
       -0.117391534 -0.1520465 0.18053737 -0.041171342
000160 c1 27 c9 3d 8c 8f 21 be b4 9b 55 be 5f 8b 21 3d
       0.098220356 -0.15777415 -0.20860177 0.039439555
000170 e7 fa 9a 3d bd 6c e0 bd 42 f5 45 3e 94 c2 c6 3d
       0.07567387 -0.1095824 0.1933184 0.097050816
000180 76 6f 4f bd ca 05 80 3d 07 e9 ee bc 91 ae 23 bd
       -0.050643407 0.06251104 -0.02916385 -0.0399614
000190 d3 33 c5 bd bd 66 36 3e 12 65 02 3e 70 56 b0 bc
       -0.09629025 0.17812629 0.12733868 -0.021525592
0001a0 14 98 44 3e 93 1e 5a be cf 05 22 bd 6c 93 16 be
       0.19198638 -0.21300726 -0.03955632 -0.14704674
0001b0 ca 77 28 bd d0 cc 2c bd 0e e4 b8 bd e9 3b 51 3d
       -0.041129865 -0.042187512 -0.09027873 0.051082525
0001c0 6b 16 4a 3e 4c 64 9f bd 7e a2 60 3d 73 cb 63 be
       0.19735114 -0.07782802 0.054842465 -0.22245578
0001d0 ad c1 bc 3d b6 89 68 be 08 05 16 3d ae 82 24 be
       0.09216628 -0.22708783 0.036625892 -0.16065475
0001e0 26 90 bb bd e5 d1 b5 bd 74 15 42 bd 57 04 56 bd
       -0.091583535 -0.08877925 -0.04738374 -0.052250233
0001f0 df 09 9b 3d e1 6f 0f 3d 0d ab 6f 3c 2c a9 b5 3d
       0.07570242 0.035018805 0.014628184 0.088701576
000200 04 43 03 3e cc c3 2b be 61 aa 01 3e be 61 fc bc
       0.12818533 -0.1677391 0.1266265 -0.030808326
000210 90 e2 96 3c 0c 42 1f be b7 dd be 3c 00 b0 03 bd
       0.01841858 -0.15552539 0.023299081 -0.03215027
000220 fa 05 4f bc 79 3d c0 3d 78 39 1a 3e fd 1b 81 3d
       -0.012635702 0.09386725 0.15060985 0.063041665
000230 64 c1 df 3d 36 19 93 bd 1c 23 ee bd 22 df 4f 3d
       0.10925558 -0.07182543 -0.1162779 0.050749905
000240 15 05 fb 3d 8a 08 22 be 82 0a 75 3c 2d 6f 42 bd
       0.12256829 -0.1582357 0.014956119 -0.047469307
000250 4d 65 23 bd f6 cf f8 3d 1f ac 0d 3d c1 24 0b 3d
       -0.03989153 0.121490404 0.034587976 0.033970598
000260 61 f4 ab 3c 09 14 0f be 15 b6 c7 3d 74 d6 35 3c
       0.020990552 -0.13972487 0.09751526 0.011098493
000270 15 e6 88 bd e2 54 10 b9 f6 ab 19 3c cd c0 02 be
       -0.0668451 -0.00013764531 0.009379378 -0.1276886
000280 c9 a4 f6 3d 9b 1c be 3a 49 ee e2 bd c2 45 e7 bd
       0.12043149 0.0014504375 -0.110806055 -0.11292602
000290 b1 75 a6 bc 85 0f b7 3d 57 7b b7 3d f3 48 ce bd
       -0.020319792 0.08938507 0.08959072 -0.10072508
0002a0 0d 1a 79 bd 0f e0 94 bd 87 54 30 3d 57 e7 1b be
       -0.06081586 -0.07269298 0.04304936 -0.15224968
0002b0 22 aa 36 bb 7b 34 fd 3b 83 fa 88 3c 25 0c e1 bd
       -0.0027872403 0.0077272034 0.016721016 -0.109886445
0002c0 51 52 93 3d 14 22 be 3b 01 4d 08 3d 0b 0e ca bc
       0.07193435 0.0058024023 0.03327656 -0.0246649
0002d0 0e 09 32 bd 38 17 1b 3e 7e a5 1e be f6 54 e3 bb
       -0.043465666 0.15145576 -0.15492818 -0.0069376184
0002e0 84 cd a5 3b 3d ce 5d bd 97 fe 1c 3e 88 a8 f4 3b
       0.0050598998 -0.054151762 0.15331493 0.0074663796
0002f0 0b 09 2a bd d8 f1 f8 3d 08 19 ff 3d 93 a3 29 be
       -0.04151253 0.12155503 0.12455946 -0.16566305
000300 cb b8 97 bb 0b d9 c3 3d 7d 21 18 3c c4 7e 16 be
       -0.0046301833 0.09562882 0.009285328 -0.14696795
000310 9b 71 c7 bc a9 8e d3 3d 81 5e 05 bd a0 ca e8 bc
       -0.024346163 0.10329945 -0.03256083 -0.028416932
000320 b3 58 a9 3b 3b 01 75 3c 08 aa 77 3d 8f d8 31 be
       0.0051680445 0.014953907 0.06046489 -0.17367767
000330 6e ca 6e 3d d4 74 c0 3d e9 57 b1 bd b0 b7 13 bd
       0.05829852 0.09397283 -0.08659346 -0.03606385
000340 2d f4 a5 3d 7c 9f 7a bd e9 7d 79 3d 9a e5 92 bc
       0.081032135 -0.061187252 0.060911093 -0.017931748
000350 13 01 16 3e 57 e3 30 3e 3e 4c eb 3d b8 46 f5 3c
       0.14648847 0.17274223 0.114891514 0.029940948
000360 7e b0 e8 bd 3f 75 e1 3c d7 dd 85 bd 69 3b e1 bb
       -0.11361788 0.027521728 -0.06536453 -0.0068735373
000370 59 ce 41 3e bf e9 3e bc b4 10 14 3c b7 93 8b 3c
       0.18926372 -0.011652409 0.009037185 0.01703821
000380 e7 b6 b1 bd e1 dd 42 be ed 44 e5 3c 92 aa 3e bd
       -0.08677464 -0.19029953 0.027986968 -0.046549387
000390 34 c4 3d 3e 15 0e a6 3d b6 58 12 be 3c c5 aa bd
       0.18531877 0.08108155 -0.14291653 -0.08338401
0003a0 2b 21 bb 3d c5 f3 54 3d 03 d9 27 3e a8 89 3c 3d
       0.09137186 0.05199029 0.16391377 0.046029717
0003b0 42 0f 39 3e 1b 3f 96 bd 68 a2 24 3e 76 ac 9d bd
       0.18072227 -0.07336255 0.16077578 -0.0769891
0003c0 62 4a c8 bc 5b 34 e3 3d ca d9 6c bd c1 f3 f3 3d
       -0.024449531 0.110939704 -0.057824887 0.11911727
0003d0 13 87 23 3d 52 04 fa bd d5 0c aa bd 4c 05 74 3d
       0.03992374 -0.12207855 -0.08303229 0.059575364
0003e0 d8 1c 1b 3d 15 fe 5d bd 2c c9 af bd 9b 1c d8 3d
       0.037869304 -0.05419739 -0.08583292 0.10552331
0003f0 c4 9d 74 3d e1 f3 ce bc df 01 33 bd cc a2 d8 3d
       0.05972077 -0.025262775 -0.043702956 0.10577926

bias f4 [128]
000000 cd 43 63 be 5d 48 21 be 58 69 f7 bd f4 f5 e1 bd
       -0.22193833 -0.1575026 -0.120806396 -0.1103324
000010 5d 12 a5 bd 69 c0 9c bd e1 0e 12 bd 7a b0 ea 3b
       -0.08060143 -0.07653887 -0.03565872 0.007162151
000020 bc 48 90 bd 17 cb 00 be f2 48 b1 bd 1a 98 dd bc
       -0.07045123 -0.12577473 -0.08656491 -0.027050067
000030 b6 ed f7 bd 24 bf 36 be 2c fb 29 bd 0b a3 9b bd
       -0.12105887 -0.17846352 -0.0414993 -0.07599457
000040 c2 57 40 be f0 22 bd bc 41 ee e8 bd e2 89 e6 bd
       -0.18783477 -0.023087949 -0.11373568 -0.11256768
000050 39 dc 8f bd 46 7d 1e be 89 1c 00 be 7e 63 be bd
       -0.07024426 -0.15477476 -0.12510885 -0.092963204
000060 c6 6a 40 be f2 81 84 bd 49 a7 17 be 4d a7 5f be
       -0.18790731 -0.064700976 -0.14809908 -0.21841164
000070 a9 f9 a9 bc cf 85 28 be d8 2b 21 bd 6d a9 e5 bd
       -0.02074893 -0.16457294 -0.039348453 -0.11213956
000080 86 5c e1 bd 43 37 35 be 5b 8c 3a be 49 ed 42 bd
       -0.110039756 -0.17696862 -0.18217604 -0.047589574
000090 71 d7 01 be 2f d1 fd bd b3 7c b6 bd 8f 88 6e be
       -0.1267984 -0.12393414 -0.08910503 -0.2329428
0000a0 ec 36 eb bd 9e ae bf bd b6 b7 62 be 00 b3 a8 bd
       -0.11485085 -0.093594775 -0.22140393 -0.082372665
0000b0 ad 1f e9 bd 3f f5 76 bd 6b da f8 bd d9 f6 a7 bd
       -0.11382995 -0.06029248 -0.12151035 -0.08201379
0000c0 7d fb 94 bd 2f 52 06 be 20 26 12 be da b4 31 be
       -0.0727453 -0.13117288 -0.14272356 -0.17354146
0000d0 04 9d 5e be 37 57 1b be 8d a7 8d be 65 50 15 be
       -0.21739584 -0.15169989 -0.27666894 -0.1458145
0000e0 b0 39 18 be 0f 22 8a bd 51 91 c5 bd da 95 87 bd
       -0.14865756 -0.067447774 -0.096468575 -0.06620379
0000f0 06 8b 89 be 3e 93 db bd 55 11 1e be e1 77 1a be
       -0.2686388 -0.107214436 -0.15436299 -0.15084793
000100 93 fd 9f bd e6 1e 75 bd 67 63 f2 bd dd 65 7a be
       -0.07812037 -0.05984392 -0.11835366 -0.2445292
000110 85 34 f0 bd 4f 3c 3b be f3 4a b3 bd 93 14 ab 3b
       -0.11728767 -0.18284725 -0.0875453 0.0052209585
000120 88 79 1b be be ec 77 be 89 e7 df bd 10 64 0e bd
       -0.15183079 -0.24211404 -0.10932834 -0.034763396
000130 c3 97 1b bd 34 dc 31 be b6 64 d1 be dd d9 07 be
       -0.037986528 -0.17369157 -0.4089715 -0.13266702
000140 c9 fa a1 bd c2 93 85 bd ee ca 04 be c1 10 13 be
       -0.079091616 -0.06522323 -0.12968037 -0.1436186
000150 19 a4 04 be 84 79 da bd f7 fb ec bd fd 1d 22 be
       -0.12953223 -0.106677085 -0.11571496 -0.15831752
000160 ed 3b 19 be fb 91 b5 be 05 01 ba bd cd b7 02 be
       -0.14964266 -0.35462937 -0.09082226 -0.12765427
000170 43 a9 79 bd 08 7e f6 bd 31 7c 9b bd 56 5a c2 bd
       -0.060952436 -0.12035757 -0.07592047 -0.094898865
000180 5c ad 1c be 9e 56 60 bd 99 4e 02 be e8 43 22 be
       -0.15300506 -0.054770105 -0.12725295 -0.15846217
000190 74 6d ad bd a7 6a fd bd 94 3a bc be c3 a2 27 be
       -0.08468142 -0.12373858 -0.36763442 -0.16370682
0001a0 a6 0f ad 3c cf d8 7e be 14 a1 ec bd 04 fa 95 bd
       0.021125626 -0.24887393 -0.11554161 -0.07323077
0001b0 e9 37 f5 bd 9e 48 7a be 78 6c 0f be 79 98 39 be
       -0.11973555 -0.24441764 -0.14006221 -0.1812457
0001c0 20 f6 7c be 7b 47 52 be 7c 99 ff bd 32 3c 0c be
       -0.24703264 -0.2053508 -0.12480447 -0.13694838
0001d0 3b c9 8d bd 16 00 b4 bd db 11 98 bd 7e bf 2f be
       -0.06923147 -0.08789079 -0.07425281 -0.17162892
0001e0 51 10 5e bd c1 38 43 bd b1 ec 58 be 41 2f f2 bd
       -0.05421478 -0.047661547 -0.2118404 -0.11825419
0001f0 29 35 e8 bc a5 dc 16 be 43 72 25 bd 39 81 08 be
       -0.028345661 -0.14732607 -0.04039217 -0.13330545

weight f4 [12, 128]
000000 93 bc 69 3a f3 ac 0a bd a9 c3 a9 bd ec 1b 97 bc
       0.00089163444 -0.033856343 -0.08289272 -0.018445931
000010 e4 94 4c 3b e8 33 14 bd 38 54 9b 3c e7 3f bf bc
       0.0031216675 -0.036182314 0.018961057 -0.0233459
000020 06 6d 2a bc 7b 16 e1 bc 5e 70 9c bb 53 da ef 3c
       -0.01040197 -0.02747654 -0.0047741374 0.02927891
000030 0a f1 05 3d a8 2a da bc ed 0e ed 3c f4 c7 a0 bb
       0.032700576 -0.026631668 0.028937781 -0.004906649
000040 3c e0 12 3d 49 7a 8c 3c 7a 66 f1 bb 27 46 4b 3c
       0.035858378 0.017148154 -0.0073669525 0.012406862
000050 1d dd 49 bd 55 9b 68 bd 9c ec f9 bc f4 8d 0d 3d
       -0.049283136 -0.05678876 -0.030508332 0.034559205
000060 ea 3e 7e bc b9 a0 ab 3c 5a 83 d8 bc b7 c8 78 bc
       -0.01551793 0.020950662 -0.02642982 -0.015184573
000070 d0 d8 55 bd b3 86 c1 bb 2d 38 fe bc 8e 73 06 3d
       -0.05220872 -0.00590595 -0.031032646 0.032825045
000080 61 b2 a9 bb 20 7d 4b 3d 25 26 74 3d 33 92 b5 3a
       -0.005178735 0.049679875 0.05960669 0.0013852775
000090 f1 64 a5 bc df 7a 69 bc 78 5c 88 3b 76 cd ba bc
       -0.020189734 -0.014250486 0.0041614138 -0.02280305
0000a0 78 16 a3 3c 65 6c 04 ba 13 87 bf bc 31 62 66 bd
       0.019908175 -0.00050515524 -0.023379838 -0.056245986
0000b0 4f 59 d8 bd 3d 2a 3c 3d 0e 93 6c 3c 32 7f 70 3c
       -0.10563909 0.04593872 0.014439357 0.014678763
0000c0 c9 d1 c6 3c bc 82 7b 3d c2 74 e0 3c d4 c6 8b 3b
       0.024269955 0.061403975 0.027399424 0.0042656455
0000d0 9f ec a4 3c 1d 0b 0e 3d 7a fe dd bd 56 9a 31 3d
       0.020132361 0.034678567 -0.10839553 0.043360077
0000e0 ff 95 47 bc 61 22 08 3d aa d0 38 3d 00 3a c1 bc
       -0.012181758 0.03323591 0.045120873 -0.023587227
0000f0 67 c8 d4 3d da a6 85 bc 91 45 d1 bc 8a ed 23 bd
       0.10389786 -0.016314913 -0.025545867 -0.040021457
000100 35 91 73 bc 18 d8 1e 3c e7 7d 1f 3c 12 bf 49 3d
       -0.014866163 0.009695075 0.009734607 0.049254484
000110 4a 21 77 3c 09 5c f7 3c d3 02 43 3c 9d 11 64 3c
       0.01508362 0.030195253 0.011902529 0.013920215
000120 00 e7 9c bb af 59 b8 3c e7 23 e2 bc eb 6e 3a 3d
       -0.0047882795 0.022503702 -0.02760501 0.045515936
000130 04 fc b2 bd 71 ee f0 bb 12 a6 f6 3d 49 31 15 bb
       -0.087394744 -0.007352643 0.12043394 -0.0022764972
000140 e5 95 30 bc 5d 04 c0 3c ce bc 33 bc 60 42 49 bc
       -0.010777925 0.02343958 -0.0109703075 -0.012283891
000150 45 dd e1 3c d0 ff a3 3a bc 6e 0a bc 1c 1f b2 3d
       0.02757133 0.0012512151 -0.008449253 0.0869734
000160 22 df 71 bc 95 cf b6 bd 3d 77 81 3c 30 78 a3 3c
       -0.014762672 -0.08926312 0.015803928 0.01995477
000170 63 a6 d6 3b b8 a7 94 bc 8e b1 a5 bc b5 fb da 3c
       0.0065505966 -0.01814638 -0.020226266 0.026731351
000180 57 cc 1c 3c 49 a4 1a 3c 2f 16 26 3d e9 95 15 bd
       0.009570203 0.009438583 0.0405485 -0.03651992
000190 3b 57 b3 3c dd 2c 1e 3c a5 2a 7b 3d 54 3a c1 bc
       0.02189218 0.009654251 0.061319966 -0.023587383
0001a0 d2 39 db bc eb 71 98 3c 0d f0 19 3c 8e ba 2c 3c
       -0.02676097 0.018609008 0.0093956115 0.010542525
0001b0 de 69 15 bd 8c 14 a3 bc 4b bd 7a 3d 3e af 89 3c
       -0.036477916 -0.019907258 0.06121568 0.016807195
0001c0 df 30 89 bd ba 37 c1 bc 1e 1a 83 3c ac 38 ca bd
       -0.066987745 -0.023586143 0.016003665 -0.098740906
0001d0 69 02 2d 3c 89 86 78 bd 17 0a 11 bd 07 0f c2 3d
       0.010559657 -0.060675178 -0.035410013 0.094755225
0001e0 e9 ce 1c bc 73 17 e8 bc 16 f5 a1 3a ce 1f 1b 3d
       -0.009570816 -0.028331494 0.0012356366 0.03787213
0001f0 cc d6 19 bc ee 14 ec bc ab d9 e2 bc 6f b0 94 3c
       -0.0093895905 -0.028818574 -0.027691683 0.018150536
000200 8f ec 6e 3d de 68 83 bd 44 8f 9d bd 08 7f aa bd
       0.05833107 -0.06416486 -0.076933414 -0.083250105
000210 79 1f 5b bc a2 57 2e 3e 00 f7 d6 39 31 17 15 bd
       -0.013374203 0.17025617 0.0004100129 -0.03639907
000220 98 17 49 bd 24 77 de bb 1d a7 9f 3c 61 f9 c5 bc
       -0.049094766 -0.006789105 0.019488866 -0.024166765
000230 92 c3 ca 3c ba ce 6f 3d c5 07 8d bb 3d 7f 40 bd
       0.024751458 0.05854676 -0.0043039047 -0.046996344
000240 d7 b1 3a bb ea cf 9d 3c dc 88 88 bd e1 c9 0e 3d
       -0.0028487348 0.01926418 -0.06666729 0.034860495
000250 e9 95 26 bd 5f c3 1d 3d db 79 14 bd 7e 7b a3 3d
       -0.04067031 0.0385164 -0.036249023 0.07982539
000260 1a 0e 16 bd a5 9a 85 bd cc ed cb bc ac 28 07 3b
       -0.036634542 -0.06523637 -0.024893664 0.0020623608
000270 05 69 a7 bc 2a af cf 3d 8d f7 84 3d 07 fc d2 bc
       -0.02043582 0.10140832 0.06492529 -0.025754942
000280 bd 73 bc 3c cb 86 3c be 6d da 4c bd 8c 0e 36 bc
       0.023004407 -0.18410794 -0.050012995 -0.011111867
000290 95 b5 31 3c 8e 4d 50 3d 4a 88 4d 3b f8 4e 96 3d
       0.010846515 0.050855212 0.0031361752 0.07339281
0002a0 5a 73 6d bb 48 d5 2f bc bb f8 1c 39 8a 99 84 ba
       -0.0036232085 -0.010732003 0.00014969979 -0.0010116559
0002b0 6b 96 be 3a 9a 8b ce 3c c9 82 84 bd 21 66 c2 3c
       0.0014540678 0.025213052 -0.06470258 0.02373034
0002c0 6a 63 14 bc 15 29 09 3e cd f9 d8 3c 35 d1 1e ba
       -0.009056905 0.13394578 0.026486302 -0.0006058396
0002d0 56 9f 75 3c c4 8b 71 bc c7 89 e5 bb 47 fe 7e 3d
       0.014991602 -0.014742795 -0.0070049497 0.062254217
0002e0 a5 07 f5 bd f8 0b 6d bb 36 aa ce bc a1 95 af 3c
       -0.11964349 -0.0036170464 -0.025227647 0.021433653
0002f0 e2 9a 91 3b 8f 2e 0b bd c7 c7 5a 3d 8a c9 09 3d
       0.0044435123 -0.03397995 0.05341318 0.03363947
000300 d7 c6 bc bc e1 58 ef 3b c8 7a 26 bc 64 86 39 bd
       -0.023044033 0.0073042964 -0.010161109 -0.04529418
000310 0f f0 68 bc 35 fc 8f 3d 85 2f b5 bc e6 6a 97 bd
       -0.014217391 0.070305265 -0.022117386 -0.07393436
000320 4a a9 3a bd 1e 73 79 bc e8 85 6e 3d f3 bf b8 bc
       -0.045571603 -0.0152252 0.05823317 -0.022552466
000330 a6 c3 99 bc fd c5 11 3b 4f 1a ea 3d 76 2d 6b bc
       -0.01877005 0.0022243254 0.11430799 -0.0143541
000340 2a 09 5b bc 23 8f 3c bd ba 30 8b bb b0 96 61 3c
       -0.013368884 -0.046034943 -0.004247752 0.013768837
000350 fd 14 ac bc 36 25 f4 bb 47 d9 49 bd 2d 4b 01 bc
       -0.021006102 -0.007450725 -0.049279477 -0.007891458
000360 27 4b 81 bb 87 01 78 3d 9f 90 2c bd 44 46 bb bc
       -0.0039457264 0.06054833 -0.04213011 -0.022860654
000370 25 16 00 bc bb 57 77 3c 34 0e f2 bb c0 f6 98 bc
       -0.00781778 0.0150966 -0.007386947 -0.018672347
000380 87 cc e6 bc 80 3a 2e 3c 97 8d 30 3d e7 af 00 3c
       -0.028173698 0.010634065 0.04310378 0.007854438
000390 13 d3 0d 3b 57 00 a6 3c b4 69 3f 3e 40 b9 56 3d
       0.0021640703 0.020263834 0.18692666 0.052422762
0003a0 2a 8a 05 be 61 54 30 3d 6e 91 49 bc e3 2b 7a 3c
       -0.13040987 0.04304922 -0.01230274 0.0152692525
0003b0 b8 05 e1 3d 41 c3 93 3d cb 80 b2 bc aa 83 0c 3d
       0.10987419 0.07214976 -0.021789929 0.034305252
0003c0 93 41 88 3d 1f 91 0b be 3d d0 97 3d e0 a2 53 3a
       0.06653132 -0.13629578 0.07412765 0.00080732815
0003d0 42 67 bc bc 08 6a 9a bc 3b 86 64 3d d5 35 53 3d
       -0.022998456 -0.018849388 0.055792075 0.05156501
0003e0 99 b7 02 3c 90 b0 a0 bd f6 68 be bc ba bb 82 3d
       0.007978343 -0.078461766 -0.023243409 0.06383462
0003f0 5c 6c 7f bc 62 0a 80 bd 1b 76 1f 3c 10 a7 87 3c
       -0.0155898 -0.0625198 0.009732748 0.016559154

bias f4 [12]
000000 2c 1f 21 bc 4d ab 87 bd 18 28 88 bd 95 fd 30 bd
       -0.009834092 -0.0662447 -0.06648272 -0.043210585
000010 bd af 15 bd a4 ef 26 be b2 59 8b 3c da 23 de bc
       -0.03654455 -0.16302353 0.017010543 -0.027116705
000020 20 8e 77 bd b4 10 83 bc cd 61 13 bd cf cd 0c be
       -0.060438275 -0.015999176 -0.035981942 -0.13750385
