deploy/networks/go2/cheetah/encoder.pt (torch, 37631 bytes, 8 tensors)

weight f4 [30, 53]
0.025327584 0.036384754 0.0008079327 -0.17005971 0.060343016 -0.014585144 -0.07669597 -0.05975547
0.12952293 -0.1343674 0.032643184 0.118147865 0.10449073 0.10071874 0.102123685 -0.023610577
0.12601191 -0.06542672 0.12239516 0.09773878 0.01945052 0.008177208 0.09695559 0.06240605
-0.041747674 0.067490995 0.050369963 0.012028293 0.09192062 -0.04690197 -0.020742618 0.008875881
-0.10540223 -0.057985067 0.025407074 0.074194685 -0.029646458 0.004344418 0.080359384 -0.000520054
-0.05535798 -0.013970515 0.05212674 0.019563274 0.0053080427 -0.06913798 -0.056759212 -0.036319736
-0.012096273 -0.09930254 -0.073514506 0.06042895 0.027712932 -0.048943106 -0.099057846 0.052059647
-0.15349816 -0.068912014 0.09514694 -0.014291554 -0.10100727 0.14828047 0.060375594 -0.018087722
0.002567985 -0.111361496 -0.029479899 0.12379167 0.0010096604 -0.07501526 -0.08803327 0.12203795
0.04188983 -0.17961235 0.05093409 0.268206 0.07047481 -0.20868245 0.3869632 0.085818455
0.052201018 0.043348595 -0.07271458 -0.015415056 -0.027932692 0.013026208 -0.0076842243 -0.043222077
0.007810701 0.025386367 -0.033483785 0.11139108 -0.08733447 0.041271828 -0.02062608 0.027603995
0.0870974 0.015090533 -0.10253483 0.053242385 -0.08360155 0.095636845 -0.03872758 0.11641779
-0.085112885 0.1101274 -0.043843906 -0.121752806 0.017060231 -0.035327412 0.057550818 0.01759305
-0.010233718 0.07941487 0.13228515 -0.09667418 0.0985353 0.02945241 0.053519804 0.16295771
0.047315978 0.07581734 0.116361655 -0.09526488 0.04223495 -0.077517904 0.037532486 0.05760836
0.1608701 0.105322964 -0.018023867 0.06913343 0.08046183 -0.01708324 -0.086767085 -0.06888285
0.028318651 -0.005875942 0.004599006 -0.07471728 -0.05294885 0.047106266 -0.018863713 -0.06588779
0.032083727 -0.030789765 0.09503183 -0.023527132 -0.051083405 0.038309917 -0.11164825 -0.06779415
-0.0016852426 0.028909877 0.040962726 -0.15288894 0.048615664 0.111192845 0.15269604 -0.013353742
-0.10641528 0.06544426 -0.057982303 0.11216034 0.27772763 0.10501877 0.10211274 0.08449438
0.07717225 -0.25249222 0.014061691 0.004703272 -0.2966499 0.15212512 0.045752514 0.001689204
0.14284946 -0.15061946 -0.082299314 0.11096005 0.10621782 -0.062278587 -0.0015447101 -0.13811603
-0.052008167 -0.03821473 -0.041993648 0.107044056 0.030680122 0.0545026 -0.021982528 0.01553129
-0.04254604 0.020996347 -0.019141184 0.033406284 0.043320265 -0.03201117 0.0050655687 0.015338297
-0.058496326 -0.005116699 0.038963642 -0.032757934 0.027641479 0.053271618 -0.0065899366 -0.053703524
0.2035775 -0.02671128 0.116863936 0.014130828 -0.0022486357 0.06528968 0.05578582 0.2772868
-0.08258622 -0.061256114 0.08411286 -0.019220946 0.059638057 0.059502155 -0.027797272 0.0488354
-0.06293396 0.003979899 0.11258818 0.052339483 0.0006586004 0.00035888093 -0.058323935 0.035661083
-0.13636585 0.06507716 0.17040859 0.065950066 -0.10514959 0.2511867 0.043076385 0.02667813
-0.005046844 0.0068098656 0.008669033 -0.049453866 0.009437262 -0.022090685 0.05780968 0.0042761965
0.05402504 0.060062334 0.03824728 0.024252376 -0.028202286 -0.08588538 -0.025156362 -0.005532199
00000000: cb7b cf3c 2e08 153d 72cb 533a 2224 2ebe
00000010: 3d2a 773d 87f6 6ebc c712 9dbd 27c2 74bd
00000020: a9a1 043e 9c97 09be dcb4 053d 82f7 f13d
00000030: 3cff d53d a045 ce3d 3926 d13d f86a c1bc
00000040: 4409 013e 72fe 85bd 50aa fa3d 452b c83d
00000050: b256 9f3c b2f9 053c a790 c63d 7c9d 7f3d
00000060: 9cff 2abd b838 8a3d bc50 4e3d 5112 453c
00000070: e140 bc3d 481c 40bd 6cec a9bc 256c 113c
00000080: 20dd d7bd c081 6dbd 7f22 d03c 62f3 973d
00000090: 21dd f2bc 9f5b 8e3b 7693 a43d 3c54 08ba
000000a0: 0dbf 62bd 96e4 64bc d982 553d 2943 a03c
000000b0: 17ef ad3b 3798 8dbd 597c 68bd 01c4 14bd
000000c0: 722f 46bc 215f cbbd c68e 96bd 5984 773d
000000d0: 3b06 e33c 9178 48bd d7de cabd 7f3c 553d
000000e0: 9f2e 1dbe be21 8dbd 66dc c23d 1f27 6abc
000000f0: e6dc cebd d6d6 173e 664c 773d b42c 94bc
00000100: a44b 283b 7f11 e4bd d47f f1bc 7d86 fd3d
00000110: 9556 843a 9aa1 99bd c94a b4bd 08ef f93d
00000120: ac94 2b3d 4dec 37be 44a0 503d 4c52 893e
00000130: 1955 903d dab0 55be 0a20 c63e 96c1 af3d
00000140: bcd0 553d 4c8e 313d 62eb 94bd 6e8f 7cbc
00000150: 1ad3 e4bc e06b 553c f2cb fbbb a209 31bd
00000160: e9f0 ff3b 12f7 cf3c 4b26 09bd 0221 e43d
00000170: 6adc b2bd a60c 293d 06f8 a8bc c621 e23c
00000180: 1f60 b23d 483e 773c c8fd d1bd b014 5a3d
00000190: 4a37 abbd 40dd c33d d0a0 1ebd 736c ee3d
000001a0: aa4f aebd 798a e13d ab95 33bd 8959 f9bd
000001b0: e6c1 8b3c 7ab3 10bd 68ba 6b3d 4d1f 903c
000001c0: 53ab 27bc 43a4 a23d c275 073e 1dfd c5bd
000001d0: e0cc c93d 2e46 f13c 9537 5b3d 63de 263e
000001e0: 66ce 413d 1f46 9b3d 054f ee3d 3c1a c3bd
000001f0: 8efe 2c3d b5c1 9ebd aabb 193d bef6 6b3d
00000200: 22bb 243e 91b3 d73d caa6 93bc d495 8d3d
00000210: 2cc9 a43d 27f2 8bbc f1b2 b1bd 7412 8dbd
00000220: 84fc e73c f98a c0bb 42b3 963b 6005 99bd
00000230: e5e0 58bd 80f2 403d 1388 9abc 2df0 86bd
00000240: 3a6a 033d d13a fcbc 0ca0 c23d f9bb c0bc
00000250: d53c 51bd dcea 1c3d d6a7 e4bd a9d7 8abd
00000260: 5ce3 dcba 68d4 ec3c 88c8 273d eb8e 1cbe
00000270: 3821 473d 13b9 e33d 5a5c 1c3e a7c9 5abc
00000280: 41f0 d9bd a407 863d da7e 6dbd 52b4 e53d
00000290: 5132 8e3e 1514 d73d 7c20 d13d 640b ad3d
000002a0: 7c0c 9e3d a946 81be 0263 663c e81d 9a3b
000002b0: 7fe2 97be b0c6 1b3e fd66 3b3d 4868 dd3a
000002c0: 2147 123e fd3b 1abe 8b8c a8bd 063f e33d
000002d0: ba88 d93d d517 7fbd df77 caba 4a6e 0dbe
000002e0: 8406 55bd 0c87 1cbd 8801 2cbd ea39 db3d
000002f0: e154 fb3c 1e3e 5f3d b414 b4bc f476 7e3c
00000300: c244 2ebd 8800 ac3c f9cd 9cbc 07d5 083d
00000310: 9770 313d 251e 03bd 12fd a53b 7b4d 7b3c
00000320: d899 6fbd fba9 a7bb 5798 1f3d 2f2d 06bd
00000330: 6270 e23c 5733 5a3d 65f0 d7bb 3af8 5bbd
00000340: 9f76 503e 9dd1 dabc 5c56 ef3d fd84 673c
00000350: d95d 13bb 99b6 853d ac7f 643d 89f8 8d3e
00000360: f722 a9bd b1e7 7abd 5d43 ac3d 3f75 9dbc
00000370: 0947 743d 88b8 733d 1bb7 e3bc a107 483d
00000380: 85e3 80bd d069 823b a294 e63d ed61 563d
00000390: eda5 2c3a 2f28 bc39 14e5 6ebd 5b11 123d
000003a0: 7da3 0bbe 2d47 853d 977f 2e3e d410 873d
000003b0: ab58 d7bd 8b9b 803e dd70 303d 188c da3c
000003c0: ff5f a5bb 4b25 df3b 8f08 0e3c 2390 4abd
000003d0: bf9e 1a3c 86f7 b4bc d8c9 6c3d 561f 8c3b
000003e0: 5c49 5d3d ec03 763d 2ea9 1c3d ebac c63c
000003f0: 7b08 e7bc ade4 afbd b714 cebc 7347 b5bb

bias f4 [30]
0.22195011 -0.107642785 -0.012841469 -0.09792923 0.1558081 -0.08364031 -0.28471878 -0.02882551
0.031739533 -0.0673022 0.28723323 -0.12775698 -0.19265965 0.16979736 0.13549474 0.09246542
-0.23156852 -0.10655697 -0.0912311 0.19887705 -0.16205935 -0.07287879 0.11199975 -0.060551852
0.15225884 -0.16849455 -0.1148478 0.31582516 -0.017679691 0.11477642
00000000: e446 633e d273 dcbd 0665 52bc 1f8f c8bd
00000010: 298c 1f3e 9c4b abbd a9c6 91be 7a23 ecbc
00000020: 5001 023d bcd5 89bd 3c10 933e bad2 02be
00000030: 9248 45be 5cdf 2d3e 22bf 0a3e 835e bd3d
00000040: 4c20 6dbe 8a3a dabd 5fd7 babd 6da6 4b3e
00000050: e3f2 25be 7a41 95bd 2060 e53d 3805 78bd
00000060: bee9 1b3e d689 2cbe 5335 ebbd d6b3 a13e
00000070: 00d5 90bc e60f eb3d

weight f4 [20, 30, 4]
-0.059785243 -0.0044317855 -0.07649452 -0.043678857 0.028477963 0.075524025 -0.04565678 0.06378374
-0.0005819546 -0.05872794 -0.02505053 -0.12304039 -0.06103131 -0.07486626 0.034940567 -0.065389566
-0.01910674 -0.0004183236 -0.0018729245 -0.079649046 0.025906293 0.1003447 0.088473596 -0.04510259
0.11909652 0.051692124 0.017379913 0.05633128 -0.016816523 -0.010623238 -0.113907956 -0.03759641
-0.021348026 0.080418244 0.1011314 0.021058368 -0.07207777 0.03553094 -0.0006717241 -0.009530795
-0.07478097 -0.037554987 0.06211451 -0.059988376 0.044601783 -0.008882507 0.044507325 0.08863719
0.002519014 -0.044345155 0.046908904 0.03666976 0.046864178 -0.09709261 -0.020675078 -0.090025194
-0.05790238 -0.068817265 0.022614704 -0.014326722 -0.052022595 0.064014025 0.015679406 -0.08853032
0.037591852 0.027040815 0.0040879813 0.059586808 -0.027697122 -0.00042605272 0.044407714 0.044369627
0.09534318 -0.035911527 0.06479367 -0.03398445 -0.08435882 -0.002716769 -0.064620964 0.013824242
0.048082244 -0.033383083 0.020027362 -0.033253912 0.13384937 0.050732642 0.047724403 -0.040789198
-0.047060337 -0.061463334 -0.025443492 0.0005088116 -0.008344696 -0.0072212177 -0.030899934 0.028153693
-0.05689217 -0.017073154 -0.12169273 -0.18576969 -0.031154934 0.08016403 0.10938701 0.07831118
0.022828385 0.0160695 -0.069756255 -0.052001506 -0.009654038 -0.14492117 -0.15213086 -0.074564375
-0.097614326 -0.023969665 -0.06775358 -0.051679734 -0.06646951 -0.060527656 -0.092347205 0.03721175
-0.020278191 -0.03784165 0.012344115 0.023589117 -0.008987437 0.04150143 0.059815936 0.08193142
0.026675614 0.0077297343 -0.027714996 -0.010410158 0.022405475 -0.06588374 -0.083678484 -0.14044008
0.053941984 0.024842706 -0.060581896 -0.010699806 -0.023988362 -0.005632727 0.024494627 0.03966245
-0.10938437 -0.12768875 -0.06422677 -0.054130733 0.04746202 0.074564084 -0.012330815 -0.0036232027
-0.023872519 0.023993019 0.02535697 0.035712767 0.037500344 0.056963194 -0.010492696 -0.04891115
0.062242717 0.07039719 -0.026349992 0.024189875 0.04766855 0.045481827 -0.089867 0.06894425
0.02118375 0.045121837 -0.040057827 -0.07614963 0.06745602 -0.0067979866 -0.027387789 -0.010640382
0.07198809 0.05844011 -0.0062031597 0.001292139 -0.01788462 -0.021745149 -0.02205518 -0.045411758
0.028266866 0.049557894 0.023150798 0.050240338 -0.086528376 -0.042712286 -0.028186506 0.0245347
0.028309109 -0.013470825 0.079027146 -0.001397728 -0.04849043 0.07943218 -0.008642711 0.06039347
-0.03896017 -0.041741733 -0.014870237 -0.073990926 -0.033470258 -0.021952165 -8.619044e-05 -0.027492432
-0.02234042 -0.017027572 -0.0089921085 -0.032226577 -0.048482988 -0.058464013 0.019322785 -0.050665908
0.04608969 0.04712097 -0.037282456 -0.026238305 -0.02493612 -0.0047317646 0.033426147 -0.00076115434
0.024875758 -0.042543866 -0.01816466 -0.05127261 0.06660912 0.08612721 -0.038085055 0.049423117
-0.0050556804 0.021045437 -0.111383535 -0.038761128 -0.006125043 0.012193969 0.0013049042 0.07319972
-0.10327404 -0.15947331 -0.09162221 -0.051677383 0.045294765 0.027831426 0.058646355 0.07441483
-0.0007882139 -0.037054744 0.053748276 0.01659902 0.051015303 0.12447895 0.13410933 0.16929606
00000000: 5fe1 74bd 8338 91bb 29a9 9cbd 9ae8 32bd
00000010: 9e4a e93c 57ac 9a3d 9b02 3bbd 0da1 823d
00000020: 508e 18ba b58c 70bd c536 cdbc 9afc fbbd
00000030: f8fb 79bd 7b53 99bd d71d 0f3d f7ea 85bd
00000040: bd85 9cbc 7152 dbb9 eb7c f5ba 0a1f a3bd
00000050: 6f39 d43c 8681 cd3d a531 b53d 7ebd 38bd
00000060: e0e8 f33d 1fbb 533d 5260 8e3c a1bb 663d
00000070: cec2 89bc 170d 2ebc 9348 e9bd b1fe 19bd
00000080: 0ee2 aebc 52b2 a43d fb1d cf3d 9982 ac3c
00000090: 839d 93bd e488 113d a416 30ba 0d27 1cbc
000000a0: c426 99bd 42d3 19bd c96b 7e3d 5fb6 75bd
000000b0: 5cb0 363d ef87 11bc 504d 363d 6a87 b53d
000000c0: 0b16 253b 44a3 35bd 8d23 403d 0833 163d
000000d0: a7f4 3f3d 7ed8 c6bd c85e a9bc 215f b8bd
000000e0: 0c2b 6dbd 11f0 8cbd 7942 b93c a1ba 6abc
000000f0: a515 55bd c919 833d 1972 803c 624f b5bd
00000100: eaf9 193d b384 dd3c 79f4 853b 4c11 743d
00000110: 13e5 e2bc d45f dfb9 dde4 353d edbc 353d
00000120: 4943 c33d f717 13bd 8bb2 843d 4733 0bbd
00000130: 51c4 acbd d20b 32bb ff57 84bd 137f 623c
00000140: e3f1 443d b3bc 08bd 6c10 a43c 4135 08bd
00000150: cf0f 093e 08cd 4f3d aa7a 433d 9312 27bd
00000160: 57c2 40bd fac0 7bbd df6e d0bc c561 053a
00000170: 31b8 08bc f79f ecbb dc21 fdbc 93a2 e63c
00000180: c407 69bd 00dd 8bbc 0a3a f9bd 693a 3ebe
00000190: a238 ffbc 0a2d a43d 4c06 e03d 9d61 a03d
000001a0: 9802 bb3c 2fa4 833c 5edc 8ebd 88ff 54bd
000001b0: f82b 1ebc 3766 14be 31c8 1bbe 35b5 98bd
000001c0: 05ea c7bd 085c c4bc 64c2 8abd 21ae 53bd
000001d0: 2b21 88bd d9eb 77bd 8820 bdbd 596b 183d
000001e0: 731e a6bc d9ff 1abd f93e 4a3c f73d c13c
000001f0: 0b40 13bc 67fd 293d 8e01 753d a9cb a73d
00000200: d186 da3c b649 fd3b 8f0a e3bc 5e8f 2abc
00000210: b08b b73c 0eee 86bd a05f abbd 86cf 0fbe
00000220: 45f2 5c3d ee82 cb3c b924 78bd 3d4e 2fbc
00000230: 3e83 c4bc bd92 b8bb f5a8 c83c 1875 223d
00000240: ea04 e0bd d7c0 02be 5389 83bd 30b8 5dbd
00000250: 8967 423d 0eb5 983d 3007 4abc 4173 6dbb
00000260: 4d90 c3bc 028d c43c 6cb9 cf3c 8d47 123d
00000270: f699 193d 3d52 693d 8fe9 2bbc 0f57 48bd
00000280: 38f2 7e3d 672c 903d f0db d7bc d829 c63c
00000290: 1940 433d 274b 3a3d 310c b8bd a532 8d3d
000002a0: 8b89 ad3c add1 383d ad13 24bd 56f4 9bbd
000002b0: 6226 8a3d a5c1 debb 5b5c e0bc ff54 2ebc
000002c0: 7e6e 933d e65e 6f3d e043 cbbb fd5c a93a
000002d0: c482 92bc e222 b2bc 11ad b4bc ae01 3abd
000002e0: ea8f e73c 38fd 4a3d bea6 bd3c d0c8 4d3d
000002f0: ca35 b1bd 14f3 2ebd 63e7 e6bc fffc c83c
00000300: 81e8 e73c bcb4 5cbc fcd8 a13d f833 b7ba
00000310: e79d 46bd 57ad a23d 289a 0dbc 255f 773d
00000320: b394 1fbd 61f9 2abd 4ba2 73bc 8e88 97bd
00000330: 1c18 09bd 07d5 b3bc 24c1 b4b8 cf37 e1bc
00000340: 4203 b7bc 687d 8bbc a353 13bc 0400 04bd
00000350: 1996 46bd f677 6fbd d14a 9e3c 0e87 4fbd
00000360: 8bc8 3c3d eb01 413d 7db5 18bd b7f1 d6bc
00000370: d546 ccbc eb0c 9bbb dbe9 083d 3488 47ba
00000380: 3fc8 cb3c 7a42 2ebd 0ece 94bc 3a03 52bd
00000390: 5d6a 883d 7663 b03d 13ff 1bbd e56f 4a3d
000003a0: 1faa a5bb 7b67 ac3c 0d1d e4bd fdc3 1ebd
000003b0: 96b4 c8bb 37c9 473c 5209 ab3a bce9 953d
000003c0: 5781 d3bd f94c 23be 6da4 bbbd aaab 53bd
000003d0: 0187 393d bbfe e33c 2937 703d cd66 983d
000003e0: 24a0 4eba b7c6 17bd 2727 5c3d abfa 873c
000003f0: 6cf5 503d d2ee fe3d f553 093e f25b 2d3e

bias f4 [20]
-0.06729941 0.10282391 -0.19137451 0.007831722 0.110269405 -0.06016389 0.044627618 -0.088237196
-0.008292673 0.10234731 0.14965512 -0.13077769 -0.0566673 -0.16300383 -0.08131216 -0.14784297
-0.0020304548 -0.10871198 -0.087739825 0.0014119912
00000000: 46d4 89bd 5895 d23d aef7 43be 9f50 003c
00000010: edd4 e13d 696e 76bd 73cb 363d b4b5 b4bd
00000020: fedd 07bc 779b d13d 313f 193e 96ea 05be
00000030: f91b 68bd 7aea 26be fd86 a6bd 2664 17be
00000040: 6111 05bb 63a4 debd f0b0 b3bd 9012 b93a

weight f4 [10, 20, 2]
0.007293023 0.028585898 -0.059807852 0.06340149 0.1881096 0.18001847 0.06960115 0.09113296
-0.09186782 -0.03129879 0.059655096 0.014789342 -0.09789403 0.10315019 0.1834519 -0.016987614
-0.02626463 -0.04273754 0.06155306 0.016621243 -0.120683745 -0.02555536 -0.035102554 -0.08334162
-0.0860156 0.08628612 0.25299245 0.20429382 0.09570244 0.06930226 -0.12390926 -0.09376885
-0.046742648 0.054654106 0.033145092 0.14866191 0.05425895 -0.08680608 -0.0479825 0.0053071473
0.26558092 0.26600438 -0.071291685 0.022524452 -0.045421574 0.07650747 0.056945413 -0.018426623
-0.03592759 -0.12881602 0.06765419 -0.13445811 -0.09004507 0.003036952 0.13482358 0.10552328
0.11919853 0.10881719 -0.019545302 -0.051973894 -0.14811118 -0.13962035 0.07944479 0.23492794
-0.18344946 -0.07762837 0.20515311 0.21896218 0.088276334 0.02976545 -0.00031739968 -0.039144367
0.004893185 -0.05709135 0.06999314 0.2249086 -0.02158075 -0.011485193 -0.0720962 0.05439036
-0.0028433346 -0.05711921 -0.17611872 -0.13759969 0.15504044 0.043418877 -0.006805753 -0.0162037
-0.0038037342 -0.096420325 -0.02091841 0.099240415 -0.06616288 -0.21295045 0.11176403 0.11824305
-0.0048304982 0.0037908012 -0.24754444 -0.099542595 -0.045933567 -0.15968369 0.12006907 0.2768883
0.03916404 0.12957409 0.059430476 -0.021404807 0.08093206 0.039670054 0.17331088 0.037914302
0.0032079334 0.029030893 0.16292658 0.05799936 -0.045825433 0.15715605 0.12068687 0.03633914
-0.067189686 -0.05541823 0.052604333 0.023910448 0.010701566 -0.17891242 0.11731605 0.036384895
0.12669197 0.12777098 -0.12131688 -0.121160276 -0.019020475 -0.0028646681 -0.1014923 -0.077224806
-0.037846375 -0.053288836 0.0092316605 -0.15952794 -0.01927389 0.004516949 0.14033666 0.21688975
-0.059254132 -0.096891426 -0.21295457 -0.010049338 -0.09499987 -0.07398203 0.052604157 -0.059207648
0.022863654 -0.12515913 0.055636525 0.105142474 -0.045112606 0.1165261 0.1036282 0.032900523
0.0004909479 -0.031600714 -0.15966119 0.06639892 -0.0287145 -0.1762894 -0.12668931 -0.12602466
-0.10584208 0.12818582 -0.06921296 -0.12806179 0.038815722 -0.071695864 0.101657964 -0.15065421
-0.13904913 -0.0346791 0.08018266 -0.113843486 -0.08882056 -0.057070356 -0.15195736 -0.041760035
0.0036299448 -0.106415525 -0.08318406 -0.0851476 -0.067552604 -0.112488106 -0.0745099 0.10953161
0.061148953 -0.17368957 0.17563236 0.15790766 0.0077879117 0.013905762 0.07820964 0.05847992
0.14515702 -0.08526726 -0.19641949 -0.09093895 0.17221457 -0.018675007 -0.05993202 0.13108514
0.008372331 -0.032381874 -0.048716214 -0.07045725 -0.2264539 -0.21216753 -0.023548426 0.053564705
-0.062265974 0.1839194 -0.17330827 -0.25718802 -0.20063916 -0.113036714 0.20463935 0.2610445
-0.008414946 -0.10318526 -0.03946513 0.17679755 0.06974794 -0.057029642 0.17011604 0.021063684
0.089032724 -0.19312775 0.26861614 0.23909198 -0.03243673 0.09410757 0.11872417 0.09474613
-0.032315496 -0.10876454 -0.01913057 0.14051123 -0.09110266 0.03879221 0.040040616 0.15944894
0.11099452 0.12924828 0.041259028 -0.048480567 0.07666377 0.004112898 -0.10435936 0.13125987
00000000: 50fa ee3b f92c ea3c 14f9 74bd a4d8 813d
00000010: ce9f 403e c356 383e 0c8b 8e3d eba3 ba3d
00000020: 3225 bcbd 2933 00bd e758 743d ff4e 723c
00000030: aa7c c8bd 6840 d33d d1da 3b3e 9c29 8bbc
00000040: ec28 d7bc 8f0d 2fbd 101f 7c3d 4629 883c
00000050: 0a29 f7bd 7959 d1bc b2c7 0fbd 03af aabd
00000060: f228 b0bd c7b6 b03d 3a88 813e 6632 513e
00000070: a4ff c33d 58ee 8d3d 23c4 fdbd e209 c0bd
00000080: 3875 3fbd fcdc 5f3d 26c3 073d d43a 183e
00000090: a23e 5e3d 63c7 b1bd 4c89 44bd 94e7 ad3b
000000a0: 39fa 873e ba31 883e 6001 92bd 3385 b83c
000000b0: f90b 3abd f3af 9c3d 983f 693d 6ef3 96bc
000000c0: cf28 13bd 59e8 03be 488e 8a3d 63af 09be
000000d0: 8d69 b8bd 9a07 473b 310f 0a3e 971c d83d
000000e0: 5c1e f43d 8cdb de3d 781d a0bc 94e2 54bd
000000f0: 75aa 17be a3f8 0ebe f3b3 a23d f390 703e
00000100: 2dda 3bbe 9ffb 9ebd a813 523e 9f37 603e
00000110: 39ca b43d acd6 f33c aa68 a6b9 d855 20bd
00000120: 0357 a03b 9fd8 69bd 9058 8f3d 714e 663e
00000130: 1dca b0bc 642c 3cbc 2ca7 93bd 6dc8 5e3d
00000140: 3d57 3abb d5f5 69bd 7758 34be efe6 0cbe
00000150: ecc2 1e3e fed7 313d cb02 dfbb 9fbd 84bc
00000160: 1248 79bb 0578 c5bd 165d abbc 8f3e cb3d
00000170: 6780 87bd af0f 5abe 8ae4 e43d 6a29 f23d
00000180: 2849 9ebb 176f 783b 4a7c 7dbe fddc cbbd
00000190: d624 3cbd 1f84 23be c6e6 f53d 4ec4 8d3e
000001a0: 796a 203d 12af 043e 5f6d 733d 2259 afbc
000001b0: b5bf a53d 117d 223d 6878 313e 074c 1b3d
000001c0: 313c 523b 32d2 ed3c 3ad6 263e bd90 6d3d
000001d0: 73b3 3bbd 84ed 203e ad2a f73d 5ad8 143d
000001e0: bf9a 89bd 3afe 62bd a477 573d d8df c33c
000001f0: 9f55 2f3c d134 37be 6643 f03d 5408 153d
00000200: 8abb 013e 65d6 023e fc74 f8bd e122 f8bd
00000210: d4d0 9bbc 28bd 3bbb 32db cfbd 0a28 9ebd
00000220: cd04 1bbd 6545 5abd 6440 173c 4b5b 23be
00000230: 47e4 9dbc ea02 943b 6ab4 0f3e 5918 5e3e
00000240: 76b4 72bd 036f c6bd c310 5abe fba5 24bc
00000250: 4b8f c2bd e483 97bd 7577 573d b883 72bd
00000260: 8f4c bb3c b729 00be 20e3 633d f054 d73d
00000270: ffc7 38bd 3ca5 ee3d 063b d43d b3c2 063d
00000280: f5b2 003a c06f 01bd 397e 23be 28fc 873d
00000290: ac3a ebbc 3585 34be d8ba 01be 9c0c 01be
000002a0: bcc3 d8bd 2543 033e 86bf 8dbd a122 03be
000002b0: 3cfd 1e3d 48d5 92bd 0d32 d03d 1945 1abe
000002c0: e562 0ebe ac0b 0ebd ce36 a43d c626 e9bd
000002d0: 8ee7 b5bd 9bc2 69bd b69a 1bbe 920c 2bbd
000002e0: 5ee4 6d3b 62f0 d9bd 685c aabd dd61 aebd
000002f0: 0559 8abd 2a60 e6bd a598 98bd 1c52 e03d
00000300: 5377 7a3d aedb 31be f8d8 333e 8cb2 213e
00000310: bd31 ff3b fed4 633c 602c a03d a488 6f3d
00000320: 0ba4 143e 9aa0 aebd 3122 49be 333e babd
00000330: 0459 303e 54fc 98bc 477b 75bd 2f3b 063e
00000340: 1a2c 093c dba2 04bd a78a 47bd e44b 90bd
00000350: 88e3 67be 7242 59be a1e8 c0bc aa66 5b3d
00000360: 9b0a 7fbd 5e55 3c3e b977 31be 26ae 83be
00000370: 5a74 4dbe cb7f e7bd fa8c 513e a0a7 853e
00000380: d7de 09bc cb52 d3bd 30a6 21bd 6b0a 353e
00000390: 02d8 8e3d ea97 69bd e632 2e3e bf8d ac3c
000003a0: ca56 b63d 48c3 45be 0e88 893e 87d4 743e
000003b0: 60dc 04bd 78bb c03d a825 f33d 420a c23d
000003c0: 415d 04bd f1bf debd b7b7 9cbc 2de2 0f3e
000003d0: 0894 babd 95e4 1e3d a101 243d 9546 233e
000003e0: 1851 e33d a959 043e 3aff 283d 8f93 46bd
000003f0: e501 9d3d 7dc5 863b 5cba d5bd fd68 063e

bias f4 [10]
0.12134202 0.06336242 0.0038130726 -0.059224043 -0.03210948 -0.123507686 0.08806434 0.12257259
-0.08076015 0.063446335
00000000: 2a82 f83d 28c4 813d bee4 793b e994 72bd
00000010: 3b85 03bd 99f1 fcbd 145b b43d 5707 fb3d
00000020: 9465 a5bd 27f0 813d

weight f4 [20, 30]
0.1096502 0.14224191 -0.16221115 -0.1014908 -0.08443031 0.05732497 -0.056860447 0.14609866
-0.10231986 0.10930611 0.16956316 -0.019382402 -0.0038308543 -0.09225435 0.13475241 -0.09388347
0.1459745 -0.0772224 -0.111351356 -0.05050795 -0.12536116 -0.12612638 0.05960162 0.08694157
-0.082662724 -0.22154371 -0.09336457 0.07943431 -0.13227257 -0.06796457 0.082838885 0.10592403
0.025704183 0.048554696 0.03183069 -0.10663498 0.036198054 -0.14754342 0.052120388 -0.011531887
-0.09799075 -0.027341902 0.006168153 0.043343805 -0.09117872 -0.18549712 -0.16915698 -0.1105694
0.042287555 -0.07779819 0.031245712 0.10820166 -0.06651024 0.06220344 0.10298354 0.052420218
0.03112362 -0.10957136 -0.036126755 -0.031001702 0.2037761 0.03781943 0.09293134 0.16395947
0.076597095 -0.16839571 -0.101821624 -0.21369064 -0.25196627 -0.018469453 -0.107226 -0.1827111
-0.066606395 0.0006005875 -0.01044472 -0.14021276 -0.19645272 -0.20710224 -0.20508227 -0.18310922
-0.1661001 -0.0901177 -0.029992973 0.14795765 -0.049571775 0.0034561793 0.048784096 -0.21234068
-0.08363363 -0.13068683 0.06292446 0.0270023 0.06766936 -0.052659404 -0.033734076 -0.056183714
-0.015825478 0.081387706 -0.13417332 -0.07346794 -0.026450507 -0.07490833 -0.022735203 -0.009328625
-0.10725244 -0.041075952 -0.17297444 -0.08196194 -0.021013761 -0.031843815 0.013588404 0.10766965
-0.007830759 0.015263203 0.12636355 -0.028087137 0.06556836 -0.01845591 -0.1761986 -0.011898204
-0.07297736 -0.1380744 -0.074701115 0.15072593 -0.018368412 -0.07532976 0.08834148 0.052695613
0.08576676 -0.12819038 -0.114344046 0.0672508 0.16775739 0.031191716 0.14528377 0.046232615
0.028696803 0.12037695 0.094866015 0.08739865 0.0045845895 -0.16280445 -0.07024505 -0.14081985
-0.33757758 -0.21882418 -0.14352417 0.06297763 0.007370585 -0.082846284 0.0025987432 -0.20222464
-0.100957274 0.08363853 0.075917765 0.031160995 -0.0701553 0.1145989 0.025656095 0.051508006
-0.043229476 0.08473299 0.014703727 0.010538291 0.064576805 0.05585174 0.03941023 0.09494804
-0.05763271 0.036605816 -0.13570148 -0.17546292 -0.07370479 -0.028713858 -0.2807331 -0.19940062
-0.22548385 -0.04161448 -0.07902793 -0.038670868 -0.15460822 -0.06858493 -0.136964 0.124226764
0.09173133 -0.14390062 -0.025367677 -0.037793986 0.049687043 0.08448888 0.08305793 -0.015654705
-0.032846496 -0.116188645 0.13561319 0.112536855 -0.018056277 -0.10842006 -0.16141875 -0.16115291
-0.0920369 -0.110917255 0.0073035955 0.063823245 -0.06635559 -0.06515031 -0.04208543 -0.058242057
0.12468281 0.016976492 0.117301606 0.005737539 -0.007203097 0.1099674 -0.012895944 0.20310912
-0.08027372 0.07817239 -0.17246519 -0.09758213 0.047332305 -0.045242686 -0.030816965 0.034107156
-0.049739257 -0.09693019 0.164972 -0.09180521 -0.04890165 0.01852747 0.015003584 -0.05881487
0.058823965 0.09663507 -0.11845268 0.115862966 -0.03986299 -0.062072597 -0.049241867 -0.04370699
0.155322 -0.117353484 -0.06680922 -0.065818116 -0.08657365 -0.06323088 -0.11477355 0.01628214
-0.15983656 -0.045756977 -0.09741897 -0.07143169 -0.13450481 -0.034972113 -0.1043447 -0.05602225
00000000: 4990 e03d dda7 113e ae1a 26be 69da cfbd
00000010: cce9 acbd 96cd 6a3d 80e6 68bd e39a 153e
00000020: 138d d1bd e2db df3d f7a1 2d3e d8c7 9ebc
00000030: 120f 7bbb d9ef bcbd 89fc 093e fa45 c0bd
00000040: 577a 153e c726 9ebd 2e0c e4bd 6de1 4ebd
00000050: ad5e 00be 4627 01be d420 743d 6c0e b23d
00000060: 134b a9bd 5bdc 62be ec35 bfbd 75ae a23d
00000070: 7672 07be 0231 8bbd 6fa7 a93d b3ee d83d
00000080: 9491 d23c 4ae1 463d e660 023d 7163 dabd
00000090: 6944 143d 9f15 17be 307c 553d 3df0 3cbc
000000a0: 60af c8bd 20fc dfbc 381e ca3b 4689 313d
000000b0: e9bb babd f5f2 3dbe 7d37 2dbe 3672 e2bd
000000c0: b735 2d3d a854 9fbd 02f7 ff3c d598 dd3d
000000d0: 8536 88bd 09c9 7e3d 09e9 d23d 95b6 563d
000000e0: f6f6 fe3c f366 e0bd a6f9 13bd 48f7 fdbc
000000f0: afaa 503e 8ce8 1a3d c952 be3d fee4 273e
00000100: f0de 9c3d ed6f 2cbe db87 d0bd b8d1 5abe
00000110: b901 81be 404d 97bc 4e99 dbbd 9e18 3bbe
00000120: ef68 88bd bf70 1d3a 5520 2bbc ef93 0fbe
00000130: e72a 49be 9c12 54be 1601 52be fc80 3bbe
00000140: 2516 2abe a18f b8bd d3b3 f5bc 3682 173e
00000150: c60b 4bbd 1181 623b d5d1 473d d66f 59be
00000160: 1c48 abbd c5d2 05be 8ade 803d ed33 dd3c
00000170: 3c96 8a3d 63b1 57bd be2c 0abd e520 66bd
00000180: 6fa4 81bc 99ae a63d bb64 09be 5c76 96bd
00000190: bcae d8bc 8a69 99bd 2d3f babc 17d7 18bc
000001a0: 2ba7 dbbd 423f 28bd 3620 31be a9db a7bd
000001b0: 0d25 acbc a96e 02bd e6a1 5e3c e881 dc3d
000001c0: 954c 00bc 8312 7a3c 7265 013e ff16 e6bc
000001d0: b448 863d d930 97bc 686d 34be aff0 42bc
000001e0: 2775 95bd 6063 0dbe e6fc 98bd e657 1a3e
000001f0: 5a79 96bc 7d46 9abd 61ec b43d 5bd7 573d
00000200: 7ca6 af3d 5744 03be 362d eabd caba 893d
00000210: 98c8 2b3e c585 ff3c 45c5 143e 695e 3d3d
00000220: 8f15 eb3c 3188 f63d 1d49 c23d 10fe b23d
00000230: 533a 963b 36b6 26be a3dc 8fbd 1433 10be
00000240: f8d6 acbe 7213 60be 00f8 12be 6afa 803d
00000250: f384 f13b 50ab a9bd ad4f 2a3b fa13 4fbe
00000260: b0c2 cebd ad4a ab3d c67a 9b3d 5845 ff3c
00000270: 95ad 8fbd d4b2 ea3d bb2c d23c 0ffa 523d
00000280: 6411 31bd 7d88 ad3d e7e7 703c cca8 2c3c
00000290: d840 843d cbc4 643d 9f6c 213d 1e74 c23d
000002a0: 4710 6cbd fbef 153d 54f5 0abe 8dac 33be
000002b0: 89f2 96bd 5339 ebbc 40bc 8fbe ad2f 4cbe
000002c0: 3de5 66be f273 2abd 65d9 a1bd 5865 1ebd
000002d0: 9e51 1ebe 4176 8cbd 4a40 0cbe 9a6a fe3d
000002e0: a3dd bb3d af5a 13be e0cf cfbc decd 1abd
000002f0: a484 4b3d 8208 ad3d 471a aa3d 4c3e 80bc
00000300: 0c8a 06bd 50f4 edbd 2fde 0a3e b979 e63d
00000310: c2ea 93bc 560b debd f54a 25be 4505 25be
00000320: d87d bcbd 9628 e3bd 0053 ef3b c3b5 823d
00000330: 71e5 87bd 876d 85bd c661 2cbd 398f 6ebd
00000340: b359 ff3d 4912 8b3c d33b f03d f701 bc3b
00000350: f507 ecbb 9736 e13d 8249 53bc d6fb 4f3e
00000360: 8c66 a4bd d918 a03d b79a 30be 24d9 c7bd
00000370: 85df 413d 6550 39bd dc73 fcbc f2b3 0b3d
00000380: 64bb 4bbd 5683 c6bd 6cee 283e 5f04 bcbd
00000390: 194d 48bd ecc6 973c 98d1 753c dce7 70bd
000003a0: 66f1 703d 9ce8 c53d 5297 f2bd 9049 ed3d
000003b0: 6047 23bd d63f 7ebd d7b1 49bd 1a06 33bd
000003c0: bb0c 1f3e 0657 f0bd 46d3 88bd a6cb 86bd
000003d0: 874d b1bd 317f 81bd 650e ebbd 1f62 853c
000003e0: 32ac 23be ab6b 3bbd 9983 c7bd c74a 92bd
000003f0: a1bb 09be eb3e 0fbd adb2 d5bd 9677 65bd

bias f4 [20]
0.0076094493 0.12233717 -0.04315609 0.04154094 -0.14687645 -0.034598842 -0.20276074 0.12116207
0.11006482 0.08684019 0.059872665 -0.048598066 -0.057172343 -0.06831736 -0.15080807 0.03649318
-0.15435588 -0.06194906 0.08921057 -0.16061646
00000000: b058 f93b e98b fa3d 71c4 30bd d526 2a3d
00000010: c866 16be 84b7 0dbd 83a0 4fbe d223 f83d
00000020: aa69 e13d 45d9 b13d 0a3d 753d c40e 47bd
00000030: 8c2d 6abd f9e9 8bbd 6e6d 1abe df79 153d
00000040: 780f 1ebe 4cbe 7dbd 08b4 b63d a478 24be
