deploy/networks/go2/cheetah_v5/encoder.pt (torch, 37519 bytes, 8 tensors)

weight f4 [30, 52]
00000000: 6b1e 1ebc bbea 46bd 9196 75bd 8b37 9f3d
00000010: 9340 1c3b 0169 843c bae9 7dbd 7d74 913c
00000020: 8f67 283d c742 803c 9f7f c6bc 69fb 6d3d
00000030: 2436 bebc 8dbe c0bd 6558 533d 6fb4 a7bd
00000040: b1e1 92bd f2cd 8abc d9c3 3e3d 5a74 75bd
00000050: 1743 133d 3ab8 64bc 2f77 dd3c 34fb dc3d
00000060: 244e bfbd d33c 9ebd 8b75 a2bc b9aa 993d
00000070: 6eaa adbd ee5d 933a ec75 0fbd 3578 69bd
00000080: 40f3 83bc 5e33 383c 2c76 ffbc 2233 76bd
00000090: 4620 de3c 1647 b63c 2c1a 06bd 6023 b1bd
000000a0: 8848 413d 3bab b53c cdf8 2a3d ac30 2a3d
000000b0: 8a8e d8bd 59b1 093d fab6 d0bd 17ab 1cbc
000000c0: 3452 4f3d 43e7 93bd b7f5 d73d b974 c03d
000000d0: d57f 09bd 2d0a 0ebd 586a bd3d eac2 023d
000000e0: 0268 d93a fff6 7fba 89e4 e1bc 4a0d 90bd
000000f0: 2f05 b53d a6cf c1bd 74cf da3d 483f cd3d
00000100: ab7c 87bc 5e43 afbd 06ee 6d3d 4395 b5bd
00000110: da55 553d dda7 413d d20b c33c 19a1 c63b
00000120: b454 55ba cf0d 04bd df63 b6bb d642 1a3d
00000130: 25fe b0bd 75e9 7abd b00b c63c 9b29 85bc
00000140: 83f7 b9bc d4ae b0bd 3a08 783d 80ff 38bb
00000150: c5b8 32bd d33d b23b fdec 053d 2df6 2fbd
00000160: 1dd8 3f3d 34f3 8a39 0364 4bbd 05cc 253d
00000170: 6588 3cbd 6f85 443d 83f1 26bd 2e04 163c
00000180: 0315 78bb 45e1 74bd edc9 d7bb 78b3 a23d
00000190: 8237 d4bd dc2f c4bd 5869 4bbd 5a5c 013e
000001a0: f2c8 0e3c c0e4 293d 7f2d 9fbc f9f7 5c3d
000001b0: 896b d43d 539e a33c 5739 05be a3cf 1f3e
000001c0: 5609 ad3d a860 bdb9 4ba2 6dbd 8686 18bd
000001d0: 38fa 75ba 6526 42bd fd49 c4bd 60ad ddbb
000001e0: 67f7 6d3c 1a65 fdba 35f0 43be 4ddd 2cbd
000001f0: c4c6 723d 6a3e 533d f4c9 283c e068 8cbc
00000200: 4cb6 dabd e66b 91bd a938 c7bd 40a8 8cbd
00000210: 8c9c 5fbb 1def 5fbc b6d3 19be b96b ae3c
00000220: d605 a6bd f770 453c e185 0ebd 22ba 183d
00000230: 94a5 433c 700a 8f3d 4558 213d 4302 0c3d
00000240: 2eba d4bc fad0 41bc e692 5e3d 0bca 05bd
00000250: 675a 4e3a f8d7 06bc 58d6 9bbc e711 e93d
00000260: ddc4 3ebd 7c73 afbc 9800 bbbd d862 873c
00000270: 09c1 253d 68f1 593c c38f 19be 43b3 15bc
00000280: 77ec 9a3c 580d 9cbc 50b4 bcbd a7a0 e33d
00000290: 2ac9 843c 136a a73d 9e9d d53a 149e 933d
000002a0: 9944 683d 57ea 70bc 1b92 0bbe 4808 0f3e
000002b0: f338 e4bc 32ce d5bc 7fad 62be df10 e43d
000002c0: 0694 5bbd f53e 103d 34f8 d33c 9b6c 963c
000002d0: 5419 d93c 5dc8 18bc dc5f 443c 92df 9b3d
000002e0: aa7d dd3b 045c 76bd ec80 a33c c104 f3bc
000002f0: 411d 5d3d 66cc eabc d5e7 0ebd e34e 353c
00000300: 42cb 88bc d46f 0d3d 59eb 053d e649 b1bc
00000310: 5b3e 473d c927 343d e4f5 8a3c bd2c 73bb
00000320: b52b a43d a759 b8bd eccf ae3d 3d66 84bc
00000330: 5566 943d 5d81 c6bc b88b d43d 35c0 94bc
00000340: b2d6 8b3c 7b21 353d fc8b 393d 87ad dcbc
00000350: 9f58 533d 17f3 f03c 4e12 d23d 8566 74bc
00000360: e33b e03c 34d1 bfbb 1fd2 023c a496 09bb
00000370: 279b 653d ab4c bebc 8171 0b3d 3218 33be
00000380: a8dc 24bd c046 6a3b c927 023e 63be 71bc
00000390: 06ef 93bd 9007 073a d267 a1bc 3245 74bd
000003a0: e88f a43c 9d47 febc 017e 1a3d 9bf5 2fbd
000003b0: 7189 cc3c 6a1f 45bd b11c 9a3d 219c a83c
000003c0: 44f6 493c 06c9 ad39 848b cd3c a25c 2c3d
000003d0: edf2 4cbc 5ffd 263c 024c 1fbc 00d6 a13d
000003e0: d017 a3bc dde2 513d 8693 c1bd 18fe 94bc
000003f0: ac70 6abd 1b2d b1bd 86ca 183e 140e ee3d
-0.009650807 -0.0485637 -0.059958044 0.07774266 0.00238422 0.016163351 -0.061990477 0.017755741
0.041114386 0.015656842 -0.024230776 0.05810109 -0.023219176 -0.09411345 0.05159797 -0.08188712
-0.071719535 -0.016943906 0.046573494 -0.059925415 0.035952654 -0.013959939 0.02703437 0.10790101
-0.09341076 -0.07726445 -0.01983144 0.07503266 -0.084797725 0.0011243203 -0.03502457 -0.056999404
-0.016107202 0.011242716 -0.031184278 -0.060107358 0.027114999 0.022250693 -0.032739803 -0.08649325
0.04718831 0.022176376 0.04174118 0.041550323 -0.10574062 0.033616398 -0.1019115 -0.009562275
0.050615504 -0.07221844 0.10544913 0.09397263 -0.033569176 -0.034677673 0.09248799 0.031924166
0.0016586783 -0.00097642833 -0.027574794 -0.07033785 0.08838879 -0.09463434 0.106841 0.100218356
-0.016538939 -0.08557771 0.058088325 -0.0886636 0.052083828 0.047279228 0.023809347 0.006061685
-0.0008137927 -0.03223973 -0.005566105 0.037661396 -0.08642224 -0.0612578 0.024175495 -0.01625519
-0.02270103 -0.08627096 0.06055472 -0.0028228462 -0.04363324 0.005439499 0.032696713 -0.04295938
0.04683696 0.00026502612 -0.049655925 0.04047777 -0.046028513 0.047978815 -0.040757667 0.00915627
-0.003785432 -0.059785146 -0.0065853507 0.07944387 -0.1036215 -0.09579441 -0.04966101 0.12632886
0.008714901 0.04147792 -0.019430874 0.053947423 0.10372073 0.019972956 -0.13010155 0.15606551
0.08449046 -0.00036120904 -0.058016103 -0.037237667 -0.0009383294 -0.047399897 -0.09584425 -0.0067650527
0.014524317 -0.0019332499 -0.191346 -0.042203236 0.05927159 0.051573195 0.010302056 -0.017139852
-0.106793016 -0.07100658 -0.09727604 -0.06868029 -0.0034120409 -0.013667849 -0.15022168 0.0212916
-0.08106582 0.012050859 -0.034795646 0.037286885 0.011941332 0.06984413 0.03939082 0.034181844
-0.025967684 -0.011829609 0.054339312 -0.032663386 0.00078717474 -0.008230202 -0.019023106 0.11380368
-0.046574462 -0.021417372 -0.091309726 0.016526625 0.040467296 0.013302185 -0.14996247 -0.009136978
0.018911583 -0.019049332 -0.092140794 0.111146264 0.016209204 0.08174529 0.0016297584 0.072078854
0.056706045 -0.0147043085 -0.13629954 0.13968003 -0.027859187 -0.026099298 -0.22136496 0.111360304
-0.053607963 0.03521629 0.025875188 0.018362334 0.026501335 -0.009325114 0.011985745 0.07611002
0.006759365 -0.060146347 0.019958936 -0.029665353 0.053982977 -0.028661918 -0.03488906 0.011066171
-0.016698483 0.034530476 0.03269515 -0.021641683 0.04864345 0.043983255 0.016962953 -0.0037105524
0.08016149 -0.09001475 0.08535752 -0.016162032 0.07246081 -0.024231607 0.10378212 -0.018158058
0.017070148 0.044221383 0.045299515 -0.026938213 0.051598188 0.02941279 0.102573976 -0.014917021
0.027372306 -0.0058537964 0.007984667 -0.002099433 0.056056168 -0.023229918 0.034043793 -0.17489699
-0.040249497 0.0035747737 0.1271049 -0.014754864 -0.072233245 0.0005150968 -0.019702826 -0.059636302
0.020088151 -0.031040007 0.037717823 -0.042958837 0.02496788 -0.048125662 0.07525004 0.02058226
0.012326781 0.00033146905 0.02509094 0.04208053 -0.01250909 0.010192244 -0.0097227115 0.079021454
-0.019908816 0.051241744 -0.09451966 -0.018187568 -0.05723636 -0.08651181 0.14921007 0.11623779

bias f4 [30]
00000000: d2ef 583e 8f62 323e 6303 b0bd f0ca a63d
00000010: a5a3 eabd ce35 123e 097d aebc 82d8 633d
00000020: 03ad 34bd 6d8a 9ebb c7e6 313e 03d7 1a3e
00000030: 4c59 143e f727 a53d 9e8b edbd f426 febd
00000040: d9bf 35be 6416 293e 6661 0fbe de3a 3e3e
00000050: e111 5d3e 2f39 953d 3fe2 0fbe 45d6 edbd
00000060: 8792 603d e4db 423d 2c85 21be 1099 e8bd
00000070: 69cf c4bd 9554 013e
0.21185234 0.1742041 -0.08594396 0.08144176 -0.11456994 0.14278337 -0.021299856 0.0556264
-0.04411031 -0.004838279 0.17373191 0.15121083 0.14487189 0.08064263 -0.115988955 -0.124097735
-0.17748965 0.16512448 -0.14001998 0.18577144 0.21588852 0.072862975 -0.1405115 -0.11613134
0.05482724 0.047572985 -0.15773457 -0.11357319 -0.09609873 0.12629922

weight f4 [20, 30, 4]
00000000: 62fa 6bbd 40f9 bbbd 73ad d83a fd52 b6bd
00000010: 4ab2 b4bc 9680 3b3c 01bb a3bb 69ba 4abd
00000020: 454c 49bd 875b f73c 5f5f cfbc 9c31 a4bc
00000030: 891f 60bd d6c0 03bd 6891 1fbd 6319 d83c
00000040: 5a5b d8bb 5dc8 893c d932 313c 972f 09bd
00000050: df13 2c3b 12e2 98bd 4834 43bd 27cb 98bd
00000060: 9c67 73bc 3b6c 41bc d2de 92bb 8ece c33d
00000070: f774 98bd 8875 b2bc cf14 18bd c628 1dbd
00000080: 08b6 8fbc 83cd ad3c af9c 9b3d 3647 933c
00000090: ed84 123d 1b2d 883c 91f0 c03d 0c81 e73c
000000a0: e82a 8c3c f3eb 33bd 2996 723c 4433 8dbc
000000b0: 957f 13bc dd79 2d3d 6d1a 8f3b fd5c 183c
000000c0: 03d0 163b 0293 453a 3cdf 983b 24aa c1bb
000000d0: be9d b3ba dc8a 643d f785 83bd b1bd 8f3d
000000e0: 3555 043d 079d 9bbc 895b b3bc b374 93bc
000000f0: 9d12 9a3d 580d afbc 9b4a 74bc b8dc e63c
00000100: e2ed e43c 6883 c5bc 9458 2e3d 6cd3 f9bc
00000110: 7e7c b53b f347 4a3c 2b7d 0c3d ceeb 3bbd
00000120: 649b be3b b931 823d dfbe 98bd 6b06 633c
00000130: 5942 9abc 4227 eebc 4b82 a2bc 4249 433d
00000140: f33d a7bc f99a b53b f387 91bb 46b1 abbb
00000150: d210 c8bd ec3d 70bd e356 87bc bbf5 f43b
00000160: 8bce 3d3d 29a8 643d 1685 6fbc 8980 433d
00000170: a573 6abc f77f 8d3d 19ad 6abd 15f9 063d
00000180: 17fc 4bbc 11ba 0d3c 042f 0abc fe93 06bb
00000190: f849 713c c249 333d 0872 9fbd 11b5 a8bc
000001a0: eb11 303d d8e8 52bd bd0e d6bb 5c1b 20bd
000001b0: e372 a03c eb00 33bd 513e 813d cf7e 9ebc
000001c0: 03da 123c 5a24 0fbc 87bb 9ebb 3d73 24bd
000001d0: 8381 95bd cdcb b23c 3bd1 b6bd 932f 71bc
000001e0: 5aad 97bd 796d eabc 4409 e33c ece9 d83c
000001f0: 3c03 5dbc 6f8c 143c 927e 57bd fc40 dd3c
00000200: 93ca 8dbc 933d f33c 1105 e0bc 9731 623c
00000210: 9d09 a43c f7e6 abbc 8e69 82bc 22da e8bc
00000220: 22ce 33bb 7652 1dbb 52ea e03d 5022 063d
00000230: 7d56 d53c f837 e0bc 9e9e 1fba f656 51bc
00000240: bf91 bd3c b4ae 173d a9c3 aa3d 7295 c7bc
00000250: 3cfa 723c 9949 e4bc 57e8 b0bd 4b32 20bd
00000260: acac 003d b3ac eabc c8b4 03bb 8cc4 933c
00000270: 7f67 49bc c12a 643d 2d9b c7b9 a699 233d
00000280: fdd8 843d a128 ee3c 23c2 643c 367a 18bd
00000290: ca7f d0bc 3b8c 2cbd 2f95 2c3c 6ec5 e9bc
000002a0: 82db f0bc af7e 47bd 4d06 ce3c 0a4f 6ebd
000002b0: 6701 a83c 0a84 813d c2ac c5bd 2bdc d1bd
000002c0: c2c7 4e3d 80e8 c23b 61fc f73c 78c7 a23d
000002d0: 39f6 1fbc 2df9 223c 68dd 0ebd db63 d8bb
000002e0: 9b3a 983c 46e5 0a3c 7f00 5abd a530 293c
000002f0: d05c 083c d24e fdbc 2c0e 2ebd d7be 053d
00000300: 29b4 26bd 1984 5cbb 20d4 083d a697 3dbd
00000310: 5f88 583d 6143 acbc c8e3 8dbd 3444 40bd
00000320: fa5a 283d 7469 053d f9e2 a73c 030b 083d
00000330: 3e5e 06bd da2b 0739 e9e0 8bbd 4c97 c6bc
00000340: 131c c03c fb9c 293d 3d02 02bb a2c0 013d
00000350: 573d 2dbd 7bac bc3c a9e0 cabc bc43 a03c
00000360: 5f0d 12bc 32e4 81bd a02b d93c 4353 edbc
00000370: 089a cd3c bd77 0c3d 77fb 0e3d 0e87 0fbd
00000380: ee46 6dbd 516d 3e3d 4f9e 843c f410 8cbc
00000390: 66b6 05bd 50f2 54bc 3b4e 60bd 7524 04bd
000003a0: 4059 273d 4d4d 2abd d118 e63c 40f3 df3d
000003b0: 320b 0a3d 5984 8c3d 1751 5f3d fb08 9c3b
000003c0: e12a b23c 687e 03bd c66b 6fbd 57a1 193d
000003d0: 4af5 56bd 101a 4abd 43dc 34bd 1571 8dbb
000003e0: 01e4 a4bc 96f8 b8bc f812 083c 64c1 58bc
000003f0: 29a3 043d f976 17bd a593 9cbc 4750 9e3d
-0.05761183 -0.091784 0.0016531184 -0.089025475 -0.022057671 0.0114442315 -0.004996658 -0.04949418
-0.049145002 0.03019501 -0.025314031 -0.020043187 -0.054717574 -0.032166325 -0.03895703 0.026379293
-0.006602687 0.016819173 0.010815346 -0.03349265 0.0026256961 -0.074649945 -0.04765728 -0.07460623
-0.014856245 -0.011805589 -0.0044821287 0.095608816 -0.07444184 -0.021784559 -0.03712922 -0.038368963
-0.017542854 0.02121616 0.075982444 0.017978292 0.0357713 0.01662307 0.094208844 0.028259777
0.017110303 -0.04392619 0.014806309 -0.01723636 -0.009002586 0.042352546 0.004367164 0.009299514
0.0023012168 0.00075368595 0.0046652835 -0.005910175 -0.0013703627 0.05579649 -0.06422036 0.07018603
0.032307822 -0.018995775 -0.021894233 -0.017999982 0.075230815 -0.021368667 -0.014910365 0.028181419
0.027945463 -0.024110511 0.042564943 -0.030496322 0.0055385223 0.012346256 0.034299057 -0.045879178
0.005816864 0.0635714 -0.07458281 0.013856511 -0.018830465 -0.029071454 -0.01983752 0.047677286
-0.020415282 0.005542156 -0.0044412552 -0.0052396385 -0.09768833 -0.058652803 -0.016520923 0.0074755824
0.046339553 0.055824433 -0.0146191325 0.047730003 -0.014309798 0.06909173 -0.057293985 0.032952387
-0.01245024 0.008650319 -0.008434061 -0.0020534988 0.014727108 0.043771513 -0.077854216 -0.020594152
0.042985838 -0.05149159 -0.0065325187 -0.039088592 0.019586032 -0.043702047 0.06310714 -0.019347576
0.008963111 -0.008736694 -0.0048441323 -0.040148962 -0.07300093 0.021825695 -0.08926626 -0.014720815
-0.07406111 -0.028616654 0.02771438 0.02647873 -0.013489541 0.009066685 -0.05261094 0.027008526
-0.017308509 0.029692447 -0.027346166 0.013805768 0.020024115 -0.020984156 -0.015919473 -0.028424326
-0.0027436097 -0.002400545 0.10982193 0.032747567 0.026042217 -0.027370438 -0.00060890045 -0.012777081
0.023140786 0.037031844 0.083381005 -0.024363253 0.014830168 -0.027867125 -0.08638065 -0.039110463
0.031414673 -0.028646803 -0.0020096768 0.018038057 -0.012292742 0.055704836 -0.00038071853 0.039941452
0.064867 0.029072108 0.013962301 -0.037225924 -0.02545156 -0.04212592 0.010533615 -0.028536525
-0.029401544 -0.0487048 0.025149489 -0.058180846 0.020508481 0.063240126 -0.096520916 -0.10247072
0.050483473 0.0059481263 0.03027171 0.07948202 -0.009763294 0.009947103 -0.03487912 -0.0066037006
0.018582633 0.008477515 -0.05322313 0.010326539 0.0083229095 -0.030921374 -0.042493984 0.032652702
-0.040699158 -0.0033648072 0.033405423 -0.0462872 0.05286443 -0.021028223 -0.069282115 -0.046940044
0.041102387 0.03257127 0.020493971 0.033213627 -0.03280472 0.00012890939 -0.068300076 -0.024242066
0.023450887 0.041409474 -0.001983776 0.03167785 -0.042294826 0.023031464 -0.02476533 0.019563548
-0.008914321 -0.06342353 0.02651006 -0.028970366 0.025097862 0.03429388 0.034907784 -0.035040908
-0.057928972 0.04649097 0.016188769 -0.017097928 -0.03264465 -0.012997225 -0.054762106 -0.03226133
0.0408566 -0.041577626 0.028088005 0.10935068 0.033702083 0.06861181 0.054520693 0.0047618127
0.021748962 -0.032102972 -0.05845239 0.03750738 -0.05248002 -0.04934126 -0.04415537 -0.004316459
-0.020128252 -0.022579473 0.008305304 -0.013229702 0.032382164 -0.036978696 -0.019113371 0.077301554

bias f4 [20]
00000000: 9e8d ebbd d9b5 d03d 0f1a 65bd c569 90bd
00000010: c3a0 ad3c eccf 20be bc5a cd3d 4411 c8ba
00000020: d8ce fc3d 968e d23d 5d12 9abd fdc7 463c
00000030: 5def 8ebc 8f30 3c3d 66db 39bd 83b0 c53d
00000040: e69a bd3d bd38 8fbd cf5e f33d 33b1 c4bd
-0.11501621 0.10190935 -0.055933055 -0.07051424 0.021194821 -0.15704316 0.10027072 -0.0015263935
0.1234414 0.10281102 -0.07523034 0.012132642 -0.017448122 0.045944747 -0.04537525 0.096528076
0.0925806 -0.06993244 0.11883318 -0.096041106

weight f4 [10, 20, 2]
00000000: 6073 4a3d 07a6 cc3c 1da2 bc3d 994c f03d
00000010: 514e bfbc bfd3 983c a7a5 4f3d 1f31 a43d
00000020: 1c79 9d3d 2708 413c 4dc3 e53d 9c79 033d
00000030: 64f0 873d 3a02 643d e3a0 063d 4e89 88bc
00000040: dc17 fc3d e094 21bd 55ea 71bd e5e9 933d
00000050: 23f3 333d af59 493a 4076 5b3d fa76 0a3e
00000060: 9783 32bc 7f64 b43d afd8 013e 50f7 e43d
00000070: 8292 0dbe b788 dfbd cc33 ad3d f59d e6bd
00000080: 0046 f8bb 20d0 c1bd c083 7d3d 11a2 eebd
00000090: 4545 cfbd 38bb b83c e219 6ebd 8baf c83c
000000a0: 7259 db3b e80c c4bd 1a19 0c3c ac7e e8bd
000000b0: 049b 3a3d 096b 033e 1c9c 7f3d 21fb d03d
000000c0: 1afa 98bd 3c39 81bc 46bf a83b 8397 c93d
000000d0: 09ac f63b 4945 a8bd 5c29 4d3a 2f60 34bd
000000e0: 7581 9f3c 0de7 053c 6afb 01be 53f5 9b3c
000000f0: 8bf9 883c 5c0e 963c d320 863c 76dc 01bd
00000100: 7c34 9bbd 64c4 ad3d c05d 94bd 5954 babd
00000110: c226 183e bb9d 1f3e ee80 1e3c 994e bd3d
00000120: bb3a 1e3b 1532 963d e6d9 23bd b4ad b9bc
00000130: c601 f7bd b84a 003d ab43 3fbd 2095 a8bd
00000140: f6fd e8bd 4c3b c2bd d6f3 253d 6c2e 823d
00000150: 43f6 093e 7d43 da3d 09f9 06be 1951 1d3d
00000160: b80d edbb a645 ad3d a729 41bd b258 33ba
00000170: 96a9 883d ca2d af3c 208b 6a3d b796 0f3d
00000180: dcae 333b 014a 993d 17be 2a3d 1bc8 e33b
00000190: 70cf bdbd de41 463d 7b0a 3d3d ad5b c53c
000001a0: 946b 193d a500 703d 839f b7bd b7b9 d73d
000001b0: 3534 cb3d 62e9 04bc 4aad 0fbe aacb 0abd
000001c0: d4ac 96bd 957f 8d3d 2a41 95bd b5a7 403d
000001d0: 70ac b83d d8ab 07bd fd03 d9bd 153f d7bd
000001e0: 1150 0e3e f90d c03d 483d 16bc e353 5dbd
000001f0: ec71 2f3e 1a2a b9bc a0f1 d4bd 103a 3b3e
00000200: 5148 d3bd 439b 02be df06 1d3e 1e3e 313e
00000210: e9db 913d 4e67 03be c410 b8bc 41c0 f43a
00000220: dd59 19be 6d2e 0abe 46fa 1dbe c31d 37be
00000230: 834f 27bd 3781 eb3d cb15 f13b 0a3e 51bd
00000240: b511 f2bd 81d3 d0bb 41ab 1dbe decd 053b
00000250: 71e1 3f3e 5375 523e 5c61 9abd 65b4 5f3d
00000260: dd2a 84bc c7ab 95bd e2ad 2f3d 015a 643c
00000270: 840c b03d b8dd 50be 083c db3c 77dd 863d
00000280: 681c 973d a985 243e c571 91bd 3a3f d3bd
00000290: 2f1c e23c 8bb6 96bc 863d ddbd 3205 0b3e
000002a0: 978b d7bd 0df4 bbbd 1fad ccbc fe7c 823d
000002b0: 54f4 98bb 7d0d 04bd d675 e93c 28e0 ccbc
000002c0: 49c4 b0bd f322 e5bd 8636 a1bd b1f6 0cbe
000002d0: a10a d5bc 2fe3 45bd a300 56bd 0562 14bc
000002e0: c536 f7bc 13e7 07bd d476 b0bc 4c45 25be
000002f0: cf8b 8f3d e190 cd3d 1e33 49bd 1aad 6f3d
00000300: 6602 3ebd 278d 8dbd b081 3aba ca19 863d
00000310: bdcb debd 3c9e df3c 1ffa 3f3d e38a 223e
00000320: b8dd 0bbd 04d0 3d3d 2359 553c d374 e53c
00000330: 8407 613c 9db5 183d 8e68 84bd ff51 bbbd
00000340: a240 973d d666 423c 5569 463e c58a 283e
00000350: 7a97 38bd 194a 88bc 62f5 723d 13e0 173c
00000360: 1857 733d d229 55bd 0eef 4bbd d879 b3bd
00000370: 2607 b4bb d675 b33d 39ed 17be 8c01 9ebd
00000380: f515 d73c c64a 903c 24a9 61bd fcff eb3c
00000390: af32 da3d 5e42 113e adab 88bd 6fe3 19be
000003a0: b122 c0bd 833b abbc 2f1b c83d abf2 df3d
000003b0: d408 23be cde8 66bd 922a 92bd 37fe ff3d
000003c0: afeb 3a3c ffc7 7a3c 62ec fbbc dbfe 0f3c
000003d0: fd7c 58bb 9e93 b73d 98e9 81bd f1f6 a1bd
000003e0: 4370 523b ae92 4e3c 4cf5 823d 21c7 ebbd
000003f0: 25a2 213b c465 f33d e0cf 8a3d 35fe b53c
0.049426436 0.024981512 0.09210608 0.1173336 -0.023352774 0.018655656 0.050695088 0.080171816
0.076891154 0.011781729 0.11218891 0.032098398 0.06637648 0.055666186 0.032868277 -0.016667034
0.12309238 -0.03944862 -0.059061367 0.07222346 0.043933045 0.00076809054 0.05357957 0.13521948
-0.010895631 0.088082306 0.12680314 0.111799836 -0.1382542 -0.10914748 0.08457145 -0.11260597
-0.007576704 -0.09463525 0.061893225 -0.116520055 -0.10120634 0.02255021 -0.058130153 0.024497768
0.0066940123 -0.09572774 0.008550907 -0.11352286 0.04555799 0.128338 0.062404737 0.10204149
-0.07469578 -0.015774362 0.0051497547 0.09843352 0.0075278324 -0.0821634 0.00078262924 -0.04403704
0.01947091 0.008172763 -0.12693563 0.019037878 0.016720554 0.018317394 0.016373074 -0.03170439
-0.0757837 0.08484724 -0.07244444 -0.09098119 0.14858535 0.15587513 0.009674294 0.09243507
0.0024143893 0.07333771 -0.040002726 -0.022665836 -0.12060885 0.031321257 -0.046695393 -0.08231568
-0.11376564 -0.09483966 0.040515743 0.063565105 0.13472848 0.106574036 -0.13180937 0.03840742
-0.0072343014 0.0846055 -0.047158863 -0.0006841525 0.06672971 0.021384139 0.057261586 0.035055842
0.0027417457 0.07484818 0.04168519 0.0069513447 -0.09268081 0.04840266 0.046152573 0.024091566
0.03745611 0.058594365 -0.08965971 0.10533469 0.09922067 -0.008112283 -0.14030948 -0.033885635
-0.07357183 0.069091 -0.0728782 0.047034938 0.09017265 -0.033122867 -0.10596464 -0.10510079
0.1389773 0.09377665 -0.009169884 -0.05403508 0.17133301 -0.022603083 -0.10397649 0.18283868
-0.10316528 -0.1275454 0.15334652 0.17308852 0.07122023 -0.12832376 -0.022468932 0.0018673019
-0.14975686 -0.13494273 -0.15427503 -0.17882447 -0.040847313 0.11499255 0.0073573343 -0.051084556
-0.118197836 -0.0063728695 -0.1539736 0.0020416896 0.18738343 0.20552568 -0.07538101 0.054615397
-0.01613372 -0.073081546 0.042890437 0.013937474 0.08596137 -0.20397079 0.026762024 0.0658521
0.07378465 0.16066612 -0.07101778 -0.10314794 0.02760133 -0.01839759 -0.1080275 0.135762
-0.105246715 -0.09177408 -0.024984894 0.063714966 -0.004667798 -0.032239426 0.028498571 -0.02500923
-0.086311884 -0.11188307 -0.07871728 -0.1376598 -0.026006045 -0.048312362 -0.0522467 -0.009056573
-0.030177483 -0.033179354 -0.021541037 -0.16139716 0.07009088 0.10037399 -0.049121015 0.058514692
-0.046389006 -0.06911688 -0.0007114662 0.065478876 -0.10878704 0.027297132 0.046869393 0.15873294
-0.034146994 0.046340957 0.01302174 0.028009808 0.013734702 0.037282575 -0.06465255 -0.09146499
0.073853746 0.011865338 0.19376118 0.16459186 -0.045066334 -0.016636895 0.059316047 0.009269732
0.05940923 -0.052041836 -0.049788527 -0.08763474 -0.005494016 0.0876271 -0.14836587 -0.07715139
0.026255587 0.01761378 -0.055092946 0.028808586 0.106541984 0.14185473 -0.066733696 -0.15028165
-0.09381617 -0.0209024 0.0977081 0.10934957 -0.15921336 -0.05637436 -0.07137026 0.124996595
0.01140873 0.015306472 -0.030752365 0.00878879 -0.0033033483 0.089637026 -0.063433826 -0.079084285
0.003211037 0.012608213 0.06394443 -0.1151259 0.0024663296 0.11884645 0.0677793 0.022215942

bias f4 [10]
00000000: 42f9 e43d 5a9a 953c cbf3 8cbd dfe5 17be
00000010: 176c dcbc 1a17 aabd fcef cd3c 1a94 54bd
00000020: fa92 c9bd d8f9 343e
0.11180355 0.018262077 -0.06882437 -0.14833783 -0.02690701 -0.083051875 0.025138848 -0.051899053
-0.09842487 0.17673433

weight f4 [20, 30]
00000000: d299 af3d 4652 03be d134 40bd a1ae aabc
00000010: dad1 90bd ac3e f93d db4f 943c 39c0 943d
00000020: e744 89bc d06e 113e aa74 22be 10b5 d6bd
00000030: 5d47 fc3c 4023 e5bd 8182 a3bd aaf8 9f3b
00000040: 9f39 303d 6ffc f3bd 6426 403e 8ece 1c3e
00000050: c803 ef3b 0426 58bd 0c75 09be 18cc 043e
00000060: 54c4 11be e768 053e 52be b73d 7113 313c
00000070: 302a d53d 9905 aa3d ce7e 2e3d af14 de3d
00000080: 5adf 393d c1aa 40bc aba2 963a a0c3 253d
00000090: d12c 833d bcde dabd eecc 573d 4087 5ebd
000000a0: d2a9 253e 2b3c 303e c416 91bd 47d6 993d
000000b0: 6e69 1f3e b791 a93b 1da1 a73a d486 8b3d
000000c0: bd83 c53b f72b 66bd f23d 0e3d 5088 14be
000000d0: 4fcd 313e 175f f4bd c774 95bd 862a 193e
000000e0: c4d9 2f3e 5fc9 f7bc 4a44 083d 1a3f 18be
000000f0: 64f5 33be f826 3abe 29d3 c5bd 0816 d43d
00000100: 5bb8 6a3c ea7b 4abd 1451 d63b e360 6bbd
00000110: 35f2 c33d 30f9 b33c d49f 5dbc f6c5 053d
00000120: e1bd 973d 4154 033e 9091 dbbc 0101 363e
00000130: 6cef f7bd ab63 813d ea35 3d3d abc5 12bd
00000140: c686 31be daaf 183e e049 0f3e 9eef b2bd
00000150: d65d 213e ec4e 173e d5e4 393e 6325 27be
00000160: 4641 dabd 66c9 ebbd 2902 aebd 5e9c c73d
00000170: 17ae 203e d12a 91bd 9be7 2dbd 67e3 d1bc
00000180: bb6a 2b3d 6e28 0abd e144 c03b 90cd d23d
00000190: c675 c03d 9c9d 0c3e 3bb1 223d 547b 34be
000001a0: a7d6 b8bd d8e1 da3d e6a1 b63a 562e 9abd
000001b0: cc98 d53c 8410 923d 7182 4e3d ed11 a6bd
000001c0: 9cd2 43bc 17fe dcbd 5d2a 7e3d 26cd 88bd
000001d0: b844 44bd c8fd 00be 3cf4 fb3c a6fa 613d
000001e0: b0eb 65bd 46ca 193e 81d8 1c3c 2260 2fbd
000001f0: 9258 ba3d 4a44 f83d fcab 0bbd c428 9bbd
00000200: 279e a4bd 976e 513d 36b2 2bbd a87c fcbc
00000210: 7d1e 593d 3d85 a2bc 5dbb 4b3d ee40 3fbe
00000220: 1e14 2f3d aaff 493a ab52 b9bd 2ed8 143e
00000230: 9d35 1d3e 70bb f7bd 8099 aa3d 3e1c 03bd
00000240: 0b29 2dbe 84d2 20bc 22fa 6d3d f966 0b3d
00000250: f297 0e3e 2d13 4cbc 80a8 053e 032e a8bd
00000260: 8f2a 9d3c 2d34 a8bc 7ce1 c4bb 95e8 13bd
00000270: 7e98 e2bc 5f74 d73d f6a6 853d be70 ecbb
00000280: 33f2 07be aeab 26be eb36 bbbc 14e8 013c
00000290: 35d9 24be e806 25be a7b3 f63d b3c0 e13a
000002a0: 2eed 403e 3db5 ae3d ae71 ad3b 839b a43d
000002b0: 1f6f 52be 1501 4bbd e87d f33d b07e 70bd
000002c0: a3d5 623d e05c d23c 5202 fa3c 245a 053d
000002d0: 5428 8d3d eb26 16bd a464 9ebd 2da3 313e
000002e0: fcbf 803d 0006 78bc 302c 59be 1f0d fcbd
000002f0: 6fc3 52ba f23e df3c ec88 bd3d e155 16bd
00000300: 14b0 3a3d 5b93 dcbd fdf9 343e c413 ccbc
00000310: 7639 763d 4669 0fbe dd68 283e 6e15 7cbc
00000320: b8ec 21bc 5717 213e 18cd 823d f7ce 00be
00000330: 323b b5bd 70c0 a03d 8388 0bbe 9066 97bd
00000340: 3e02 0d3d 5c20 2ebe 937c 11be 09cb 023e
00000350: efcd 8dbd 7c81 0b3d 69dc e73c 635d 4cbd
00000360: 3ea6 86bb 4a92 913d 6e53 0a3d 888e 27be
00000370: bd3e 99bd d4d6 fdbd 4e8a fa3d 0de1 723d
00000380: d034 b23d 0ddf ad3d ca3d 763d 2b43 63bd
00000390: 8cf3 d93d f5dd 8abd e25f c93d 42f5 01be
000003a0: 8a8c 21bd 9d0d 00be 9cb3 db3b b9a7 fabc
000003b0: 17ec 0ebe 0c06 cb3c bca8 11be 842a af3d
000003c0: 327e 143e 775e 323d 3974 593d 127b 60bc
000003d0: b7c6 7a3d 2a22 43bc 5eb5 153d a749 c7bd
000003e0: b91f c63d b126 ebbd 5054 8cbd 7637 a2bd
000003f0: e1d0 8a3d ee14 21be 1234 f43d 87c6 433c
0.08574261 -0.12824354 -0.04692537 -0.020835223 -0.07071276 0.12170157 0.018104484 0.07263226
-0.016756488 0.14202428 -0.15864816 -0.10483754 0.030795747 -0.11188364 -0.07983876 0.004881938
0.0430237 -0.11913382 0.18764645 0.1531317 0.007294152 -0.05277063 -0.13423556 0.1296848
-0.1423505 0.13028298 0.089718476 0.010807858 0.10408437 0.08301849 0.0426014 0.10843789
0.04537902 -0.011759461 0.0011492571 0.040469766 0.064050324 -0.106870145 0.05268567 -0.054328203
0.16178063 0.17210452 -0.0708442 0.07511573 0.15567562 0.0051748413 0.0012789104 0.06812826
0.0060276673 -0.056194272 0.034727044 -0.14505124 0.17363475 -0.119321994 -0.07297664 0.14957628
0.17172915 -0.030247388 0.03326825 -0.14867821 -0.17574078 -0.18178928 -0.09659416 0.103557646
0.01432618 -0.04943458 0.006540427 -0.057465445 0.09567682 0.021969408 -0.0135268755 0.032659493
0.074092634 0.12825109 -0.026802808 0.1777382 -0.12106213 0.06317838 0.046193995 -0.035833042
-0.17336568 0.14910832 0.13993025 -0.087371096 0.15758452 0.147762 0.18153699 -0.16322856
-0.10656981 -0.11513023 -0.08496506 0.097466215 0.1569141 -0.07088245 -0.042457204 -0.02562113
0.041849833 -0.033729963 0.005867586 0.10293114 0.093974635 0.13731998 0.0397198 -0.17625171
-0.09025317 0.106876075 0.0013933748 -0.07528369 0.026073836 0.07132056 0.050417367 -0.08108888
-0.011952069 -0.10790651 0.06205212 -0.06679754 -0.047917098 -0.1259681 0.030756108 0.055170678
-0.056132972 0.15018567 0.009573103 -0.04281629 0.09098925 0.121224 -0.034099564 -0.07576135
-0.08037978 0.051130857 -0.041918002 -0.03082116 0.05300759 -0.019838924 0.04973923 -0.18677112
0.042743795 0.00077056384 -0.09048971 0.14535591 0.15352483 -0.12096298 0.08330059 -0.032009356
-0.16910188 -0.009815816 0.058099873 0.03403375 0.1392515 -0.012455744 0.13052559 -0.08211901
0.019185333 -0.020532692 -0.006008325 -0.03611048 -0.027660605 0.10520243 0.06525986 -0.0072155884
-0.13275985 -0.16276428 -0.022853335 0.007928867 -0.16098483 -0.16115916 0.12045985 0.0017223567
0.18840477 0.08530662 0.0052930927 0.08037474 -0.20550202 -0.04956158 0.11889249 -0.05871457
0.05537952 0.025679052 0.030518685 0.032556668 0.068924576 -0.03665821 -0.077340394 0.17347403
0.06286618 -0.015138149 -0.21208262 -0.1230719 -0.0008039986 0.027251694 0.092546314 -0.036702994
0.045578077 -0.10770293 0.17673488 -0.024911769 0.060113393 -0.14005002 0.16446252 -0.015385969
-0.009883098 0.1573156 0.06386775 -0.12578951 -0.08849181 0.078492045 -0.13626294 -0.07392609
0.034425966 -0.17004532 -0.14207678 0.12772764 -0.06924044 0.034059033 0.028303342 -0.049893748
-0.004109173 0.071079805 0.03377097 -0.16362965 -0.074826695 -0.12394491 0.12233411 0.059296656
0.087014794 0.08489809 0.06011752 -0.05548398 0.10642156 -0.06780616 0.09832741 -0.12691215
-0.03944067 -0.12505193 0.0067047607 -0.030597555 -0.13957249 0.024783157 -0.14224523 0.08553031
0.14501265 0.04354712 0.053089354 -0.013701217 0.061224665 -0.011910001 0.03654992 -0.09730845
0.09674019 -0.11481989 -0.06852019 -0.079207346 0.06778122 -0.1573064 0.11923994 0.011949188

bias f4 [20]
00000000: 0b3f f8bd 9d08 173e bd88 0c3e 6ed6 463e
00000010: 5b59 afbc 4ba7 873c 937d 4fbd cd55 e7bc
00000020: 746b 163e 95bd f33d 0c04 74bd b5d5 1f3e
00000030: 4738 18be 8d7a ed3d da9c 103d fb77 1b3e
00000040: e338 213d 1ce1 28bd 4580 9cbd f47b 23be
-0.121213995 0.1474938 0.13724037 0.19417736 -0.021404913 0.016559264 -0.050656866 -0.028239155
0.14689428 0.11901394 -0.059574172 0.15608867 -0.14865218 0.1159564 0.035305835 0.15182488
0.039360892 -0.041230306 -0.07641653 -0.15965253
