deploy/networks/go2/cheetah_v5/encoder.pt (torch, 37519 bytes, 8 tensors)

weight f4 [30, 52]
00000000: f132 7dbc 3c00 40bd d28f 6cbd 4a51 983d
00000010: 122c 0d3b 31d1 683c bae9 7dbd 84b3 993c
00000020: ed37 263d 39fa 813c da2a c8bc 50f2 6c3d
00000030: 8263 c0bc a27c bfbd 5351 4c3d d75f a4bd
00000040: 1f50 92bd e2ed 64bc 4a2b 3e3d 619d 72bd
00000050: ef69 113d f169 80bc 8a37 d43c 30c0 e13d
00000060: 2776 c4bd 55a1 9abd eb4d 92bc edd6 9b3d
00000070: 32fa acbd 8424 8738 926c 15bd 1243 6cbd
00000080: 200e 81bc ec12 3c3c 66f7 f6bc 4ef4 73bd
00000090: c07b dc3c c9ce bb3c a078 07bd 2fdb b0bd
000000a0: 2855 413d 9976 b43c 2060 293d 311c 2a3d
000000b0: 4ed7 d5bd e44f 073d beff cdbd fd30 26bc
000000c0: c4e3 493d 33d9 92bd 7a3e d53d c982 c13d
000000d0: a5c8 18bd 3a3b 0ebd 8b87 ba3d bd74 f83c
000000e0: 65c9 e33a 9b14 45ba 89e4 e1bc c54b 8cbd
000000f0: aa88 b23d 949d c1bd 3d00 d63d 724e cc3d
00000100: 6754 8bbc 4853 aebd 61a3 723d 32c3 b3bd
00000110: 5036 553d 5a87 383d f7f4 c23c d31a c83b
00000120: 5ccf 293b a9e9 05bd ea76 b2bb 64a4 203d
00000130: 8893 b0bd 9e9f 72bd b463 ca3c e425 9dbc
00000140: c236 b2bc f15f b2bd 193a 6f3d e9a6 a0bb
00000150: d6b6 31bd aad4 ac3b 8793 033d bda9 28bd
00000160: 0459 3c3d f685 d439 60f6 47bd 78c1 213d
00000170: 1d27 3dbd 2649 3b3d 9e7d 28bd 1123 083c
00000180: 67e6 9ebb c001 75bd d1a5 fabb 38a3 a23d
00000190: ad09 d2bd 474e c4bd df0d 47bd 444d 013e
000001a0: 7552 383c 075a 323d 37df aebc 21a3 623d
000001b0: ac1d d43d 35da a13c 5739 05be c7b6 1c3e
000001c0: 7f24 b43d 9285 883a 3b47 69bd f05b 14bd
000001d0: 8450 c1b9 f28d 4fbd 4a8a c8bd 2086 18bc
000001e0: d9b5 5d3c 4568 6939 acf2 43be f6ff 29bd
000001f0: d2cd 813d c5fb 5c3d 2fda 0c3c 05dd 84bc
00000200: a050 d7bd 2e79 90bd 186e c8bd 8a98 82bd
00000210: 090b b639 3f74 8fbc 0cca 1bbe db9b c43c
00000220: ef8c a4bd 6d8d 3e3c f031 0abd 21d4 143d
00000230: 1cff 4b3c f76d 8c3d 77bf 1d3d 40da 083d
00000240: 5cbd cdbc f804 34bc 2976 583d 3eeb 05bd
00000250: 9316 2a3b 7dda edbb 5f06 8dbc 3b0f eb3d
00000260: f32c 46bd 8bab acbc 9eb4 bebd c92a 8a3c
00000270: e08f 293d 5ba5 3f3c bf4a 17be 782b d9bb
00000280: 885d 963c 35bd 92bc 50b4 bcbd 8a95 e43d
00000290: 2168 6f3c b22f a53d fa3b c0b9 a264 933d
000002a0: 1d16 633d 2535 79bc d985 07be 64b8 113e
000002b0: 990b e4bc 0003 f2bc 6eb4 60be 17c3 e23d
000002c0: ca83 5bbd eb4e 1c3d bc35 cc3c 1fb7 803c
000002d0: 87f0 ec3c d6bd f9bb 8edf 283c 2083 a23d
000002e0: ed8b ee3b 0a6b 61bd 923f 843c e429 ebbc
000002f0: 4a28 5c3d 5457 f2bc 4cca 0dbd 0c2d 3d3c
00000300: fa53 8cbc 8112 043d 215f 0c3d 859f acbc
00000310: 190d 443d a56a 2a3d 39bc 953c d4b1 8cbb
00000320: 1e3b a13d d2b6 b8bd 55df ab3d b1da 85bc
00000330: ec56 973d 511d c7bc 4f7c d73d 295c 95bc
00000340: ff0f 833c c110 343d 2d11 383d a4b6 d9bc
00000350: 7137 4e3d 8e1a eb3c 4e12 d23d 5d52 71bc
00000360: f203 d63c 9d3f bebb 3392 c33b 95f7 4ebb
00000370: dd16 663d d6f5 bebc 4d05 0f3d 1d24 34be
00000380: e139 26bd 51cc 8f3b 7503 023e b70b 82bc
00000390: 8bf1 8ebd 70bb 0a38 2be9 a3bc dfe3 6bbd
000003a0: 9bd7 a03c 7565 04bd 137f 283d a004 33bd
000003b0: cd90 cd3c 8931 57bd 9009 9d3d 45b4 9d3c
000003c0: cf3a 463c 0024 b2b8 da70 cd3c e07b 2b3d
000003d0: f252 4fbc 627e 293c 30a8 27bc 1f5b a03d
000003e0: 03bc a1bc b7d2 503d 66c9 c0bd c57d 97bc
000003f0: 4ee7 68bd 4756 b0bd d22c 193e e8e4 ee3d
-0.01545404 -0.046875224 -0.057754345 0.0743738 0.002154116 0.014210031 -0.061990477 0.018762358
0.04058068 0.015866386 -0.024434496 0.057848275 -0.023484949 -0.09349944 0.049882244 -0.080260925
-0.07144188 -0.013972731 0.046428002 -0.05923212 0.035501417 -0.015675517 0.02590539 0.11022985
-0.09592848 -0.07550303 -0.01785942 0.07609353 -0.084461585 6.444103e-05 -0.036480494 -0.05768115
-0.015753806 0.011479121 -0.030147266 -0.05955916 0.026914477 0.022925751 -0.03307402 -0.08635556
0.047200352 0.022029208 0.041351438 0.04153079 -0.10441457 0.033035174 -0.100585446 -0.010143516
0.04928948 -0.07170334 0.10412307 0.094487734 -0.037300725 -0.03472445 0.09107884 0.030329103
0.0017378746 -0.0007518024 -0.027574794 -0.068503894 0.08717473 -0.09453884 0.10449264 0.099759
-0.01700802 -0.085119784 0.05923784 -0.08777465 0.05205375 0.045050956 0.023798449 0.0061067133
0.002591095 -0.03269354 -0.0054463046 0.039219275 -0.08621889 -0.059234254 0.024705745 -0.019183107
-0.021754626 -0.087097056 0.058405016 -0.0049027097 -0.043387257 0.005274375 0.032123115 -0.0411775
0.04598333 0.000405356 -0.048818946 0.039491147 -0.04617988 0.045724057 -0.041135423 0.008309142
-0.0048492434 -0.059816122 -0.0076491614 0.07941288 -0.10255752 -0.09585243 -0.048597213 0.12627131
0.011250128 0.043542888 -0.021346672 0.055331353 0.10357222 0.01975737 -0.13010155 0.15304099
0.087960236 0.0010415784 -0.056952696 -0.03622049 -0.00036871817 -0.05067248 -0.097920015 -0.009309322
0.013532125 0.00022259455 -0.1913554 -0.04150387 0.06338085 0.053951044 0.008596941 -0.016218672
-0.10513425 -0.07054363 -0.09786624 -0.06376751 0.00034721967 -0.017511485 -0.15213794 0.024000099
-0.080346934 0.011630398 -0.03373903 0.036335114 0.0124509595 0.06856912 0.038512673 0.033411264
-0.025114708 -0.010987513 0.05284706 -0.032695048 0.0025953397 -0.007258712 -0.017214952 0.11477514
-0.04838271 -0.021077892 -0.09311794 0.016866105 0.041396976 0.011697139 -0.14774607 -0.0066274963
0.018355146 -0.017912487 -0.092140794 0.11161335 0.014612229 0.08065738 -0.0003666578 0.071969286
0.05544101 -0.015210425 -0.13234653 0.14230496 -0.027837561 -0.029542446 -0.21943828 0.11072367
-0.05359248 0.0381612 0.024927966 0.015712319 0.028923286 -0.007621507 0.010307206 0.07935166
0.007279864 -0.05503372 0.016143594 -0.028706498 0.05374936 -0.029582657 -0.034616753 0.011546385
-0.017129887 0.03224421 0.03427041 -0.021072159 0.047864053 0.04160561 0.018278228 -0.0042936597
0.07872604 -0.09019245 0.083922066 -0.016339632 0.07389626 -0.024305971 0.10521757 -0.018232422
0.015998838 0.04396129 0.044938255 -0.026576348 0.05034584 0.028699186 0.102573976 -0.01472911
0.026124928 -0.005805923 0.005968356 -0.0031580676 0.056174148 -0.023310583 0.034917165 -0.17591901
-0.04058254 0.00438837 0.12696631 -0.015874727 -0.069796644 3.307633e-05 -0.020008644 -0.05759036
0.019634059 -0.03232332 0.041136812 -0.043705583 0.02509346 -0.052537475 0.076678395 0.019250998
0.012098982 -8.494407e-05 0.025078226 0.041866183 -0.012654053 0.010345073 -0.01023297 0.0782988
-0.019742971 0.050982203 -0.09413414 -0.018492589 -0.056861214 -0.08610206 0.14958504 0.11664754

bias f4 [30]
00000000: c622 5a3e 1868 333e f1f9 adbd 3bb5 a53d
00000010: 1683 eabd 9993 133e 9190 b4bc f80a 4a3d
00000020: 7785 34bd 1c3b 57bb 99eb 323e eac5 1b3e
00000030: abe0 143e aa37 a73d cae7 eabd 3e7b f7bd
00000040: 302e 36be 1c19 2a3e a545 10be a935 3f3e
00000050: 6c27 5e3e 7055 8f3d 66c1 10be da46 e9bd
00000060: a0c6 623d 7a6f 473d ac66 22be a97c e8bd
00000070: e62b c6bd 014f 023e
0.21302328 0.17520177 -0.08494938 0.080912076 -0.11450784 0.14411773 -0.02204159 0.049326867
-0.044072594 -0.0032841628 0.17472686 0.15212217 0.14538829 0.08164914 -0.114699915 -0.120840535
-0.17791057 0.16611141 -0.14089067 0.18672813 0.21694726 0.06998718 -0.14136276 -0.11390467
0.055365205 0.048690297 -0.15859479 -0.11351902 -0.09676342 0.1272545

weight f4 [20, 30, 4]
00000000: d844 6abd 2eba babd a19d f43a 8bf2 b5bd
00000010: 5467 b7bc 2481 373c 3907 9ebb 40bc 48bd
00000020: 976d 4dbd 02a2 c63c 37b9 c8bc ecb6 96bc
00000030: ef1c 59bd 4c08 02bd f326 1abd e5a1 e63c
00000040: 2a9c 1dbc f795 633c 92c9 1e3c 38a0 19bd
00000050: b71d 5b3b 88e4 97bd 792b 44bd ed78 98bd
00000060: 5db5 9abc 0a20 80bc a2dd 7bbb 0c0c c53d
00000070: 50c8 85bd 83ca a7bc 5cef 16bd a314 20bd
00000080: 5af8 b2bc a815 ad3c 8ef8 9d3d eb58 823c
00000090: 24f2 173d 9724 893c ca31 c03d e66f d13c
000000a0: 4e94 903c b7ef 34bd 994f 7b3c f538 8bbc
000000b0: b443 12bc 002d 2f3d 7618 893b 90a9 203c
000000c0: 4509 103b 626f 973a 74dc a53b 1a4c a3bb
000000d0: 51be cfba b8ef 603d acfe 80bd 8539 8d3d
000000e0: 322d ea3c 30d8 88bc d011 a7bc f63d 6ebc
000000f0: 331e 993d 5a08 adbc f2be 6cbc 1645 dd3c
00000100: a2e8 e13c c8db c7bc b601 2d3d 0756 ffbc
00000110: b0a8 c43b b0dc 493c c5e7 0d3d 3a6f 3ebd
00000120: c2ed 473a e886 713d ad8a 95bd 3873 6a3c
00000130: 4f27 94bc 162a e7bc db82 a0bc 55c3 3f3d
00000140: b918 a5bc 437a cb3b 9413 72bb 616b 9ebb
00000150: 5726 c6bd ce4f 6abd 6ff6 7bbc 8c9e fe3b
00000160: 893e 3c3d 8c28 613d cbcd 7abc 0f2a 413d
00000170: 11bf 54bc 3584 8c3d 14cd 62bd 8c96 093d
00000180: ddd8 51bc d21f ff3b b2cc 18bc a44b 46bb
00000190: 4cf2 183c c47e 383d 1173 9ebd 1aa0 bbbc
000001a0: fb5c 2f3d 3822 55bd 1920 e3bb 56ff 21bd
000001b0: 4802 9e3c 0cd4 2ebd bc44 803d 0a1b a5bc
000001c0: 1933 ed3b 4039 d5bb 65ac 8cbb 007c 16bd
000001d0: fb3e 91bd 9f6e c03c aa71 b6bd 4bfb 7dbc
000001e0: 6abc 98bd d831 f0bc 8ca5 df3c 348b d13c
000001f0: 381d 6ebc 55c5 fd3b c1ee 5cbd 03c6 d93c
00000200: b079 9cbc 2413 eb3c 1066 f8bc f566 533c
00000210: 4c46 9e3c 1b89 a9bc 732d 8ebc 4ede eabc
00000220: 99c0 3fbb e315 bdb9 394f e73d 4539 063d
00000230: 4279 ce3c 2368 eabc 2045 04bb ff14 56bc
00000240: 80e2 bf3c 6eaf 143d f46a a73d 1710 c5bc
00000250: 0556 4e3c 05b6 ebbc 8bd7 aebd 29e2 19bd
00000260: 9e9f fd3c 5573 e7bc 77e1 2cbb f62f 883c
00000270: 4dc7 4fbc dd51 673d 10dc e0ba 5155 173d
00000280: 7b7c 823d d27f e53c 2678 513c 7498 1abd
00000290: 1355 d8bc 286b 2dbd b033 293c b9f7 f7bc
000002a0: fae7 f4bc 816a 49bd 9a7e cb3c 15f1 72bd
000002b0: f643 a73c 310f 823d 9f7c c6bd c429 d0bd
000002c0: 9474 4d3d 72a7 8f3b 2013 f73c 1248 a33d
000002d0: 0755 0dbc 1b4e 323c 54f4 0dbd c792 b8bb
000002e0: 636a 983c 472f 123c 2dde 57bd b070 2e3c
000002f0: 4e67 023c ab89 01bd 9c08 32bd 80c6 013d
00000300: 2faa 25bd fa7d 7bbb 12d7 053d 0a2b 43bd
00000310: 4e23 543d 71cd b1bc a738 8fbd f014 42bd
00000320: 8bc8 243d 01b3 023d 450e a13c 647a ff3c
00000330: 9b75 0abd 7a72 97ba 8c5c 8fbd 4e14 d0bc
00000340: 192e c53c a74e 2b3d e74a b5ba 400e 013d
00000350: 7e15 2ebd 81e1 b13c 6f52 d3bc 89ed a63c
00000360: cfc0 17bc dc11 7dbd 6dc7 d63c 1413 e2bc
00000370: 41b4 d03c 1bcb 0a3d 07a6 093d ee77 17bd
00000380: 5873 6abd a2c2 413d 11d2 8a3c 0801 87bc
00000390: 1e4f 02bd c200 4bbc 5513 5dbd 22cd fdbc
000003a0: 660d 203d 3a70 2bbd c2d4 d83c c1e7 db3d
000003b0: ef2a 073d aaed 8b3d 0c1b 623d 8fe3 ad3b
000003c0: 6b7b ab3c c982 04bd 11d8 71bd 78e1 163d
000003d0: c1cf 5dbd d88c 4bbd 0170 36bd 0271 5dbb
000003e0: 7710 a3bc 1a8d d1bc e26e 5a3b 4806 60bc
000003f0: e07c f83c b89a 1cbd 4135 a6bc 524f 993d
-0.05719456 -0.09117542 0.00186627 -0.08884152 -0.022388138 0.011200223 -0.0048226384 -0.049007654
-0.05015334 0.024247173 -0.02450238 -0.01839777 -0.05300611 -0.031746194 -0.0376348 0.02815337
-0.009619752 0.013890735 0.009691613 -0.037506312 0.003343446 -0.07416636 -0.04789302 -0.0744494
-0.018885309 -0.015640277 -0.0038431664 0.096214384 -0.06532347 -0.020482307 -0.036849365 -0.03908218
-0.021846939 0.02112849 0.07713424 0.01591154 0.037096158 0.01674108 0.093844965 0.025566053
0.017648842 -0.044173922 0.015338802 -0.016994933 -0.0089272745 0.042767525 0.004183824 0.009806052
0.0021978181 0.001155358 0.0050616805 -0.0049834372 -0.0015849565 0.054916114 -0.06298575 0.068957366
0.028586004 -0.016704649 -0.020394236 -0.01454114 0.07476463 -0.021122146 -0.014449822 0.027010482
0.027576748 -0.024396792 0.04223796 -0.03116895 0.0060015544 0.012320682 0.03464486 -0.046492793
0.0007626676 0.058966547 -0.07301841 0.014309697 -0.01808515 -0.02821831 -0.019593647 0.046817143
-0.02015339 0.006209643 -0.003693794 -0.004834578 -0.096752815 -0.057205014 -0.015378579 0.007770365
0.045958076 0.05497031 -0.015307854 0.04715925 -0.012985007 0.06861154 -0.05537136 0.03359084
-0.012808052 0.0077857757 -0.009326147 -0.0030257488 0.009335112 0.045042768 -0.07736791 -0.02290349
0.042813282 -0.052034587 -0.0069313166 -0.039550148 0.019288197 -0.042682692 0.0626311 -0.020154495
0.0072387573 -0.006507069 -0.004293012 -0.03673935 -0.07092091 0.023490248 -0.089083984 -0.015501807
-0.07457812 -0.029320642 0.027300619 0.025579073 -0.0145333335 0.007744471 -0.05393863 0.026583677
-0.019100994 0.02869565 -0.030322105 0.012902965 0.01932063 -0.02069526 -0.017355656 -0.028670456
-0.0029259084 -0.00036065196 0.112944074 0.03276946 0.025204305 -0.02861411 -0.0020182803 -0.013066529
0.023423433 0.036300115 0.081746966 -0.024055524 0.012593751 -0.028773317 -0.08537205 -0.0375692
0.0309599 -0.028253237 -0.0026379505 0.016624432 -0.012681794 0.056474555 -0.0017155427 0.0369466
0.06371399 0.028015051 0.012784993 -0.037743047 -0.026407754 -0.04233852 0.010327265 -0.03026949
-0.029895771 -0.049173836 0.024840642 -0.059311945 0.020418148 0.06350554 -0.09691738 -0.10164216
0.050160006 0.0043839747 0.030160487 0.07972731 -0.008626229 0.01088288 -0.034656838 -0.0056327316
0.018605417 0.008922405 -0.052702118 0.010646984 0.0079592 -0.03162543 -0.04346524 0.031683445
-0.040445503 -0.0038374648 0.03267581 -0.047648467 0.05179148 -0.021704407 -0.069932275 -0.04738325
0.040230315 0.031908993 0.019660125 0.03118629 -0.033803564 -0.0011554502 -0.07000074 -0.025400307
0.024069833 0.041823056 -0.0013831527 0.03150773 -0.042500965 0.021713974 -0.025796143 0.020376937
-0.009262278 -0.06178461 0.02621814 -0.027596988 0.025476577 0.033885103 0.0336056 -0.03697961
-0.057238907 0.047304757 0.01694587 -0.016479984 -0.031813733 -0.012390317 -0.053973515 -0.030981604
0.039075278 -0.041855074 0.026468638 0.10737563 0.03299993 0.0683244 0.055201575 0.005306668
0.020932874 -0.03235129 -0.059043948 0.036836118 -0.054153208 -0.049694866 -0.04454041 -0.0033789282
-0.019905312 -0.025579978 0.0033330251 -0.013673373 0.030332983 -0.03823349 -0.020289065 0.07485832

bias f4 [20]
00000000: 2745 ecbd 163c d13d b946 62bd ab98 91bd
00000010: b850 b33c 8544 22be 3591 ce3d 1bec b5ba
00000020: 1ddb fe3d c668 d43d ca13 9cbd f9d3 553c
00000030: 0892 8ebc 448a 3f3d 027f 42bd b6a8 c73d
00000040: cf68 bf3d 9d63 8dbd fb2c f53d 48d4 c5bd
-0.11536627 0.102165386 -0.055243228 -0.07109197 0.021889076 -0.1584645 0.1008629 -0.0013879569
0.12444136 0.103715464 -0.07620962 0.0130510265 -0.017403618 0.04676272 -0.047484405 0.09748976
0.093461625 -0.06903765 0.1197147 -0.0965963

weight f4 [10, 20, 2]
00000000: 65f9 4a3d 6675 cb3c a47c ba3d 4f53 ef3d
00000010: f1d1 bfbc 4dc1 963c fcbf 503d 0a31 a43d
00000020: dbe5 9b3d 0e21 3a3c d3bd e53d afef 023d
00000030: a379 863d 60c2 623d ec15 f93c 5ab1 94bc
00000040: b9f4 fb3d 26c5 22bd c2f6 71bd 5a0d 933d
00000050: 3960 343d 98f1 383a b667 583d a980 093e
00000060: 8bf1 4cbc 9a04 b13d 0b16 013e 5d96 e33d
00000070: 9b6d 0dbe 6933 dfbd 8427 ac3d 3edf e6bd
00000080: ed50 fdbb e5df c1bd 60ac 7c3d dafa eebd
00000090: 8f8c cfbd 447d b53c 9120 6dbd 36da c93c
000000a0: c0de be3b 97d9 c4bd f73c f43b 51ec e7bd
000000b0: 1958 3a3d e803 033e db3b 7e3d 79e9 cf3d
000000c0: 3457 97bd e40a 76bc 0a86 a23b b4b3 c83d
000000d0: 12e1 073c 9d86 a8bd c1f0 563b 4a7d 2ebd
000000e0: db41 9e3c f87c 0e3c 8eff 00be 085e 9f3c
000000f0: ea15 833c f022 b03c 4658 8d3c 7d21 ffbc
00000100: 07de 97bd 0724 af3d 139a 93bd db6a b7bd
00000110: eba0 173e adff 1e3e f15b 203c b87d bd3d
00000120: 5980 2f3b 5c44 963d 3212 24bd 4f86 bcbc
00000130: 8d35 f6bd 2491 013d 4c92 40bd c70b a9bd
00000140: c5c4 e6bd 5552 c1bd b0e7 203d 414e 813d
00000150: 0d27 0a3e 16b8 d93d 524c 06be 67ae 1e3d
00000160: aa6c 02bc aab3 ab3d c228 3fbd 70ee 8bb9
00000170: c8be 873d 8f46 b13c 2a11 5d3d 61bd 013d
00000180: 230f 183b 085f 973d b810 283d 2e2a d43b
00000190: f6bb bbbd 37f4 443d c073 393d 490a bf3c
000001a0: a5e4 113d 2de1 693d ab93 b9bd ca63 d53d
000001b0: c5ca cb3d 7d5a fbbb ee19 10be b023 0bbd
000001c0: e362 97bd 8ac0 8c3d 89bd 94bd fb02 413d
000001d0: a16f b73d aeca 08bd fcb3 d7bd 1a60 d6bd
000001e0: b0d1 0e3e 2946 c23d 9e00 36bc bd16 64bd
000001f0: 845b 303e 4bb7 b0bc e522 d4bd f6e7 3b3e
00000200: 0f56 d4bd f9a0 02be ac0a 1e3e 075e 323e
00000210: b609 913d 5209 04be 1651 9dbc 8750 913b
00000220: 31e3 19be f1b2 0abe 01d1 1ebe 7507 38be
00000230: 1a06 1abd c4f4 f13d 4a3c e73b 92d7 52bd
00000240: 50f6 efbd d3df b5bb 30f5 1dbe 67be 873a
00000250: 7aa5 403e 2533 533e 048d 9bbd 2a6b 5c3d
00000260: ad69 8abc 7400 97bd de49 353d 8f78 793c
00000270: 0e82 ae3d 1986 51be 06fb e03c 48ef 873d
00000280: 1ba3 983d ea0d 253e c95e 90bd c581 d5bd
00000290: 00b5 e43c 5903 94bc 122f dcbd 0a1f 0b3e
000002a0: 37a7 d5bd 5837 bcbd e6b2 c9bc d778 833d
000002b0: 554f a9bb 6a54 05bd bbe1 ef3c 0372 bebc
000002c0: 8da0 b1bd dc86 e5bd a432 a1bd bdb5 0cbe
000002d0: ba3c b9bc 855d 33bd c6f0 53bd 34ae 14bc
000002e0: 5d61 f3bc 8b43 01bd a91a b1bc 18f2 24be
000002f0: a581 903d 616e ce3d 2cae 4abd 4b4f 6d3d
00000300: beca 3ebd 7a25 8ebd 73f2 18ba c950 873d
00000310: b6d7 debd 62ee db3c 9b87 3f3d 29bb 223e
00000320: 949f 09bd f34e 3f3d e8d9 453c 60ad e23c
00000330: 4c79 673c fe92 193d 3d10 84bd 3ab0 babd
00000340: b220 983d 6db2 473c 20cb 463e 07e6 283e
00000350: 70d2 37bd a8f0 8abc 71d8 783d 3ad9 243c
00000360: 1f2b 713d 3f14 57bd 0e04 4ebd 34d9 b3bd
00000370: d0c2 85bb 1b07 b83d 828a 17be 99f0 9dbd
00000380: 8a00 da3c 3a63 923c 89e0 60bd 4f1f ea3c
00000390: 65cd da3d 1a46 113e 6456 88bd 10ae 19be
000003a0: 3a99 c0bd ae1f adbc 8651 c93d bd72 e03d
000003b0: 880c 23be 411b 66bd 0685 91bd fe4d 003e
000003c0: 0527 363c 7508 783c 5224 f6bc 3944 1d3c
000003d0: bc5f 66bb ab78 b73d c77c 81bd 718a a1bd
000003e0: 1520 333b 4f64 443c 9190 823d 410b ecbd
000003f0: 3324 173b 2402 f23d 0673 813d c3ff 953c
0.049554247 0.024836253 0.091058046 0.11685812 -0.023415538 0.01840272 0.05096434 0.08017166
0.07612201 0.01136042 0.11217847 0.03196686 0.06566169 0.05536115 0.030405961 -0.018150974
0.123025365 -0.039738797 -0.059073217 0.07180281 0.044037078 0.0007055043 0.05283328 0.13427986
-0.01250876 0.08643456 0.12606065 0.11112664 -0.13811342 -0.108984776 0.084059745 -0.11273049
-0.0077305944 -0.094665326 0.061687827 -0.1166894 -0.10134231 0.022154458 -0.057892386 0.024640184
0.0058248937 -0.096118145 0.0074535566 -0.11324371 0.045494173 0.12794459 0.0620688 0.10151953
-0.073896796 -0.015017245 0.0049598264 0.09799901 0.008293407 -0.082288004 0.003279731 -0.042599954
0.019318512 0.008696787 -0.12597486 0.019454017 0.01600166 0.021501034 0.017254006 -0.031143898
-0.07415395 0.085517935 -0.07207122 -0.08955928 0.14807479 0.1552722 0.009787546 0.092524946
0.0026779382 0.07337257 -0.040056415 -0.023013262 -0.12021933 0.031632558 -0.04701452 -0.082541995
-0.112679996 -0.09439532 0.039283454 0.06313754 0.13491459 0.10630815 -0.13115051 0.03874054
-0.007960478 0.083838776 -0.04666973 -0.00026689796 0.066281855 0.02164009 0.053971447 0.031674746
0.0023202382 0.07391173 0.04103157 0.006474755 -0.0916671 0.048084464 0.045276403 0.023320334
0.035618443 0.05709951 -0.090613686 0.10419424 0.099507846 -0.007670699 -0.14072391 -0.03396958
-0.07391908 0.068726614 -0.072627135 0.047121983 0.089568384 -0.033396415 -0.10532376 -0.10467549
0.13947177 0.09486038 -0.011108546 -0.055685747 0.1722241 -0.021571776 -0.10358218 0.18350205
-0.10367977 -0.12756719 0.15433758 0.17418681 0.0708193 -0.1289418 -0.019203704 0.0044346484
-0.15028073 -0.13544823 -0.15509416 -0.17971595 -0.037603475 0.118142635 0.0070567476 -0.051475115
-0.11716902 -0.0055503636 -0.15425563 0.0010356427 0.18813124 0.20624979 -0.07595256 0.053813137
-0.016896093 -0.07373133 0.0442599 0.015226497 0.085209 -0.2046131 0.027463447 0.06637436
0.07452985 0.16118589 -0.07049329 -0.10425142 0.027918339 -0.018068003 -0.107511654 0.13586059
-0.10432284 -0.091902435 -0.024621438 0.06419533 -0.005166928 -0.032551207 0.029282441 -0.023247724
-0.08673201 -0.11207363 -0.07870987 -0.13741203 -0.022611964 -0.04379036 -0.05174329 -0.009074736
-0.029709512 -0.031558555 -0.021619158 -0.16107976 0.07055978 0.10079647 -0.04948251 0.057936948
-0.04658007 -0.06940742 -0.00058344676 0.066072054 -0.10880987 0.026847068 0.046760183 0.15891708
-0.03359945 0.04670615 0.012075879 0.027670562 0.0141280405 0.0374937 -0.0644841 -0.09115644
0.07428111 0.012188536 0.19413424 0.16493998 -0.044878423 -0.016960457 0.06075329 0.0100615565
0.058879014 -0.052509543 -0.050296836 -0.087816626 -0.0040820614 0.0898573 -0.1479893 -0.07711906
0.026611585 0.01786958 -0.054901633 0.028579382 0.10683707 0.14186898 -0.06657103 -0.15007806
-0.09404226 -0.02113327 0.098300025 0.109593846 -0.15922749 -0.056178335 -0.0710545 0.12529752
0.011117701 0.015138735 -0.030046616 0.009598785 -0.0035152277 0.089585625 -0.063226275 -0.07887734
0.0027332355 0.011986806 0.0637523 -0.11525584 0.0023062348 0.118168145 0.06320767 0.018310433

bias f4 [10]
00000000: 6f71 e63d 445e 963c 575a 8dbd 4da6 19be
00000010: eeae e3bc cc65 acbd bb22 d53c bb45 5abd
00000020: 818c cabd d4d5 353e
0.112521045 0.018355496 -0.069019966 -0.15004845 -0.027793374 -0.08417854 0.026017537 -0.053289156
-0.0989008 0.1775735

weight f4 [20, 30]
00000000: d660 af3d 4c63 03be fa64 40bd 8f75 aabc
00000010: 2448 90bd 40f2 f83d 63ce 713c 8ea6 8e3d
00000020: 878b 9ebc 8533 113e cca4 22be 3432 d7bd
00000030: f3b8 fc3c 500a e5bd 2c99 a3bd e4f9 9b3b
00000040: f9a8 2f3d d564 f4bd 8ea2 3f3e 6547 1c3e
00000050: 1ab9 e43b 116c 57bd da43 09be 41cf 043e
00000060: 31c8 11be 6735 053e 545d b73d 7b33 333c
00000070: a96c d53d 0144 aa3d d88e 2b3d afdb dc3d
00000080: 7ef0 373d 0c10 39bc 0e8c d23a 3c34 263d
00000090: 307a 833d a9d4 d7bd dc50 5c3d ecfe 5bbd
000000a0: eb29 263e 66a4 303e 9ed4 8fbd a183 9a3d
000000b0: b9ac 1f3e f00f bf3b 903d e33a 1d50 8c3d
000000c0: 0d66 b43b b022 67bd 2ddd 0d3d a6dd 13be
000000d0: 6128 323e 13be f3bd 7da8 94bd 7159 193e
000000e0: 370b 303e f8ae efbc 5835 093d 8b42 18be
000000f0: 21ab 34be 72d7 3abe 824d c7bd 93f0 d53d
00000100: 15ef 793c a07d 46bd 4cbf f43b cd07 66bd
00000110: 5285 c53d eced be3c 83a0 47bc 1566 0b3d
00000120: 1908 9a3d 086e 043e b0f9 d1bc de4f 373e
00000130: 0356 f5bd 1213 843d ae34 3a3d 8283 15bd
00000140: 6148 32be 70ad 193e 413e 103e abc7 b0bd
00000150: 975d 223e 3e5d 183e 3202 3b3e 4cfa 27be
00000160: fdea dcbd 5a9b eebd 9d96 adbd 138e c73d
00000170: 1696 203e 5c7d 91bd a391 2ebd 75d3 d3bc
00000180: f11b 283d d568 0ebd ae45 843b ab58 d13d
00000190: 9e36 bf3d 2fff 0b3e b98a 203d dedf 34be
000001a0: e879 b9bd 1d9c d93d 718c 673a fb0c 9bbd
000001b0: 59cb d73c 9d4c 923d c8bb 4e3d 97e4 a6bd
000001c0: 9359 48bc 515b ddbd b197 7b3d 9fb4 89bd
000001d0: 7d14 46bd f927 00be 530b 023d 15e2 683d
000001e0: 7ec7 65bd f5a5 193e 7b2a 1b3c f17d 30bd
000001f0: fac2 b93d ffa5 f73d ac88 08bd c379 99bd
00000200: c0ba a2bd 75a3 503d 3840 2cbd c1d1 fdbc
00000210: 5e8f 583d 2f67 a3bc ae39 4b3d be4a 3fbe
00000220: 86da 2e3d f181 413a 11a4 b9bd 3a8c 143e
00000230: 05e9 1c3e 4a71 f7bd 5beb aa3d c064 02bd
00000240: 70fd 2cbe 1fde 1ebc c23b 6e3d 8282 0a3d
00000250: e179 0e3e a469 45bc 66fc 053e 2581 a7bd
00000260: 290c a03c 48c6 aabc 1e07 cfbb a56e 15bd
00000270: 9b33 f9bc e08d d03d d806 803d 87ec 04bc
00000280: 35d4 08be 6697 27be d283 c0bc 5f0d f13b
00000290: 237d 25be 2cde 25be 7114 f53d e088 663a
000002a0: d510 413e fce4 ae3d 059a b33b 3691 a33d
000002b0: 71da 52be 7503 4dbd 30ba f13d bdd0 73bd
000002c0: 8fec 5e3d 2f52 db3c d147 023d feb0 0b3d
000002d0: a7e1 8c3d 9756 16bd 39a4 9ebd 296b 313e
000002e0: d682 803d bec9 79bc 3419 55be 6b81 f5bd
000002f0: abee 0d3b 0284 e13c 7d15 be3d e7fc 14bd
00000300: c43c 3b3d 2337 dcbd 9e32 353e 7e29 c9bc
00000310: 96b7 773d e7ef 0ebe 0041 283e 9951 7ebc
00000320: ffd8 25bc 875c 213e 9362 833d d769 00be
00000330: c95e b4bd 00be a13d 7ef5 0abe 9470 95bd
00000340: b7dd 0e3d 110a 2dbe 5b7f 11be e394 023e
00000350: 6902 8ebd 36f0 0b3d 6893 e73c 1d9a 4bbd
00000360: 7025 adbb 137d 8e3d f59d 023d 019f 27be
00000370: 5049 99bd 18d9 fdbd c95d fa3d e1fa 723d
00000380: 7852 b23d 2aaa ad3d a745 763d a218 63bd
00000390: 253f d93d e0b0 8bbd 0355 c83d 2cc8 01be
000003a0: 7f69 20bd fe7c ffbd 4b10 df3b d9f0 f8bc
000003b0: cab5 0ebe 106a c63c 794e 11be 718a af3d
000003c0: d5bd 143e 4451 333d ffc3 5a3d 04bc 68bc
000003d0: 3cb0 783d 4ee5 4abc 6871 0d3d 1776 cbbd
000003e0: 815e c23d ccf7 ecbd b421 8ebd c822 a4bd
000003f0: b85d 893d 75b8 21be 58a5 f23d 5174 363c
0.08563392 -0.12830848 -0.0469713 -0.02080801 -0.0704501 0.121555805 0.014758679 0.069653615
-0.019353641 0.1417981 -0.15883178 -0.10507622 0.03084991 -0.111836076 -0.079881996 0.004760014
0.042885754 -0.11933295 0.18714353 0.1526161 0.0069800736 -0.052593295 -0.1340479 0.12969686
-0.14236523 0.13008653 0.08953348 0.010937567 0.10421116 0.08313752 0.041884273 0.10784089
0.044907086 -0.01129533 0.0016063468 0.04057716 0.0641979 -0.105386086 0.05378805 -0.05370991
0.16226928 0.17250213 -0.070229754 0.075446375 0.15593232 0.0058307573 0.0017337073 0.06851218
0.0055053295 -0.056429565 0.034634758 -0.14440021 0.17398216 -0.11901488 -0.07258699 0.14975525
0.17191778 -0.029258236 0.03349814 -0.14869134 -0.17643405 -0.18246248 -0.0973158 0.104462765
0.0152547555 -0.04845965 0.0074690934 -0.056159783 0.096445695 0.02330681 -0.012184265 0.0340329
0.07521076 0.12932599 -0.025631756 0.1790156 -0.11979296 0.0644895 0.045460396 -0.03650237
-0.17410423 0.15007567 0.14086248 -0.08631834 0.15856014 0.14879319 0.18262556 -0.16404074
-0.10787008 -0.11650725 -0.08475993 0.097438954 0.15682253 -0.071039885 -0.04261936 -0.025857667
0.041042272 -0.034767944 0.004036627 0.1022199 0.09336589 0.13671564 0.039194796 -0.17663524
-0.09056455 0.10625479 0.0008832878 -0.07570835 0.02634208 0.07143519 0.05047205 -0.08149069
-0.012228387 -0.10808433 0.06142396 -0.06723904 -0.048359383 -0.12515248 0.03174908 0.056856234
-0.056098454 0.15004714 0.009470577 -0.043088857 0.09070392 0.12092208 -0.033333465 -0.07493927
-0.07945776 0.050937135 -0.04205343 -0.030983808 0.0528711 -0.019946663 0.049615555 -0.18680856
0.04268887 0.00073817285 -0.09064496 0.14506617 0.15323265 -0.12082155 0.08345672 -0.031834364
-0.16893554 -0.0096965125 0.05816246 0.03381587 0.1391368 -0.0120491125 0.13084564 -0.08178929
0.019537048 -0.020846501 -0.006317987 -0.036482472 -0.030420115 0.101833105 0.06251305 -0.008113033
-0.133622 -0.16366348 -0.023500357 0.0073563303 -0.16161017 -0.16198033 0.119667895 0.00087941997
0.18854077 0.08539769 0.005481007 0.07986681 -0.20591141 -0.050052125 0.118030906 -0.05952524
0.05442482 0.026772587 0.03180677 0.03410434 0.06878977 -0.036703672 -0.07746167 0.17326035
0.06274955 -0.015245853 -0.20810395 -0.11987575 0.002165715 0.027528767 0.09281442 -0.036374
0.045712247 -0.10752704 0.1769509 -0.024555918 0.060477816 -0.13958703 0.16431046 -0.015522384
-0.010122537 0.15757953 0.06415286 -0.12540375 -0.08807141 0.07897568 -0.1357021 -0.07296863
0.034879413 -0.16898371 -0.14208739 0.12752108 -0.069340535 0.03416463 0.028268531 -0.04970752
-0.005284004 0.0695745 0.03188892 -0.16369249 -0.074846864 -0.12394923 0.12224919 0.059321288
0.08707136 0.08479722 0.06012502 -0.055443414 0.10607747 -0.068208456 0.0978184 -0.12674016
-0.03916311 -0.12475012 0.006807362 -0.030388283 -0.13936535 0.024220496 -0.14190091 0.085713275
0.1452554 0.043778673 0.053409573 -0.014204983 0.060714945 -0.012383772 0.03453198 -0.09934633
0.094906814 -0.11570701 -0.06940022 -0.080144465 0.067073286 -0.15793021 0.11847943 0.01113613

bias f4 [20]
00000000: 49f7 f6bd 303e 163e 6fb7 0a3e a9c4 473e
00000010: 6966 acbc fb73 933c f55c 51bd 9d90 e4bc
00000020: 10de 173e 1998 f53d af10 72bd 4276 203e
00000030: dd4e 17be 155c ec3d 3c6d 103d e2ed 1a3e
00000040: 49dd 1d3d 0685 2bbd 2f0b 9cbd fb42 25be
-0.12058885 0.1467216 0.13546537 0.19508614 -0.021044927 0.01799964 -0.05111404 -0.027900988
0.14830804 0.11991901 -0.059097942 0.15670112 -0.14776178 0.11541001 0.035260424 0.15129808
0.038541112 -0.041874908 -0.076193206 -0.16138832
