deploy/networks/go2-legacy/bambi3.pt (torch, 79240 bytes, 8 tensors)

weight f4 [128, 48]
0.3217189 0.49141875 -0.17563722 0.0024297186 0.76417357 0.70180315 0.48962784 -0.69585675
0.2043779 -0.5595417 -0.33886072 -0.07681987 0.2862273 -0.0006000997 0.33919686 0.19839118
-0.20401405 -0.198669 -0.8637347 0.46151328 0.44651634 0.11792814 0.26782295 0.50801975
0.46456298 0.42969424 0.27052808 0.3089269 -0.07454773 0.14726712 0.22753707 -0.009189577
0.22692557 -0.39589778 0.24542192 -0.20686768 -0.034811694 -0.058100346 0.08218326 -0.069117405
-0.06378694 0.05363619 -0.324947 0.03694148 0.037598673 -0.14643578 -0.051887013 -0.00026736426
0.11336981 -0.050775297 -0.22575161 0.0061396607 0.41210216 0.59889776 0.49808875 0.41922104
-0.008243027 -0.22406727 0.04105725 -0.3953817 0.7053785 -0.37233716 -0.40181306 -0.29107103
0.04838248 0.30817366 -0.67925346 0.5551486 0.20599164 0.120311856 -0.41229084 0.028939044
-0.23311323 0.12939557 -0.6056213 0.012728045 0.20111907 0.36124974 0.8681286 -0.5278942
0.47510943 -0.5286374 -0.32125625 0.20472084 -0.23951468 -0.040176053 0.073541604 -0.0957033
0.116646 0.05985974 0.09045772 0.040167827 0.041681 -0.14989027 0.043027353 0.04867577
0.050527155 0.16979896 0.32450846 0.27415904 -0.7830985 1.06356 -0.16188866 -0.69596565
0.026819602 -0.3986875 0.18480402 -1.0150923 0.57205546 0.33991224 0.20181797 0.83817637
-0.42278928 -0.35887986 -0.21398145 -0.165795 0.10310546 0.2940098 -0.48203 0.20857681
-0.10882582 0.12457022 -0.044931315 0.053054526 -0.3352625 -0.30118138 0.1751563 -0.0078490805
-0.028103119 -0.20445547 -0.08608179 -0.26406768 -0.18572734 -0.055624314 0.18851073 -0.17843312
0.025113335 -0.027818702 0.16076714 0.13805264 -0.15904936 0.035553724 -0.0544592 0.08806205
-0.39930767 0.18937095 -0.1405947 0.040948097 0.15307678 0.3437667 0.28162766 0.32622012
0.26085624 0.20751847 -0.32696933 0.43394557 0.14234369 -0.88522696 0.35041922 -0.4449601
0.22227146 -0.11639397 -0.818978 0.3779468 0.261325 0.38344362 -0.50129575 0.5541098
-0.2023501 -0.49045125 -0.16815065 -0.079281926 -0.18631487 0.29946777 0.51749474 -0.135363
-0.32078284 0.15141416 -0.6217605 -9.227513e-05 0.10199076 -0.27317715 -0.4683869 0.22765465
0.17583826 -0.04007845 -0.387676 0.08877523 -0.24314074 -0.0016294013 -0.1465334 -0.2875985
0.20506288 0.11474936 0.29824802 -0.22432455 -0.7324597 -0.4190242 0.30192858 -0.5143897
0.0825654 -0.15312633 -0.14783533 0.27566817 -0.08258094 0.3197157 0.05272809 0.12497688
0.68382615 0.5622125 0.20074034 -1.226868 0.13159241 -0.70921993 0.21307111 -0.12640369
0.039855856 0.15396458 -0.046241675 0.007349336 -0.17534217 -0.20298961 -0.19723672 -0.44231164
0.094050765 -0.104527995 0.11883938 0.3601839 -0.08906297 -0.00915523 0.033759166 -0.07055475
-0.025942937 -0.06881038 0.11750449 0.09769232 -0.07673525 0.07579724 -0.11781772 -0.041939665
0.13135488 -0.5820724 -0.61142457 0.16947167 0.42495048 0.8151862 0.022738717 -0.3420501
0.055726916 -0.15699564 0.0012914304 -0.32315454 0.2520427 -0.14315781 -0.2567271 0.2892199
00000000: 57b8 a43e 3d9b fb3e 3eda 33be ea3b 1f3b
00000010: e1a0 433f 5fa9 333f 80b0 fa3e ab23 32bf
00000020: 7148 513e 203e 0fbf 277f adbe bc53 9dbd
00000030: 628c 923e 0250 1dba 36ab ad3e 0f27 4b3e
00000040: 0fe9 50be e36f 4bbe b81d 5dbf 784b ec3e
00000050: ca9d e43e 4f84 f13d 1720 893e 950d 023f
00000060: 33db ed3e e200 dc3e a882 8a3e ab2b 9e3e
00000070: 7bac 98bd 31cd 163e 7aff 683e e18f 16bc
00000080: 2d5f 683e 1db3 cabe e24f 7b3e 1fd5 53be
00000090: b596 0ebd a1fa 6dbd b24f a83d 6d8d 8dbd
000000a0: baa2 82bd 9fb1 5b3d 745f a6be f34f 173d
000000b0: 1101 1a3d 43f3 15be 7a87 54bd 062d 8cb9
000000c0: 6e2e e83d c2f9 4fbd 6e2b 67be 352f c93b
000000d0: 0eff d23e 5d51 193f 7d05 ff3e 24a4 d63e
000000e0: c30d 07bc e471 65be a62b 283d 786f cabe
000000f0: af93 343f faa2 bebe 71ba cdbe 4307 95be
00000100: b52c 463d f0c8 9d3e 8ee3 2dbf 381e 0e3f
00000110: 79ef 523e 1066 f63d c917 d3be 9311 ed3c
00000120: 3cb5 6ebe 4680 043e ff09 1bbf 4a89 503c
00000130: 28f2 4d3e baf5 b83e ad3d 5e3f 1324 07bf
00000140: 8b41 f33e c854 07bf b37b a4be 57a2 513e
00000150: 5643 75be a58f 24bd fb9c 963d 1700 c4bd
00000160: 19e4 ee3d 7d2f 753d e641 b93d 0587 243d
00000170: b2b9 2a3d d67c 19be 733d 303d 3f60 473d
00000180: 90f5 4e3d c7df 2d3e f925 a63e 935e 8c3e
00000190: 2579 48bf bc22 883f 24c6 25be ce2a 32bf
000001a0: c8b4 db3c c520 ccbe 443d 3d3e 8bee 81bf
000001b0: 3a72 123f fa08 ae3e 5fa9 4e3e ba92 563f
000001c0: d677 d8be 1abf b7be f41d 5bbe 2ac6 29be
000001d0: f528 d33d 7488 963e a3cc f6be 2995 553e
000001e0: 12e0 debd ac1e ff3d e609 38bd b44f 593d
000001f0: 87a7 abbe 7234 9abe 2c5c 333e 6e99 00bc
00000200: 8338 e6bc c65c 51be a64b b0bd e133 87be
00000210: 4f2f 3ebe 52d6 63bd f508 413e 2cb7 36be
00000220: 7bba cd3c 0ce4 e3bc 24a0 243e ac5d 0d3e
00000230: d6dd 22be c8a0 113d 9c10 5fbd e059 b43d
00000240: 0e72 ccbe 75ea 413e 0ff8 0fbe 31b9 273d
00000250: 29c0 1c3e 3002 b03e 8031 903e 5306 a73e
00000260: f38e 853e b97f 543e 8668 a7be 1d2e de3e
00000270: 8bc2 113e 3c9e 62bf 266a b33e cfd1 e3be
00000280: 219b 633e f65f eebd 8ba8 51bf 3e82 c13e
00000290: 64cc 853e b952 c43e eb54 00bf 24da 0d3f
000002a0: dd34 4fbe 6d1c fbbe af2f 2cbe 905e a2bd
000002b0: 53c9 3ebe d753 993e 897a 043f 999c 0abe
000002c0: a63d a4be 500c 1b3e b22b 1fbf d583 c1b8
000002d0: 88e0 d03d e0dd 8bbe 68d0 efbe 4d1e 693e
000002e0: f20e 343e 4d29 24bd 787d c6be cacf b53d
000002f0: e3f9 78be a391 d5ba da0c 16be 1c40 93be
00000300: 01fc 513e b601 eb3d f7b3 983e 56b5 65be
00000310: 7b82 3bbf 578a d6be 6296 9a3e 0baf 03bf
00000320: 0c18 a93d 26cd 1cbe 2562 17be 6124 8d3e
00000330: 3220 a9bd c7b1 a33e 69f9 573d e1f3 ff3d
00000340: 3b0f 2f3f 29ed 0f3f e08e 4d3e 030a 9dbf
00000350: 29c0 063e 708f 35bf 502f 5a3e f86f 01be
00000360: e53f 233d e4a8 1d3e e967 3dbd b3d2 f03b
00000370: e68c 33be 82dc 4fbe 6cf8 49be ac76 e2be
00000380: b09d c03d c612 d6bd 1062 f33d 066a b83e
00000390: a566 b6bd d1ff 15bc 0d47 0a3d 027f 90bd
000003a0: 4886 d4bc 75ec 8cbd 32a6 f03d e912 c83d
000003b0: 5f27 9dbd 953b 9b3d 6b4a f1bd edc8 2bbd
000003c0: e581 063e b202 15bf 5286 1cbf fb89 2d3e
000003d0: 1c93 d93e 0bb0 503f 8c46 ba3c 3121 afbe
000003e0: e841 643d 77c3 20be 3745 a93a 8374 a5be
000003f0: be0b 813e f697 12be bc71 83be a114 943e

bias f4 [128]
0.055496056 0.0006165334 -0.07945613 -0.21864532 -0.039846312 -0.25847456 -0.3208009 -0.407564
-0.22245854 -0.21696012 -0.23236854 0.054509062 0.07020404 0.0068391287 0.05511653 -0.16948725
0.13904567 -0.34266403 -0.04221678 0.12550783 -0.040391386 -0.13379826 -0.2886967 0.17928235
0.27428272 0.16784124 -0.12993762 0.027300993 -0.16083713 -0.07702302 -0.08583584 -0.29336068
-0.037223913 0.19409604 -0.1697004 0.10577076 0.06549278 -0.042304754 -0.043719545 -0.20124854
-0.10748671 0.0689478 0.07155379 0.022139575 -0.0045044534 -0.21272011 0.018786049 -0.26147056
0.072169244 0.06674389 0.23926547 -0.07066322 -0.05325113 0.09473321 0.049197476 -0.12215337
-0.07706046 -0.28189558 -0.07284184 0.023381667 -0.01945852 -0.019405484 -0.22632699 -0.015588682
0.16606815 -0.0796932 -0.20254317 -0.05987728 -0.30939952 0.009445081 0.059257768 -0.01416757
-0.12299709 0.16556056 -0.30049902 0.20780681 -0.034034826 -0.1713196 -0.0996882 -0.14382055
0.23913528 -0.065049216 -0.07675938 -0.15771304 -0.30138114 -0.09082787 0.0038654665 -0.3648389
-0.07917479 -0.29787973 -0.1307723 -0.30618206 -0.1191117 -0.2158077 0.10351549 0.018099787
-0.09454165 -0.16351886 0.11505799 -0.3977002 -0.12950557 -0.07934938 -0.039480165 -0.043776046
-0.2718226 -0.12521927 0.0866215 -0.3503376 -0.22124256 -0.07675142 -0.05462258 -0.016541675
0.1748176 0.14745943 -0.21810545 -0.312006 -0.11705835 -0.23374003 -0.013019798 0.16705337
-0.13960834 0.24854194 0.040299013 -0.29391617 -0.42419142 -0.0986889 0.04830732 -0.15663697
00000000: d54f 633d db9e 213a e5b9 a2bd 8fe4 5fbe
00000010: e335 23bd c756 84be 0440 a4be 3bac d0be
00000020: 2ccc 63be cb2a 5ebe 05f2 6dbe e544 5f3d
00000030: 23c7 8f3d c51a e03b dfc1 613d 118e 2dbe
00000040: fd61 0e3e a971 afbe 81eb 2cbd 2085 003e
00000050: 7071 25bd 6902 09be 0ed0 93be cb95 373e
00000060: c96e 8c3e 93de 2b3e 5e0e 05be 55a6 df3c
00000070: 7db2 24be 3fbe 9dbd b3ca afbd 5f33 96be
00000080: 1a78 18bd 1dc1 463e f1c5 2dbe 579e d83d
00000090: 1421 863d c047 2dbd 4413 33bd 1914 4ebe
000000a0: fe21 dcbd 8134 8d3d cb8a 923d 0e5e b53c
000000b0: 189a 93bb 4dd3 59be 33e5 993c 78df 85be
000000c0: 78cd 933d 05b1 883d 0202 753e e1b7 90bd
000000d0: db1d 5abd 7c03 c23d 4b83 493d 8c2b fabd
000000e0: e0d1 9dbd 9e54 90be 1a2e 95bd e98a bf3c
000000f0: 7967 9fbc 40f8 9ebc 43c2 67be ac67 7fbc
00000100: c50d 2a3e 3036 a3bd 7a67 4fbe e141 75bd
00000110: 9d69 9ebe 8bbf 1a3c 46b8 723d 181f 68bc
00000120: e6e5 fbbd b588 293e 02db 99be 4fcb 543e
00000130: 1a68 0bbd 686e 2fbe 5429 ccbd b245 13be
00000140: e1df 743e 8638 85bd 0634 9dbd 877f 21be
00000150: a14e 9abe f603 babd c453 7d3b 2acc babe
00000160: 6426 a2bd b183 98be 2ce9 05be e5c3 9cbe
00000170: d6f0 f3bd b2fc 5cbe eeff d33d 0146 943c
00000180: 0d9f c1bd 7d71 27be 86a3 eb3d 5c9f cbbe
00000190: 1c9d 04be ee81 a2bd f4b5 21bd 834e 33bd
000001a0: 552c 8bbe 7b39 00be 9d66 b13d 735f b3be
000001b0: 698d 62be d92f 9dbd edbb 5fbd 6882 87bc
000001c0: 6303 333e 9bff 163e 0957 5fbe 40bf 9fbe
000001d0: 4abc efbd 8c59 6fbe fe50 55bc 0a10 2b3e
000001e0: 7df5 0ebe c781 7e3e 9410 253d 2e7c 96be
000001f0: 9e2f d9be 681d cabd e5dd 453d 7165 20be

weight f4 [64, 128]
-0.20798664 -0.12667273 -0.50241077 -0.12122304 -0.13859195 0.28147522 0.09812691 0.4052512
0.07000176 -0.08212772 0.0022060487 -0.021982169 -0.37038925 0.08941856 0.146835 -0.17911121
-0.26489523 -0.01478361 -0.11086782 0.35733086 0.050935414 0.22014222 8.833349e-05 0.17294073
0.10529311 0.039500557 0.23206866 0.08918764 0.36950165 -0.15070377 0.046504527 -0.29500258
-0.037540644 -0.12880607 -0.04391956 0.013180783 0.25169545 -0.18183792 -0.26047266 -0.19970249
0.19621031 -0.087012395 0.079037726 0.06865996 -0.01793879 0.05020241 -0.10696837 -0.16858995
0.083896846 0.20849454 -0.015665738 0.13410677 -0.23972803 0.08531497 -0.02413351 0.07646882
0.13125785 -0.15539762 -0.055739347 0.009625239 0.011862973 -0.0060257474 -0.1160579 -0.07910205
0.056327015 -0.05565316 0.24845843 -0.034959476 0.02950328 -0.13363189 0.011845344 0.22113355
-0.15985116 0.20335986 0.27105686 0.06689421 0.092762634 -0.2004314 -0.24776937 0.16554257
0.17748223 -0.11340863 0.283082 0.3584391 -0.18049228 0.09050306 0.036787137 0.11468208
-0.28276616 0.100394145 0.0680062 -0.33538944 0.04259469 -0.37737575 0.2015006 0.16837892
-0.20863923 -0.22282863 0.052872967 -0.03824145 0.2549938 0.24416052 -0.14366512 -0.116481364
0.17184246 -0.18537788 0.28833297 0.040055208 0.047816467 0.24152315 -0.28123045 0.035712548
0.09408608 -0.12694564 -0.06726917 0.29767367 -0.22211798 0.07059438 0.107716404 0.11841978
0.17757328 -0.09519861 0.14279369 0.32737985 0.15932061 0.18576793 0.08414316 0.084519856
-0.024078619 -0.19287655 0.0061680633 0.26747906 -0.15646696 -0.30064702 0.11441005 -0.3939746
-0.0941153 0.13325202 -4.2124484e-05 0.10311266 0.3433918 -0.17531979 -0.17135537 0.073914476
0.014419154 0.024440533 0.21564054 -0.33437145 -0.32685715 -0.027165616 0.21239085 -0.085696325
0.24495745 0.028673843 0.022189142 0.34731188 -0.25349358 0.2821485 0.05872366 0.2038388
0.5963598 0.18256553 0.1874806 0.108385995 0.19368795 -0.10451279 -0.11889804 -0.44405624
0.041794628 0.2795113 0.1018645 -0.30915242 0.38352716 0.113969654 0.120080315 -0.012916215
-0.31036523 0.02587084 -0.42549253 0.030206207 -0.24550788 0.029621003 -0.07629791 0.047301542
0.07882129 0.08774239 -0.10447974 -0.20345157 0.22963534 -0.5011142 0.32533044 0.020422334
-0.38092455 0.06836348 0.16498865 -0.31187192 -0.12124998 0.15623051 -0.031912465 -0.3339239
-0.28042677 0.040743694 -0.113814235 -0.10181812 -0.12842035 0.22678193 0.20105596 0.08495157
-0.24078275 -0.06502223 -0.049561102 -0.3486887 0.09640782 0.14029625 -0.20492497 -0.13824923
-0.17030556 -0.2984369 -0.32618138 -0.027440645 0.20211104 0.12229606 0.092356764 0.03651124
0.20512311 0.15539204 0.33192906 -0.0964134 0.18906796 0.049517643 0.3123133 0.11393758
0.20126255 -0.060182333 0.23753668 -0.05758679 0.20120296 -0.30667368 -0.18311669 -0.09058319
0.16381763 0.008116111 0.2539934 0.09543873 -0.15834011 0.118377976 0.15186921 -0.35290185
0.08760208 0.087616205 0.19075266 0.06898847 0.08394978 -0.16398807 0.19499385 0.030687831
00000000: 73fa 54be 7fb6 01be fe9d 00bf c943 f8bd
00000010: 0ceb 0dbe 851d 903e c3f6 c83d 167d cf3e
00000020: 155d 8f3d 9432 a8bd 5b93 103b f313 b4bc
00000030: a9a3 bdbe 1421 b73d ea5b 163e ee68 37be
00000040: 59a0 87be f436 72bc ab0e e3bd 12f4 b63e
00000050: a7a1 503d f66c 613e ae3f b938 6017 313e
00000060: eaa3 d73d 56cb 213d 68a3 6d3e 02a8 b63d
00000070: 522f bd3e 1752 1abe 887b 3e3d 940a 97be
00000080: 38c4 19bd bde5 03be ffe4 33bd 36f4 573c
00000090: 3ade 803e b833 3abe ac5c 85be cf7e 4cbe
000000a0: 5beb 483e 8e33 b2bd 88de a13d 989d 8c3d
000000b0: 5ff4 92bc 0ba1 4d3d 3c12 dbbd d8a2 2cbe
000000c0: 1cd2 ab3d 987f 553e 6f55 80bc 4953 093e
000000d0: 447b 75be 9db9 ae3d a4b3 c5bc af9b 9c3d
000000e0: 7568 063e 8e20 1fbe f14e 64bd 2eb3 1d3c
000000f0: ea5c 423c a273 c5bb c4af edbd 4100 a2bd
00000100: 28b7 663d 91f4 63bd e36b 7e3e ab31 0fbd
00000110: ddb0 f13c ccd6 08be f912 423c d570 623e
00000120: 06b0 23be 913d 503e f7c7 8a3e d5ff 883d
00000130: 56fa bd3d e43d 4dbe 41b7 7dbe fe83 293e
00000140: e7bd 353e c942 e8bd 20f0 903e 5485 b73e
00000150: f8d2 38be ab59 b93d 1cae 163d 70de ea3d
00000160: bac6 90be 729b cd3d d646 8b3d 2ab8 abbe
00000170: c577 2e3d 6537 c1be 2c56 4e3e 866b 2c3e
00000180: 86a5 55be 302d 64be 5391 583d 11a3 1cbd
00000190: 8c8e 823e 3705 7a3e f31c 13be c88d eebd
000001a0: 78f7 2f3e b3d3 3dbe 61a0 933e ee10 243d
000001b0: 33db 433d d851 773e 70fd 8fbe 5247 123d
000001c0: 34b0 c03d 0afe 01be 6bc4 89bd af68 983e
000001d0: e572 63be c993 903d 6b9a dc3d 1286 f23d
000001e0: c5d5 353e 7df7 c2bd 8238 123e 559e a73e
000001f0: f124 233e f339 3e3e 4053 ac3d bf18 ad3d
00000200: 8640 c5bc 6e81 45be 771d ca3b 04f3 883e
00000210: e038 20be 68ee 99be d14f ea3d 0ab7 c9be
00000220: 86bf c0bd 3873 083e d2ae 30b8 bb2c d33d
00000230: 0dd1 af3e 0887 33be c877 2fbe 7960 973d
00000240: 513e 6c3c 8337 c83c e0d0 5c3e bc32 abbe
00000250: d259 a7be 6d8a debc fd7c 593e 8e81 afbd
00000260: 20d6 7a3e 68e5 ea3c 01c6 b53c ddd2 b13e
00000270: e9c9 81be c575 903e 3888 703d 1ebb 503e
00000280: 09ab 183f 75f2 3a3e eafa 3f3e 7af9 dd3d
00000290: 2256 463e cd0a d6bd d180 f3bd 575b e3be
000002a0: d830 2b3d 1b1c 8f3e 569e d03d 3a49 9ebe
000002b0: ac5d c43e ec68 e93d abec f53d 889e 53bc
000002c0: 31e8 9ebe 15ef d33c 28da d9be 0273 f73c
000002d0: 6b66 7bbe bfa7 f23c 1442 9cbd 43bf 413d
000002e0: 0e6d a13d 48b2 b33d 79f9 d5bd 9c55 50be
000002f0: 8725 6b3e 0549 00bf b691 a63e bd4c a73c
00000300: 8b08 c3be 2702 8c3d c9f2 283e adad 9fbe
00000310: e951 f8bd e4fa 1f3e a5b6 02bd 13f8 aabe
00000320: 1994 8fbe dce2 263d 7017 e9bd 0586 d0bd
00000330: a080 03be 8639 683e 9de1 4d3e 17fb ad3d
00000340: c18f 76be 602a 85bd 9500 4bbd 5387 b2be
00000350: 7771 c53d d2a9 0f3e dad7 51be 3591 0dbe
00000360: 9564 2ebe b9cc 98be 3f01 a7be 34cb e0bc
00000370: 32f6 4e3e 5b76 fa3d 8b25 bd3d cf8c 153d
00000380: cb0b 523e 171f 1f3e 9bf2 a93e 6374 c5bd
00000390: 089b 413e 03d3 4a3d 87e7 9f3e 1b58 e93d
000003a0: c517 4e3e c081 76bd d13c 733e 20e0 6bbd
000003b0: 2608 4e3e 5504 9dbe f182 3bbe ae83 b9bd
000003c0: cfbf 273e 70f9 043c 6c0b 823e 6275 c33d
000003d0: e923 22be 2770 f23d 9a83 1b3e 8daf b4be
000003e0: b868 b33d 2070 b33d aa54 433e d449 8d3d
000003f0: dded ab3d 7dec 27be 78ac 473e 0c65 fb3c

bias f4 [64]
-0.109479375 -0.29417133 -0.058561027 -0.16753212 -0.16302304 -0.067401916 -0.24738795 -0.08491333
-0.3169316 -0.20986031 -0.08602303 -0.09804719 -0.11130054 -0.12556945 -0.40658334 -0.096658535
-0.25209764 -0.07831994 -0.16158134 0.0155115295 -0.14997743 0.10222651 -0.16677153 -0.18935037
-0.2945686 -0.008107336 -0.14855844 -0.22829731 -0.11835339 0.04287045 0.10671146 -0.16333072
-0.26079407 -0.20138006 -0.07777795 0.072201386 -0.29717356 0.02599942 -0.05798299 -0.030529676
-0.32020018 0.062383544 -0.12858717 -0.26369113 -0.08510974 -0.35676798 -0.08521739 -0.16921051
-0.014209532 -0.040978804 -0.04218248 -0.35444295 -0.23963912 -0.21964772 -0.109825976 -0.21286128
-0.23989786 -0.296492 -0.20566173 -0.058708556 -0.38891718 -0.17906569 -0.13113426 -0.08787008
00000000: b936 e0bd a09d 96be b0dd 6fbd 8a8d 2bbe
00000010: 83ef 26be 040a 8abd 4453 7dbe 0ae7 adbd
00000020: dc44 a2be 9fe5 56be d82c b0bd f7cc c8bd
00000030: 8af1 e3bd 4795 00be b12b d0be e9f4 c5bd
00000040: f112 81be 3466 a0bd 9475 25be 1224 7e3c
00000050: af93 19be 225c d13d 28c6 2abe 10e5 41be
00000060: b2d1 96be a2d4 04bc b41f 18be c5c6 69be
00000070: 4363 f2bd ed98 2f3d 8a8b da3d 2b40 27be
00000080: cd86 85be 9336 4ebe 0c4a 9fbd 52de 933d
00000090: 2227 98be bcfc d43c 927f 6dbd 5f19 fabc
000000a0: 47f1 a3be e385 7f3d 5bac 03be 8602 87be
000000b0: 044e aebd 4baa b6be 7486 aebd 8545 2dbe
000000c0: 19cf 68bc 64d9 27bd 89c7 2cbd 8c79 b5be
000000d0: f563 75be 55eb 60be 71ec e0bd 4ff8 59be
000000e0: c9a7 75be cdcd 97be fd98 52be 6278 70bd
000000f0: 2720 c7be ff5c 37be 0f48 06be 3af5 b3bd

weight f4 [32, 64]
0.12012357 0.00675271 0.055353034 -0.08481212 -0.02796157 -0.29453194 0.13067622 -0.03561299
0.09300146 -0.28630316 0.2212251 0.0031591523 0.16186367 0.035163462 0.051632226 -0.35767508
0.33536413 0.06794534 -0.030776262 0.031079713 0.11874114 -0.09226858 -0.11975777 -0.07786418
0.18384488 0.08700803 -0.16694716 -0.10269342 -0.085688 -0.21822648 0.101746544 -0.09497677
0.097038835 -0.14559218 -0.14781655 -0.18709458 0.16449413 -0.07925979 -0.09964645 -0.09629361
0.2384239 -0.02263399 0.010681178 0.013393538 0.072382525 0.16381367 0.011844861 -0.1965447
-0.30358124 -0.27862054 0.10248474 0.10430222 0.30621466 -0.09303367 -0.24147524 -0.447653
-0.046296358 0.06314773 0.06917911 -0.1732378 0.1676887 -0.074337594 0.068159506 0.12516287
0.14093338 0.058327634 -0.40028426 0.03975824 -0.03333214 -0.16454023 0.16708069 -0.01206004
0.14110383 -0.4139947 0.018326232 0.036310293 -0.011850245 0.026114658 0.08558797 -0.07733441
-0.40885004 0.040995322 -0.79141754 0.097206645 -0.1339096 -0.17338695 0.132565 0.2177927
-0.12934619 0.0014381459 -0.09449823 0.11517188 0.24482912 -0.26936615 -0.27036315 -0.34929508
0.03642467 0.17454845 -0.0849707 -0.07880942 -0.04470452 -0.20585328 0.079386644 -0.10372607
0.15193933 -0.13090701 -0.28469503 0.27696916 0.14056885 -0.049846012 -0.24139805 -0.19242938
0.03572968 -0.35822326 -0.14126071 0.111428164 0.22419265 0.3486055 0.21105994 -0.1539453
0.29161114 -0.17985216 -0.012501574 -0.1172618 -0.044549137 -0.006463252 0.08434013 -0.28297117
0.13408396 -0.10836453 -0.19394043 -0.17464834 0.073297285 0.2173031 0.020047557 -0.034739926
0.07531043 0.017797312 -0.15874635 0.20328756 -0.19368717 -0.1938156 0.08127956 -0.17710987
-0.30805185 -0.08712452 -0.32897916 0.031029683 0.17260101 -0.20115 -0.0655527 -0.23820472
-0.2310358 0.035501007 -0.17641927 -0.2922722 0.068002634 0.08171736 -0.035991073 -0.29030448
-0.00415073 -0.054471586 -0.3280988 -0.11161101 0.4681382 -0.3484388 0.050945584 -0.32690758
0.151916 -0.010703825 0.020144325 -0.23397203 -0.14583431 0.008896569 0.35766593 -0.086989164
-0.19268346 -0.22812459 0.17525373 0.37717152 0.0030784747 -0.3001147 0.151435 -0.105482705
-0.039792 -0.08024003 0.3403059 0.08397484 -0.4734352 -0.07278541 0.023196585 0.04510482
0.06787957 -0.07914105 -0.17079921 0.099155396 0.17655522 -0.08747961 0.17022198 -0.037750974
0.20417841 -0.04780183 0.48864782 -0.13101295 -0.06486853 -0.02994714 -0.15990788 -0.39598826
-0.022492135 -0.052681617 -0.4082015 -0.1303174 -0.23217121 -0.17398912 0.228269 -0.16846164
0.08616329 -0.02113915 -0.020212365 -0.22021334 0.1710226 0.07936973 -0.19666754 -0.05369174
-0.15718435 0.055746213 0.025755484 0.07681256 0.09535482 0.016567571 0.20762707 -0.03846115
-0.0012340276 -0.1805887 0.090838894 0.09581014 -0.000600616 -0.19116604 0.22019622 0.009328447
0.31438333 -0.4436956 0.224232 -0.08470523 0.17906827 0.08104232 -0.119454235 -0.074765384
0.17827116 0.055151694 -0.05792927 0.21481483 0.11241835 -0.01676912 0.118915536 -0.050135467
00000000: 5903 f63d d645 dd3b ddb9 623d fab1 adbd
00000010: aa0f e5bc e4cc 96be fdcf 053e edde 11bd
00000020: 8d77 be3d 5496 92be d588 623e c809 4f3b
00000030: 97bf 253e 9007 103d 507c 533d 3021 b7be
00000040: d9b4 ab3e ed26 8b3d 801e fcbc e29a fe3c
00000050: 8e2e f33d 4ff7 bcbd 9043 f5bd 4177 9fbd
00000060: d541 3c3e 4431 b23d 32f4 2abe ee50 d2bd
00000070: 317d afbd c376 5fbe 7e60 d03d 2e83 c2bd
00000080: 4cbc c63d 1e16 15be 395d 17be b995 3fbe
00000090: 2671 283e f552 a2bd 7013 ccbd 9635 c5bd
000000a0: 6525 743e eb6a b9bc 1c00 2f3c 9270 5b3c
000000b0: 4a3d 943d c5be 273e f310 423c 0443 49be
000000c0: 006f 9bbe 5aa7 8ebe 85e3 d13d 679c d53d
000000d0: 2bc8 9c3e 7088 bebd 4945 77be c632 e5be
000000e0: 40a1 3dbd 9953 813d c7ad 8d3d 4065 31be
000000f0: 96b6 2b3e 4f3e 98bd 3697 8b3d b22a 003e
00000100: d750 103e f5e8 6e3d 0ff2 ccbe 89d9 223d
00000110: 4887 08bd 3c7d 28be 3317 2b3e 7997 45bc
00000120: 867d 103e 1df7 d3be e520 963c 1aba 143d
00000130: 8827 42bc 68ee d53c bf48 af3d 8161 9ebd
00000140: cb54 d1be b6ea 273d 579a 4abf 4714 c73d
00000150: 991f 09be 598c 31be 1fbf 073e 0d05 5f3e
00000160: 5473 04be 2b80 bc3a 4a88 c1bd 3cdf eb3d
00000170: 7cb4 7a3e 5cea 89be 0a6d 8abe ced6 b2be
00000180: 0932 153d d4bc 323e 1e05 aebd d566 a1bd
00000190: 161c 37bd 34cb 52be 7795 a23d 556e d4bd
000001a0: fc95 1b3e 7d0c 06be 8cc3 91be e7ce 8d3e
000001b0: 48f1 0f3e 552b 4cbd 0d31 77be 350c 45be
000001c0: 4959 123d 0a69 b7be a6a6 10be 7334 e43d
000001d0: c292 653e 6c7c b23e 1920 583e d6a3 1dbe
000001e0: 0e4e 953e 2a2b 38be 67d3 4cbc f426 f0bd
000001f0: 2879 36bd b0c9 d3bb 85ba ac3d 99e1 90be
00000200: 4e4d 093e 39ee ddbd 5298 46be 04d7 32be
00000210: e31c 963d b484 5e3e c63a a43c 744b 0ebd
00000220: 5b3c 9a3d abcb 913c 678e 22be 9d2a 503e
00000230: ee55 46be 9977 46be e675 a63d 4a5c 35be
00000240: f9b8 9dbe 576e b2bd f56f a8be f631 fe3c
00000250: 52be 303e 44fa 4dbe 7e40 86bd f0eb 73be
00000260: a694 6cbe 8169 113d 41a7 34be b4a4 95be
00000270: f744 8b3d 6e5b a73d 606b 13bd caa2 94be
00000280: d902 88bb 991d 5fbd 91fc a7be 5094 e4bd
00000290: cfaf ef3e 9266 b2be 51ac 503d 6e60 a7be
000002a0: de8f 1b3e 195f 2fbc b605 a53c 5d96 6fbe
000002b0: 9755 15be eac2 113c fd1f b73e 6027 b2bd
000002c0: d04e 45be 7e99 69be b775 333e a01c c13e
000002d0: 3cc0 493b a2a8 99be c711 1b3e 5107 d8bd
000002e0: f0fc 22bd e354 a4bd 933c ae3e 00fb ab3d
000002f0: 1966 f2be 8410 95bd c406 be3c d5bf 383d
00000300: 7204 8b3d b414 a2bd fde5 2ebe fc11 cb3d
00000310: e4ca 343e 8328 b3bd ac4e 2e3e c4a0 1abd
00000320: 2514 513e dacb 43bd 0c30 fa3e 4228 06be
00000330: cbd9 84bd b453 f5bc e4be 23be f9be cabe
00000340: 6d41 b8bc aec8 57bd c9ff d0be ed71 05be
00000350: 4abe 6dbe 342a 32be 59bf 693e 3581 2cbe
00000360: 6176 b03d 032c adbc 6794 a5bc 9b7f 61be
00000370: 8c20 2f3e 998c a23d 3763 49be dfeb 5bbd
00000380: eff4 20be 2456 643d 2afd d23c e74f 9d3d
00000390: 6349 c33d b7b8 873c 319c 543e 7089 1dbd
000003a0: 18bf a1ba 3fec 38be be09 ba3d 1b38 c43d
000003b0: a872 1dba 08c1 43be 1e7b 613e 58d6 183c
000003c0: daf6 a03e 122c e3be 139d 653e f079 adbd
000003d0: ac5d 373e 84f9 a53d 6ca4 f4bd 981e 99bd
000003e0: b78c 363e bee6 613d 3e47 6dbd 6bf8 5b3e
000003f0: 983b e63d 655f 89bc fd89 f33d d95a 4dbd

bias f4 [32]
-0.012649371 -0.15202086 -0.1412509 -0.05099519 -0.33700567 -0.12111857 -0.08767225 -0.23293118
-0.10625063 -0.009456662 -0.24750094 -0.11049009 -0.014892967 -0.0931161 -0.15969653 -0.14690237
-0.3710396 -0.23174353 -0.23736383 0.009330131 0.115254536 -0.110493235 -0.14584172 -0.03366605
-0.05972254 0.08744082 -0.11670584 0.18464887 -0.12549882 0.04301244 -0.05292503 -0.20789239
00000000: 4f3f 4fbc 5bab 1bbe 13a4 10be 55e0 50bd
00000010: 028c acbe 030d f8bd 828d b3bd 8385 6ebe
00000020: ee99 d9bd 1ef0 1abc e370 7dbe a148 e2bd
00000030: a201 74bc a7b3 bebd 7d87 23be 936d 16be
00000040: e7f8 bdbe 2d4e 6dbe 810f 73be 68dd 183c
00000050: 920a ec3d 474a e2bd 8857 15be 69e5 09bd
00000060: 9f9f 74bd 2c14 b33d 7903 efbd 9814 3d3e
00000070: c382 00be d02d 303d ebc7 58bd bee1 54be

weight f4 [12, 32]
0.03298981 0.06625533 -0.07328019 0.08188013 0.010463198 -0.07150715 -0.1253677 0.100240156
-0.036742326 -0.053444687 -0.05925491 0.089251384 0.04238664 0.1777765 0.15246713 0.102042265
0.1321566 -0.028921362 -0.06037885 0.03345412 0.17196403 0.16896814 0.08289307 0.038069367
0.017913623 -0.1667993 -0.11608996 -0.15985522 -0.0516261 -0.24329256 -0.075971104 -0.05913486
0.24197063 -0.042475447 -0.06755046 0.03731562 -0.01854261 -0.054090783 0.25632966 0.11883202
0.15147707 -0.00075172464 -0.11419728 0.16098453 0.17120875 -0.17538282 -0.26736137 0.09341459
-0.12071708 -0.17937385 -0.08805102 0.08528409 -0.19189139 -0.005557129 0.09560674 -0.27956456
0.03341279 0.07348153 0.110554524 0.0069127977 -0.03367752 -0.15404604 -0.13811083 0.056083087
-0.048421007 0.12477119 0.41870576 0.06617532 0.005901871 -0.06353821 0.051488947 -0.030935133
-0.11206965 0.047564358 -0.058402885 0.07617869 0.14734805 0.06301803 0.034534093 -0.28772396
0.066365585 -0.10474273 0.047080237 -0.14220825 0.19827342 0.011021279 0.036282 0.17767298
-0.15746494 -0.014646691 0.056872614 -0.28020212 -0.2660163 -0.10351857 -0.0033916929 0.0020314734
0.013072941 -0.19844046 0.017891018 -0.18958332 -0.13738507 0.17303513 0.08534101 -0.22614115
0.09420095 -0.06769773 0.19507317 -0.10826265 -0.1579736 -0.021709263 0.03261743 -0.049898095
-0.01652643 0.06813918 0.14687295 0.008757985 0.17347799 0.08569291 -0.046899494 0.012802215
-5.8522954e-05 0.16731043 -0.057211787 -0.071955726 -0.035838626 -0.04564514 -0.060769733 0.17578879
-0.14228596 0.14346567 -0.104924634 -0.004942766 -0.082713045 0.111984074 0.055175245 -0.10499855
0.17473982 -0.249477 0.06158197 0.103331804 -0.27947563 0.19957572 0.2118769 0.088732384
-0.011172672 -0.090861246 -0.10453131 -0.12730701 0.028782267 -0.04925351 0.26695848 0.12750648
-0.09838051 -0.11184491 0.26224297 0.020276945 0.008274869 0.14137603 0.18100192 0.029998785
0.023851512 -0.04991482 0.034961898 -0.22218663 0.16424242 0.21858923 0.08978695 0.08628945
-0.088175535 -0.07361619 -0.33107758 0.09192749 0.049330432 -0.121285275 -0.08103274 -0.06427434
-0.0520322 0.27838168 -0.049575217 -0.1237633 -0.08166622 -0.07896138 -0.10464726 0.122406885
0.17128909 -0.13494144 -0.22593734 0.08452715 -0.07262786 0.16168356 0.14006884 0.038865004
0.0043922653 0.030140253 0.11191244 -0.0028310432 -0.09181712 -0.113076285 0.048226938 -0.086159945
0.011816326 0.22406667 0.12162423 0.06560162 -0.02119638 -0.021664174 -0.0711845 0.025127828
-0.086422846 0.034788597 0.053155214 -0.017008416 0.12853949 -0.013843239 -0.0042392067 -0.102637954
-0.1375331 0.11254111 -0.04232912 0.10560992 -0.107209906 0.031850733 0.19385915 -0.16294396
-0.17686562 0.16401562 0.070092626 0.011674675 0.067949116 -0.0065469807 0.006859235 0.033755656
0.12951733 -0.13523094 -0.13235141 -0.09598949 -0.115883835 -0.026277475 -0.025425628 -0.037821073
-0.2986544 0.10460432 -0.09392655 0.15273473 -0.08765961 0.12854387 0.117818646 0.118484885
0.11830116 -0.01575392 0.12226197 -0.20261389 0.021347398 0.16637002 0.011817841 0.030577252
00000000: 5320 073d e0b0 873d ed13 96bd c5b0 a73d
00000010: d56d 2b3c 5772 92bd 6460 00be b64a cd3d
00000020: 1f7f 16bd d1e8 5abd 47b5 72bd 6ec9 b63d
00000030: 9d9d 2d3d 0b0b 363e 5820 1c3e 89fb d03d
00000040: 0f54 073e 7eec ecbc d04f 77bd 3007 093d
00000050: 5717 303e fc05 2d3e d8c3 a93d a0ee 1b3d
00000060: 97bf 923c 70cd 2abe 93c0 edbd 16b1 23be
00000070: e475 53bd af21 79be bd96 9bbd 6537 72bd
00000080: 26c7 773e bcfa 2dbd e557 8abd 43d8 183d
00000090: ace6 97bc 4c8e 5dbd a43d 833e 345e f33d
000000a0: ce1c 1b3e 630f 45ba 43e0 e9bd 21d9 243e
000000b0: 5951 2f3e 8e97 33be 97e3 88be 2650 bf3d
000000c0: 843a f7bd c7ad 37be 1854 b4bd 6da9 ae3d
000000d0: 2d7f 44be 9418 b6bb 77cd c33d 1623 8fbe
000000e0: dadb 083d 7c7d 963d 696a e23d c084 e23b
000000f0: 70f1 09bd 3fbe 1dbe ed6c 0dbe 61b7 653d
00000100: 1b55 46bd 0a88 ff3d 9a60 d63e ed86 873d
00000110: 7b64 c13b 5220 82bd 13e6 523d ad6b fdbc
00000120: c684 e5bd d8d2 423d dd37 6fbd 9303 9c3d
00000130: 68e2 163e 990f 813d 9f73 0d3d 8e50 93be
00000140: aeea 873d 5b83 d6bd 35d7 403d 0a9f 11be
00000150: 3008 4b3e 9892 343c 6f9c 143d e8ef 353e
00000160: 7d3e 21be adf8 6fbc 42f3 683d a776 8fbe
00000170: 4a33 88be 8b01 d4bd 2a47 5ebb 7822 053b
00000180: e42f 563c fa33 4bbe 2f90 923c 2122 42be
00000190: acae 0cbe 1f30 313e 44c7 ae3d 8c91 67be
000001a0: 6dec c03d 1ca5 8abd 43c1 473e cfb8 ddbd
000001b0: d5c3 21be a0d7 b1bc db99 053d f261 4cbd
000001c0: 7062 87bc 8e8c 8b3d dd65 163e a77d 0f3c
000001d0: 37a4 313e c47f af3d af19 40bd 62c0 513c
000001e0: 8b76 75b8 6d53 2b3e e856 6abd 865d 93bd
000001f0: 86cb 12bd 66f6 3abd afe9 78bd fa01 343e
00000200: 69b3 11be aae8 123e bae2 d6bd edf6 a1bb
00000210: 7565 a9bd e857 e53d 70ff 613d 7b09 d7bd
00000220: ffee 323e e676 7fbe 603d 7c3d a09f d33d
00000230: 6e17 8fbe 945d 4c3e 42f6 583e 53b9 b53d
00000240: 950d 37bc 7615 babd 8314 d6bd c55c 02be
00000250: cac8 eb3c 0cbe 49bd c8ae 883e 0f91 023e
00000260: b97b c9bd f20e e5bd b644 863e d61b a63c
00000270: 5193 073c e1c4 103e 9158 393e 03c0 f53c
00000280: 3f64 c33c 7b73 4cbd 3534 0f3d e484 63be
00000290: 2a2f 283e dbd5 5f3e 38e2 b73d 86b8 b03d
000002a0: 6095 b4bd 16c4 96bd 0083 a9be 7b44 bc3d
000002b0: b50e 4a3d 6a64 f8bd 7ef4 a5bd 44a2 83bd
000002c0: b71f 55bd 0b88 8e3e 620f 4bbd 9d77 fdbd
000002d0: 9f40 a7bd 81b6 a1bd 4d51 d6bd 76b0 fa3d
000002e0: 6866 2f3e 172e 0abe 1e5c 67be 921c ad3d
000002f0: eabd 94bd 6090 253e 356e 0f3e e930 1f3d
00000300: feec 8f3b b1e8 f63c 5932 e53d 0689 39bb
00000310: 9d0a bcbd 8a94 e7bd 9c89 453d a074 b0bd
00000320: 4399 413c bc71 653e 2016 f93d 245a 863d
00000330: 08a4 adbc 1179 b1bc 2ec9 91bd e0d8 cd3c
00000340: 76fe b0bd 7d7e 0e3d 48b9 593d 3c55 8bbc
00000350: db9f 033e c1ce 62bc 0be9 8abb d933 d2bd
00000360: 7ad5 0cbe f47b e63d 4d61 2dbd 044a d83d
00000370: de90 dbbd ea75 023d 0383 463e c8da 26be
00000380: 431c 35be b6f3 273e b98c 8f3d 2347 3f3c
00000390: e828 8b3d 0e88 d6bb 6fc3 e03b 5f43 0a3d
000003a0: 31a0 043e fb79 0abe 2187 07be 2396 c4bd
000003b0: 8154 edbd dc43 d7bc 6849 d0bc 45ea 1abd
000003c0: 3be9 98be ca3a d63d 905c c0bd 7e66 1c3e
000003d0: e286 b3bd 01a1 033e e74a f13d 34a8 f23d
000003e0: e147 f23d 5d0e 81bc 7c64 fa3d 047a 4fbe
000003f0: bde0 ae3c e75c 2a3e 9e9f 413c 257d fa3c

bias f4 [12]
0.1756833 0.17735003 -0.00415792 0.20663309 -0.17990665 -0.28773364 0.05802313 0.027883738
-0.12087825 0.17006962 0.128221 -0.15315133
00000000: 53e6 333e 3f9b 353e 293f 88bb a097 533e
00000010: 7339 38be d351 93be a9a9 6d3d 706c e43c
00000020: 048f f7bd bb26 2e3e 5e4c 033e b4d3 1cbe
