deploy/networks/go2/bambi5.pt (torch, 79240 bytes, 8 tensors)

weight f4 [128, 48]
0	0x3ef2541a	0.4732979
1	0x3d5c2bb6	0.053752623
2	0xbe419bab	-0.18907039
3	0xbc9eb07a	-0.01937126
4	0x3f05a02d	0.52197534
5	0x3f361bc6	0.7113613
6	0xbe6198b1	-0.22030903
7	0xbe94c206	-0.29054278
8	0x3e8b456a	0.27201396
9	0xbf29484a	-0.6612593
10	0xbe147b1a	-0.14500085
11	0xbf77bdf9	-0.9677425
12	0x3eb3dfb6	0.35131615
13	0xbe93e1c3	-0.2888318
14	0x3e2d9bc8	0.16953957
15	0x3e3158d7	0.17319046
16	0x3d98b048	0.07455498
17	0xbeaf4145	-0.34229484
18	0xbec36d84	-0.3816949
19	0x3e342bcf	0.17594837
20	0x3eb4f4d5	0.35343042
21	0x3ed1892e	0.40924972
22	0xbe218c8f	-0.15776275
23	0x3efa5d90	0.48899508
24	0x3e44742b	0.1918494
25	0xbe4f9c83	-0.20274548
26	0x3e45f28a	0.19330803
27	0x3e7326df	0.23745297
28	0x3e9922c1	0.29909328
29	0xbe76dd24	-0.24107796
30	0x3e119dd7	0.14220367
31	0xbdca64bb	-0.09882494
32	0x3dc9bc3b	0.09850355
33	0xbf3a1213	-0.7268383
34	0x3e15f7fc	0.1464538
35	0xbe62ad06	-0.22136316
36	0x3e3ce5a0	0.1844697
37	0xbda505f3	-0.08057775
38	0x3e0dd755	0.13851674
39	0x3e986043	0.29760942
40	0x3d11f252	0.035631485
41	0xbe284df6	-0.1643599
42	0xbd8d9b5a	-0.069143966
43	0xbe377838	-0.17916954
44	0x3cae0b56	0.02124564
45	0x3d90a2eb	0.07062324
46	0x3e02368d	0.12716122
47	0xbe66b581	-0.22530176
48	0x3cadfed3	0.021239674
49	0x3e8791b0	0.26478338
50	0x3ed3fdde	0.41404623
51	0xbe9c16b8	-0.30486083
52	0x3c5267ed	0.012842161
53	0xbe41d9ea	-0.18930784
54	0x3f578899	0.84192806
55	0x3da859ea	0.08220275
56	0x3e1ad9fe	0.1512222
57	0xbe60866a	-0.21926275
58	0xbea593f7	-0.3233945
59	0x3ed1581a	0.4088753
60	0x3db4fd6c	0.08837399
61	0xbf6d8c88	-0.9279256
62	0xbf0825d1	-0.53182703
63	0xbf52319e	-0.8210696
64	0x3e888e9a	0.26671296
65	0xbeffdc64	-0.49972832
66	0xbca51108	-0.020149723
67	0xbd85914d	-0.065218545
68	0x3e8bff0b	0.2734302
69	0x3e6930ee	0.22772571
70	0xbe581e9f	-0.21105431
71	0x3d8caa79	0.068684526
72	0xbe52387a	-0.20529357
73	0x3ee26237	0.44215557
74	0xbe9620fe	-0.29322046
75	0xbe98adb4	-0.29820025
76	0x3e513918	0.20431936
77	0x3dbabfd8	0.091186225
78	0xbd2f711d	-0.042832483
79	0xbf1aae7f	-0.6042251
80	0x3ef6b856	0.48187512
81	0xbec01597	-0.37516472
82	0x3beee748	0.0072907545
83	0x3d8553ff	0.065101616
84	0x3e1a85b3	0.15090065
85	0x3ce400ff	0.027832506
86	0xbc899025	-0.016792366
87	0x3df49fe2	0.11944558
88	0x3dc78ff4	0.09744254
89	0x3d9da5ac	0.07697615
90	0xbddff649	-0.10935647
91	0xbe3f42f2	-0.18677881
92	0x3dac0baa	0.08400662
93	0xbe7a6737	-0.24453436
94	0x3e08ed68	0.13371813
95	0xbdb7a865	-0.089676656
96	0x3df84e77	0.12124341
97	0xbda25008	-0.07925421
98	0xbe6f7f18	-0.23388326
99	0x3de4fc18	0.111808956
100	0xbe278844	-0.16360575
101	0x3f9f2d43	1.2435688
102	0xbecb9c86	-0.39767855
103	0xbe65c773	-0.22439365
104	0x3d2f8217	0.042848673
105	0xbeb9aa01	-0.36262515
106	0x3ea81cb0	0.32834387
107	0xbffaf997	-1.9607419
108	0x3f2664f9	0.6499782
109	0x3e82debb	0.25560555
110	0x3de6f0e1	0.11276413
111	0x3f63d652	0.889989
112	0xbf1dd58c	-0.6165397
113	0xbe53be8f	-0.20678161
114	0xbd582600	-0.052770615
115	0xbdf56c4b	-0.11983546
116	0xbbbfca55	-0.0058529773
117	0xbe0bc63a	-0.13649836
118	0xbf3d146d	-0.7385929
119	0x3e799513	0.24373274
120	0x3eacf847	0.3378317
121	0x3dbf2700	0.093336105
122	0x3b1749b7	0.002308471
123	0x3d00302a	0.031295933
124	0xbe862e7d	-0.26207343
125	0xbe6af8f8	-0.22946537
126	0x3e79ef42	0.24407676
127	0x3c65f713	0.014035958
128	0xbd44ce37	-0.048048224
129	0xbe4466dc	-0.19179863
130	0xbe4e9482	-0.20173839
131	0x3e7a6479	0.2445239
132	0xba2e49b3	-0.0006648555
133	0xbd615e76	-0.055021726
134	0xbe4c06cd	-0.1992447
135	0x3cd328b6	0.025776248
136	0x3d50d6a2	0.05098594
137	0x3dd6633c	0.10468146
138	0x3d435df3	0.04769702
139	0xbd48bdaf	-0.04900902
140	0x3c1e7ffb	0.009674068
141	0xbe19dc15	-0.15025361
142	0xbca1207a	-0.019668806
143	0xbb41ec57	-0.0029590332
144	0xbdc8e46a	-0.098091915
145	0x3deb36b9	0.11485047
146	0x3e06b4c8	0.131549
147	0xbe156baa	-0.14591852
148	0xbea75628	-0.3268292
149	0x3ef2710b	0.4735187
150	0x3e230491	0.1591971
151	0x3f1f7110	0.62281895
152	0x3d5f7dbb	0.054563265
153	0x3f1322ba	0.57474864
154	0xbed1b773	-0.40960273
155	0xbea62c33	-0.32455596
156	0xbdef9d13	-0.116998814
157	0xbeb8a1ba	-0.36060888
158	0xbbdc7619	-0.0067279455
159	0xbd7e5dff	-0.06210136
160	0xbf249be7	-0.6430039
161	0x3da44e63	0.080227636
162	0x3cea8b2e	0.02863082
163	0x3e5546e1	0.2082782
164	0x3ebb57fe	0.3659057
165	0x3f40af80	0.7526779
166	0xbdcf096b	-0.10109218
167	0x3e24ed38	0.16106117
168	0xbec54f46	-0.38537043
169	0x3e3a95eb	0.18221252
170	0xbe3b7a23	-0.1830831
171	0xbe894701	-0.26811984
172	0x3d14ad66	0.036298178
173	0x3ebbb6ba	0.36662847
174	0xbc30e42e	-0.01079659
175	0x3da15bea	0.07878859
176	0xbec1c71f	-0.3784723
177	0x3dcce4c6	0.100045726
178	0xbed4a475	-0.4153172
179	0xbee046f5	-0.43804136
180	0xbd8356d8	-0.064130485
181	0x3e3751df	0.17902325
182	0xbc515950	-0.012777641
183	0xbdc70ec6	-0.09719615
184	0x3da29019	0.07937641
185	0x3e4ec502	0.2019234
186	0xbe9dd6f2	-0.30828053
187	0x3db4a251	0.08820022
188	0xbdc0726a	-0.09396823
189	0x3e405eda	0.18786183
190	0xbe0abfee	-0.13549778
191	0xbdb709ee	-0.08937441
192	0x3d4c76e5	0.049918074
193	0x3e13cc6e	0.14433452
194	0x3e6a4107	0.22876368
195	0xbe83918b	-0.25696978
196	0xbf2bbd24	-0.6708548
197	0x3e53e979	0.20694532
198	0xbf41d714	-0.7571881
199	0x3eec3c77	0.4613988
200	0x3e011018	0.12603796
201	0xbe48e56f	-0.19618772
202	0xbd7defa9	-0.061996136
203	0x3f2fb08e	0.68628776
204	0xbf41a03f	-0.7563514
205	0xbf75b591	-0.95980173
206	0xbdee7ccf	-0.11644899
207	0xbe9355b0	-0.28776312
208	0xbdd47b1b	-0.10375043
209	0x3e6e7204	0.23285681
210	0xbea16482	-0.31521994
211	0xbf559c5d	-0.83441716
212	0xbe0d820e	-0.13819143
213	0xbd916bf3	-0.07100668
214	0xbf340fa7	-0.70336384
215	0x3e1f4989	0.15555395
216	0xbe0bf77e	-0.1366863
217	0x3db954d9	0.090493865
218	0x3eaf20bc	0.34204662
219	0xbe7f7947	-0.24948607
220	0x3e8f9593	0.28043804
221	0xbc84f7bb	-0.016231408
222	0xbec3745c	-0.38174713
223	0xbf295cb4	-0.6615708
224	0xbd2ff01d	-0.0429536
225	0x3e4cd4a2	0.20002988
226	0xbe08f8c7	-0.13376151
227	0x3da311ff	0.07962417
228	0xbc3695c6	-0.011144107
229	0xbd74134a	-0.059588708
230	0x3ca5af96	0.020225327
231	0xbe4fca19	-0.20291938
232	0xbc662896	-0.014047762
233	0xbc365cc8	-0.011130519
234	0xbdc1bb47	-0.094595484
235	0xbdd39b82	-0.10332395
236	0xbd997096	-0.07492177
237	0x3c8119fa	0.015759457
238	0x3e8d4efb	0.2759932
239	0xbc4ed26a	-0.012623409
240	0x3dda1a5c	0.10649559
241	0xbe7390ff	-0.2378578
242	0x3e8fbec2	0.28075224
243	0xbcadcbd7	-0.021215362
244	0x3f79942a	0.97491705
245	0x3c84f263	0.01622886
246	0xbd8a5ec3	-0.067563556
247	0x3eafdcc8	0.3434813
248	0x3e4b8fa6	0.19879016
249	0xbd2d4621	-0.04230321
250	0xbb464b21	-0.0030257183
251	0xbe5d5c03	-0.21617131
252	0x3f0a4f67	0.5402741
253	0xbf06272e	-0.52403533
254	0xbe064aad	-0.13114424
255	0x3f11a233	0.5688812

bias f4 [128]
0	0xbcb89adf	-0.022534786
1	0xbe04d4bc	-0.12971777
2	0xbd90c629	-0.07069046
3	0xbdd8fdc0	-0.10595274
4	0xbe36357e	-0.17793843
5	0xbe8f3552	-0.27970368
6	0xbe86be40	-0.26317024
7	0xbe173ed7	-0.14770065
8	0xbe86da61	-0.26338485
9	0xbe40a580	-0.18813133
10	0xbe82addd	-0.25523272
11	0x3da0ba74	0.07848063
12	0x3db0d6ff	0.08634757
13	0x3cb68aa2	0.022282902
14	0x3dd82702	0.10554315
15	0xbe6d075a	-0.23147336
16	0x3db60b81	0.08888913
17	0xbe3ccda3	-0.18437819
18	0xbdd2e69f	-0.10297894
19	0x3db00062	0.08593823
20	0xbdb23166	-0.08700828
21	0xbe28fc3d	-0.16502471
22	0xbe165daf	-0.14684175
23	0x3d909553	0.07059731
24	0x3e9bbc36	0.3041703
25	0x3e27dc09	0.1639253
26	0xbdd50fd8	-0.104034126
27	0xbd8d32d1	-0.06894458
28	0xbe3c3798	-0.18380582
29	0xbcec78a1	-0.028866114
30	0x3d857a13	0.065174244
31	0xbe1cc204	-0.15308386
32	0x3d0d1dcf	0.034452256
33	0xbda3d57e	-0.07999705
34	0xbdd0a4a9	-0.101876564
35	0x3d8a0b43	0.06740429
36	0xbcf93117	-0.030418916
37	0x3a8c5ef2	0.0010709448
38	0x3e56bb04	0.20969778
39	0xbda8d6c0	-0.08244085
40	0x3d351b80	0.04421568
41	0x3df516d3	0.11967244
42	0x3d41fe4b	0.047361653
43	0x3a866714	0.0010254108
44	0x3d63c2eb	0.05560581
45	0xbe843700	-0.25823212
46	0xbd1e230b	-0.03860764
47	0xbe64d97d	-0.2234859
48	0xbc78803f	-0.015167295
49	0x3df228d6	0.11824195
50	0x3dbde318	0.0927183
51	0xbce11a09	-0.027478235
52	0xbc8b588b	-0.017009994
53	0x3cc64d8d	0.024206901
54	0xbd653aec	-0.055964395
55	0xbe715988	-0.2356931
56	0xbe7a70a2	-0.24457029
57	0xbe44503c	-0.19171232
58	0xbe1a4431	-0.15065075
59	0xbb7a6252	-0.0038205576
60	0x3d6efb36	0.058345042
61	0x3e0e6bd0	0.13908315
62	0xbe271238	-0.16315544
63	0xbdd0477d	-0.10169885
64	0x3e0bc564	0.13649517
65	0xbdf206de	-0.11817716
66	0xbe2556b1	-0.16146351
67	0xbd9ae888	-0.07563883
68	0xbe7b1e37	-0.24523245
69	0xbd14412c	-0.036194965
70	0x3e349dfa	0.17638388
71	0xbd0c0c55	-0.03419145
72	0xbe5cc7de	-0.21560618
73	0xbe206fc8	-0.15667641
74	0xbe4ef11d	-0.20209165
75	0x3d5e6b4d	0.05430155
76	0xbd082e5e	-0.033247344
77	0xbdb6e6ff	-0.08930778
78	0xbe7ee837	-0.2489327
79	0xbda5bf26	-0.08093099
80	0x3e10be79	0.1413516
81	0xbe51e8f4	-0.20499021
82	0xbd7ee823	-0.0622331
83	0xbe555467	-0.20832978
84	0xbe9d5458	-0.30728412
85	0xbe6ceb6f	-0.23136686
86	0x3d7302e4	0.05932893
87	0xbe814b4b	-0.25252756
88	0xbe364c2b	-0.17802493
89	0xbe3c312d	-0.18378134
90	0xbdff818a	-0.124758795
91	0xbe8142d0	-0.25246286
92	0xbd424414	-0.047428206
93	0xbeaab190	-0.33338594
94	0x3d46dab3	0.04854841
95	0x3cef990c	0.029247783
96	0xbe556336	-0.20838627
97	0x3ae45056	0.0017418962
98	0xbd0ee916	-0.034890257
99	0xbe7099eb	-0.23496215
100	0x3d363912	0.04448802
101	0xbdf148de	-0.117814764
102	0xbdf2f48d	-0.118630506
103	0x3cc1387e	0.023586508
104	0xbe1427a6	-0.1446825
105	0xbe398f8c	-0.18121165
106	0x3d8321de	0.06402944
107	0xbe522d4b	-0.2052509
108	0xbe27b4dc	-0.16377586
109	0xbc1009d5	-0.008791407
110	0xbe4a111a	-0.19733086
111	0x3e5e8505	0.2173043
112	0xbbd8f1c1	-0.006620616
113	0x3de01eb9	0.1094336
114	0xbe52b2cc	-0.20576018
115	0xbec6bc06	-0.38815325
116	0xbe15dc83	-0.146349
117	0xbe85d633	-0.26139984
118	0x3cd374ac	0.02581247
119	0x3d4eb1a6	0.050462388
120	0x3ce57647	0.0280105
121	0x3e6c7d25	0.23094614
122	0x3e08518a	0.13312355
123	0xbec886d4	-0.39165366
124	0xbe86ba63	-0.26314077
125	0xbd4d0ae4	-0.050059214
126	0x3db7da4d	0.089771844
127	0xba03b17b	-0.00050237

weight f4 [64, 128]
0	0xbd1a81d2	-0.037721463
1	0xbef9842c	-0.48733652
2	0x3e1308e6	0.14358863
3	0xbddb9bc0	-0.10723066
4	0xbe02d64f	-0.12777065
5	0xbc56e095	-0.013115068
6	0x3e8796ac	0.2648214
7	0xbcedf081	-0.029045345
8	0x3e362ead	0.17791243
9	0x3d9359bf	0.07194852
10	0x3cfcb442	0.030847672
11	0xbd22276f	-0.039588388
12	0xbce99375	-0.028512696
13	0x3e988bb8	0.29794097
14	0x3d767a4d	0.06017523
15	0xbe2de18e	-0.16980574
16	0xbe72a30d	-0.23695011
17	0x3d16da92	0.03682954
18	0xbdc6df0d	-0.09710512
19	0x3e06668b	0.13125055
20	0x3b7f8897	0.0038991326
21	0xbe0ec169	-0.13940968
22	0xbde43a63	-0.11143949
23	0xbdf2cb10	-0.11855137
24	0xbe1626d1	-0.14663245
25	0xbe17cab5	-0.1482342
26	0x3e14e0dd	0.14538904
27	0x3e20067d	0.15627475
28	0xbd6da028	-0.058014065
29	0xbdb440fd	-0.08801458
30	0xbe89ab56	-0.2688853
31	0x3da7053f	0.081552975
32	0xbea532cd	-0.3226532
33	0xbce569f9	-0.028004633
34	0xbe7fa40a	-0.2496492
35	0x3d798914	0.060921744
36	0xbe68a47e	-0.22718999
37	0xbe07b415	-0.1325229
38	0xbc38baaa	-0.011274973
39	0xbd6977af	-0.056998905
40	0x3e0128e1	0.1261325
41	0x3d470ddf	0.048597213
42	0x3d832606	0.06403737
43	0xbd48dd77	-0.04903933
44	0x3d6c2c50	0.057659447
45	0x3d8b4ee0	0.068021536
46	0x3e7ecccd	0.24882813
47	0xbe6dc1a3	-0.23218398
48	0x3db6c819	0.08924884
49	0x3e6db059	0.23211803
50	0xbe2db182	-0.16962245
51	0x3d4b39ce	0.049615674
52	0x3da60683	0.08106711
53	0x3e4c6f2c	0.19964284
54	0xbdc64124	-0.09680393
55	0x3d953184	0.07284835
56	0xbe036a85	-0.12833603
57	0xbe81a894	-0.25323927
58	0xbe9d6e06	-0.30748004
59	0xbcd95117	-0.026527924
60	0xbe56ddd7	-0.20983063
61	0xbe605cb5	-0.21910365
62	0x3e4475fa	0.1918563
63	0x3c2e8eb4	0.01065414
64	0xbed9ee19	-0.42564467
65	0xbd87dc55	-0.06633822
66	0x3e11d1c5	0.14240177
67	0x3dcd2841	0.100174434
68	0xbe1b490c	-0.15164584
69	0x3e554fcf	0.20831226
70	0xbe54924d	-0.20758934
71	0xbc873330	-0.0165039
72	0xbd73e878	-0.05954787
73	0xbdca0502	-0.098642364
74	0x3dbe3bc1	0.09288741
75	0x3dc220f0	0.094789386
76	0x3ceb25cd	0.028704548
77	0x3e4b6d2f	0.19865869
78	0xbe899e8c	-0.26878774
79	0x3e8a2e19	0.26988295
80	0xbe8088a7	-0.25104257
81	0xbe1eac54	-0.15495425
82	0x3cd52d76	0.026022654
83	0xbd94eb38	-0.07271427
84	0x3dab079c	0.08351061
85	0x3dbc4950	0.09193671
86	0x3e9800da	0.2968815
87	0xbd85667b	-0.06513687
88	0x3e46fc74	0.1943224
89	0xbe308202	-0.17237094
90	0x3e183f00	0.14867783
91	0x3e0c639a	0.1370987
92	0x3dd99c4c	0.106255144
93	0xbd81d986	-0.063403174
94	0x3da20ae5	0.07912234
95	0xbcd19bb1	-0.025586935
96	0x3c4c082b	0.012453119
97	0xbe22a761	-0.15884162
98	0xbe7d042c	-0.24708623
99	0xbc0fe78c	-0.008783232
100	0xbb72d511	-0.0037053267
101	0x3dbb40fa	0.09143253
102	0xbe7595e5	-0.23982961
103	0xbdede759	-0.11616392
104	0xbd8fe92d	-0.070268966
105	0xbe0d0f48	-0.1377536
106	0x3c4500f5	0.012024154
107	0xbe9c3d88	-0.30515695
108	0x3dfa13f4	0.12210837
109	0xbe00d1f4	-0.12580091
110	0xbea66a62	-0.3250304
111	0xbda692e7	-0.08133488
112	0x3da123e8	0.07868177
113	0xbcfd3d99	-0.030913161
114	0x3ec7b64b	0.39006266
115	0x3e14d6d1	0.14535071
116	0x3e2fe6b9	0.17177857
117	0x3e0c61e6	0.1370922
118	0xbe254e1c	-0.16143078
119	0xbe66df2f	-0.22546075
120	0x3e51b7b8	0.2048024
121	0xbe1c365a	-0.15255108
122	0x3e26e409	0.16297926
123	0x3d46a7eb	0.048499983
124	0x3e8f9aab	0.2804769
125	0x3e14fbbe	0.14549157
126	0x3e11db72	0.14243868
127	0x3d427cf1	0.047482435
128	0x3c6ff905	0.014646773
129	0x3d7b8ae0	0.06141174
130	0xbd066b4d	-0.032817174
131	0x3d5cf9e4	0.05394925
132	0xbe19fc67	-0.1503769
133	0xbe1b9ac0	-0.15195751
134	0xbe073a92	-0.13205937
135	0xbed84945	-0.422434
136	0xbe05ba53	-0.13059358
137	0xbdce5a65	-0.10075835
138	0xbc946326	-0.018113684
139	0x3cb07ce8	0.021543935
140	0x3e58a8d7	0.21158157
141	0xbeeb4be9	-0.45956352
142	0xbccd15e6	-0.025034856
143	0xbe10a622	-0.14125875
144	0x3d658b9a	0.056041338
145	0xbd8b96bf	-0.06815862
146	0xbeb01fd4	-0.34399283
147	0xbe00da97	-0.12583385
148	0x3e6aa22f	0.2291343
149	0x3ddb977e	0.10722254
150	0xbaee1069	-0.001816285
151	0x3d5b63f1	0.05356211
152	0x3e4f2d4b	0.20232122
153	0xbe4db2fa	-0.20087805
154	0xbe5eeeb1	-0.21770741
155	0xbebe8a67	-0.37214968
156	0xbdb0c888	-0.08631998
157	0x3e262bdf	0.16227673
158	0xbe05eeff	-0.13079451
159	0x3dc60d8b	0.09670552
160	0x3e4548fe	0.19266126
161	0x3da343a7	0.07971888
162	0x3e6efbe8	0.23338282
163	0xbd27fd80	-0.04101324
164	0x3d4075f5	0.046987493
165	0x3ea00652	0.31254822
166	0x3e41c410	0.18922448
167	0xbd25dcb4	-0.040493682
168	0xbed1ef81	-0.4100304
169	0x3d0ea491	0.03482491
170	0x3e58a891	0.21158053
171	0xbdc7df4a	-0.09759386
172	0x3df04f89	0.1173392
173	0x3ea2809e	0.31738752
174	0xbeb86990	-0.36018038
175	0x3e4896b2	0.19588736
176	0x3ccdf014	0.025138892
177	0x3dd7ae99	0.10531349
178	0xbed2bd4b	-0.41160044
179	0x3e71c7dc	0.23611397
180	0xbe684ab1	-0.22684743
181	0x3e9791d5	0.2960345
182	0x3e7cb3a2	0.246779
183	0x3ecd8070	0.40137053
184	0x3d54acc5	0.05192258
185	0xbaca12f1	-0.0015417022
186	0x3bdc7f15	0.0067290165
187	0x3e7ad6c0	0.24495983
188	0xbdcef42c	-0.10105166
189	0xbe6bc8c3	-0.23025803
190	0xbce66f5d	-0.028129274
191	0x3e2a74f1	0.16646172
192	0xbe465950	-0.19370008
193	0xbd0767f9	-0.03305814
194	0x3e9511f3	0.29115257
195	0xbe5f82ac	-0.21827191
196	0x3d2a3aaa	0.041559853
197	0xbdad3a6f	-0.08458411
198	0xbd490681	-0.04907847
199	0xbe846913	-0.25861415
200	0xbd79122e	-0.060808353
201	0xbd1dec23	-0.038555276
202	0x3da61e86	0.08111291
203	0xbdf4e8c8	-0.11958462
204	0x3d1240f9	0.035706494
205	0x3d1706c5	0.03687169
206	0x3db9c00c	0.09069833
207	0xbe8aaa6c	-0.27083147
208	0xbd59abc8	-0.05314234
209	0xbee020da	-0.43775064
210	0x3dc9ea28	0.09859115
211	0xbe98d1d4	-0.29847586
212	0x3e96b41a	0.29434282
213	0x3e30c047	0.17260848
214	0xbd1dfba3	-0.038570058
215	0xbd929bd0	-0.07158625
216	0xbd23a9a9	-0.039956722
217	0x3e38325b	0.17987959
218	0xbe09e4c5	-0.13466175
219	0x3d383ddd	0.044980872
220	0x3e6a92a6	0.22907504
221	0x3dec08ff	0.11525153
222	0x3e76cef9	0.24102391
223	0x3e855bdd	0.2604665
224	0xbd054be7	-0.03254309
225	0x3ea673b2	0.32510144
226	0xbe040e34	-0.12896043
227	0xbd908b7d	-0.07057855
228	0x3e0ee064	0.13952786
229	0xbe570f84	-0.21002012
230	0xbd89a8a5	-0.067216195
231	0x3ce8856d	0.028383935
232	0xbe388937	-0.18021093
233	0x3d7cdb57	0.061732616
234	0xbded9659	-0.11600942
235	0xbe17ffbe	-0.14843652
236	0x3e92238c	0.28542745
237	0x3d1e67b0	0.038673103
238	0xbd7e9912	-0.062157698
239	0xbe3c57e8	-0.18392909
240	0x3e344cfb	0.1760749
241	0xbe590c56	-0.21196112
242	0x3b3f538b	0.0029194083
243	0x3dcd0120	0.1000998
244	0x3e3b7599	0.18306579
245	0x3e2f17da	0.17098942
246	0xbbe85689	-0.007090394
247	0xbe429141	-0.19000722
248	0x3cdcffcf	0.026977448
249	0x3dcc1047	0.09964042
250	0xbcc79a12	-0.024365459
251	0xbca8cba8	-0.020604923
252	0xbe5823fa	-0.21107474
253	0x3caaf710	0.020869762
254	0xbce3e070	-0.027816981
255	0xbe0bc369	-0.13648762

bias f4 [64]
0	0xbdccb124	-0.099947244
1	0xbe34eb47	-0.17667876
2	0xbd94b5c7	-0.07261234
3	0xbe66a4b7	-0.22523771
4	0xbdacb2da	-0.08432551
5	0xbbb07d1f	-0.0053860093
6	0xbdbc5bae	-0.09197174
7	0xbe8b46ae	-0.27202362
8	0xbe7e3e1c	-0.2482838
9	0xbea4e162	-0.32203203
10	0xbe7fa577	-0.24965464
11	0x3c6cadca	0.014445731
12	0xbe55ff40	-0.20898151
13	0xbd00eb76	-0.031474553
14	0xbe67b03a	-0.22625819
15	0xbcc83002	-0.024436954
16	0xbdea4330	-0.11438596
17	0xbdd4d0c1	-0.10391379
18	0xbe263518	-0.16231191
19	0xbe3d20c4	-0.1846953
20	0xbe367d5a	-0.17821255
21	0x3cf76fbb	0.030204644
22	0xbe0fc603	-0.14040379
23	0xbe7070e2	-0.23480561
24	0xbe6aaa3f	-0.22916506
25	0xbd58cfe4	-0.052932635
26	0xbe13b878	-0.14425838
27	0xbe1da951	-0.1539662
28	0xbdbbbf9c	-0.09167406
29	0xbcf464bb	-0.029833188
30	0x3d77c98f	0.060494956
31	0xbe146167	-0.14490281
32	0xbea009a0	-0.31257343
33	0xbe81decd	-0.25365296
34	0xbdb47129	-0.08810646
35	0xbbaa93e6	-0.005205619
36	0xbe995878	-0.2995031
37	0xbc3314bb	-0.0109302355
38	0xbdb6d834	-0.08927956
39	0xbe25e904	-0.1620217
40	0xbe5aae24	-0.21355492
41	0xbe885730	-0.2662902
42	0xbdc3e65a	-0.095654204
43	0xbdcb075e	-0.099135146
44	0xbe18a23b	-0.14905636
45	0xbefb3fbf	-0.49072072
46	0xbe3622f7	-0.17786776
47	0xbe152937	-0.14566503
48	0xbe128862	-0.14309838
49	0xbdc37c46	-0.09545188
50	0xbe0868c7	-0.1332122
51	0xbe335e9e	-0.17516562
52	0xbe7e9d1a	-0.24864617
53	0xbdc257bb	-0.094893895
54	0xbe38c098	-0.18042219
55	0xbe870cee	-0.26377052
56	0xbd820f04	-0.0635052
57	0xbe866ad6	-0.26253384
58	0xbe696dd1	-0.22795798
59	0x3cbc24cc	0.022966765
60	0xbe38f7c9	-0.18063273
61	0xbe163153	-0.14667253
62	0x3cb5692a	0.022144873
63	0xbd494daf	-0.04914635

weight f4 [32, 64]
0	0xbb3423e8	-0.0027487222
1	0xbd217634	-0.039419368
2	0xbe1d8fca	-0.15386882
3	0xbe82ec0d	-0.25570717
4	0x3dad938d	0.08475409
5	0xbdbca4aa	-0.09211095
6	0xbdfacd7a	-0.12246223
7	0xbe2d3f16	-0.16918597
8	0x3d93697e	0.071978554
9	0x3e25985a	0.16171399
10	0x3e3acf0f	0.18243049
11	0xbd80efb3	-0.06295719
12	0xbd0dcab0	-0.034617126
13	0x3d019a92	0.03164155
14	0x3d849de6	0.06475429
15	0xbe699450	-0.22810483
16	0xbd673abe	-0.056452505
17	0x3e494223	0.19654135
18	0x3df8052e	0.12110363
19	0x3c3ed7fc	0.011648174
20	0x3c0b6221	0.0085072825
21	0x3cb02b75	0.021505097
22	0x3d87f760	0.0663898
23	0x3d4b4664	0.049627677
24	0x3e175588	0.14778721
25	0x3e0728e8	0.13199198
26	0x3d8462fa	0.06464191
27	0xbe62f696	-0.22164378
28	0x3da7dc37	0.081962995
29	0xbd351a4d	-0.044214536
30	0xbe68ad2c	-0.2272231
31	0x3db1a52e	0.08674084
32	0xbcfe29dc	-0.03102582
33	0xbe812d7b	-0.2523001
34	0x3ce4f498	0.027948663
35	0x3bbe51cf	0.005808092
36	0x3d8c546a	0.06852038
37	0x3e1df153	0.15424089
38	0x3e8059bb	0.2506846
39	0xbe846f84	-0.2586633
40	0x3eab126d	0.33412495
41	0x3d9e8f24	0.07742146
42	0xbd2b653d	-0.041844595
43	0x3e8148df	0.2525091
44	0xbdb59a30	-0.088672996
45	0x3dccc0e1	0.09997726
46	0x3e050d4e	0.12993357
47	0x3dcc9628	0.099895775
48	0xbbfd1c02	-0.007724286
49	0x3dae6e88	0.08517176
50	0x3dabbb81	0.08385373
51	0xbdbddc62	-0.0927055
52	0x3c7a7e6b	0.015288929
53	0xbe1fa480	-0.15590096
54	0xbdad4eeb	-0.08462318
55	0x3e2d8f81	0.16949274
56	0xbd3182ea	-0.04333774
57	0xbe1020d4	-0.14075023
58	0xbb802913	-0.0039111464
59	0xbcd20f2e	-0.025642004
60	0x3e59919c	0.21246952
61	0xbd931ba2	-0.07183005
62	0xbc89e455	-0.01683251
63	0xbdeb0418	-0.1147539
64	0xbe2fbd34	-0.17162019
65	0xbe197dd1	-0.14989401
66	0x3c8b6a17	0.017018361
67	0xbdf403a9	-0.119147606
68	0x3e3681d4	0.17822963
69	0xbeb0026f	-0.34376857
70	0xbdf98bcf	-0.121848695
71	0xbe2af3a8	-0.1669451
72	0xbc063118	-0.008190416
73	0xbd3f13da	-0.04664979
74	0x3d574bb8	0.052562445
75	0xbdc1501f	-0.0943911
76	0x3de4d8fc	0.11174199
77	0x3e80a020	0.25122166
78	0xbd9a8cb9	-0.07546372
79	0xbde70d1d	-0.11281798
80	0x3ba48dfc	0.0050218087
81	0xbd3262c7	-0.043551233
82	0xbf322ac7	-0.69596523
83	0xbd09fbe7	-0.0336875
84	0xbdeb66f3	-0.114942454
85	0x3d4a4233	0.04937954
86	0xbe32ca8a	-0.17460075
87	0xbdcf8e6b	-0.10134586
88	0x3e00a907	0.12564479
89	0xbb0407a1	-0.0020146149
90	0xbeb54ef9	-0.35411814
91	0xbe3c2452	-0.1837323
92	0xbdd2b94a	-0.10289247
93	0xbe4af181	-0.19818689
94	0xbcd65acc	-0.026166342
95	0xbe2afc1f	-0.16697739
96	0x3e138240	0.14405155
97	0x3e23c1de	0.15991923
98	0x3de469e4	0.111530095
99	0xbe2e27f5	-0.1700743
100	0xbe0b2741	-0.13589193
101	0xbdbe7662	-0.092999235
102	0xbe966d89	-0.29380444
103	0xbd04bee8	-0.032408625
104	0x3dbbf067	0.091767125
105	0xbe06dae2	-0.13169435
106	0xbd00036d	-0.031253267
107	0xbcca10fd	-0.024666304
108	0xbe811c56	-0.2521693
109	0x3d407b96	0.04699286
110	0xbe4d2145	-0.20032223
111	0x3e6f7be7	0.23387109
112	0x3d8a904f	0.06765806
113	0xbdd56523	-0.10419681
114	0x3e10b9f0	0.1413343
115	0xbeac5682	-0.3365975
116	0x3e493cae	0.19652054
117	0x3e63dc78	0.22252071
118	0x3de2af65	0.1106861
119	0xbcd99e1b	-0.026564648
120	0x3d2b726d	0.04185717
121	0x3e945377	0.2896993
122	0xbd2eb2e8	-0.042651087
123	0xbe178047	-0.14795028
124	0x3e0a4dcf	0.13506244
125	0xbde6a864	-0.11262587
126	0xbe587d1b	-0.21141474
127	0xbd1c591e	-0.038170926
128	0x3e47369f	0.1945443
129	0xbd5069fa	-0.050882317
130	0xbc6b2397	-0.014351747
131	0xbdd04dec	-0.101711124
132	0xbd39eb84	-0.04539062
133	0xbd84db7e	-0.06487177
134	0xbe1073d5	-0.14106686
135	0x3b83db52	0.0040239478
136	0x3d538e2d	0.05164926
137	0xbe414c67	-0.18876801
138	0xbe820d4d	-0.25400773
139	0xbe61ca7d	-0.220499
140	0x3e011e05	0.12609108
141	0xbeafabf8	-0.3431089
142	0x3e43a776	0.1910685
143	0x3d4ccbad	0.049998928
144	0xbd71cf71	-0.059035722
145	0xbe354bfd	-0.17704768
146	0xbb936b36	-0.0044988645
147	0xbd91d50f	-0.07120716
148	0xbd29a3e1	-0.041416053
149	0xbe78facc	-0.24314421
150	0xbdbb4110	-0.09143269
151	0xbe4e6645	-0.201562
152	0xbe27f4c5	-0.16401966
153	0xbd8f2bbd	-0.06990764
154	0xbe8b9cfb	-0.27268204
155	0x3dcd7002	0.100311294
156	0x3ea70b20	0.32625675
157	0x3c84d081	0.016212704
158	0xbe8d066e	-0.27543968
159	0x3de19c2c	0.110161155
160	0xbe0b6308	-0.13611996
161	0xbd235aaa	-0.039881386
162	0xbd3ebcaa	-0.046566643
163	0x3ea700a3	0.32617673
164	0x3d84c373	0.064825915
165	0xbe687a92	-0.22703007
166	0x3ec31d80	0.38108444
167	0xbeb588f0	-0.35456038
168	0x3d9f66a1	0.07783247
169	0x3d91016c	0.07080349
170	0x3ccd6b16	0.025075477
171	0xbc42c3fb	-0.011887546
172	0x3e1bcb17	0.15214191
173	0x3d136b2b	0.035990875
174	0xbce0d7ee	-0.027446713
175	0xbd4e8fb9	-0.050430033
176	0xbe181d02	-0.14854816
177	0xbe059e9c	-0.13048786
178	0xbddaace9	-0.10677511
179	0x3e460d1c	0.19340938
180	0xbe002f48	-0.12518036
181	0xbdb43e6b	-0.08800968
182	0xbe6040c1	-0.21899702
183	0x3e001f3c	0.12511915
184	0xbe501b1c	-0.20322841
185	0x3e0b4c2a	0.13603273
186	0xbd04af2a	-0.032393612
187	0xbcf0a11d	-0.0293737
188	0xbdd1b4ed	-0.10239587
189	0xbc73c1b9	-0.01487773
190	0x3df23373	0.118262194
191	0xbd2a0d6f	-0.041516718
192	0xbcc80b06	-0.024419319
193	0x3e2cd5e7	0.16878472
194	0xbd3f941b	-0.046772104
195	0x3de5a5d1	0.112132676
196	0xbe78052e	-0.24220726
197	0xbeb89280	-0.3604927
198	0xbcbdf700	-0.023189068
199	0x3d8ba771	0.06819046
200	0x3e763058	0.24041879
201	0x3dac1aab	0.08403524
202	0xbe95237e	-0.2912864
203	0x3e79fd8f	0.24413131
204	0xbd2f3bf2	-0.042781778
205	0x3dd64a9b	0.104634486
206	0xbd9f8b2b	-0.07790216
207	0x3d2ada3c	0.04171203
208	0xbe4917a2	-0.19637921
209	0xbd1f99b5	-0.038964946
210	0xbe2087ea	-0.15676847
211	0x3df7f263	0.121067785
212	0x3dd62f67	0.1045826
213	0xbd718e3f	-0.058973547
214	0xbe2a2fed	-0.16619845
215	0x3d8d870d	0.069105245
216	0xbe737a42	-0.23777106
217	0x3e2b7d1f	0.16746949
218	0x3d5e5af7	0.05428597
219	0x3dc39861	0.09550548
220	0x3e8d081e	0.27545255
221	0xbcadc80b	-0.021213552
222	0x3d90e2e5	0.07074527
223	0xbe72b035	-0.2370003
224	0x3e65f275	0.22455771
225	0x3c9ffe8e	0.01953056
226	0x3e459e41	0.1929865
227	0x3c29786e	0.010343654
228	0xbd43c112	-0.047791548
229	0xbdf855c2	-0.12125732
230	0xbdc3c673	-0.095593356
231	0xbdc03126	-0.09384374
232	0xbe01c09e	-0.12671134
233	0xbe7c753a	-0.24654093
234	0xbe2fd378	-0.17170513
235	0xbe03a1d6	-0.12854704
236	0x3e3df79d	0.18551488
237	0x3dc94e96	0.09829442
238	0xbe364cda	-0.17802754
239	0xbc30aeca	-0.01078386
240	0xbd80f3f8	-0.06296533
241	0xbe82c266	-0.2553894
242	0x3dc7d3db	0.09757205
243	0x3e68ad44	0.22722346
244	0x3df5e622	0.12006785
245	0x3d9acf2e	0.07559048
246	0xbe667b1a	-0.22507897
247	0xbe3047a6	-0.17214832
248	0xbe99b7c0	-0.30023003
249	0xbe479971	-0.19492127
250	0x3d403814	0.04692848
251	0xbea241b2	-0.31690747
252	0xbdb34024	-0.08752468
253	0x3d3d12bb	0.04616044
254	0xbe7785cc	-0.24172133
255	0x3d44443b	0.047916632

bias f4 [32]
0	0xbd0d3bd8	-0.0344809
1	0xbe0ea435	-0.13929828
2	0xbe1c758b	-0.15279214
3	0xbe65ef91	-0.22454669
4	0xbdf20c20	-0.11818719
5	0xbe1720b9	-0.14758576
6	0xbdd7b87f	-0.10533237
7	0xbea838f8	-0.32855964
8	0xbddf9a22	-0.109180704
9	0x3e11a5d5	0.14223416
10	0xbe2ceea7	-0.16887914
11	0xbd2c41de	-0.042055003
12	0xbe03032a	-0.12794176
13	0xbd81e0bc	-0.06341693
14	0xbe3cf59d	-0.18453069
15	0xbe02300c	-0.12713641
16	0xbde5778c	-0.112044424
17	0xbdb5b064	-0.088715345
18	0xbe856c54	-0.2605921
19	0xbe3cddf0	-0.18444037
20	0xbddc87fc	-0.107681245
21	0xbecbe5d0	-0.3982377
22	0xbe26faee	-0.1630666
23	0xbd90fb05	-0.07079128
24	0xbe5a84fb	-0.2133979
25	0xbd3faa39	-0.046793196
26	0xbe683569	-0.22676624
27	0xbd835c98	-0.06414145
28	0xbdf050bd	-0.117341496
29	0xbc1b11d4	-0.0094647
30	0xbd56bdcd	-0.052427102
31	0xbe43f3a0	-0.19135904

weight f4 [12, 32]
0	0x3e154346	0.14576444
1	0xbc87dad7	-0.016583843
2	0x3cb67f11	0.022277387
3	0x3cbe999d	0.023266608
4	0x3d5bc447	0.05365398
5	0x3bb8de44	0.0056417305
6	0xbdd06db0	-0.10177171
7	0xbdcb94c4	-0.09940484
8	0xbdd86120	-0.105654
9	0x3dd764a8	0.105172455
10	0x3d975ccc	0.073907465
11	0x3ce1fa92	0.027585302
12	0xbe6518ee	-0.22372791
13	0x3d7f8b70	0.062388837
14	0xbd3213e2	-0.043475993
15	0x3d8aa689	0.06770045
16	0x3d9cb0e7	0.07650929
17	0xbdd529c0	-0.10408354
18	0x3e20a885	0.15689285
19	0xb9f72949	-0.0004714227
20	0x3cb58699	0.022158908
21	0x3e2596a6	0.16170749
22	0xbe0a93c7	-0.13532935
23	0x3da3ac55	0.07991854
24	0x3c949500	0.018137455
25	0x3d2a8920	0.04163468
26	0xbcad0edd	-0.021125251
27	0xbd54ba7e	-0.051935665
28	0xbc8c7229	-0.01714428
29	0xbe1c66d6	-0.15273604
30	0x3cdafb66	0.026731204
31	0x3de6c600	0.11268234
32	0xbdd37513	-0.103250645
33	0x3c5359a6	0.012899792
34	0x3a5e0d1f	0.0008470583
35	0x3cf27070	0.02959463
36	0x3d8df5db	0.06931659
37	0x3c9fe79e	0.019519623
38	0x3b0ea6e6	0.002176696
39	0x3d85938c	0.06522283
40	0x3e8b497f	0.2720451
41	0x3daaf71d	0.08347914
42	0x3d2cdddf	0.04220378
43	0x3e6aa2e4	0.229137
44	0x3e200f95	0.15630944
45	0x3e2572af	0.1615703
46	0xbda293e9	-0.07938368
47	0xbd9aa7df	-0.0755155
48	0xbdc64716	-0.09681527
49	0xbe4a9e59	-0.19786967
50	0xbd5946b3	-0.05304594
51	0x3e987709	0.29778317
52	0xbe1aa2cc	-0.15101165
53	0xbccb5ce3	-0.024824565
54	0xbd8af9b9	-0.06785912
55	0xbb1cd147	-0.002392845
56	0x3e612325	0.21986063
57	0x396a6e53	0.00022357078
58	0x3cc65d95	0.024214545
59	0xbca8c2b2	-0.02060065
60	0xbdb89317	-0.0901243
61	0xbdc17cb3	-0.094476126
62	0x3ccb9719	0.024852322
63	0xbe2c0020	-0.16796923
64	0x3df4443f	0.119270794
65	0x3d2dab2f	0.04239958
66	0x3e1342c0	0.14380932
67	0x3e3dd91e	0.18539855
68	0xbda3dcc3	-0.08001091
69	0xbe45b60b	-0.19307725
70	0x3ec21c69	0.379123
71	0xbd8ae469	-0.06781847
72	0xbdd4a6d8	-0.103833854
73	0x3dd1b1e5	0.10239009
74	0xbdcde990	-0.10054314
75	0xbd438ce7	-0.047741797
76	0x3cfc2e3b	0.030783763
77	0xbe0840f3	-0.13306026
78	0x3da39fb1	0.07989443
79	0x3d48e92c	0.049050495
80	0x3d8f632f	0.0700134
81	0xbe252185	-0.16126068
82	0x3e72088d	0.23636074
83	0xbb8648e4	-0.0040980447
84	0x3e2c1e8f	0.16808532
85	0xbd0c5057	-0.034256306
86	0xbde575b4	-0.11204091
87	0x3e2c5992	0.16831043
88	0xbd3d943e	-0.046283953
89	0xbcb5908a	-0.022163648
90	0x3d9dc472	0.077034846
91	0xbe394eae	-0.1809642
92	0x3e0fcacc	0.14042205
93	0xbc1b41a8	-0.009476103
94	0xbe862ce4	-0.26206124
95	0xbdc56a84	-0.09639457
96	0x3dd99d92	0.10625757
97	0xbdb6e651	-0.08930648
98	0xbbe6636f	-0.0070308964
99	0x3d818fcf	0.063262574
100	0xbe04a00a	-0.12951675
101	0x3cbb6007	0.022872938
102	0x3dccb0c1	0.09994651
103	0x3d0aba2d	0.033868957
104	0x3c2b6182	0.010460259
105	0x3de8bd08	0.1136418
106	0x3ca04a18	0.01956658
107	0x3ce1b69e	0.027552899
108	0xbda6a2dc	-0.08136532
109	0x3e19ee96	0.1503242
110	0xbdc39a00	-0.095508575
111	0xbdfbd28f	-0.1229602
112	0xbd736a2b	-0.05942742
113	0x3ca14a13	0.019688642
114	0x3d760fb8	0.060073584
115	0xbddd6727	-0.108106904
116	0x3d77fed6	0.060545765
117	0xbe5411f8	-0.2070998
118	0x3e38cdce	0.18047258
119	0xbc5f7392	-0.013638394
120	0x3d48b0a6	0.04899659
121	0x3d60124e	0.054704957
122	0xbe41e2e5	-0.1893421
123	0xbdcd838d	-0.10034857
124	0xbd5b83c1	-0.053592447
125	0xbcffeb5b	-0.031240156
126	0x3c02d2b9	0.0079848105
127	0x3ce522b6	0.027970653
128	0x3df23498	0.11826438
129	0x3dbac66f	0.091198795
130	0xbe473fcc	-0.1945793
131	0xbda3a1ed	-0.07989869
132	0xbe5e0cbb	-0.21684544
133	0xbd32ed64	-0.043683425
134	0x3e3492d6	0.17634138
135	0xbd078d23	-0.033093583
136	0xbe082866	-0.13296661
137	0x3daa6e8a	0.08321865
138	0x3e14e9ac	0.14542264
139	0x3d78f5ed	0.060781408
140	0xbdb686df	-0.08912443
141	0x3dfb6fec	0.12277207
142	0x3ce44b43	0.027867919
143	0x3e34e83d	0.17666717
144	0xbe3df7fb	-0.18551628
145	0xbe0c816e	-0.13721249
146	0xbdbde266	-0.09271698
147	0x398a1099	0.00026333777
148	0x3c2d365b	0.010572041
149	0xbe6b2e73	-0.22966938
150	0xbe24b7f4	-0.16085798
151	0xbc9bc9a2	-0.019017044
152	0xbd8dbade	-0.06920408
153	0xbd77a863	-0.06046332
154	0x3d965850	0.07341063
155	0x3e791972	0.24326113
156	0xbe279785	-0.16366394
157	0x3bc0be9e	0.0058820983
158	0x3d872aa1	0.06599928
159	0x3d2296e0	0.039694667
160	0x3e2a318d	0.16620465
161	0x3e063fc5	0.13110264
162	0x3cba6e07	0.022757543
163	0x3db02e98	0.08602637
164	0x3e9451d2	0.28968674
165	0x3e0abf3d	0.13549514
166	0x3c933c7b	0.017973175
167	0xbcbcdb52	-0.023053799
168	0xbdec80ae	-0.11547981
169	0xbe317361	-0.1732917
170	0xbe9df583	-0.30851373
171	0xbe0a1663	-0.13485102
172	0xbe689be6	-0.2271572
173	0x3d0198d3	0.031639885
174	0x3d79ead3	0.06101496
175	0xbe696be5	-0.22795065
176	0xbc1e433d	-0.009659586
177	0x3d214ac0	0.039377928
178	0xbdba45e6	-0.09095363
179	0xbc25adf0	-0.010112271
180	0xbd36000d	-0.044433642
181	0xbb65be7a	-0.003505616
182	0x3eb8affb	0.36071762
183	0x3e430736	0.1904572
184	0x3e289f6f	0.16467069
185	0xbd383abc	-0.04497789
186	0x3d2297a6	0.039695404
187	0x3e85eb14	0.26155913
188	0xbd5217d1	-0.051292244
189	0x3e20810a	0.15674224
190	0xbd9e2084	-0.077210456
191	0xbdde602d	-0.10858188
192	0x3e07db12	0.13267162
193	0xbd22d136	-0.0397503
194	0x3cff94f5	0.031198958
195	0xbcd8c719	-0.026462125
196	0x3d374758	0.044745773
197	0xbd368ad1	-0.04456598
198	0x3d5201db	0.0512713
199	0xbe3d2a4a	-0.18473163
200	0x3d0faf06	0.035079025
201	0xbdfb8bc0	-0.122825146
202	0x3e158583	0.14601712
203	0x3d876c82	0.06612493
204	0x3e8d2f75	0.2757527
205	0xbdbf7be2	-0.09349801
206	0xbd9d4c35	-0.07680551
207	0x3b9c413d	0.004768519
208	0xbd444559	-0.047917698
209	0xbae01239	-0.0017095275
210	0xbd9f5294	-0.077794224
211	0xb9c0cd7f	-0.000367742
212	0xbda01154	-0.07815805
213	0xbdabd36e	-0.083899364
214	0xbcf2bbff	-0.02963066
215	0xbe182c0c	-0.14860553
216	0xbde516b7	-0.11185973
217	0x3d1587dd	0.036506522
218	0xbd549c51	-0.051906887
219	0x3cc0a3c2	0.023515586
220	0x3e212248	0.15735734
221	0x3cbbebed	0.022939647
222	0xbba938bd	-0.0051642344
223	0xbd3e2879	-0.046425316
224	0xbd441b18	-0.0478774
225	0x3e497b95	0.19676049
226	0xbde92cf3	-0.113855265
227	0xbe843b33	-0.25826415
228	0x3c70a8d6	0.014688691
229	0xbd0bf1e2	-0.034166224
230	0xbdd298e7	-0.1028307
231	0x3d4962bb	0.049166422
232	0xbd09e284	-0.033663288
233	0x3e819278	0.2530706
234	0xbd8aeed8	-0.06783837
235	0x3bb08579	0.005387005
236	0x3cb7d4df	0.022440372
237	0xbdf4f5ea	-0.11960967
238	0xbd003aef	-0.031306203
239	0x3d1d411f	0.038392182
240	0xbe48be13	-0.19603758
241	0x3d5fbf3e	0.054625742
242	0x3c7c3b3f	0.015394985
243	0x3d3f4bba	0.046703078
244	0x3ae3ab9f	0.0017369873
245	0xbd5b9774	-0.053611234
246	0x3cdf3728	0.02724798
247	0x3e09eda1	0.13469554
248	0xbdbeeeea	-0.09322913
249	0xbd603970	-0.054742277
250	0x3e196656	0.14980444
251	0xbca5cc73	-0.02023909
252	0x3ba4c7ab	0.005028685
253	0x3d1680fe	0.03674411
254	0xbd6f2bbf	-0.05839133
255	0x3e4b2945	0.19839962

bias f4 [12]
0	0x3dc32f3f	0.09530496
1	0x3cdad8bb	0.026714673
2	0xbe0735ba	-0.13204089
3	0x3e80333f	0.25039098
4	0xbddd664b	-0.108105265
5	0xbe9c2380	-0.30495834
6	0xbd0ce020	-0.03439343
7	0xbd2e83d3	-0.042606186
8	0xbe103102	-0.14081195
9	0x3d944e91	0.07241548
10	0x3e814e38	0.2525499
11	0xbcd64284	-0.026154764
