deploy/networks/go2/bambi26_45obs.pt (torch, 768520 bytes, 8 tensors)

weight f4 [512, 45]
00000000: 3ba7 aa3d c4ef 323c fb95 92be a775 2e3d
00000010: 823f 01bf 335e 013e e369 d83c ff8c 47bd
00000020: 6a35 1d3e f25c 883d 06b3 8a3e 66e2 953c
00000030: 1ea2 b43d 8b3a 853d ebc1 11bb f82e e23e
00000040: 7cb7 7cbe be56 76bd 0a37 e13e e547 f33d
00000050: c9aa 60bd 5535 49be e6a4 1ebe 0580 5fbe
00000060: 995d 9e3e 3b64 953e a320 073d 5fa1 04bd
00000070: 3c7d 91be 3cbd a03e da5f bf3e ecb2 3e3e
00000080: f774 593e 99bf db3c 5cea 9d3d a56f 9cbd
00000090: b833 8d3d a606 133d 397d 18bd d80b 2fbd
000000a0: 990f 593b 46d8 4abd abdf 5abc 2c71 413c
000000b0: 2e87 4bbd 391a e03d 5c1d 66be 1b64 523d
000000c0: 3ac7 0dbe acf4 5e3e 6575 22be 2cd6 4ebd
000000d0: 9cf5 c03d b7f3 e73d e29f 743e 3261 9b3e
000000e0: e0b1 7c3c d00c 00be 7115 4ebd e6b9 2e3e
000000f0: a899 92bd 00c8 35be c9a0 943e 3433 903e
00000100: a270 bf3d ff4b e4bd 98f4 503f 4b33 84be
00000110: a164 753e 48aa 4f3d 1610 5e3e 73d8 00be
00000120: 199a 403e c25a 5e3e 8cd7 b03d 54f5 7fbd
00000130: db98 e4bd 1679 d53d 158a 4abc b00e c6ba
00000140: 9032 c63d 1443 3bbd a351 c8bc 33b8 41bd
00000150: 8f77 01bd df6a d83c 7a55 04bd ed6e e03d
00000160: 1e89 a4bd afbf b63d cff8 1e3e 3074 2fbe
00000170: f069 8abd c0ce c3bd 041b 1dbf b2a6 b4bd
00000180: 1b54 e93c 59f4 b9bc acb0 8bbe ebe2 87be
00000190: 774f a33e 7a54 853d 13ca 9ab9 61e4 81be
000001a0: b20d 53be 48e2 5bbe 4184 2c3d d05f 30bd
000001b0: 787e 0c3e 030e bb3d c436 c43d b7a4 523b
000001c0: 3c54 98bd dd73 a8be 60fe 58bd d7e1 0bbe
000001d0: be40 00bd f36e fd3e 0b5d 83be 89dc aebd
000001e0: de90 c3be aaf8 afbd 9a5c 783e 7907 2dbd
000001f0: 4b02 88b9 187d b0bc 641a 38bd b110 e3bd
00000200: 8db7 d53d 938a a4bc 280e 17be b941 ab3d
00000210: 475b c63c abaa 2a3c 5e9b 75bd 64ba 9d3d
00000220: 06f7 923e fc50 b53c 0d8a 243e 1c1b fabe
00000230: 30b9 a5bd 78f6 78bd da5a 3a3c c24d 413e
00000240: ea5f 2ebe 7626 e6bd a75f a23e 424c d7bd
00000250: 5a9d 4a3e 46c5 c23e 7662 e1bd 24d2 d23e
00000260: f148 2c3e 48d2 313e 9f74 0abe fbda 87bd
00000270: 528a 423c deef 63be 8b1f f53d 548d 0abe
00000280: a83d f6bd cffd 9b3e 7cf5 a2be e46f d53e
00000290: 2797 d3be 87e3 e33e baf4 6ebd 8833 17be
000002a0: 243c cc3b cd56 b93d 7440 e0bc 96aa 4e3d
000002b0: f4a8 60bc 45ad 443b 4129 923d 7249 a1bd
000002c0: dff2 8d3c a4e1 c83a 18a1 573c 1dc7 183d
000002d0: 6827 9a3d 021a 413e ba08 183d 9fc7 323e
000002e0: f45c 253c ee84 5f3e 0abb 76be 86ae 04be
000002f0: 3c74 6abe 3408 95bd 808b 7b3e b465 4d38
00000300: 3bef e6bd 4ffa 793d 2038 09bd bb02 3ebe
00000310: 729e 323d 6683 503e 9f6c ec3e 3182 11bf
00000320: 6f29 c43c d4f2 82be 9f56 e03e 6d95 91be
00000330: 8a33 68be a439 373e 245c 3d3e 82ae b83d
00000340: 591a 963d ff89 1c3d f202 ddbd 57b9 c43d
00000350: 5d07 5cbe 72cb 5dbd e107 d4bd 2d71 13bd
00000360: 4d13 c93d 175d 0abc 583b c2bc 2186 5c3c
00000370: 0f1f 243d c9e4 0a3c 1551 173c ee4f 743d
00000380: 08b1 02bb 3a87 21bd f382 d0bd ed9e 773e
00000390: 5088 1f3e 83f5 073f feac a33a cb46 4bbe
000003a0: 0013 c43d c783 bcbe 65db c2be 6f6f 533e
000003b0: 39ca 64be a030 2e3d 9e79 c93d 9305 9fbe
000003c0: 1ba9 91be 74fc 903e a22e 423d 9693 353d
000003d0: 3e84 a3be ae40 233b 6981 9bbe 00a5 eebd
000003e0: 581d 9cbd f29f 333e cfd7 173f fcab 653d
000003f0: 3ab9 4b3d f0c0 c2bb 8deb 3f3e 6563 1bbe
0.08332678 0.010921422 -0.2863005 0.04259267 -0.5048753 0.1263359 0.026417678 -0.04871845
0.15352407 0.06658353 0.2708971 0.018296432 0.08819984 0.06505307 -0.0022240828 0.4417646
-0.24679369 -0.060141318 0.43987304 0.11878947 -0.054850373 -0.19649251 -0.15492591 -0.2182618
0.30930784 0.29178032 0.03299011 -0.032380458 -0.2841586 0.31394374 0.37377816 0.18622941
0.21236025 0.02682476 0.07710716 -0.07638482 0.0689463 0.035895012 -0.037228797 -0.042735904
0.003312087 -0.04952266 -0.013358991 0.011806767 -0.049689464 0.109425016 -0.22472137 0.051365
-0.1384553 0.21773022 -0.15865095 -0.05049722 0.09421846 0.11325782 0.23889115 0.30347592
0.015423268 -0.12504888 -0.050313417 0.17063102 -0.07158214 -0.17752075 0.2902892 0.28164065
0.09347655 -0.111473076 0.8162322 -0.25820383 0.23964168 0.050699502 0.21685824 -0.12582569
0.18808784 0.21714309 0.08634862 -0.062489823 -0.11161967 0.10423486 -0.012362023 -0.0015110578
0.09677613 -0.045718268 -0.02445299 -0.047294807 -0.03160816 0.026418148 -0.03230808 0.109586574
-0.080339655 0.089232795 0.155246 -0.17134166 -0.06758487 -0.09560919 -0.6136935 -0.08820857
0.028482487 -0.022699522 -0.27283227 -0.26540312 0.31896564 0.06510253 -0.00029523726 -0.25369552
-0.20610693 -0.21473038 0.042118315 -0.043060124 0.13720119 0.09133532 0.09580758 0.0032141635
-0.074379414 -0.32900897 -0.052976966 -0.1366037 -0.031311743 0.4949871 -0.25656924 -0.085381575
-0.38196462 -0.08592351 0.24254075 -0.042243455 -0.0002594165 -0.021544024 -0.044947043 -0.11087168
0.104354 -0.020085609 -0.14751494 0.08362145 0.024213446 0.010416667 -0.059962623 0.07701567
0.2870409 0.022133343 0.16068287 -0.48848808 -0.08091962 -0.060781926 0.0113742 0.18877319
-0.17028776 -0.112378046 0.31713602 -0.10512592 0.19786587 0.38041133 -0.11005108 0.4117595
0.168247 0.17365372 -0.1352105 -0.06633564 0.011873798 -0.22259471 0.11968907 -0.13530475
-0.12023479 0.30467078 -0.31827915 0.41686928 -0.41326258 0.44509527 -0.05833886 -0.14765751
0.0062327553 0.09049759 -0.027374484 0.050455652 -0.013712157 0.0030010503 0.07136775 -0.07875337
0.017327724 0.0015326035 0.013160966 0.037299264 0.075270474 0.18857577 0.037117697 0.17458962
0.0100929625 0.21828052 -0.24094787 -0.129572 -0.22895902 -0.07276955 0.24564934 4.8970527e-05
-0.11276098 0.06102973 -0.03350079 -0.18555729 0.043608136 0.20362625 0.4617662 -0.5683928
0.023945538 -0.25575888 0.43816087 -0.28434315 -0.2267591 0.17893082 0.1849218 0.0901766
0.07329244 0.03821754 -0.107915774 0.09605663 -0.21487184 -0.0541491 -0.10353065 -0.035996605
0.098181345 -0.008445046 -0.023709938 0.013459713 0.040068682 0.008477398 0.00923564 0.05964654
-0.0019941945 -0.039435603 -0.101812266 0.24181719 0.15579343 0.53108996 0.0012487469 -0.19851224
0.095739365 -0.36819288 -0.3805801 0.20647977 -0.22342767 0.04252684 0.0983765 -0.3105894
-0.2844933 0.28317606 0.047407754 0.044330202 -0.3193683 0.0024910378 -0.3037217 -0.11652565
-0.076227844 0.17541483 0.5931367 0.05607222 0.049737193 -0.00594341 0.18742199 -0.15174635

bias f4 [512]
00000000: e425 9bbd a02a 44bd 32f8 733d a0e2 293e
00000010: 0cc5 d8bd 7bd7 5dbe 4524 27bd 5483 36be
00000020: a700 18be e1f6 d2bd ad6e 883d 8cb5 da3d
00000030: fd84 863d 233b 9ebd bfae 82be 9d76 9cbc
00000040: 5678 523e ec4d 2039 8075 533d 7fb7 b9bd
00000050: 87e9 2abe 865c 553d a838 5abc 6775 98bd
00000060: cc36 b7bc ac9b 7ebc 8c1f 9bbd e0bf 4cbe
00000070: 7a03 7b3d 2d33 c13d 1f32 33bd bb20 36be
00000080: 04bb 01bc d34e 023e 6fb2 29bd 583c 2bbe
00000090: 15d3 c23b 650c 68be 6748 6bbd 0c88 68bc
000000a0: 79f3 443e 2833 4cbc 6813 323e c7a5 d8bd
000000b0: 5fa6 2ebc 92bc 34be bd28 3c3e 6a94 c3bc
000000c0: fd4d 9abd 185b 9f3d 42ef 0ebe 7970 3dbe
000000d0: cd72 bcbd a2b7 51bb b5f0 32be ee79 c43d
000000e0: 4a3e 1c3c 64f2 df3d dbd5 ac3d aee8 acbc
000000f0: b617 94bd a557 f53c 2208 cc3d 3ba4 b93d
00000100: 051f 54be 5cd0 babd 2e65 f3bc c6b0 dc3c
00000110: f0d6 c43c d506 07be 58bd d83c 13c0 0dbd
00000120: b57a 04bd a986 19be 3fce 73be 069e 7e3c
00000130: 9554 f7bd 7b78 a73d 17f5 2cbe 4ea8 553d
00000140: a638 b2bd 131b a53d fa17 5d3e 4a0b 80bc
00000150: f3a7 eabd 588b eebd f208 87be 75c2 18be
00000160: e532 12bb de9f c33c 06a4 92bd 42d9 703c
00000170: a3f8 bf3d e11b 173e 6d67 e9bb 45b4 08be
00000180: ae9a 363d be40 a4bc 489b c4bd 82da df3b
00000190: f621 84bd cf40 26be 5578 843d 8faf 05be
000001a0: 00c9 1abe 9a36 b6bc e1ed 06bd 5bec 1fbe
000001b0: feaa 35bd 6f4a 68be 0d6a d33d a361 383e
000001c0: 52ee 5d3c 2833 2dbe 978c 5cbe bce6 7dbd
000001d0: 408b 2cbe 1f02 853d 1305 413d f6ad 36be
000001e0: 8558 21be 7e8b 3dbe cc16 383d e7a5 98bd
000001f0: 0f9a 64bd 4107 b13d 2394 c93d ddf2 b5bd
00000200: 57fc 9c3d bde2 f0bd eaea c83d 9b7c eebd
00000210: 1955 29be a6fe 79be 5cc1 063d cf1c 5cbe
00000220: a9c8 50be 1b52 6bbe d906 80be 3ca1 4cbe
00000230: 3d39 5bbe 1082 dcbd 7e1e 9e3d eaca 22be
00000240: 80bd 6c3d 6acd 8cbc 0c9b 713c 9957 f63d
00000250: 262b 40be 60d2 73bd 0c56 8c3d e4fd 3bbc
00000260: 4f3f 313c 078a 513c b556 1c3d a79e 143e
00000270: 7770 f83d 214e 64be 01ba 9c3d eeb1 ebbc
00000280: e68a 51be 07ef 0fbd 4b4a 783c 286b 2a3e
00000290: bb23 dd3c 5c8e 223e 2304 1abe 5863 4e3d
000002a0: 48a5 ce3b 9191 1d3d 3d78 67bd 7869 a23c
000002b0: 8311 02be 7023 103e 9417 a1bd d0c8 25be
000002c0: 4bea 5bbe 5adf 71bc b448 2fbe f447 ebbd
000002d0: f911 96bd 1d5e 643c dad2 19bd 5ac3 4e3d
000002e0: 0191 1bbe 851f 983b 6094 3a3d 73fc abbd
000002f0: ef9a e93d d89d 113e e901 5bbd a15a 5ebd
00000300: fc0b 1c3e 28e8 0dbe 74a2 a8be e670 51bd
00000310: be1d cd3d e239 9fbd 80c0 0cbd e29c 52be
00000320: a113 11bd efed 6ebd 2e8e 25bd 62b8 36bd
00000330: 7c96 f53c 161a b4bd 4df2 cd3d d23b 82bc
00000340: 540d ed39 c1f4 f83c 5a36 e43d cc40 38bd
00000350: 0ac6 193e edc6 223e 0207 d4bd 6739 e03d
00000360: 7b5d df3d 5cf8 11bd b19f 473c 995e 063e
00000370: c506 083e 3f89 2c3e ee0e b0bd 4742 09be
00000380: c9f7 673d 8e2c 443d 94c0 5f3b c695 e03d
00000390: 0491 debd 1fae 163e d191 bebd ae0f 933d
000003a0: 7fc3 1f3e 827c 3ebe fc2c 9c3d 3cb9 263e
000003b0: 4c31 7e3d 3585 03bd c139 55bd 9ecd 4ebe
000003c0: edd2 60bd 4bb2 2b39 fcc7 b93b 61ee bcbc
000003d0: 781a b5bd 202c dcbd 0c00 93bc 8dd1 f7bd
000003e0: 51ef 1bbe 9155 27be a44e cb3d 8cf4 b73d
000003f0: 8121 263d 04e8 43bd 9c54 063c ebf4 353e
-0.075755864 -0.047892213 0.05956287 0.16590357 -0.10584459 -0.2166423 -0.040806074 -0.17823535
-0.14843999 -0.10300995 0.06661735 0.106791586 0.06568334 -0.07726123 -0.25523946 -0.019099528
0.20553717 0.00015287817 0.05162573 -0.09068202 -0.16690646 0.05209019 -0.013319172 -0.07444268
-0.022364996 -0.015540045 -0.075743765 -0.1999507 0.061282612 0.09433589 -0.04374897 -0.17785923
-0.007918123 0.12725382 -0.041429933 -0.16722238 0.005945573 -0.22660978 -0.057442095 -0.014192592
0.19233502 -0.0124633685 0.17390215 -0.105784945 -0.010659783 -0.17650059 0.18374915 -0.02387448
-0.07534406 0.07781047 -0.13958457 -0.18499936 -0.09201584 -0.0032000323 -0.17474635 0.09593569
0.009536335 0.10934904 0.08439227 -0.021107044 -0.07231085 0.029949019 0.09962489 0.090645276
-0.20714958 -0.09121773 -0.029711332 0.02693976 0.024028271 -0.131862 0.026457474 -0.034607004
-0.032343585 -0.14992775 -0.23809145 0.015540605 -0.120766796 0.08177277 -0.1689037 0.05216246
-0.08702211 0.080618046 0.21591178 -0.015630383 -0.11457815 -0.116476715 -0.26374012 -0.1491793
-0.0022308168 0.023879942 -0.07160191 0.014700236 0.093735956 0.14756729 -0.007122925 -0.13350017
0.044581108 -0.020050403 -0.0959993 0.006831468 -0.0645179 -0.1623566 0.06468264 -0.13055252
-0.15115738 -0.022242833 -0.032941703 -0.15617506 -0.044352524 -0.22684644 0.10322962 0.18005995
0.0135455895 -0.16914046 -0.21538006 -0.061987624 -0.16849995 0.06494545 0.04712398 -0.17839798
-0.15756424 -0.18510243 0.044943616 -0.07453518 -0.055810984 0.08643962 0.09842708 -0.08884213
0.076653175 -0.11761997 0.09810431 -0.1164486 -0.16536368 -0.24413547 0.032899246 -0.21495365
-0.20389046 -0.2298054 -0.25005224 -0.19983381 -0.21408553 -0.10766995 0.0772066 -0.15897718
0.05779791 -0.017187793 0.014746439 0.12028427 -0.1876646 -0.0595268 0.0685235 -0.011474106
0.010818317 0.012789256 0.038168628 0.14513646 0.12130826 -0.22295429 0.07652665 -0.028771367
-0.20463142 -0.035140064 0.015154432 0.1664244 0.026994577 0.15874618 -0.1504064 0.05038771
0.006306324 0.0384689 -0.056511153 0.019825682 -0.12701993 0.14076018 -0.07865825 -0.16189885
-0.21476094 -0.014762724 -0.17117578 -0.11488333 -0.07327647 0.013938454 -0.0375546 0.05047927
-0.15192033 0.0046424293 0.045551658 -0.0839776 0.11406504 0.14220369 -0.05346862 -0.05428565
0.15238947 -0.13858092 -0.32936442 -0.05113306 0.100154385 -0.07774712 -0.03436327 -0.20567659
-0.03541911 -0.05833238 -0.040418796 -0.044609435 0.029978983 -0.08794038 0.10055981 -0.015897665
0.00045214093 0.030390145 0.11143179 -0.04498367 0.15016952 0.15896197 -0.10352899 0.10948449
0.10906502 -0.035637245 0.0121840695 0.13122024 0.13283832 0.1684923 -0.085965976 -0.13404189
0.05663279 0.047894053 0.0034141885 0.10966067 -0.10867503 0.1471486 -0.09305156 0.07180725
0.1560192 -0.18602183 0.076257676 0.16281599 0.062058732 -0.032109458 -0.05205703 -0.20195624
-0.054888655 0.0001637425 0.005669592 -0.023062887 -0.08842939 -0.10750604 -0.017944358 -0.121005155
-0.1522801 -0.16341235 0.09927109 0.089821905 0.040559296 -0.04782869 0.008198883 0.1776921

weight f4 [256, 512]
00000000: e2c3 e43c d27a d3bc baf5 03be 06c0 1a3e
00000010: 099e 0cbb c05f 72bd 6ed8 9abd 970e 06bd
00000020: 5720 3f3d a67c 8f3c 9a1d 363d 942c 1cbb
00000030: 98e4 eb3c 8111 d63d 0605 cf3d 3b4e 813e
00000040: 7d61 93bd 1463 1e3e 985d 74bb 0a69 d43d
00000050: 6d4b 1fbd 589a 13be f4c2 e73d b0be 16be
00000060: 3c0d a8bd 7e4c 283e 9118 58bd 4d12 c9bd
00000070: cc73 58bd af6b 1c3d 76b6 ae3d a68e ae3c
00000080: ddef d33d 20b0 f23b e0cf 91bd 475a d6bc
00000090: 20fa 01be 9eec 9a3d e6ab 753d 7681 003e
000000a0: 607d 96bd 79d6 c03d f019 a73d db44 123d
000000b0: 1d5d 2fbd 75a1 eabc 9e70 563e 2e27 45bc
000000c0: 46bc 793c 2aa2 5c3c 8170 5b3d 32e9 efbd
000000d0: fdcf f5bd 2c65 55be 9c6f 283e 5836 b1bd
000000e0: c425 f53d a6a1 0c3d db3e b33d 00db 5e3d
000000f0: 443b 8abc f7c0 cabd 3440 153e 1f1e 093d
00000100: 1723 a83d 429f 17bd ed58 a03d 8b06 543d
00000110: d9e5 98bc 2d4d dd3d b3f0 ae3c 8607 0c3e
00000120: 1ee1 83bd ba9b 823d ae57 2a3d da73 443e
00000130: 6956 833d 644c 8cbd 362d c73d bd15 1ebd
00000140: 4a65 9dbc b393 833d 77ff a1bb 2234 ddbd
00000150: 9422 223d 5d3d 26bd f1f1 213d 270d 0e3e
00000160: e69a 32bd dd0f 223b 88ae c63d 478f 82bd
00000170: 7aff f7bd 1d38 0ebd c5db 033e 4464 07be
00000180: 9b5b 193e 1708 813d 9785 cd3b ee02 103e
00000190: ae17 d7bd dea3 c93c daef c93d b15f 1bbd
000001a0: 96d9 76bd 0033 adbb 7afb bc3d df3c 74bb
000001b0: 25f2 043e f302 543d 6ba0 dcbc e43f 743b
000001c0: 1255 89bd 2a58 833b 4d7b 6b3d 9e86 3cbd
000001d0: dd3d 24bd b5e9 d03c 7a10 6ebd 7279 81bd
000001e0: 27b5 813d 1584 e4bb 82d7 373d 39cf 083e
000001f0: 1fbe b2bb 2e2b 893d f916 acbd 21b8 3e3e
00000200: 151f 553d f058 a0bc 2cb6 9abd daa3 b0bd
00000210: d91f 083e 5dcb 22be 44ee 8d3d 5f18 b23d
00000220: 929e 67bd 8d34 ae3d edc8 1a3d 58ee ef3c
00000230: 5502 51bc a2fa 42bd 730f a8bb afc4 73bb
00000240: 726b d6bb c835 ff3b ba21 0bbd 5942 b3bc
00000250: 59a3 0e3e a420 053d 82ed 96bd acf9 c13d
00000260: bce3 923c a731 b83a 32ed ed3b 4ff7 b23c
00000270: 1419 e73c 3fc6 ddbd 9722 73bc 6780 2dbd
00000280: d5d8 4f3d d0c3 88bc 6e00 ea3d 2776 733d
00000290: b279 1a3c dc1e 393c 401b c63b d6d2 06bc
000002a0: 54a2 89bd 227a 70bd 71c2 c33d bd0a efbd
000002b0: 227a 323d b73e b33d 13e6 df3c b494 d13c
000002c0: ab49 5a3d edc1 5c3d e4e7 153e a699 a63b
000002d0: eb06 503c 25e0 813d 87ab fb3d d5da c4bd
000002e0: 98ef f23d 7ca0 c23c b372 9abd fd90 8ebd
000002f0: 6d07 2b3e afd7 d43c bd9e 5dbd ceb1 c6bd
00000300: 248a 7abe dfe1 6b3d 6264 2c3d 07bc 653d
00000310: dfe8 9dbb a55e 6bbc d730 d4bb 8836 dabd
00000320: e5ba 8bbc d273 583c 0dce 303d b76b 143e
00000330: 6a85 f83d d1fd f9bc 5111 b63c d1cf fbbd
00000340: 9cf1 a03d 571b c5bc 3486 163e 52a5 26bd
00000350: 9d85 45bd 27e4 1abd 5ce9 aa3d 542b a43c
00000360: 7f50 d3bd e655 b1bc de2d e5bc 9fea f9bd
00000370: d96b 183e 1d82 09bc 6e91 82bd 734b 02bd
00000380: bf8d f83c 77e9 0abe dee2 cdbc e33c ebbb
00000390: 634e 1b3e 3f30 3cbd 90ce b23d 39c7 dc3c
000003a0: df0a 09bd 5822 cf3d 1176 9a3d 83ef 6fbd
000003b0: 6de7 a63b 1b3a 8b3d cb81 5d3d 403b 3b3e
000003c0: a719 8ebd 15bb 653d 6eb8 e3bd 4188 1b3d
000003d0: fffa bebd c64c 0f3e 9e3d bebd 2300 093e
000003e0: 2b59 5bbd 628e aebd bf47 ca3d 4244 6b3d
000003f0: d297 e63d ffc9 183a 6e9e d53d 406d 98bd
0.027925435 -0.025815401 -0.12886706 0.15112314 -0.00214565 -0.059173346 -0.07560812 -0.032728758
0.0466617 0.017515492 0.044461824 -0.0023830282 0.028795525 0.10452557 0.1010838 0.25254998
-0.07196329 0.15467483 -0.0037287232 0.10371597 -0.03889029 -0.14414346 0.11316481 -0.14721179
-0.08205649 0.1643543 -0.052757803 -0.09817944 -0.052844808 0.038188633 0.085308954 0.021308254
0.10348485 0.0074062496 -0.07119727 -0.026166094 -0.12693071 0.075646624 0.05997839 0.12549385
-0.07348132 0.094159074 0.08159244 0.035710197 -0.04281341 -0.028641442 0.20941398 -0.012033267
0.015242642 0.013466397 0.05357409 -0.117144 -0.12002561 -0.20839375 0.16448826 -0.086529434
0.11970094 0.034333847 0.08752223 0.054408073 -0.016873963 -0.099000864 0.14575273 0.03347599
0.08209818 -0.037017114 0.07829461 0.051764052 -0.018664287 0.10805736 0.021355009 0.13674745
-0.06439422 0.06377359 0.041587524 0.19184819 0.06412966 -0.06850508 0.0972542 -0.03859495
-0.019213337 0.06424656 -0.004943784 -0.10800959 0.039583758 -0.040585864 0.039537374 0.13872205
-0.043604754 0.0024728694 0.09701258 -0.06374984 -0.12109275 -0.034721483 0.12876804 -0.13221842
0.14976351 0.06300371 0.0062720287 0.14063618 -0.105025634 0.02461427 0.09860201 -0.037933055
-0.0602661 -0.0052856207 0.09227653 -0.0037267727 0.12982996 0.051760625 -0.026931962 0.0037269527
-0.06705679 0.0040083127 0.057490636 -0.04602682 -0.04009806 0.025502065 -0.058121182 -0.06321992
0.0633338 -0.006973753 0.04488326 0.13360299 -0.005454793 0.06697689 -0.08402819 0.18624927
0.052031595 -0.019573659 -0.07554278 -0.08625002 0.13293399 -0.1589789 0.06930211 0.08696055
-0.05654771 0.08506117 0.037789274 0.029288456 -0.012756904 -0.047602303 -0.005128795 -0.003719609
-0.00654357 0.0077883936 -0.03396771 -0.021882223 0.139295 0.03250183 -0.0736952 0.09471449
0.017930858 0.0014052883 0.007260942 0.021846442 0.0282102 -0.10828828 -0.01483979 -0.042358782
0.050743897 -0.016694933 0.11425863 0.05943885 0.0094284285 0.011298861 0.006045729 -0.008228978
-0.06720415 -0.058710225 0.09558571 -0.1167197 0.043573506 0.08752196 0.027331388 0.025583602
0.05329291 0.05389588 0.1463924 0.0050842343 0.012696962 0.0634158 0.122885756 -0.096120514
0.11862105 0.023758166 -0.075414084 -0.06961248 0.16702051 0.025981752 -0.054106463 -0.09701882
-0.24466759 0.057588454 0.04208792 0.05608752 -0.00481902 -0.014365827 -0.0064755487 -0.10654932
-0.017056892 0.013211207 0.043165255 0.14494215 0.12134822 -0.030516537 0.022225054 -0.12295497
0.07858583 -0.024060888 0.14699632 -0.040685005 -0.048223127 -0.03781524 0.08345291 0.020040192
-0.10318088 -0.021647405 -0.027975973 -0.122029535 0.1488489 -0.008392838 -0.06375395 -0.031810235
0.030341027 -0.13565622 -0.025132593 -0.007178889 0.15166621 -0.04594445 0.08730805 0.026950466
-0.033457633 0.101139724 0.07542051 -0.058578026 0.005093506 0.06798192 0.05407886 0.18284321
-0.069384865 0.05608662 -0.111191615 0.03797174 -0.093252175 0.1399413 -0.09289096 0.13378958
-0.053551834 -0.08523251 0.09876966 0.057438143 0.11259426 0.00058284396 0.10430609 -0.07442713

bias f4 [256]
00000000: 4265 96bd 5439 0fbd 355d 31bd 5dda 00be
00000010: 433a 5bbd bc65 a5bd 4b37 a3bd 3521 e8bd
00000020: a42e 85bd b226 60bd 098d b9bd 6aa6 ed39
00000030: 8ee8 10be 9263 373b b62b 493d e38f 52bd
00000040: 0578 bfbc 0b26 cfbd a6f0 a5bd ef97 8bbc
00000050: ee32 1ebe 2a9a 10be bc9c 90bc 34ee b5bd
00000060: 1248 bdbd 794c 22bc 5f45 9d3b 35af cbbd
00000070: 916f cebd 8236 3cbc 1273 c9bd d9fa 74bd
00000080: 6cc5 19be 2db8 a6bd 8bce b1bc 2c5c 823b
00000090: 24d9 08be a045 b7bd 7832 ebbd 59b1 1ebe
000000a0: fec6 0b3c af0d 0fbe 7ba1 58bc bd3c e73a
000000b0: ec98 eebd 832f 11be d149 6f3d 770a eabd
000000c0: d9d0 a9bd 4810 20be 4546 a13c a6e3 17be
000000d0: 23c6 25be 9b3e 963d 9e51 583c 3a74 3fbd
000000e0: 292f 1bbe ee5c 22bd 2892 8fbd 0fb7 d6bd
000000f0: e6bd 11be fee9 1fbd fbeb 78bd 5728 95bd
00000100: e547 84bc 530b ffbc 90d2 45be b11d 68bc
00000110: f177 5cbd 1bda a7bc 6fcf 1fbe 43f0 dcbd
00000120: d24a e8bc 48b3 09be f5a1 6ebd 2adc 11be
00000130: 0550 97bd 7fa2 9fbd 39f9 2ebd a86a f8bc
00000140: 9cec 1dbd 4590 1ebe 3802 a7bd b3b0 31bd
00000150: a8f5 a7bd fed0 e0bc b6ba e6b6 f8d9 b4bd
00000160: 9438 21be c071 c1bd 2983 b4bd 4dd3 6abd
00000170: 863a 58bd 2432 8fbd 8945 60bb 8c9b 7ebd
00000180: 5201 1fbe 7338 86be 9da2 36be 2be3 113b
00000190: 9462 07be 13ed acbc b41e 34be 27c9 30bd
000001a0: 406f 2e3d 4976 f6bc d329 bbbc 23c8 d5bb
000001b0: 50b6 3e3c db1d 38be 8306 89bd 64d4 4cbd
000001c0: 9ed3 01be 6de3 ccbd ec56 2dbd 8acc 8dbd
000001d0: e0a0 bcbc e34a 18be fc15 6ebd d882 1abe
000001e0: 16b6 5cbd bbb5 9f3d 6cbd 1ebd fd83 eabd
000001f0: 2ef7 c3bc 6a69 1bbc a77b 28bd ee91 f6bd
00000200: 4536 8bbd 9543 ecbd b677 16bd 70cb 5bbe
00000210: d4be 71bc bd6a e8bd 89e4 803a 9f64 55bd
00000220: 79cf f3bc c4cc 0fbe f121 00bd ab9c 81bc
00000230: 71e0 713d 6043 5cbd 0ad5 0abe 8817 0cbe
00000240: 4225 27be f718 cabd c700 99bd 52a9 81bd
00000250: dff3 33be 0361 b4bd e360 b9bd ff5e 7abd
00000260: 733a 5dbd 36e5 c5bc f04a a9bd c4b2 e3bd
00000270: 8fe8 e53c 4898 1fbd a9ce babd e7d6 13be
00000280: d00f dcbd 879d 0bbe e79e 61be 0930 593d
00000290: e98c b7bd 2088 08bc 05e8 4bbe a739 38be
000002a0: 5945 5fbe c7cb 3ebe 9c99 64bd 8f80 8cbc
000002b0: 790b 043c fb8f 94bd 8d7d 94bd d550 3cbd
000002c0: cd45 ccbc 6347 a0bd 5203 9bbd 2a53 9cbd
000002d0: 5ade 46be d710 17be 3ab5 7fbc 2868 0dbe
000002e0: 47f4 07bd 8349 1abe 8ea4 92bd 05f4 93bd
000002f0: e66a 9f3c 6e1a e4bd 04d1 ecbc 57d6 13bc
00000300: 402f d5bd ed63 94bd 05fb 17be 91f3 03be
00000310: b2f4 99bd e6d1 113c fdf2 71be 0c4d b3bd
00000320: 4a0b b1bd b3dc a8bd c599 cabd fdb0 b8bc
00000330: 8d9b 9cbd c877 a0bd c2dd 98bd a591 f6bd
00000340: 3d13 96bd 8d5d 2ebe 5554 1bbd aea8 81bd
00000350: c2c3 69bd a406 ffbd 30d7 a1bd 5a20 76bd
00000360: e811 e3bd 4077 ccbd 1bdd 99bd 5191 0bbe
00000370: e33d 183b cf37 4cbd 40a0 8abd 9844 62bd
00000380: 55b0 2fbe 02be 96bd bb34 e03a d7f5 abbd
00000390: 2d6d afbd b2e4 f5bd 3ee6 30be 816a 56be
000003a0: 9c7e f6bd 2bfd f2bd 434c de3b 5097 81bd
000003b0: 691a fdbd 28b0 9abd 820a 9bbd 39ab bdbd
000003c0: 7293 f0bd c9d0 12be 35a9 51be eb34 edbc
000003d0: 0702 38be cc66 3cbe d242 f6bd 03c5 71bd
000003e0: 00fb 0fbd bad5 34bd 3483 3dbd 2a0d 44be
000003f0: a526 bcbc 222f 8abd 8f60 2bbd bbb4 e6bd
-0.07343532 -0.03496678 -0.04330178 -0.12583299 -0.05352236 -0.08076045 -0.07969531 -0.11334459
-0.065030366 -0.054724403 -0.090601034 0.0004532815 -0.14151213 0.0027982933 0.04911395 -0.051406752
-0.02337266 -0.10114678 -0.08102541 -0.017040221 -0.15449116 -0.14121309 -0.017652862 -0.08883324
-0.09242262 -0.009905928 0.0047995294 -0.099455275 -0.10079873 -0.011487605 -0.09836401 -0.05980954
-0.15016717 -0.081405975 -0.021704933 0.003978273 -0.13364083 -0.08948827 -0.114842355 -0.1549734
0.00853133 -0.13970064 -0.013222094 0.0017642003 -0.11650261 -0.1417828 0.058420006 -0.11427777
-0.08291788 -0.15631211 0.019686827 -0.14832935 -0.16188864 0.0733616 0.013203053 -0.0467417
-0.15154709 -0.039639406 -0.07010299 -0.104841344 -0.14232597 -0.03904151 -0.060771924 -0.07283085
-0.016147563 -0.03113333 -0.19318604 -0.014167235 -0.053825323 -0.020489743 -0.15606473 -0.10788014
-0.02835599 -0.13447297 -0.058259923 -0.14244142 -0.073883094 -0.077946655 -0.042718146 -0.030324295
-0.038555726 -0.15484722 -0.0815472 -0.043381404 -0.08201152 -0.027443405 -6.87627e-06 -0.08830637
-0.15744239 -0.09445524 -0.08814079 -0.05733042 -0.052790187 -0.069919854 -0.0034221134 -0.06216006
-0.15527847 -0.26214942 -0.1783547 0.0022260647 -0.13221198 -0.02110914 -0.17589837 -0.043160584
0.042586565 -0.0300857 -0.022847092 -0.0065241023 0.011640146 -0.17980139 -0.06690695 -0.05000724
-0.12678382 -0.100043155 -0.042319223 -0.06923778 -0.02302593 -0.14872317 -0.058126435 -0.15088975
-0.05388459 0.07798334 -0.038754866 -0.11450956 -0.023921575 -0.009485582 -0.04113355 -0.12039553
-0.067974605 -0.11536328 -0.03673526 -0.21464324 -0.01475497 -0.11348484 0.0009833734 -0.052097913
-0.029762017 -0.14042956 -0.03128237 -0.015821775 0.059051935 -0.05377519 -0.1355783 -0.13680851
-0.16322806 -0.09868043 -0.074708514 -0.063311234 -0.17573498 -0.08807566 -0.09051683 -0.06112575
-0.05401082 -0.024157148 -0.08266246 -0.11118081 0.028064994 -0.038963586 -0.091214485 -0.14437447
-0.107452035 -0.1363431 -0.22033273 0.053024326 -0.08962423 -0.008333236 -0.19912727 -0.17990743
-0.21803798 -0.18632422 -0.055810556 -0.017151145 0.008059376 -0.072540246 -0.072505094 -0.045975525
-0.024935627 -0.07826116 -0.07568993 -0.0763305 -0.19420758 -0.14752518 -0.015607173 -0.13809264
-0.033191945 -0.15067105 -0.071602926 -0.072242774 0.019460153 -0.111378536 -0.02890826 -0.009023271
-0.10409403 -0.07245622 -0.1484185 -0.12885882 -0.07517375 0.008900141 -0.23627849 -0.0875493
-0.08644731 -0.0824522 -0.098926105 -0.022545332 -0.076468565 -0.078353465 -0.07464172 -0.12039498
-0.07327888 -0.17027874 -0.037922222 -0.06331001 -0.057071455 -0.124524385 -0.07902372 -0.060089447
-0.110874 -0.09983683 -0.07512876 -0.13629653 0.0023230247 -0.04985791 -0.067688465 -0.055241197
-0.17157109 -0.0736046 0.0017105559 -0.083964996 -0.085657455 -0.12006511 -0.1727533 -0.20939066
-0.120358676 -0.11864694 0.0067839934 -0.06327689 -0.12358553 -0.075531304 -0.075703636 -0.09261174
-0.11746873 -0.14337458 -0.20474704 -0.028955897 -0.17969523 -0.18398589 -0.12024464 -0.059025776
-0.03515148 -0.044149138 -0.046267703 -0.19145647 -0.022967646 -0.06747271 -0.041840132 -0.1126494

weight f4 [128, 256]
00000000: cd4e 10bc d927 923d cff8 a4bd 1b40 fa3d
00000010: bfeb c53d 300d b8bd 4e5a 483c a2a4 573c
00000020: 0f6e 9cbd a537 433d 910b cfbc 28b6 013d
00000030: ce6d 833c 1f7a cd3d c290 65bd 2b58 593d
00000040: 7b63 f5bd 3c13 8c3d f802 46be 2ff2 d1bb
00000050: 8846 e23c 9edc 363b 0ba6 3b3d 028f f9bc
00000060: 8065 25bd 093f 89bd 6651 ebbd 09b5 133d
00000070: 8973 7d3d 8ac9 9dbd 50f8 7c3d ee7c 8a3c
00000080: 0cb3 c6bb b4ab 37be 16b0 36bc 43a4 fd3d
00000090: 101a 6e3c f25a d33c 5483 813d 2e5c 63bd
000000a0: 3f31 0f3d cf53 0c3e 0a5d 993d c073 e3bd
000000b0: 45ae 5d3c f1c4 a4bd 9a05 f0bd c22b 14be
000000c0: f539 5f3c 141c aebd f079 8fbd 364d 1dbc
000000d0: 468b c0bd 155c a63d 7fea 1e3d fbaa 4c3c
000000e0: d303 503d 5231 3d3d cf75 cdbc 0322 e3bc
000000f0: 6af2 013e 09d6 8c3d be10 973d 64ef 273d
00000100: 8faf 25be 3f70 993d 253f 7abd d5e1 f33b
00000110: b46c 4b3c 9dbb 6dbc e766 c1bc 94e8 db3c
00000120: 5c12 81bd 3281 b0bd 22b0 81bd 9122 17bc
00000130: fef7 a73c dbfc 90be 17a4 8dbd 9662 763b
00000140: 155b babd 8f79 83bd 6f23 0ebd a5ac 1e3c
00000150: ce58 d9bd 033e 883d e80b 7c3d 36b5 133e
00000160: 2a95 2b3d 9e71 0dbc 4eed 30be 696b 14be
00000170: 4e4a 30bd 02e6 95bb 9be6 e23c fc62 77bd
00000180: 45c1 d13b 0ff2 e83d 7cc4 363d 64a0 093d
00000190: 316d 52bc 621f cabd 7040 ff3d a91f 48bd
000001a0: 24b6 1dbd 99c1 53bd 4136 813c d86a 9abd
000001b0: dc33 dd3c 629a 123d 19ef 8bbd 5b8a 673c
000001c0: 21d1 d7bc 1c13 1abd ceac 21bd 6540 53bd
000001d0: 515c 393d ccfe 093e 7195 1e3e 3fb9 b8bc
000001e0: 81fc 943c 6f55 27be 3d93 0bbe d649 6bbd
000001f0: f5a4 1abc 924f b4bc 15d0 783d 704e a2bd
00000200: c052 14bd 61ac e4bc c9bf d93c b3e5 6ebd
00000210: 06be 65bc 0ffe a5bd 168e 76bc ec5f ffba
00000220: 33bf 463d f61f 8abc 5cbb 923c 01fd 7b3c
00000230: 461a b6bd f37d 52bd 721f 3f3c c9ee 6e3d
00000240: 4e50 e738 de09 84bd 63ab e23c 987a d83d
00000250: 5603 c93d 8a09 053d f988 21bd f471 283d
00000260: d301 2cbd ea4d 903d fd04 f23d 63b4 0e3d
00000270: f1d2 fcbd 450a 72bd 0fe3 953a aadd d7bd
00000280: f76b f43d 5f8c a63d 4a4c 4bbd a0d3 c6bd
00000290: a057 013d db53 783c 6dd4 a53d 7d95 f43b
000002a0: 79ce 94bd 30b6 2bbd 96c0 0a3e 6151 913d
000002b0: b23c 6d3c 686c 393c 42fc 523d a24d 683d
000002c0: 1356 953a 3415 f8bd 7c00 963b c453 6f3c
000002d0: c991 e03d d2e6 e03c bb3c 3e3d a016 883c
000002e0: 9ad9 df3b d3ea 803d d7cc c2bb 19a5 823c
000002f0: 033a 94bd 8b1b 173d b942 9a3b 46c8 89bc
00000300: 595e 77bd c82a d33c 0679 b6bc 1aa0 c33c
00000310: 3eeb 883c cabb b0bc dc40 18bd cfc4 67bc
00000320: 718e bebd 4c41 50bd 6629 03bb df75 1ebe
00000330: eb5f 93bd 2b11 9cbc 40dd 573c dc06 803d
00000340: b693 32bc 6d07 9d3d fd74 25bd 019a b93d
00000350: 9f78 e03c 1a30 3fbc e345 b0bc 7898 503c
00000360: 47a9 2cbd 31da 10bd dae7 f23d 5f1e 873c
00000370: 119a da3c e4bf ab3d 4d31 96bd fd43 b9bd
00000380: a939 d7bd 5aba e13b a2f5 8b3d d539 ed3c
00000390: a63b d6bd ea29 3bbd e538 963d 1250 12bd
000003a0: 432f 7fbc b968 09bd 5d52 0bbc 8d70 7abd
000003b0: d52a 013d ecd4 1ebd 13b5 c4bc 83e1 d8bc
000003c0: 3295 073e 60d3 2d3d f920 e6bd 724c c4bc
000003d0: 482a 4b3d d8b2 7f3c 1d5e 18be 75eb 9ebc
000003e0: 3601 563b f065 26bd fa7e 83bc 9230 fe3c
000003f0: 61c9 cc3d 3526 6fbd fa5b 5d3d bf21 15bd
-0.00880785 0.071365066 -0.08055269 0.122192584 0.096641056 -0.0898689 0.012228562 0.01316181
-0.076381795 0.04766049 -0.02527407 0.03166786 0.01604357 0.100330584 -0.056046255 0.0530626
-0.11981865 0.06839606 -0.1933707 -0.0064070444 0.027621523 0.0027902494 0.045812648 -0.0304637
-0.04038 -0.06701476 -0.11490135 0.03606132 0.06187776 -0.07704456 0.061760247 0.016905274
-0.0060638245 -0.17936593 -0.011150381 0.12384846 0.014532581 0.025800202 0.06323877 -0.05550783
0.034959074 0.13703845 0.07488449 -0.11106062 0.013530319 -0.08045376 -0.117198184 -0.14469817
0.013624658 -0.08501449 -0.070056796 -0.009600928 -0.09401564 0.08123032 0.03879785 0.012491937
0.050784897 0.046189614 -0.02508059 -0.027726179 0.1269013 0.068767615 0.0737624 0.040999785
-0.16180252 0.07492112 -0.061095376 0.0074426928 0.012416054 -0.0145100625 -0.023608638 0.0268443
-0.0630233 -0.08618392 -0.06332423 -0.00922455 0.020503994 -0.28317913 -0.06916063 0.0037595383
-0.09099404 -0.0641967 -0.03470176 0.009684716 -0.10612641 0.06652453 0.061534792 0.14424595
0.0418903 -0.0086330455 -0.17278025 -0.14494099 -0.043039612 -0.004574538 0.027697852 -0.060397133
0.0064012134 0.11374294 0.044620976 0.033600226 -0.012843416 -0.09869267 0.12463462 -0.04885832
-0.03850378 -0.0516983 0.01577294 -0.0753991 0.027002268 0.035791762 -0.06832714 0.014132108
-0.026344838 -0.03761588 -0.03947144 -0.051575083 0.045254055 0.13476104 0.15486695 -0.02254927
0.01818681 -0.16341184 -0.13630386 -0.057443462 -0.009438743 -0.022010598 0.060745317 -0.07925117
-0.03621173 -0.027914228 0.026580708 -0.058324527 -0.014022356 -0.081050985 -0.015048524 -0.0019483543
0.048522186 -0.016860943 0.017911606 0.015380145 -0.0889173 -0.051389646 0.011665212 0.058333192
0.00011029896 -0.064471945 0.027669614 0.10570258 0.098150894 0.0324798 -0.039437268 0.0411243
-0.041993927 0.07046111 0.11817358 0.03484 -0.123449214 -0.059091825 0.0011435467 -0.10540326
0.11934655 0.081322424 -0.0496333 -0.09708333 0.031577706 0.015156711 0.080971576 0.0074641095
-0.07265944 -0.041921794 0.13550028 0.070956 0.014479803 0.01131735 0.051510103 0.05671466
0.001139345 -0.12113419 0.0045776945 0.014607374 0.10965306 0.027453814 0.046444636 0.016612351
0.00683136 0.06294789 -0.005944829 0.015947865 -0.07237627 0.0368915 0.004707661 -0.01681913
-0.06039271 0.025777236 -0.022274505 0.023880053 0.016713735 -0.02157392 -0.03717123 -0.014146044
-0.09304512 -0.050843522 -0.002001369 -0.15474652 -0.07196029 -0.019051155 0.013175309 0.06251308
-0.010899475 0.07667432 -0.04039477 0.09062577 0.027401267 -0.011669183 -0.0215177 0.012731664
-0.042153623 -0.035364334 0.118606284 0.016493974 0.026684793 0.083862096 -0.07333622 -0.09046171
-0.10509045 0.00688867 0.0683396 0.02895824 -0.10460596 -0.04569427 0.073350705 -0.035720892
-0.015575233 -0.033547137 -0.008503524 -0.061142493 0.03153499 -0.038777277 -0.024012124 -0.02647472
0.13240507 0.04243791 -0.11236758 -0.023962233 0.04960087 0.0156066045 -0.14879651 -0.019399384
0.003265453 -0.04062456 -0.016051758 0.03102902 0.099993475 -0.058386046 0.054042794 -0.036409136

bias f4 [128]
00000000: c411 91bd f0c8 0dbe 584f 113c c960 65bc
00000010: 6763 94bd ed61 e1bc d781 b9bd ba64 bcbc
00000020: 41fd 24be 8815 9cbd e325 cabc 4df5 4dbc
00000030: 5cd3 e7ba fdb0 febc ae83 d3bd 00dd 94bd
00000040: f470 27bd 046c b6bd e553 043d 5a5d 00ba
00000050: d63a 05be 9dea b2bd 5c83 a6bd c095 76bd
00000060: df95 45bc 820c 15be 5ef5 00bd 222f 28bd
00000070: f547 36bd 2f56 acbc 3b0b 52bd 6705 84bd
00000080: 6239 8cbd 1203 2fbd c206 4bbd fdf2 46bc
00000090: d9b9 84bd 3cc9 bcbc 5606 7abd c03e 10bd
000000a0: 03d5 84bd 74f3 2cbd 58c7 8ebd d957 fdbc
000000b0: c820 63bd b319 70bd e7bd 4abd 7832 29bd
000000c0: 4f27 51bd 4264 9fbd 9704 08be d50b 86bd
000000d0: ec6c 11be b1a7 6cbd 2574 05be d1bb 46be
000000e0: c664 873d ed96 2abd 66c6 913b 8f6d 92bc
000000f0: 1c0d 9dbd 6a4a 133d df4b b9bc aea5 8dbd
00000100: d190 d2bd 0d42 5abd 8305 8dbd 41e7 77bd
00000110: 6a26 5cbe 1d30 88bd d8a7 e3bd 04b6 acbd
00000120: 97f9 0bbd 0516 99bd 33b8 6bbd 0dfe 2e3b
00000130: 353e a0bd 00a4 9abd 03fe f8bd 5ed4 19bd
00000140: 0f7e 07bd 0cd3 c2bd f640 19be b4fb 45bd
00000150: 37c5 7fbd 9db4 a7bd b35c b43b fed6 f2bd
00000160: 3453 11bc afa8 48bd a431 20bd c68a 12be
00000170: 85fc cf3b 5d7e 9cbd ff8b 18be 8e9b 82bd
00000180: a898 61bd b87b dcbd 715e 79bc 5f68 11be
00000190: a7fd b2bd 8bb1 a1bd 1dbe 98bc 8b7f c63b
000001a0: 0b0f a0bd fa64 3abe 69ee 30bd 646f bbba
000001b0: a204 05be 1511 5dbd 9e5d 41bc ce0f 183c
000001c0: 923b f13c 5888 5ebd b68e 12be 6d6a bdbd
000001d0: 6288 90bd 68ac f0bc 0d7a fcbc 4b77 11be
000001e0: e0d3 0cbd dcb4 a1bc ea53 7ebd 2ff8 56bc
000001f0: f3f5 14bd 6daf 1ebd 58c2 82bd 23a1 c7bd
-0.07083467 -0.13846183 0.008869015 -0.014000126 -0.07245522 -0.027512515 -0.09057968 -0.022997249
-0.16112234 -0.07621294 -0.024676269 -0.012570691 -0.0017686891 -0.031090254 -0.1032785 -0.07268715
-0.040879205 -0.08907321 0.03230657 -0.0004896723 -0.13010725 -0.08736155 -0.081305236 -0.060201406
-0.012059658 -0.14555553 -0.031484 -0.041060574 -0.044502217 -0.02103719 -0.05128024 -0.06446343
-0.068468824 -0.042727537 -0.04956699 -0.012142894 -0.0648076 -0.023045175 -0.0610412 -0.035216093
-0.06485941 -0.042224362 -0.069716156 -0.030925678 -0.055451185 -0.05861826 -0.04949751 -0.041307896
-0.05106288 -0.077827945 -0.13283001 -0.065452255 -0.14201707 -0.05777711 -0.13032587 -0.19407584
0.06611018 -0.04164784 0.0044486998 -0.017874507 -0.07668516 0.03595964 -0.022619186 -0.069163665
-0.10281528 -0.053285647 -0.06885817 -0.060523275 -0.21499029 -0.06649802 -0.11115998 -0.08433154
-0.034173574 -0.07474903 -0.057548713 0.002670172 -0.07824365 -0.07550812 -0.12157824 -0.037556045
-0.033079203 -0.0951291 -0.14966187 -0.048335746 -0.062443938 -0.08188746 0.0055042147 -0.11857413
-0.008869935 -0.048988994 -0.03910984 -0.1431075 0.0063472413 -0.076412894 -0.14897154 -0.06377326
-0.055077225 -0.10765785 -0.0152202705 -0.1419997 -0.087397866 -0.07895192 -0.01864534 0.006057685
-0.07815369 -0.18202582 -0.043196116 -0.0014300165 -0.12990049 -0.05397137 -0.011802105 0.009281112
0.02944735 -0.054329246 -0.14312252 -0.09248815 -0.07057263 -0.029379085 -0.030819917 -0.14205663
-0.034381747 -0.01973956 -0.062091745 -0.013120695 -0.036367368 -0.038741518 -0.063847244 -0.09747531

weight f4 [12, 128]
00000000: 1700 343d 8a6b b23d 29da 0d3c b6b1 523d
00000010: 45a0 9cbb 28c1 f7bc a692 503d 558d 5b3d
00000020: 327b d43c 9cae afbb 57a1 d23a 96aa 2bb9
00000030: bdc9 06bd 05f7 10bc 6aea 093d 778a adbc
00000040: 489e 253d 0b62 433d 4764 0fbd 122d 303b
00000050: bbc7 80bc b841 3ebc b6fe 82bd ff3f 4c3a
00000060: 0e46 803c d014 1abc 4fe1 5dbc 7640 283d
00000070: 5e1f 5ebb b961 31bd c5b6 96bc 78fc 0b3d
00000080: 22a3 8dbd 889e 283b 5c7a e73c af7a 52bd
00000090: 90fa 0bbd 93cb 163d d411 a8bd 6745 c43b
000000a0: ab2e 073d 5683 6dbd fd64 26bd 4fb7 643c
000000b0: f76e a2bc 73cc 6c3c 4249 81bc 8017 89bd
000000c0: 71fe a4bc e1c0 4d3c 2201 75bd 9887 99bd
000000d0: 5ba1 b8bd 8afd 413d 2da4 dfbc e99c e5bc
000000e0: dc87 6ebd 348a ad3c 03a1 793d ccc5 2c3d
000000f0: 0201 79bc 132b 8f3c 7c54 9cbc a8ef e03b
00000100: b526 ad3d a823 083c 1c67 2d3d b3e2 31bd
00000110: a010 09bd 2d68 6abd d762 63bd 6e49 6f3d
00000120: 86ee 63bd 9b3b debb 5edb 5a3d c88f 893b
00000130: c537 14bc 332a 57bc 1b4c 403c e3eb a0bc
00000140: 1054 fbbc 6892 c2bd b9e8 783d 40ed 9ebc
00000150: bea2 023c 2b20 4c3d e266 45bd 9f37 b4bd
00000160: 231c 273d 2974 6c3c d8f3 793d e07b 21bc
00000170: ee7f c23c 97e2 14bd e3f2 b1bd e24a 7d3c
00000180: 9cf1 17ba 5082 ea3c b705 e0bc 35b4 613d
00000190: 1534 b0bb 6f16 00bb 628f 4d3c b3b0 9dbc
000001a0: f5b7 e8bc 86ab 3b3d f5c5 0a3d 3ff3 9d3c
000001b0: 9be9 62bd 8586 b9bc d36f 15bd e9ee 63bd
000001c0: 5925 1a3d 4664 1dbd ff6e e53d 0ab1 eb3c
000001d0: ab47 12bd f8f0 663c dc8b 92bc 4a79 1cbd
000001e0: babf bb3d 53d3 8c3c 2855 5ebd 75af bd3c
000001f0: 1be1 293c 0805 2b3b f263 70bd 07b5 dbbc
00000200: 3810 8a3d 39cb 5dbc bbd6 19bd 4667 d93d
00000210: 4a6c 05bd b9e7 4dbc 827c ad3d 726b 19bd
00000220: 5879 23be 524d 683d 0991 053d abdb 863c
00000230: a4b1 f13c f1f2 ee3c 9692 82bb f946 b7bc
00000240: eb1a aabb 2854 6bbd 830e afbc 6440 3dbd
00000250: 902c f13b bb7b 2bbd 8e11 243d 5640 03bc
00000260: d302 b43a b9ae 4a3d 653b e93c 6855 9dbd
00000270: 05f2 8f3d 28c9 52bb b960 c1bd 7c87 4fbd
00000280: fb3a 773c c5a7 993d acad 29bd bb8d a53d
00000290: 19b1 bdbd 1ee5 92bd b168 c6bc 767d 733c
000002a0: 7b0e 22bc df60 5f3d 953c d23c 9513 ff3c
000002b0: 649a 363c d0bd 03bd ef0f 51bd 4ead ee3c
000002c0: 2638 23bd 076b 8a3c 2c55 d93b 8f16 663d
000002d0: 622a d0bc ec5e 493d ffde 0dbd 2411 5c3c
000002e0: 6fd3 06be 7639 d73c d793 0abd 201b 8e3d
000002f0: 7628 bb3c b91e 5dbd bf0e 303d 7f32 f13c
00000300: 45c8 7d3d 3d87 203c fee3 d03d 37f7 d83c
00000310: f366 423d 7831 4dbd de54 e13c 83f2 f4bc
00000320: cf37 bb3d b612 5a3d c177 603d 4b49 d6bb
00000330: c4c5 d7ba cbfc 36bd 1311 2e3d 7e8c d3bd
00000340: c497 9fbc afbc 74bc b54d 973d 651b 1b3d
00000350: a901 8ebd d980 83bd c12b bfbc 0d6a 683d
00000360: cd44 54bc 161d 2dbd d975 073b 0d6e 753c
00000370: cd5f 013c 8403 cb3c 3ddd fbbc 57d4 ddbb
00000380: 0b06 343d a4f4 0d3d a9ce 3bbd 6e08 d4bc
00000390: f539 243d abcc 553d 6cd6 76bc e52c af3d
000003a0: 196d 813d e5e3 d13d 311d 0d3c 2edb 5ebb
000003b0: 3c2b d73d 2215 1ebc 8847 3d3d fc05 723d
000003c0: 2ed0 78ba 3e9c c9bd 6bff bf3d 1ec3 a93c
000003d0: c37e 4b3c 098b eebb e9d7 603d 36f5 9cbc
000003e0: 432d 3cbd 9e78 0b3d 38e8 87bd 345f 743d
000003f0: 3d24 acbb 06d9 c23d 63de 183d 3b87 963d
0.0439454 0.08711918 0.0086579705 0.05143901 -0.004779848 -0.030243471 0.050921105 0.05360158
0.02593765 -0.005361391 0.0016069812 -0.00016371379 -0.032907236 -0.008847957 0.03367082 -0.02118419
0.040434152 0.047700923 -0.03500774 0.0026882333 -0.015720239 -0.011612348 -0.063962385 0.00077915186
0.015658405 -0.009404376 -0.013542487 0.0410771 -0.0033893208 -0.043306086 -0.018397698 0.03417632
-0.06915881 0.0025729258 0.028256588 -0.05138653 -0.034174502 0.036815237 -0.082065254 0.0059897187
0.03300349 -0.05798658 -0.040623654 0.01395972 -0.019828303 0.014453041 -0.015782002 -0.066939354
-0.020140858 0.012558193 -0.059815533 -0.074965656 -0.09015151 0.047360934 -0.027299965 -0.028028922
-0.058235034 0.021184064 0.06094457 0.04218082 -0.015197994 0.017476594 -0.019083254 0.0068645068
0.084546484 0.008309282 0.04233466 -0.043429088 -0.03346312 -0.057228256 -0.055514183 0.058419637
-0.055647396 -0.006782008 0.05343186 0.0041980483 -0.0090465 -0.01313262 0.011736895 -0.01964373
-0.030679733 -0.09500581 0.060768817 -0.019400239 0.007973371 0.049835365 -0.04819382 -0.087996714
0.040798318 0.014431992 0.061023563 -0.009856194 0.023742642 -0.036348905 -0.08688905 0.015459748
-0.00057961955 0.028626591 -0.027346475 0.0551035 -0.0053773024 -0.0019544621 0.012546392 -0.019249296
-0.02840803 0.045817874 0.033880193 0.019281028 -0.055398565 -0.022647152 -0.036483597 -0.055647764
0.037633274 -0.038425706 0.112028114 0.028770942 -0.03571288 0.014095537 -0.017888956 -0.038201608
0.09167428 0.017190611 -0.05428043 0.023154953 0.010368611 0.0026095528 -0.058689065 -0.026819719
0.06741375 -0.013537222 -0.0375583 0.10615401 -0.032573976 -0.012567454 0.084710136 -0.037455983
-0.15964258 0.056714363 0.03260902 0.016462168 0.029503651 0.029168578 -0.0039847596 -0.02237271
-0.005191197 -0.057453305 -0.021369224 -0.046203986 0.0073600486 -0.041866045 0.040055804 -0.008010944
0.0013733752 0.049483035 0.028470704 -0.076823056 0.070285834 -0.0032163355 -0.094422765 -0.050666317
0.015089746 0.075027026 -0.041425392 0.080836736 -0.09262294 -0.07172607 -0.024219843 0.014861455
-0.009891148 0.054535743 0.025663653 0.031137267 0.011145208 -0.03216344 -0.051040586 0.029135372
-0.03984847 0.016896738 0.0066324677 0.056173857 -0.025410835 0.04916279 -0.034636494 0.013431821
-0.13166593 0.026272517 -0.033832397 0.069387674 0.022846442 -0.053984378 0.042982813 0.029443024
0.06195857 0.009797868 0.10199736 0.026485069 0.04746146 -0.050096005 0.027506288 -0.029900795
0.09141504 0.0532405 0.054801706 -0.006539499 -0.0016462137 -0.044674676 0.042496752 -0.10329531
-0.019481547 -0.014937564 0.07387868 0.037867922 -0.069339104 -0.0642106 -0.023336293 0.056741763
-0.0129558565 -0.042264067 0.0020669608 0.014979851 0.007896376 0.02478195 -0.030745143 -0.0067696976
0.043951076 0.034657136 -0.045851383 -0.025882926 0.040094335 0.05219714 -0.015065771 0.08553485
0.06319637 0.102485456 0.008612917 -0.0034005153 0.10506293 -0.009648593 0.046210796 0.05908774
-0.00094914704 -0.09844254 0.09374889 0.020722922 0.012420359 -0.007279758 0.054893408 -0.019159894
-0.045941602 0.034050576 -0.06636089 0.059661105 -0.0052533434 0.0951405 0.03732146 0.07350012

bias f4 [12]
00000000: d0af d5bc 7c7e acbd d3c2 71be 5324 e33b
00000010: 4342 a03a b68a fbbd 8405 9fbd df42 223e
00000020: c123 7d3d eb16 32be ec6a 8e3d c7d6 e83d
-0.02608481 -0.084225625 -0.23609476 0.0069318204 0.0012226779 -0.122823164 -0.07764724 0.15845822
0.061801676 -0.17391555 0.069539875 0.113690905
