deploy/networks/go2/bambi10.pt (torch, 79240 bytes, 8 tensors)

weight f4 [128, 48]
0	0x3db7132a	0.08939202
1	0xbe0e68b9	-0.13907136
2	0xbf07183c	-0.52771354
3	0xbe7f760a	-0.24947372
4	0x3f1d1b42	0.6136972
5	0x3ea634b8	0.32462096
6	0x3d393ec9	0.045225892
7	0xbea6cdae	-0.32578796
8	0x3e331f49	0.17492403
9	0xbe366b81	-0.17814447
10	0xbcb762b6	-0.022385936
11	0xbf7b7d49	-0.98238045
12	0x3e8e809d	0.278325
13	0xbdff319f	-0.12460636
14	0xbe53f4b2	-0.20698813
15	0x3ddbf8d7	0.10740822
16	0x3cc5dacc	0.024152182
17	0x3ca2e493	0.019884383
18	0xbe957d26	-0.29197043
19	0x3e6bb9b8	0.23020065
20	0x3ec012bc	0.37514293
21	0xbeabcc3e	-0.33554262
22	0x3dcb6ec7	0.099332385
23	0x3e601fc4	0.21887118
24	0x3ef828f6	0.4846875
25	0x3f236802	0.6383058
26	0x3e92f5b7	0.2870309
27	0x3dc6ce99	0.09707374
28	0xbed39afb	-0.41329178
29	0x3b03aefd	0.0020093315
30	0x3eb5741f	0.35440156
31	0xbea9f181	-0.33192065
32	0x3f2df86e	0.679572
33	0xbe2c0899	-0.16800155
34	0x3e73aedb	0.23797171
35	0x3e855ea2	0.26048762
36	0xbe1f8a56	-0.15580115
37	0x3eac8534	0.33695376
38	0x3e472c2f	0.19450448
39	0x3dc57999	0.096423335
40	0x3c88c831	0.016697021
41	0xbe5ea80e	-0.21743795
42	0x3cf953eb	0.030435523
43	0xbc2a9ed6	-0.010413846
44	0x3cbf8303	0.023377901
45	0xbcba7694	-0.02276162
46	0xbc6f5a27	-0.014608896
47	0x3dcc8e61	0.09988094
48	0xbd05009b	-0.03247128
49	0xbe6ee136	-0.23328099
50	0xbf32f941	-0.6991158
51	0xbc1e00ab	-0.009643714
52	0x3f07f9cf	0.5311555
53	0xbe06c881	-0.13162424
54	0x3e54253e	0.20717332
55	0xbe4c14ac	-0.1992976
56	0x3e2d437c	0.16920274
57	0xbdd97945	-0.106188335
58	0x3cad2663	0.021136468
59	0xbf7df4ac	-0.99201465
60	0x3ecc50a6	0.3990528
61	0x3d5c0951	0.053719822
62	0xbdff8bba	-0.124778226
63	0xbefd5ed3	-0.49486408
64	0xbe99bda0	-0.30027485
65	0xbde119c2	-0.10991241
66	0xbf34a560	-0.7056484
67	0x3ef49670	0.47771025
68	0x3ed1c801	0.40972903
69	0x3d97176e	0.07377516
70	0x3e353e7a	0.17699614
71	0x3e0e7a96	0.1391395
72	0x3dc9803c	0.09838912
73	0x3ed39e92	0.41331917
74	0x3d62cd49	0.055371556
75	0x3e78618b	0.2425596
76	0xbd87be8a	-0.06628139
77	0xbe5199cc	-0.20468825
78	0xbd95d6aa	-0.073163345
79	0x3e0c9256	0.13727698
80	0x3ea10de9	0.31455925
81	0x3da2c3a1	0.079474695
82	0xbdbdb372	-0.09262742
83	0xbdf1904d	-0.11795101
84	0xbe819cd0	-0.2531495
85	0x3da72ce2	0.081628576
86	0x3d932362	0.07184483
87	0x3d559b46	0.052150033
88	0x3eab4745	0.33452812
89	0xbe1a625b	-0.15076582
90	0xbde3f229	-0.11130173
91	0x3e437405	0.19087227
92	0xbcb23ab0	-0.0217565
93	0x3cf2b20a	0.029625911
94	0xbe1a5012	-0.15069607
95	0xbe1ed2be	-0.1551008
96	0x3dd09b3a	0.10185857
97	0x3dee9234	0.1164898
98	0xbdfd88d9	-0.12379617
99	0x3e7f4edd	0.24932428
100	0x3f2452f5	0.6418908
101	0x3f1b6e52	0.6071521
102	0x3e8dfa03	0.27729806
103	0x3b52dee3	0.0032176308
104	0x3d6640f9	0.056214307
105	0xbe1486ef	-0.14504598
106	0x3d955fae	0.0729364
107	0xbf81edaf	-1.015066
108	0x3f28d4d0	0.65949726
109	0x3eadfc56	0.3398158
110	0x3dfdb77a	0.12388511
111	0x3f177124	0.59157014
112	0x3e1ff7fb	0.15621941
113	0xbe76ed07	-0.24113856
114	0xbe999a96	-0.30000752
115	0x3e6c35e8	0.23067439
116	0x3eac039a	0.33596498
117	0xbe76501b	-0.24053995
118	0x3e3d0fd6	0.18463072
119	0x3ef92090	0.48657656
120	0x3e8a9d8f	0.27073333
121	0x3e9c9e34	0.3058945
122	0x3c805360	0.015664756
123	0xbe7cbe73	-0.24682026
124	0x3ea48fce	0.32140964
125	0xbea447f2	-0.3208614
126	0x3ea24231	0.31691125
127	0xbd2f44ad	-0.042790104
128	0xbe85b480	-0.26114273
129	0x3eb700a0	0.35742664
130	0x3f16867b	0.5879895
131	0xbd28ecf7	-0.041241612
132	0xbdedbefb	-0.11608692
133	0x3be44914	0.0069667194
134	0x3df7d1b5	0.12100545
135	0x3e9d4bc4	0.30721867
136	0x3e581e4f	0.21105312
137	0x3dee8fc8	0.11648518
138	0x3deb2e9c	0.114834994
139	0xbe2d2970	-0.16910338
140	0x3d8c6a8f	0.06856262
141	0x3dabefe9	0.083953686
142	0xbc99079b	-0.018680384
143	0x3d0ab0bc	0.033859953
144	0xbe076281	-0.1322117
145	0xbcdc5c33	-0.026899433
146	0xbf2617cc	-0.6488006
147	0x3e649bde	0.22325084
148	0xbeb23a88	-0.3481028
149	0xbf20641d	-0.6265276
150	0xbebc5102	-0.36780554
151	0xbf16d022	-0.58911335
152	0x3d3ee52f	0.046605285
153	0x3c6a67b9	0.014306956
154	0xbe54aa80	-0.20768166
155	0xbf3be304	-0.73393273
156	0xbdafb9d0	-0.08580363
157	0xbe0fceef	-0.14043783
158	0x3f22eaec	0.6363971
159	0x3c5ace02	0.01335478
160	0xbf1ff0c1	-0.62476736
161	0xbcf76e5e	-0.030203994
162	0x3d19384c	0.037407205
163	0x3e591c1e	0.21202132
164	0x3eb1acd3	0.34702167
165	0x3eae74a4	0.34073365
166	0xbf2331a5	-0.63747627
167	0x3df52230	0.119694114
168	0x3df6e697	0.120557
169	0xbdaa706e	-0.083222255
170	0xbc17c5ba	-0.00926345
171	0x3e929329	0.286279
172	0xbeccf213	-0.40028438
173	0xbe97843e	-0.2959308
174	0xbe81d8e7	-0.25360796
175	0xbeb96db6	-0.36216515
176	0xbe533f36	-0.20629582
177	0x3eef3a71	0.46724275
178	0xbf4fd031	-0.8117705
179	0xbe6be998	-0.23038328
180	0x3d2d286b	0.042274874
181	0xbd80ca22	-0.06288554
182	0x3d11526e	0.035479
183	0x3d9d8844	0.07692006
184	0x3e20a484	0.15687758
185	0xbddd9d9c	-0.10821077
186	0xbdd6480e	-0.10462962
187	0x3dc6f76a	0.09715159
188	0x3b169772	0.0022978452
189	0x3e289c03	0.16465764
190	0xbe2c84a8	-0.1684748
191	0x3d8e294a	0.06941469
192	0x3ec499b3	0.38398513
193	0x3e06b2dc	0.13154167
194	0xbd463e70	-0.04839939
195	0xbca8e0de	-0.020615038
196	0xbf4cd2cc	-0.8000915
197	0xbf1914cf	-0.59797376
198	0xbf120a2e	-0.5704678
199	0x3de6d37a	0.11270805
200	0x3d9aae35	0.075527586
201	0xbe928e8f	-0.2862439
202	0xbdff299f	-0.124591105
203	0x3f8b2666	1.0871093
204	0xbe9b6487	-0.30350134
205	0xbef31f57	-0.47484848
206	0xbd90dd37	-0.070734434
207	0x3e5c4f80	0.21514702
208	0x3e560a96	0.20902476
209	0x3eb2e1dc	0.34937942
210	0x3e107b79	0.14109601
211	0xbf50a48a	-0.81501067
212	0x3c7a0cb0	0.015261814
213	0xbca20246	-0.019776475
214	0x3c66bd72	0.014083253
215	0x3edac23c	0.42726314
216	0xbdb0af5b	-0.086271964
217	0xbe832eb8	-0.2562158
218	0xbdb2fdc1	-0.08739806
219	0xbe170246	-0.14746961
220	0x3e081f6d	0.13293238
221	0xbe8aa636	-0.27079934
222	0x3d1bc891	0.038033072
223	0xbf8532d9	-1.0406142
224	0x3e21e8c3	0.15811448
225	0x3dc80f21	0.097685106
226	0xbe761a02	-0.24033359
227	0x3edc5344	0.43032277
228	0xbd1ee83a	-0.038795687
229	0x3dc29fb9	0.09503121
230	0x3c8bfe82	0.017089132
231	0xbdc150dc	-0.09439251
232	0xbe140dd2	-0.14458397
233	0x3d13aab2	0.03605146
234	0xbd06c4a2	-0.032902367
235	0xbea850bf	-0.32874104
236	0xbd81c840	-0.06337023
237	0x3d88599e	0.06657718
238	0x3d96aad6	0.07356803
239	0x3db8a31d	0.090154864
240	0x3e7668b0	0.24063373
241	0xbe953fa8	-0.29150128
242	0x3d22c0cf	0.039734658
243	0xbc310a43	-0.010805669
244	0x3f6e9f5b	0.9321191
245	0x3e3e5407	0.18586741
246	0xbce94c97	-0.028478904
247	0x3dbe5053	0.092926644
248	0x3e036d5d	0.12834688
249	0xbd2defc7	-0.042464998
250	0xbe90f57f	-0.283123
251	0x3ee36ffc	0.44421375
252	0x3e9af39c	0.30263984
253	0x3e4114b3	0.18855552
254	0xbc612f01	-0.013744117
255	0xbe582182	-0.21106532

bias f4 [128]
0	0x3d2cf755	0.04222806
1	0xbe8cf9a1	-0.27534202
2	0x3c0ec305	0.0087134885
3	0xbe3433b7	-0.17597853
4	0xbdef6a43	-0.1169019
5	0xbe93d9ae	-0.28877014
6	0xbe4c3b01	-0.19944383
7	0xbe702b51	-0.23454024
8	0xbe33e16a	-0.17566457
9	0xbdf8a73d	-0.12141273
10	0xbdab3db7	-0.083613805
11	0x3dbe2cc5	0.09285883
12	0xbce17f46	-0.027526509
13	0x3e00b359	0.12568416
14	0x3d07ed2d	0.033185173
15	0xbde71c98	-0.11284751
16	0x3e2b48b9	0.1672696
17	0xbe316edd	-0.17327447
18	0xbc4507a7	-0.01202575
19	0x3d977197	0.073947124
20	0xbe1dc3a2	-0.15406659
21	0xbe3b465c	-0.18288559
22	0xbe63b1db	-0.22235815
23	0xbd6e1ad0	-0.05813104
24	0x3e54ff99	0.20800628
25	0x3e6a58c4	0.22885424
26	0xbe0b7e11	-0.1362231
27	0xbda9091e	-0.08253692
28	0xbe5780fb	-0.21045296
29	0xbc8e0603	-0.017336851
30	0x3d2ea12b	0.04263417
31	0xbdbbe8b2	-0.091752425
32	0xbc969eb3	-0.01838622
33	0x3d853d4f	0.06505834
34	0x3c72087c	0.014772531
35	0x3e56292e	0.20914146
36	0x3d0f508e	0.034988932
37	0x3d841c66	0.06450729
38	0x3e8624cb	0.26199946
39	0xbdddef94	-0.108367115
40	0x3dd6d811	0.1049043
41	0x3d59b4e6	0.053151034
42	0x3d8920de	0.06695722
43	0xbce9556d	-0.028483117
44	0xbd752b8e	-0.05985599
45	0xbe61211d	-0.21985288
46	0x3dd9b9e4	0.10631159
47	0xbe40af98	-0.18816984
48	0xbdea2358	-0.114325225
49	0x3e3371f1	0.17523934
50	0x3e24cafd	0.16093059
51	0x3de2ac90	0.1106807
52	0xbb9440b6	-0.0045243157
53	0x3e269af7	0.16270052
54	0x3bd65bba	0.0065416964
55	0xbe19bdf9	-0.15013875
56	0xbd9c2f5a	-0.07626219
57	0xbe997616	-0.29972905
58	0x3d274c90	0.0408445
59	0xbcaeedbf	-0.0213536
60	0x3ca44ce0	0.020056188
61	0xbd10e85d	-0.03537785
62	0x3d411783	0.047141563
63	0xbc8d55d0	-0.017252833
64	0x3dd32f23	0.10311725
65	0xbe1f36fb	-0.15548317
66	0xbde05fa0	-0.10955739
67	0xbd3c5de6	-0.045987986
68	0xbd39100a	-0.04518131
69	0xbca2f766	-0.01989336
70	0xbc5044fc	-0.01271176
71	0xbd3047e9	-0.04303733
72	0xbe42b3ea	-0.19013944
73	0x3e03ca8e	0.12870237
74	0xbe2231a2	-0.15839246
75	0xbd04186c	-0.032249853
76	0x3d11c8d2	0.035591908
77	0x3d288b85	0.04114868
78	0xbe205279	-0.15656461
79	0x3dce5069	0.10073931
80	0xbb678da9	-0.0035332239
81	0xbe2a50c7	-0.16632377
82	0xbdf76e35	-0.12081567
83	0xbe7c1a0b	-0.2461931
84	0xbeaaa614	-0.33329833
85	0xbe06f6d9	-0.13180102
86	0x3dccae62	0.099941984
87	0xbe1acd9a	-0.15117493
88	0xbe59c002	-0.21264651
89	0xbe2109d1	-0.15726401
90	0xbd9a3fbe	-0.07531689
91	0xbde7b3f7	-0.113136224
92	0xbd992e1a	-0.07479496
93	0xbe9f2999	-0.31086424
94	0x3c9cd85d	0.019146139
95	0x3d67038e	0.056399874
96	0xbd87794e	-0.06614934
97	0xbcf452b6	-0.029824596
98	0x3ca39a12	0.019970927
99	0xbe5cabb2	-0.21549872
100	0xbca1c48e	-0.019747045
101	0x3d007c4f	0.03136855
102	0xbdbc985b	-0.09208747
103	0xbbf15e80	-0.0073660016
104	0xbdfd46c4	-0.12367013
105	0x3d80948e	0.062783346
106	0x3df01b7d	0.11723993
107	0xbe1be28f	-0.15223144
108	0xbdf866e0	-0.12128997
109	0xbd75715e	-0.05992257
110	0xbe370291	-0.17872073
111	0x3e008483	0.12550549
112	0x3d9137e4	0.070907384
113	0x3d97b30e	0.07407199
114	0xbe251a87	-0.161234
115	0xbe7257f1	-0.2366636
116	0xbe3e0fdd	-0.18560739
117	0xbd77a56d	-0.060460497
118	0xbd95436b	-0.072882496
119	0x3e2425f7	0.16030107
120	0x3d207b33	0.039179992
121	0x3e589f1e	0.21154448
122	0x3d06b546	0.03288772
123	0xbe1db649	-0.15401568
124	0xbe4ae20a	-0.1981279
125	0xbe00f842	-0.12594703
126	0x3db76e81	0.08956624
127	0xbcbfb577	-0.023401959

weight f4 [64, 128]
0	0xbd01cb82	-0.03168822
1	0xbdb38382	-0.087653175
2	0xbdf6f148	-0.120577395
3	0x3e1a2663	0.15053706
4	0x3e31aaf9	0.17350377
5	0xbd8cb959	-0.0687129
6	0x3d2ecbab	0.0426747
7	0xbe2faaec	-0.17155045
8	0x3e7e5c7c	0.24839967
9	0x3e21c591	0.15798022
10	0x3e082f02	0.13299182
11	0xbe297030	-0.16546702
12	0xbcad5b2b	-0.021161636
13	0x3d9703a4	0.07373741
14	0x3c3ba270	0.011452302
15	0xbde38442	-0.111092106
16	0xbe4e2130	-0.20129848
17	0x3e2ab7d5	0.16671689
18	0xbdf87aa9	-0.121327706
19	0x3e95a7c1	0.2922955
20	0x3e916ac3	0.28401765
21	0xbef24f41	-0.4732609
22	0xbec2bd91	-0.38035253
23	0x3dd0bac4	0.10191873
24	0xbd8b95b5	-0.06815664
25	0xbe56d2a2	-0.20978788
26	0x3e1298fa	0.14316168
27	0xbe18b4a5	-0.1491266
28	0x3d4740c5	0.048645753
29	0xbe9aefb5	-0.30261007
30	0x3d338f13	0.043837618
31	0x3e5f0ea5	0.2178293
32	0xbe974e9c	-0.29552162
33	0xbe1f830e	-0.15577337
34	0xbea69782	-0.32537466
35	0x3bffdde7	0.0078084352
36	0x3c97ffa4	0.018554516
37	0xbe126f29	-0.14300217
38	0x3cd5e90e	0.026112106
39	0x3e442f1d	0.19158597
40	0xbe4adc6f	-0.19810651
41	0xbd80baf0	-0.062856555
42	0x3da9e1b6	0.08295004
43	0x3d7e882e	0.06214159
44	0xbea46c86	-0.32114047
45	0xbde551d5	-0.11197249
46	0x3c6f4c34	0.014605571
47	0x3d377f12	0.044798918
48	0xbe3ea4a3	-0.18617491
49	0x3d973cc3	0.07384636
50	0xbe9c4c01	-0.30526736
51	0xbe35a6cb	-0.17739408
52	0xbc7d372a	-0.015455047
53	0x3abc6749	0.0014374043
54	0xbe7192fb	-0.23591225
55	0xbe08f992	-0.13376454
56	0x3e3c0205	0.18360145
57	0x3dc5838f	0.096442334
58	0x3e058084	0.13037306
59	0x3dff78a9	0.12474186
60	0xbdbd2995	-0.09236447
61	0xbe86f9e4	-0.26362526
62	0x3e8876f2	0.26653248
63	0x3e13df05	0.14440544
64	0xbebd40f0	-0.36963606
65	0x3e3aae9f	0.18230675
66	0x3d91f522	0.071268335
67	0xbda47d9b	-0.0803177
68	0x3d9d7009	0.07687385
69	0xbd403eb8	-0.046934813
70	0x3d025445	0.031818647
71	0x3e395f2c	0.18102711
72	0x3e93a5e3	0.288375
73	0xbdc69595	-0.09696499
74	0x3ec5f987	0.38666937
75	0x3d02d607	0.031942394
76	0xbb75895d	-0.0037465908
77	0xbe1dc649	-0.15407671
78	0x3e2989cb	0.1655647
79	0x3e2db11e	0.16962096
80	0xbd1a2665	-0.037634272
81	0xbcfc66a9	-0.03081067
82	0x3e4e5ca4	0.20152527
83	0xbdf21ef7	-0.11822312
84	0xbde0ac9d	-0.10970423
85	0x3e65eb87	0.22453128
86	0x3da40c1d	0.08010123
87	0x3db1f9fb	0.08690258
88	0xbd41b952	-0.047295876
89	0xbe224349	-0.1584598
90	0x3d403ea9	0.046934757
91	0xbda45388	-0.08023745
92	0x3d02ae80	0.031904697
93	0xbe178541	-0.14796926
94	0xbdc29b22	-0.095022455
95	0xbd28387b	-0.04106949
96	0x3d493896	0.04912623
97	0xbdc159b0	-0.09440935
98	0xbd2cb710	-0.04216677
99	0xbe73d81c	-0.23812908
100	0xbc9f325f	-0.019433198
101	0xbe66d12d	-0.22540732
102	0xbe204bc4	-0.15653902
103	0xbc699569	-0.014256814
104	0xbcf6d137	-0.030129058
105	0xbd129641	-0.035787825
106	0x3dd2af52	0.10287346
107	0x3e566457	0.20936714
108	0xbd2579db	-0.040399414
109	0xbeba1bad	-0.3634924
110	0x3e25811c	0.16162533
111	0xbd986f1e	-0.07443069
112	0xbde2657a	-0.11054511
113	0x3b88b146	0.0041715233
114	0x3d62dc39	0.055385802
115	0x3bc8f4b1	0.006132685
116	0x3ea443a6	0.32082862
117	0x3d74cdbd	0.05976652
118	0x3bd16d01	0.006391168
119	0x3b95521c	0.0045569073
120	0x3e88f114	0.26746428
121	0x3d3108ff	0.04322147
122	0xbe815245	-0.2525808
123	0x3dc8dceb	0.09807762
124	0x3e82f1ab	0.25575003
125	0xbd0048eb	-0.03131954
126	0x3d7e5a21	0.062097672
127	0xbd7281bd	-0.05920576
128	0xbde8206c	-0.11334309
129	0x3d41bb48	0.047297746
130	0x3df5108e	0.11966048
131	0x3e4c38cc	0.19943541
132	0x3dbc93fe	0.09207915
133	0x3ca1572e	0.01969489
134	0x3d42b51a	0.047535993
135	0x3d4840de	0.048889987
136	0x3d1c5064	0.038162604
137	0xbb82a1cb	-0.0039865724
138	0xbba8226e	-0.0051310575
139	0xbd89f13c	-0.06735465
140	0x3cf1ec63	0.029531663
141	0xbf046433	-0.5171539
142	0x3d2f9149	0.042863164
143	0x3e305b9c	0.17222446
144	0xbefe578a	-0.49676162
145	0x3e0f7b71	0.14011933
146	0x3dd7bf55	0.105345406
147	0xbdf0966e	-0.11747442
148	0x3c1a813a	0.009430224
149	0x3e4f09d3	0.20218591
150	0x3e71c116	0.23608813
151	0x3e47a11a	0.19495049
152	0xbde9ad90	-0.114100575
153	0xbed32fdc	-0.4124745
154	0x3acac065	0.0015468715
155	0x3d936902	0.07197763
156	0x3d9ec206	0.07751851
157	0x3dc16d1f	0.09444641
158	0x3daff7ed	0.0859221
159	0xbe22f31d	-0.15913053
160	0x3baa7ef5	0.0052031227
161	0x3e4211f2	0.18952158
162	0x3d064af0	0.03278631
163	0xbebf187f	-0.37323377
164	0x3d39974b	0.0453103
165	0x3e20280e	0.1564028
166	0xbe3f1022	-0.18658498
167	0x3ec5a40b	0.38601717
168	0x3e8467e9	0.25860527
169	0xbe5554a4	-0.20833069
170	0xbd026430	-0.031833827
171	0x3e6f0185	0.23340423
172	0xbcfb8a72	-0.030705664
173	0xbdc532d1	-0.09628833
174	0xbe32c6db	-0.1745867
175	0x3dd22d21	0.10262514
176	0xbe46d3a9	-0.1941668
177	0x3dc36e4c	0.09542522
178	0xbe75474c	-0.23952979
179	0x3d66c023	0.05633558
180	0xbd674d55	-0.056470234
181	0xbe87d83d	-0.26532164
182	0xbd4ef8ee	-0.050530367
183	0x3e80a8d7	0.25128815
184	0x3e1af6c2	0.15133193
185	0xbdccaa41	-0.09993411
186	0xbeec6799	-0.4617279
187	0x3c27cd0a	0.010241756
188	0x3d59b3e7	0.053150084
189	0xbeafa836	-0.34308022
190	0x3dec0a97	0.11525457
191	0x3d9668bd	0.07344196
192	0xbe1a03b2	-0.15040472
193	0x3d993188	0.074801505
194	0x3ebc4d5c	0.3677777
195	0xbe3b1eeb	-0.18273513
196	0xbd11e900	-0.035622597
197	0x3cab9b72	0.020948146
198	0x3dd87452	0.10569061
199	0xbd9ec183	-0.07751753
200	0xbe1d73b5	-0.1537617
201	0xbd993354	-0.07480493
202	0x3e461c72	0.19346789
203	0xbe06341d	-0.13105817
204	0xbd34ad44	-0.04411055
205	0x3e63da96	0.22251353
206	0x3ca21585	0.019785652
207	0x3d93ca46	0.07216315
208	0x3e6cc35e	0.23121402
209	0xbeaa0d71	-0.3321338
210	0x3e9dd90f	0.30829665
211	0x3c9a2623	0.018817013
212	0x3eadad9d	0.3392152
213	0x3d107456	0.035267197
214	0xbcb1f55f	-0.021723447
215	0xbe2cba1e	-0.16867873
216	0x3e28a96e	0.16470882
217	0x3bfdb665	0.0077426904
218	0x3a5dbdb5	0.00084587495
219	0x3e86a959	0.26301077
220	0xbdd4bdc4	-0.103877574
221	0x3ed5bc91	0.41745427
222	0x3ddba86c	0.10725483
223	0x3eb47f73	0.35253486
224	0xbdd8f869	-0.105942555
225	0xbdfde6bf	-0.12397527
226	0xbe0a9fae	-0.13537475
227	0xbeb0b6e2	-0.3451453
228	0x3e70df97	0.23522793
229	0xbe6061cf	-0.21912311
230	0x3e1b3982	0.15158656
231	0xbe097c58	-0.1342634
232	0xbdc771a4	-0.09738472
233	0x3dd37ca3	0.10326507
234	0xbeb4879b	-0.3525971
235	0x3d3ceb08	0.04612258
236	0x3d5bcb45	0.05366065
237	0xbd305a35	-0.043054778
238	0xbe19f000	-0.15032959
239	0xbe809c04	-0.2511903
240	0xbd37ebbd	-0.044902552
241	0xbe8e0f65	-0.2774612
242	0x3e37a786	0.17934999
243	0x3dbe36a5	0.09287766
244	0x3eb8ebee	0.361175
245	0x3e6a8dea	0.22905698
246	0xbdc1cbae	-0.09462677
247	0xbec2ce9c	-0.38048255
248	0x3d9ffe9f	0.07812237
249	0x3d994946	0.07484679
250	0x3e153a14	0.14572936
251	0x3dcb674c	0.09931812
252	0xbc2a36d3	-0.010389048
253	0xbea80e71	-0.32823518
254	0x3c60daa8	0.013724007
255	0xbd21a20d	-0.039461184

bias f4 [64]
0	0xbe2aef1e	-0.16692778
1	0xbeb8cb97	-0.36092827
2	0x3cd114e8	0.025522664
3	0xbd8da37c	-0.06915948
4	0xbe494639	-0.19655694
5	0xbe676a58	-0.2259916
6	0x3b45d79d	0.003018833
7	0xbd6388c6	-0.05555036
8	0xbe7a69f9	-0.24454488
9	0xbe0ab9cf	-0.13547443
10	0xbe0e0b04	-0.1387139
11	0xbe06eb5d	-0.13175721
12	0x3d1937f7	0.037406888
13	0xbdd37640	-0.10325289
14	0xbe246159	-0.1605276
15	0xbdce5cbd	-0.10076282
16	0xbe056274	-0.13025838
17	0xba230ae4	-0.00062195794
18	0xbdb03260	-0.08603358
19	0xbe62f206	-0.22162637
20	0xbe18754a	-0.14888492
21	0x3b614ccc	0.003437805
22	0xbe39d328	-0.18146956
23	0xbe4ab367	-0.19794999
24	0xbe29adf9	-0.16570272
25	0xbd7fcf8a	-0.062453784
26	0xbde1c4f5	-0.11023895
27	0xbe359c6c	-0.17735451
28	0xbe47bf15	-0.19506486
29	0x3dc4b517	0.09604853
30	0x3dae4195	0.085086025
31	0xbe171401	-0.14753725
32	0xbe99b7f4	-0.30023158
33	0xbd2355cd	-0.039876748
34	0xbd46a8f7	-0.04850098
35	0xbdf3fbf4	-0.119132906
36	0xbe4645b8	-0.19362533
37	0xbe3c54ac	-0.18391675
38	0x3d21f075	0.03953596
39	0xbdcffb52	-0.101553574
40	0xbe51bf29	-0.20483078
41	0xbd98c2c4	-0.074590236
42	0xbde11a9c	-0.109914035
43	0xbe29c956	-0.1658071
44	0xbd93d191	-0.07217706
45	0xbe4b1907	-0.19833766
46	0xbe0d4fbb	-0.13799946
47	0xbe1cf7e0	-0.15328932
48	0xbcccb79b	-0.024989894
49	0xbe1b771f	-0.1518216
50	0xbdf93703	-0.12168696
51	0xbe2b113d	-0.16705795
52	0xbdfffd54	-0.124994904
53	0xbd9e5a89	-0.07732112
54	0xbd892995	-0.06697384
55	0xbe75ecb9	-0.24016084
56	0xbc9110dc	-0.017708234
57	0xbe709460	-0.234941
58	0xbe25fcd5	-0.16209729
59	0x3bf68acd	0.0075238706
60	0xbe01764f	-0.12642787
61	0xbe6a4f01	-0.228817
62	0xbde26277	-0.11053937
63	0xbd294cb5	-0.04133292

weight f4 [32, 64]
0	0xbc212cbf	-0.009837328
1	0xbdbc548d	-0.09195814
2	0xbe8fc043	-0.28076372
3	0x3dc7d486	0.097573325
4	0x3c73536b	0.014851431
5	0x3c9097cc	0.017650507
6	0xbd5805c0	-0.05273986
7	0x3e0f4137	0.13989721
8	0x3e3107c3	0.17288117
9	0xbd8114c8	-0.06302792
10	0xbe8b5faa	-0.27221423
11	0x3d37b4e5	0.04485025
12	0x3e2dad73	0.16960697
13	0xbdde6a3c	-0.10860106
14	0xbe3e1d44	-0.18565851
15	0x3bdfad38	0.006826069
16	0x3e5c5995	0.21518548
17	0xbc21c07e	-0.009872554
18	0x3e1c7c4a	0.15281788
19	0x3dd292b6	0.10281889
20	0xbe5747d2	-0.21023491
21	0xbe73e79d	-0.23818822
22	0x3d0529c4	0.032510534
23	0xbc30d7aa	-0.010793606
24	0xbc0d3d13	-0.008620518
25	0x3da6bf58	0.08141965
26	0xbd10902a	-0.035293736
27	0x3d92b00d	0.07162485
28	0xbe4e249f	-0.20131157
29	0x3e2faffb	0.17156975
30	0xbc30cb75	-0.010790695
31	0x3df1fc98	0.118157566
32	0x3eac9e28	0.33714414
33	0x3e2e2968	0.17007983
34	0xbda0b79c	-0.07847521
35	0xbe05b74f	-0.13058208
36	0xbd65c8b0	-0.056099594
37	0xbba9cb64	-0.0051817168
38	0xbb95d455	-0.004572431
39	0xbe3086f7	-0.17238985
40	0xbbdb48b0	-0.0066920146
41	0xbe8cebea	-0.27523738
42	0xbe844eae	-0.25841278
43	0x3bafdafd	0.0053666816
44	0x3dd1777b	0.10227867
45	0x3dc78b39	0.097433515
46	0x3cb5c39b	0.022187999
47	0xbe049141	-0.12946035
48	0xbe86ce50	-0.2632928
49	0x3c9f613e	0.019455548
50	0xbc5c0e7f	-0.0134311905
51	0xbe2b6ef5	-0.16741545
52	0x3db44c1c	0.08803579
53	0xbc9a1e11	-0.018813165
54	0xbe42e70d	-0.19033451
55	0x3eaaadee	0.33335823
56	0xbdc02f3f	-0.093840115
57	0xbd81d232	-0.0633892
58	0x3d3079e9	0.043085013
59	0xbda9f54f	-0.08298742
60	0x3e3da581	0.18520166
61	0xbe842a48	-0.25813508
62	0xbd75bc0c	-0.05999379
63	0x3dbe6ef7	0.092985086
64	0xbe1626bf	-0.14663218
65	0x3e5a8341	0.21339132
66	0xbe6c03c1	-0.23048307
67	0xbdecb8d7	-0.11558693
68	0xbdf92f96	-0.121672794
69	0xbe9d09fc	-0.3067168
70	0xbdd07472	-0.1017846
71	0xbe9d941c	-0.3077706
72	0x3ce2b986	0.027676355
73	0xbe0177c4	-0.12643343
74	0x3e11cbef	0.1423795
75	0xbd357193	-0.044297766
76	0x3dd9350b	0.1060582
77	0xbecd0e37	-0.40049908
78	0x3d3d10ed	0.04615872
79	0xbd608c81	-0.054821495
80	0xbadcf2f3	-0.0016857072
81	0x3bc0d5d9	0.0058848676
82	0xbed9efc9	-0.42565754
83	0xbd94eb82	-0.07271482
84	0x3d068732	0.032843776
85	0xbdd44448	-0.10364586
86	0x3d6b0681	0.05737925
87	0x3e935b54	0.28780615
88	0xbcb99b3e	-0.022657033
89	0x3decc063	0.11560132
90	0xbdd3ab31	-0.103353865
91	0x3b8f6eb7	0.004377212
92	0xbdba8198	-0.09106749
93	0x3e644712	0.22292736
94	0x3db28809	0.08717353
95	0xbdadc128	-0.08484107
96	0x3dd28d4e	0.10280858
97	0xbd137e29	-0.036008988
98	0x3e56c3e2	0.20973161
99	0x3e629e69	0.22130741
100	0xbe1981e1	-0.14990951
101	0xbea203d4	-0.31643546
102	0xbd6a86b6	-0.057257377
103	0x3d4f5b9d	0.05062448
104	0x3d5ecb05	0.054392833
105	0x3da5b8a5	0.08091859
106	0xbd3b7bb3	-0.045772266
107	0x3d8758db	0.06608745
108	0x3db00305	0.08594326
109	0xbeb65760	-0.35613537
110	0xbd60941e	-0.054828756
111	0xbd952d05	-0.072839774
112	0xbddec756	-0.10877864
113	0xbec0f894	-0.3768965
114	0xbd88b784	-0.06675628
115	0x3e20ebcc	0.1571495
116	0x3ca74322	0.020417754
117	0x3dc33072	0.095307246
118	0x3bf21a96	0.007388423
119	0xbcf454f6	-0.029825669
120	0xbd0bb97e	-0.034112446
121	0x3d8c1c03	0.0684128
122	0xbc278652	-0.010224896
123	0x3e0c12e0	0.13679075
124	0x3dec097e	0.11525248
125	0xbdcb2485	-0.09919075
126	0xbd143e4c	-0.036192223
127	0xbdd6b97d	-0.10484598
128	0xbca79a6f	-0.020459382
129	0x3e01d865	0.12680204
130	0x3e3d44b9	0.18483247
131	0xbe178e20	-0.1480031
132	0xbd581d62	-0.052762397
133	0x3d4c128a	0.049822368
134	0x3d73ab0a	0.059489287
135	0x3e881337	0.2657716
136	0x3e885d60	0.2663374
137	0xbe1d2d28	-0.15349257
138	0x3e08f8e0	0.13376188
139	0x3ce18bf2	0.027532551
140	0xbdf0b031	-0.11752356
141	0x3e76dd51	0.24107863
142	0x3d87f7a1	0.06639028
143	0x3dbd663e	0.09248017
144	0x3e797183	0.24359708
145	0xbd3d1601	-0.046163563
146	0xbe322512	-0.17396954
147	0x3d442067	0.047882464
148	0xbdb36f31	-0.087614425
149	0xbd604c58	-0.054760307
150	0x3dbc3819	0.09190387
151	0x3e2e9506	0.17049035
152	0xbdfd3a9c	-0.123646945
153	0xbdccf871	-0.10008324
154	0xbd112c37	-0.035442557
155	0xbe4291a9	-0.19000877
156	0xbd235732	-0.039878078
157	0xbe3dc613	-0.1853259
158	0x3d9d2e49	0.07674844
159	0x3eb3e949	0.3513892
160	0x3d9f29d3	0.07771649
161	0x3e4937b9	0.19650163
162	0x3da9aa39	0.082844205
163	0x3df09c37	0.117485456
164	0xbe3a2fe2	-0.18182328
165	0xbc59bda1	-0.01328984
166	0xbe2a6b84	-0.16642576
167	0xbe98df17	-0.29857704
168	0x3e4e8d11	0.20171
169	0x3daf0ebb	0.085477315
170	0xbd67f207	-0.0566273
171	0xbe42f921	-0.19040348
172	0x3e6c404f	0.23071407
173	0x3da94b1d	0.0826628
174	0x3daab086	0.083344504
175	0x3da73682	0.081646934
176	0x3e42c33d	0.1901979
177	0xbcf2eec2	-0.029654864
178	0xbe55f04a	-0.20892444
179	0xbd91ce62	-0.071194425
180	0xbe7e877f	-0.24856375
181	0xbe5ea7c6	-0.21743688
182	0xbe0be42f	-0.13661264
183	0xbe3d5f04	-0.18493277
184	0x3e96e770	0.29473448
185	0x3bec4e46	0.0072114794
186	0x3d877537	0.06614154
187	0xbe51b845	-0.2048045
188	0xbdce3d7d	-0.10070322
189	0xbe2873d9	-0.16450442
190	0xbac47343	-0.0014987964
191	0xbde6ebef	-0.112754695
192	0x3db2fd2d	0.08739696
193	0x3eb42f03	0.35192117
194	0xbd16e612	-0.036840506
195	0xbe7024d3	-0.23451547
196	0x3d386be4	0.045024768
197	0xbdcb4821	-0.09925867
198	0x3cbd2aab	0.023091635
199	0xbea78709	-0.3272021
200	0x3e81ff54	0.25390112
201	0x3e3e4801	0.18582155
202	0x3d2304b6	0.039799415
203	0xbdb81be6	-0.08989696
204	0xbe91f326	-0.2850582
205	0xbe3899eb	-0.18027465
206	0xbe2b4744	-0.16726404
207	0x3e1182c4	0.1421004
208	0x3e05196a	0.12997976
209	0x3e73897b	0.23782913
210	0x3db60738	0.088880956
211	0x3d237362	0.03990496
212	0xbdbcf40e	-0.09226237
213	0xbcdaabcb	-0.026693245
214	0x3e0d2b8c	0.13786143
215	0x3cb5108d	0.022102619
216	0xbe290077	-0.16504084
217	0x3d6d56e2	0.057944186
218	0xbddd437b	-0.108038865
219	0xbd17e786	-0.037086032
220	0x3de84df1	0.11342991
221	0xbd9bf305	-0.07614712
222	0xbd1a4fb3	-0.037673663
223	0xbd9583e7	-0.07300549
224	0xbc0e27fb	-0.008676524
225	0x3df44aa5	0.119283
226	0x3e34ca0d	0.17655201
227	0xbb3cbb7f	-0.002879828
228	0x3df05598	0.11735076
229	0xbe34bbfd	-0.17649837
230	0xbe0d56bf	-0.13802622
231	0x3cfb435b	0.030671766
232	0xbde73c10	-0.11290753
233	0x3cce7bd1	0.025205525
234	0xbe744f28	-0.2385832
235	0x3d2a67b7	0.041602816
236	0x3e5f594f	0.21811412
237	0xbe8cf62d	-0.27531567
238	0x3e2ed134	0.17071992
239	0xba720a1a	-0.00092330726
240	0xbbf57f24	-0.007491963
241	0xbd9f6b98	-0.07784194
242	0xbca42edf	-0.020041881
243	0x3d3aeae5	0.04563417
244	0x3c04555e	0.008076994
245	0x3e68d208	0.2273637
246	0xbdc5382e	-0.09629856
247	0x3df6b2a6	0.12045793
248	0xbd903cb7	-0.070428304
249	0xbd69743c	-0.056995615
250	0xbcc5af1a	-0.024131346
251	0x3bd5b0b2	0.006521308
252	0x3d2f3ac4	0.042780653
253	0x3d4242d5	0.047427017
254	0xbd0c74f5	-0.034291226
255	0xbdcb5efc	-0.09930226

bias f4 [32]
0	0x3d851f8b	0.06500157
1	0xbe171b11	-0.14756419
2	0xbe9248a6	-0.2857105
3	0xbdcc29f8	-0.099689424
4	0xbd85f513	-0.06540885
5	0xbe0a47c6	-0.13503942
6	0xbd652b65	-0.055949587
7	0xbe69c9ad	-0.2283084
8	0xbdfae7f6	-0.12251274
9	0x3e577814	0.210419
10	0xbe81173b	-0.25213036
11	0xbe4a12f1	-0.19733788
12	0xbb200fc9	-0.0024423471
13	0xbdd80a9d	-0.10548899
14	0xbd921ece	-0.07134782
15	0x3da58325	0.080816545
16	0xbe813619	-0.25236586
17	0xbe26d58e	-0.16292402
18	0xbe594063	-0.21215968
19	0x3d04ee0d	0.032453585
20	0x3d4d12f5	0.050066907
21	0xbe74a10e	-0.23889562
22	0xbe21446a	-0.15748754
23	0xbe067897	-0.13131939
24	0xbcd5a0ba	-0.026077617
25	0xbd9c6e63	-0.07638242
26	0xbd88bc75	-0.0667657
27	0xbe17c503	-0.14821248
28	0xbe6d94e2	-0.23201326
29	0xbc61e5b9	-0.01378768
30	0x3db28792	0.08717264
31	0xbad7121b	-0.0016408594

weight f4 [12, 32]
0	0x3ded3bb8	0.11583656
1	0xbbf0de99	-0.0073507545
2	0x3d9f2279	0.07770247
3	0x3ce89d3e	0.028395291
4	0xbd0fd840	-0.03511834
5	0x3dcf3dd5	0.101192154
6	0xbd802647	-0.06257301
7	0x3b85c9c7	0.0040828916
8	0x3d9a4ad2	0.07533802
9	0x3d61f4dc	0.055165157
10	0xbe210e19	-0.15728034
11	0xbc2a1dcd	-0.010383082
12	0xbd531105	-0.051529903
13	0x3d2d70bc	0.04234384
14	0xbd941cb4	-0.07232037
15	0x3e4ddbf9	0.20103444
16	0x3dcf6c50	0.10128081
17	0xbb41bacb	-0.00295608
18	0xbd31dab9	-0.04342148
19	0xbe185a21	-0.14878131
20	0x3d1d6131	0.038422767
21	0xbd228ee4	-0.039687052
22	0xbd5b0e20	-0.053480268
23	0x3d952ae1	0.07283569
24	0x3dc89097	0.09793203
25	0x3c95bdcc	0.018278979
26	0x3ce6ab91	0.028157981
27	0x3d521a68	0.051294714
28	0x3decfc35	0.11571542
29	0xbdb5099d	-0.08839724
30	0xbe441bb4	-0.19151193
31	0xbe0b7c84	-0.13621718
32	0xbe2bd9bd	-0.1678228
33	0x3e19db74	0.15025121
34	0xbcff8cd7	-0.031195087
35	0x3dbaa073	0.091126345
36	0xbd794f6c	-0.06086676
37	0xbaf0c004	-0.0018367772
38	0xbcde9af5	-0.027173499
39	0xbdeb82e9	-0.114995785
40	0xbd46997c	-0.048486218
41	0x3e5a6dae	0.21330902
42	0x3e80d416	0.2516181
43	0x3d78418b	0.06060938
44	0x3c7f0874	0.01556598
45	0x3e1f61b5	0.15564616
46	0xbdf4588d	-0.11930952
47	0x3d101daa	0.03518454
48	0x3d431695	0.047628958
49	0xbdf3dbc5	-0.11907152
50	0xbd86fd4c	-0.06591281
51	0x3c42bb1f	0.011885433
52	0xbe0c2090	-0.13684297
53	0x3e0d3a1a	0.13791695
54	0x3dd07b34	0.10179749
55	0x3d84b39f	0.064795725
56	0x3e1e5203	0.15460972
57	0x3e09a1d6	0.13440642
58	0xbde07904	-0.10960582
59	0x3deb4f29	0.11489708
60	0xbd06b1ec	-0.032884523
61	0xbd91ab30	-0.071127295
62	0x3df6c666	0.1204956
63	0xbd5d59fc	-0.054040894
64	0xbcbeccf8	-0.023291096
65	0x3dd2e555	0.10297648
66	0x3e11a69b	0.14223711
67	0x3b290581	0.0025790634
68	0x3c1687a1	0.00918761
69	0x3c0560f3	0.00814079
70	0x3e49ba1e	0.19699904
71	0x3eaa4b85	0.33260742
72	0xbddf7034	-0.10910073
73	0x3dbe767c	0.09299943
74	0x3e278adc	0.16361564
75	0x3ba0c88c	0.0049067196
76	0xbe13e071	-0.14441086
77	0x3c86076d	0.016360963
78	0x3bd92d2c	0.0066276994
79	0xbe1740c1	-0.14770795
80	0xbd210ed6	-0.03932079
81	0xbe39c794	-0.1814254
82	0x3e9214f2	0.28531605
83	0xbe3c53c2	-0.18391326
84	0x3e0f3a98	0.13987195
85	0x3d5817bb	0.052757006
86	0x3bb51b02	0.005526901
87	0xbc0bba71	-0.008528338
88	0xbd5cc2b0	-0.053896606
89	0x3db4db25	0.08830861
90	0xbe4ab73c	-0.19796461
91	0xbe0f2551	-0.13979079
92	0xbe006662	-0.12539056
93	0xbd8802b2	-0.06641139
94	0xbe8967e6	-0.2683708
95	0xbd3d2938	-0.046181887
96	0x3e0d862b	0.13820712
97	0xbdcdecb9	-0.10054917
98	0x3d6039b8	0.054742545
99	0xbb6f79ec	-0.0036541177
100	0x3d655cf8	0.055996865
101	0x3d9799f6	0.074024126
102	0xbd202d5c	-0.039105758
103	0xbdd7cc0d	-0.105369665
104	0x3d894e98	0.06704444
105	0x3e48ca57	0.19608437
106	0xbc5a4463	-0.013321969
107	0x3b3e4a04	0.0029035816
108	0xbd461788	-0.048362285
109	0xbde54168	-0.11194116
110	0xbd37abdb	-0.04484163
111	0xbdd47fc5	-0.103759326
112	0x3d9c6de2	0.07638146
113	0x3e503020	0.20330858
114	0x3e806705	0.25078598
115	0x3d1eb62b	0.038747948
116	0xbc9ddf33	-0.019271469
117	0x3da99d38	0.0828194
118	0x3df35201	0.118808754
119	0x3c32797a	0.01089322
120	0xbd94bffc	-0.072631806
121	0xbcdfb4c5	-0.027307877
122	0xbd7ab8cc	-0.061211392
123	0x3d04926c	0.0323662
124	0xbd3a1a31	-0.045435134
125	0xbc0329bf	-0.0080055585
126	0xbced1f8f	-0.028945712
127	0x3e0d14c3	0.13777451
128	0x3e884160	0.26612377
129	0xbd97db30	-0.074148536
130	0xbe08f439	-0.13374414
131	0x3d02b99b	0.03191529
132	0x3cb943c7	0.022615327
133	0xbe3c7531	-0.1840408
134	0xbd191f4c	-0.037383363
135	0xbd38ac66	-0.045086287
136	0xbd94be7c	-0.072628945
137	0x3d10f173	0.035386514
138	0x3d3ac9e5	0.045602698
139	0xbcee3528	-0.029078081
140	0xbe8f18cc	-0.27948606
141	0x3de4ec1c	0.11177847
142	0x3cc249cc	0.02371683
143	0x3e3aac54	0.182298
144	0xbe2039ff	-0.15647124
145	0x3e0ed215	0.13947327
146	0xbe0ff9f1	-0.14060189
147	0x3d876344	0.0661073
148	0x3e0a2352	0.13490036
149	0x3e3afaa9	0.18259682
150	0x3dd023d7	0.10163086
151	0x3ce09a67	0.027417375
152	0xbe15108f	-0.14557098
153	0x3ac3c2e4	0.0014935401
154	0xbce79f47	-0.028274192
155	0x3d0cf5db	0.034414154
156	0xbda1c8f8	-0.0789966
157	0x3e84f42c	0.25967538
158	0x3d85fc71	0.0654229
159	0x3d47d3d7	0.04878601
160	0xbd7cf09c	-0.0617529
161	0xbd95f673	-0.07322397
162	0xbd3f25ec	-0.046667024
163	0xbd3f755f	-0.046742793
164	0x3db9ab6f	0.090659015
165	0x3e3f8976	0.18704781
166	0x3e85d6cc	0.2614044
167	0x3d1bf432	0.03807468
168	0xbdd75994	-0.105151325
169	0xbe088297	-0.13331066
170	0xbd88b362	-0.066748396
171	0x3cbc545c	0.022989444
172	0x3e0ecbfc	0.13945001
173	0xbdf91a69	-0.121632405
174	0x3d8cf458	0.06882542
175	0xbbff29b5	-0.0077869543
176	0xbd3335d3	-0.043752503
177	0x3e1cdd6a	0.15318838
178	0xbcd50810	-0.026004821
179	0xbe768da5	-0.2407747
180	0xbe1dce99	-0.15410842
181	0x3e803474	0.2504002
182	0x3e8bf4b7	0.2733514
183	0x3b44e315	0.0030042578
184	0x3dadd66c	0.08488163
185	0xbe791d3a	-0.24327555
186	0x3d45e0d1	0.048310105
187	0x3daa4ae9	0.08315069
188	0xbc82e971	-0.015980454
189	0x3cccc51c	0.024996333
190	0x3c9d05eb	0.019167861
191	0xbe70f851	-0.23532225
192	0x3d9b5c95	0.07586018
193	0x3cfa61aa	0.030564148
194	0xbdfe8dff	-0.12429427
195	0xbe929469	-0.28628853
196	0x3e01b43e	0.12666413
197	0xbe0ab5c4	-0.135459
198	0xbcde4690	-0.027133256
199	0x3dd7f660	0.10545039
200	0x3d4cc1e9	0.049989615
201	0xbd5ed0df	-0.054398414
202	0x3dcc256a	0.09968074
203	0x3e0c6256	0.13709387
204	0x3d2bebf6	0.041973077
205	0x3d7e8721	0.062140588
206	0xbd9c6c75	-0.07637874
207	0xbdc69085	-0.09695534
208	0x3e1e165b	0.15438215
209	0xbd093644	-0.033499017
210	0xbd4b1b87	-0.0495868
211	0x3d7e35ad	0.062062908
212	0x3c9e06d4	0.019290365
213	0xbe040fe5	-0.12896688
214	0x3d8ca32f	0.06867062
215	0xbe2e684a	-0.1703197
216	0xba700579	-0.0009156089
217	0x3dfdc348	0.123907626
218	0xbd543505	-0.051808376
219	0xbd2e2e6e	-0.042524748
220	0x3c67dfc9	0.014152476
221	0xbc558ac4	-0.013033573
222	0x3cfe5303	0.031045442
223	0x3c1201c6	0.008911556
224	0x3cd3c27a	0.02584957
225	0x3ce0572e	0.02738532
226	0x3c8d2b77	0.01723264
227	0xbc9c0550	-0.019045502
228	0x3d71f131	0.05906791
229	0xbdde1a92	-0.10844912
230	0xbb0e8d11	-0.0021751563
231	0x3d5cd7d6	0.053916775
232	0x3c38e148	0.01128418
233	0x3e0e5af0	0.13901877
234	0xbc7e6ccd	-0.01552887
235	0x3dd46d40	0.103724
236	0xbdae340d	-0.08506022
237	0xba19ff0f	-0.00058744935
238	0x3ca559ea	0.020184476
239	0xbd797603	-0.06090356
240	0xbd7f3b62	-0.06231249
241	0xbdcecbb5	-0.10097448
242	0xbdbfeb49	-0.09371049
243	0xbc427fcc	-0.011871289
244	0xbdaf6001	-0.08563233
245	0x3dfdebc2	0.12398483
246	0xbdf6504c	-0.12027034
247	0x3e3466ca	0.17617336
248	0xbb7d7133	-0.0038672208
249	0xbd78c458	-0.060734123
250	0x3e8f36c6	0.27971476
251	0xbe8a454b	-0.2700599
252	0xbe282eee	-0.16424152
253	0xbbb1c81a	-0.0054254653
254	0x3c6e608a	0.014549384
255	0x3da14a48	0.07875496

bias f4 [12]
0	0x3de585f7	0.112071924
1	0x3db69f14	0.089170605
2	0xbd906858	-0.07051152
3	0xbbc93237	-0.0061400193
4	0xbcb8a94b	-0.022541663
5	0xbed36e11	-0.41294912
6	0xbda217df	-0.07914709
7	0x3d4a3611	0.049367968
8	0xbec132b0	-0.37733984
9	0xbd413f86	-0.04717972
10	0x3e0f80e9	0.14014019
11	0xbe70bbef	-0.23509191
