deploy/networks/go2/bambi11.pt (torch, 79240 bytes, 8 tensors)

weight f4 [128, 48]
0.047395304 0.024935687 -0.23517816 -0.14397168 0.6215568 0.3961347 -0.35095388 0.25803757
0.32891986 -0.2017418 -0.06721949 -0.13997826 0.31789494 -0.30562353 0.014650653 -0.43657467
-0.08547393 -0.0023032897 -0.34437022 -0.1624284 0.5570168 0.037618417 -0.07987149 0.7728956
0.10929789 0.12987861 0.3975697 0.26631647 -0.3422191 0.100961044 0.22017871 -0.39853022
0.08427097 -0.024643924 -0.19252558 0.17381836 0.011069165 -0.065556645 -0.11102415 0.022180185
0.025524415 -0.22039914 -0.15965311 0.022349624 -0.114352494 0.012909609 0.07235657 0.051068734
0.18203084 -0.015622471 -0.43583828 -0.22906058 0.5797462 0.35641986 0.48686248 -0.6014643
0.09267204 -0.022522232 0.049529925 0.019428432 0.1573678 -0.29996648 -0.25335142 -0.911457
-0.043072585 0.030581782 -0.67296004 0.17855456 0.6418184 -0.15198489 0.01723298 0.17986575
0.062339332 0.29365543 0.37978536 0.38563457 -0.34914967 -0.15794261 0.19699419 -0.28732488
0.27868837 -0.22155382 -0.17315958 0.047714595 -0.12479889 0.13317522 0.03443994 0.02402245
-0.0326015 -0.102822 0.03152613 0.059303436 0.03938341 -0.2252762 0.13797814 -0.0320648
-0.23597823 -0.15201378 -0.22182232 0.42062768 0.40818173 -0.07768486 -0.037221696 -0.16098545
-0.00050670584 -0.0781122 0.16779286 -0.8583341 0.48932797 -0.3787426 0.039762553 0.4167168
-0.09444207 -0.20334657 0.40926594 0.26581013 0.17628734 -0.11790593 0.17622906 0.60797733
-0.109405994 -0.11350591 -0.3647091 -0.11087118 0.15209538 -0.42262933 -0.014481251 0.3412143
-0.86583114 0.42415726 0.8692426 -0.07596044 -0.12586135 0.110669784 -0.11535233 -0.111164056
0.029713914 0.10554531 0.01440678 -0.07354995 0.044370726 0.14511535 0.009496863 0.12468145
-0.07531726 -0.102975346 -0.39607584 0.3355657 -0.56900805 0.28501368 -0.70441675 -1.049405
0.19447404 -0.09810237 0.277069 -0.92606336 -0.15425375 -0.1990101 0.37876734 -0.02217487
-0.4555031 0.18242669 0.11315437 -0.34172228 0.45003563 -0.12972336 -0.6847957 0.051308006
-0.050778437 -0.34550098 0.11546483 -0.0447151 -0.13514107 -0.05520596 -0.005799574 -0.5092528
0.39920583 -0.022728782 -1.1391257 0.165105 0.11534205 -0.02543467 -0.14907438 -0.19973151
-0.02555675 -0.1385352 0.07914825 -0.024036612 -0.06282605 0.074257165 -0.05839503 0.11606284
0.24346289 0.1852143 0.051637534 -0.40642175 -0.74927264 -0.39888108 -0.54935503 0.36280695
0.0120604765 -0.040592805 -0.046381935 0.23911248 -0.1890143 -0.53107053 0.02173008 -0.0028574
-0.37157834 -0.1084584 0.37142697 -0.6346687 0.15799083 -0.4412634 -0.34785905 0.35322276
-0.0041536125 0.035082936 -0.103873685 -0.2488874 0.12858798 -0.49280795 -0.44793707 -0.24137108
-0.23949936 0.02364662 -0.1950336 -0.015020002 0.0043384437 -0.08591852 0.018998811 -0.008038521
0.054318003 -0.014269428 -0.05216989 -0.04801059 0.022002848 -0.09861314 0.024448158 -0.037019037
0.1309886 -0.24843599 -0.12953849 -0.08467966 0.79850256 -0.40095863 0.16986647 0.18659303
0.29224557 0.12106255 -0.20553003 0.0041776663 0.3113745 0.10672915 0.16516551 0.47256902
00000000: 9421 423d ed45 cc3c 8bd2 70be 506d 13be
00000010: 591e 1f3f 2bd2 ca3e 3ab0 b3be 801d 843e
00000020: 2f68 a83e 6795 4ebe 5faa 89bd 7656 0fbe
00000030: 20c3 a23e b07a 9cbe 4b09 703c b786 dfbe
00000040: f50c afbd caf2 16bb 4b51 b0be a153 26be
00000050: a798 0e3f c515 1a3d aa93 a3bd 7cdc 453f
00000060: 92d7 df3d e6fe 043e 418e cb3e a25a 883e
00000070: 5837 afbe aac4 ce3d 8776 613e 270c ccbe
00000080: 4296 ac3d 0ee2 c9bc 6d25 45be 71fd 313e
00000090: 715b 353c 9042 86bd a160 e3bd 38b3 b53c
000000a0: 9418 d13c 50b0 61be 1b7c 23be 8f16 b73c
000000b0: a431 eabd d382 533c ae2f 943d 732d 513d
000000c0: 4b66 3a3e 65f5 7fbc 3226 dfbe db8e 6abe
000000d0: 3f6a 143f aa7c b63e 0a46 f93e 90f9 19bf
000000e0: d7ca bd3d 8b80 b8bc e4df 4a3d 6028 9f3c
000000f0: 0625 213e 3595 99be 47b7 81be 3f55 69bf
00000100: e16c 30bd a586 fa3c 1c47 2cbf 02d7 363e
00000110: 364e 243f eda1 1bbe 2e2c 8d3c ba2e 383e
00000120: 8757 7f3d 015a 963e 3a73 c23e e571 c53e
00000130: bfc3 b2be b5bb 21be d8b8 493e 3f1c 93be
00000140: 3eb0 8e3e 01df 62be bf50 31be 6170 433d
00000150: 8f96 ffbd 165f 083e e510 0d3d bbca c43c
00000160: 2789 05bd 5794 d2bd 8b21 013d 29e8 723d
00000170: 8050 213d ceae 66be 244a 0d3e 6156 03bd
00000180: 47a4 71be 80a9 1bbe 6425 63be 835c d73e
00000190: 32fd d03e 3d19 9fbd c775 18bd 5fd9 24be
000001a0: 74d4 04ba 4af9 9fbd e4d1 2b3e c9bb 5bbf
000001b0: 3289 fa3e 8dea c1be 0fde 223d e85b d53e
000001c0: d86a c1bd 153a 50be 4e8b d13e 4418 883e
000001d0: ab84 343e aa78 f1bd 6475 343e 67a4 1b3f
000001e0: 4010 e0bd c975 e8bd 27bb babe 6e10 e3bd
000001f0: e4be 1b3e df62 d8be c542 6dbc a4b3 ae3e
00000200: 1ca7 5dbf 242b d93e af86 5e3f 2691 9bbd
00000210: cce1 00be d7a6 e23d d83d ecbd fba9 e3bd
00000220: 986a f33c 2428 d83d 6a0a 6c3c 5ba1 96bd
00000230: 14be 353d 1e99 143e bb98 1b3c fd58 ff3d
00000240: f03f 9abd bde4 d2bd 74ca cabe 44cf ab3e
00000250: 83aa 11bf 50ed 913e a854 34bf e752 86bf
00000260: 3424 473e e5e9 c8bd fddb 8d3e 7d12 6dbf
00000270: b2f4 1dbe 4ec9 4bbe cbed c13e 13a8 b5bc
00000280: b437 e9be 10ce 3a3e 7abd e73d 39f6 aebe
00000290: 126b e63e 33d6 04be c54e 2fbf 5828 523d
000002a0: 0dfd 4fbd 81e5 b0be d378 ec3d 2e27 37bd
000002b0: 6c62 0abe a51f 62bd 5a0a bebb 645e 02bf
000002c0: b564 cc3e b631 babc dfce 91bf 4911 293e
000002d0: 7438 ec3d 5e5c d0bc f4a6 18be 6b86 4cbe
000002e0: 645c d1bc 2cdc 0dbe 7a18 a23d 6ee8 c4bc
000002f0: f2aa 80bd 2414 983d a12f 6fbd 5bb2 ed3d
00000300: 564e 793e d1a8 3d3e e181 533d 8316 d0be
00000310: 55d0 3fbf 243a ccbe 88a2 0cbf d5c1 b93e
00000320: 4e99 453c a444 26bd fcfa 3dbd e7d9 743e
00000330: f78c 41be 3df4 07bf 4803 b23c 3843 3bbb
00000340: 843f bebe 701f debd ad2b be3e a679 22bf
00000350: 59c8 213e 47ed e1be 951a b2be 9dd9 b43e
00000360: 071b 88bb 20b3 0f3d babb d4bd 57dc 7ebe
00000370: 91ac 033e 5351 fcbe 0258 e5be fb29 77be
00000380: 523f 75be 8eb6 c13c e3b6 47be 7416 76bc
00000390: 8129 8e3b 0df6 afbd 65a3 9b3c 00b4 03bc
000003a0: 8e7c 5e3d 52ca 69bc 18b0 55bd c1a6 44bd
000003b0: 513f b43c b0f5 c9bd 8147 c83c 46a1 17bd
000003c0: e021 063e 0166 7ebe bda5 04be 886c adbd
000003d0: aa6a 4c3f 734a cdbe 7af1 2d3e 3e12 3f3e
000003e0: 36a1 953e a4ef f73d 7776 52be cee4 883b
000003f0: 7a6c 9f3e d094 da3d 2621 293e 91f4 f13e

bias f4 [128]
-0.10184122 -0.17102392 0.0028011033 -0.2692113 -0.04272314 -0.43192035 -0.28921142 -0.19297326
-0.1370821 -0.30578414 -0.22315194 0.10445188 -0.03919022 0.045421727 0.04347812 0.0045263693
0.08719976 -0.11786254 0.033384915 -0.035216413 -0.0758632 -0.1213536 -0.11891522 -0.059980184
0.17415543 0.12711203 -0.058382094 -0.0658381 -0.2002615 -0.040287558 0.07837908 -0.18473844
0.03585396 0.076963216 -0.09602588 0.07097428 0.07396529 -0.017552966 0.15026532 -0.14288586
0.009610272 0.13296117 0.08923268 -0.10219753 0.018646697 -0.10352757 0.08701563 -0.16667071
0.022856653 0.12249429 0.19501343 0.08824083 -0.073305555 0.19245917 -0.04475097 -0.13054961
-0.1965376 -0.26899981 -0.14553809 -0.00021555241 0.01208672 0.05659774 -0.08707117 -0.005252422
0.12008702 -0.14776844 -0.1298467 -0.009230859 -0.109896354 -0.059683148 0.05892762 0.071715064
-0.08344082 0.19642779 -0.13139065 0.070350036 -0.03897506 -0.044882905 -0.12628 -0.09473824
0.033443425 -0.10213535 -0.09895811 -0.16137944 -0.2808348 -0.04324397 0.1619209 -0.17049505
-0.14806256 -0.17502365 -0.13053352 -0.14994282 -0.13671066 -0.26993832 0.05563038 0.18306328
-0.18376012 0.06950597 0.14960353 -0.24752854 -0.088869594 -0.1190497 0.059363652 -0.03792099
-0.16359502 -0.057820126 0.15785062 -0.23790704 -0.19956061 -0.1072233 -0.12104381 0.14575616
0.048398484 0.20205906 -0.07262108 -0.20815457 -0.20177084 -0.050200053 0.0011064641 0.075218216
-0.026267035 0.22785722 0.09574148 -0.30835202 -0.23300447 -0.09947332 -0.011908496 -0.10416729
00000000: 2192 d0bd e520 2fbe b792 373b 10d6 89be
00000010: 76fe 2ebd aa24 ddbe 8513 94be c89a 45be
00000020: 405f 0cbe bd8f 9cbe f181 64be deea d53d
00000030: ed85 20bd 220c 3a3d 1d16 323d f051 943b
00000040: ca95 b23d ea61 f1bd 9fbe 083d 163f 10bd
00000050: 2a5e 9bbd 3c88 f8bd d389 f3bd c8ad 75bd
00000060: cd55 323e a829 023e 1022 6fbd 20d6 86bd
00000070: 5a11 4dbe 9104 25bd 3685 a03d 132c 3dbe
00000080: 9adb 123d e49e 9d3d 37a9 c4bd f75a 913d
00000090: 1d7b 973d 3dcb 8fbc 27df 193e ac50 12be
000000a0: 6774 1d3c f926 083e a0bf b63d f04c d1bd
000000b0: f5c0 983c 4306 d4bd 4035 b23d baab 2abe
000000c0: e03d bb3c 49de fa3d 9ab1 473e 9cb7 b43d
000000d0: 3921 96bd 0414 453e cb4c 37bd ccae 05be
000000e0: 2741 49be 58ba 89be f007 15be e905 62b9
000000f0: 6107 463c 08d3 673d 5f52 b2bd 821c acbb
00000100: 2ff0 f53d 9c50 17be 89f6 04be 073d 17bc
00000110: 5711 e1bd 5176 74bd 175e 713d 59df 923d
00000120: 05e3 aabd 5e24 493e 458b 06be ae13 903d
00000130: 50a4 1fbd 23d7 37bd 8b4f 01be 1f06 c2bd
00000140: f9fb 083d 572c d1bd 8daa cabd a740 25be
00000150: 94c9 8fbe 9720 31bd 98ce 253e 4196 2ebe
00000160: b69d 17be 6639 33be 94aa 05be 9c8a 19be
00000170: e1fd 0bbe 5b35 8abe aedc 633d f174 3b3e
00000180: 9d2b 3cbe 2559 8e3d ab31 193e 1f78 7dbe
00000190: 4301 b6bd 54d0 f3bd 4d27 733d 0a53 1bbd
000001a0: 7485 27be ccd4 6cbd 98a3 213e e79d 73be
000001b0: 9e59 4cbe e497 dbbd d1e5 f7bd 1a41 153e
000001c0: 7d3d 463d 92e8 4e3e 5cba 94bd 7926 55be
000001d0: 049d 4ebe 929e 4dbd c606 913a 020c 9a3d
000001e0: f72d d7bc 6753 693e 1c14 c43d 51e0 9dbe
000001f0: b998 6ebe abb8 cbbd da1b 43bc a955 d5bd

weight f4 [64, 128]
0.1414356 0.25590307 -0.096755974 0.050408296 -0.24610688 0.38705537 0.021955289 0.011932177
-0.10142525 0.1024681 -0.048730362 -0.26208875 -0.09004661 -0.22893104 -0.09859983 -0.082166575
-0.23439771 0.16273485 -0.13758983 0.084656976 0.1609695 -0.22077765 0.022967665 0.196645
-0.15354057 0.07468651 -0.082074106 -0.16287047 0.22022228 -0.01977016 -0.2742075 -0.05950473
-0.035532042 0.21397121 -0.045096315 -0.11319583 -0.011514196 0.08414166 -0.0886578 -0.057852603
-0.07368163 -0.01721592 -0.005624049 -0.020345526 0.08577263 0.24368665 -0.33634952 0.011876012
0.05448936 -0.03596789 -0.36402228 0.0049321214 -0.32964176 -0.14860412 -0.27327266 -0.037402175
0.20172726 0.013970874 -0.1697714 0.029048987 0.025264842 -0.3227226 -0.02052648 -0.294641
-0.16601247 -0.28168267 -0.03139604 0.12292265 0.0017320922 -0.13553315 0.01236426 0.0525814
-0.030313022 0.005012764 0.1884477 -0.017405855 0.15826412 -0.2491681 -0.16022481 -0.017294241
-0.18783328 -0.47259718 0.05709796 -0.1139954 -0.16440754 0.013262145 0.027277695 -0.14922707
0.24770215 0.018089078 0.1318285 0.15534997 -0.05164293 0.12561394 0.19576477 -0.1592805
-0.22538285 0.09037438 -0.11039368 -0.047992833 0.19790637 0.025283571 -0.18548134 0.057925098
-0.014713547 0.19348638 -0.09984989 0.089018025 0.2241767 -0.039228354 0.054291252 -0.050908905
0.037553754 -0.11990026 -0.25705805 0.03919979 0.047105517 -0.09427998 -0.011189718 0.050111298
0.13529289 -0.31536567 0.035108928 0.16657293 0.07695183 0.2761502 0.30851704 0.14834118
0.2653303 0.21661767 0.104386784 0.23834829 -0.0048485138 -0.099405095 -0.074842006 -0.2452991
-0.05863012 -0.16808929 0.12606727 -0.15234002 0.0031170207 0.09307899 -0.27720642 -0.0008609449
0.021210557 0.068975545 -0.08373714 -0.10611656 0.04328889 -0.19324085 0.1755157 -0.12636223
0.1435073 -0.5170907 -0.04037775 0.285742 0.17160507 0.11049056 -0.014641903 0.09670738
0.11721815 0.1433265 -0.016709667 0.10675004 -0.055167012 0.027825022 0.026785608 -0.09539557
-0.098332025 0.010198513 -0.18853147 0.34490842 0.067992136 0.17651157 0.0696971 0.21784122
0.012004716 0.16759995 -0.17003892 -0.1228239 0.024672356 -0.112300694 -0.10257721 0.21137863
0.15135808 0.034564406 -0.26861396 -0.14954078 -0.115494 -0.18091856 0.30400547 -0.09889879
-0.054430656 0.13486823 -0.039793197 -0.5388996 -0.25671065 -0.024107773 -0.026250683 -0.3629979
-0.3319579 -0.18221244 0.009526595 -0.29217836 -0.113650806 -0.056256294 0.41980523 0.02604385
0.115008675 -0.23291121 0.29328296 -0.2917386 0.20365985 0.24071917 -0.1250705 0.11183463
-0.037459534 0.114350975 -0.006870028 0.21460594 0.006707593 -0.00786253 -0.23770247 0.091065824
-0.11873646 0.2092286 -0.08098832 -0.42220643 0.08318812 0.03159856 -0.003332019 0.18335798
-0.051729385 -0.029625686 -0.4146376 -0.090781115 -0.033077497 -0.064903766 -0.35570896 -0.35346004
-0.022260481 -0.2813997 0.36932203 -0.12426561 0.1766239 0.11218897 0.116163164 -0.16596544
-0.08204517 -0.26828095 -0.25824904 0.11708823 0.23222883 -0.4706813 -0.25250545 -0.019233538
00000000: 7ed4 103e ba05 833e ff27 c6bd ee78 4e3d
00000010: 7103 7cbe 1f2c c63e 94db b33c 2d7f 433c
00000020: 0bb8 cfbd ccda d13d 7d99 47bd 7f30 86be
00000030: 5b6a b8bd e66c 6abe b5ee c9bd f346 a8bd
00000040: f405 70be f7a3 263e 59e4 0cbe a360 ad3d
00000050: 30d5 243e 8913 62be af26 bc3c 4f5d 493e
00000060: bd39 1dbe 3ef5 983d 7816 a8bd 84c7 26be
00000070: f381 613e 08f5 a1bc ed64 8cbe 3bbb 73bd
00000080: 0c8a 11bd 451b 5b3e eab6 38bd 37d3 e7bd
00000090: 0aa6 3cbc 7652 ac3d 3892 b5bd daf6 6cbd
000000a0: 65e6 96bd 6708 8dbc f149 b8bb a9ab a6bc
000000b0: 90a9 af3d fe88 793e 0136 acbe 9b93 423c
000000c0: 3c30 5f3d 1153 13bd 2161 babe a29d a13b
000000d0: cec6 a8be ae2b 18be 65ea 8bbe 0633 19bd
000000e0: 9791 4e3e 18e6 643c 8ed8 2dbe 24f8 ed3c
000000f0: 37f8 ce3c e63b a5be 2627 a8bc 2fdb 96be
00000100: 2cff 29be b638 90be 2299 00bd dfbe fb3d
00000110: 5f07 e33a 34c9 0abe 7793 4a3c 985f 573d
00000120: 0453 f8bc 1d42 a43b 6ff8 403e b996 8ebc
00000130: fd0f 223e ec25 7fbe f911 24be a7ac 8dbc
00000140: 5e57 40be 42f8 f1be 8ddf 693d 6c76 e9bd
00000150: 735a 28be 7849 593c 7975 df3c fbce 18be
00000160: a2a5 7d3e 8c2f 943c 0dfe 063e 1014 1f3e
00000170: 8987 53bd f1a0 003e 8f76 483e 6d1a 23be
00000180: c3ca 66be 3416 b93d 1516 e2bd 2294 44bd
00000190: f8a7 4a3e 7e1f cf3c d2ee 3dbe de42 6d3d
000001a0: 1711 71bc 4b21 463e 197e ccbd 154f b63d
000001b0: 948e 653e e9ad 20bd 8160 5e3d db85 50bd
000001c0: f7d1 193d 448e f5bd 1d9d 83be f68f 203d
000001d0: b7f1 403d dd15 c1bd 1455 37bc 8141 4d3d
000001e0: 388a 0a3e 9c77 a1be 61ce 0f3d 1892 2a3e
000001f0: ec98 9d3d 8f63 8d3e f2f5 9d3e c0e6 173e
00000200: 60d9 873e 06d1 5d3e bdc8 d53d 9311 743e
00000210: 48e0 9ebb e694 cbbd c446 99bd b02f 7bbe
00000220: 2326 70bd 991f 2cbe c717 013e 06ff 1bbe
00000230: ee46 4c3b 33a0 be3d 00ee 8dbe 09b1 61ba
00000240: c3c1 ad3c 0d43 8d3d 617e abbd a453 d9bd
00000250: b14f 313d eee0 45be 63ba 333e 1a65 01be
00000260: 94f3 123e 0e60 04bf 2463 25bd c74c 923e
00000270: 3db9 2f3e e048 e23d 98e4 6fbc 850e c63d
00000280: 1210 f03d 2fc4 123e b6e2 88bc c49f da3d
00000290: cef6 61bd 4df1 e33c 7e6d db3c c15e c3bd
000002a0: 4d62 c9bd aa17 273c 650e 41be d697 b03e
000002b0: 763f 8b3d 73bf 343e 5abd 8e3d c511 5f3e
000002c0: 6eaf 443c 529f 2b3e af1e 2ebe 198b fbbd
000002d0: ae1d ca3c e8fd e5bd 0014 d2bd a473 583e
000002e0: 9dfd 1a3e 6893 0d3d c587 89be 3821 19be
000002f0: 1e88 ecbd b742 39be 9ba6 9b3e 738b cabd
00000300: aef2 5ebd e61a 0a3e 31fe 22bd 53f5 09bf
00000310: 946f 83be aa7d c5bc ac0b d7bc dcda b9be
00000320: 63f6 a9be e695 3abe 6f15 1c3c 6798 95be
00000330: c1c1 e8bd 006d 66bd b6f0 d63e ea59 d53c
00000340: ab89 eb3d 4780 6ebe 2f29 963e c35e 95be
00000350: 358c 503e 167f 763e 7b12 00be 8e09 e53d
00000360: 2b6f 19bd d830 ea3d f91d e1bb a9c1 5b3e
00000370: 5ecb db3b d7d1 00bc 4768 73be b880 ba3d
00000380: 1a2c f3bd 0640 563e 34dd a5bd 712b d8be
00000390: 885e aa3d 7e6d 013d 015e 5abb 32c2 3b3e
000003a0: 31e2 53bd 91b1 f2bc 614b d4be 73eb b9bd
000003b0: 457c 07bd 44ec 84bd 7c1f b6be b7f8 b4be
000003c0: 9d5b b6bc 9f13 90be c717 bd3e f87e febd
000003d0: e5dc 343e 55c3 e53d f4e6 ed3d d8f2 29be
000003e0: 4c07 a8bd 1f5c 89be 3839 84be f4cb ef3d
000003f0: 65cd 6d3e 24fd f0be 6548 81be a78f 9dbc

bias f4 [64]
-0.19993243 -0.23863608 0.043192632 -0.1814332 -0.17617789 -0.12544324 -0.14830777 -0.020252282
-0.14675912 -0.14954326 -0.1600671 -0.05093729 -0.07435046 -0.11300479 -0.18462178 0.004271927
-0.18176407 -0.2034321 -0.18124813 -0.07008035 -0.089006476 -0.028151618 -0.13266698 -0.19064365
-0.14390208 -0.09737177 -0.17735194 -0.0718607 -0.07944625 0.037136886 -0.003297155 -0.042668276
-0.26600847 -0.2524504 -0.08208378 -0.043631747 -0.26191682 0.06819436 0.008112168 0.039435007
-0.2131825 -0.23518895 -0.090863 -0.16197641 -0.13029908 -0.31059992 -0.17431498 -0.31353247
0.03461954 -0.12401123 -0.03753739 -0.18135247 -0.29096615 -0.1650997 -0.10697705 -0.34829113
0.06894348 -0.23123094 -0.10657508 -0.0075227595 -0.15545516 -0.05315514 -0.028203873 -0.13704035
00000000: 16bb 4cbe 045d 74be c2ea 303d a0c9 39be
00000010: fa67 34be 3174 00be fedd 17be 1de8 a5bc
00000020: 0648 16be de21 19be a1e8 23be 9fa3 50bd
00000030: 0e45 98bd 0e6f e7bd 7e0d 3dbe 85fb 8b3b
00000040: 5c20 3abe 8150 50be 1c99 39be 4986 8fbd
00000050: 0749 b6bd 399e e6bc dad9 07be 1738 43be
00000060: 115b 13be da6a c7bd bf9b 35be b42b 93bd
00000070: b7b4 a2bd d91c 183d 1515 58bb eec4 2ebd
00000080: 4332 88be 2e41 81be 8a1b a8bd 34b7 32bd
00000090: f619 86be 7ca9 8b3d e6e8 043c 9a86 213d
000000a0: 834c 5abe 5fd5 70be 6116 babd 25dd 25be
000000b0: 1f6d 05be f406 9fbe a07f 32be 5487 a0be
000000c0: 38cd 0d3d 9af9 fdbd cec0 19bd 76b4 39be
000000d0: 84f9 94be e50f 29be c916 dbbd 3753 b2be
000000e0: 3d32 8d3d cec7 6cbe 0944 dabd 7b81 f6bb
000000f0: a32f 1fbe 34b9 59bd cf0b e7bc 4e54 0cbe

weight f4 [32, 64]
0.10856066 0.012580073 0.14513291 0.17547305 -0.10161897 0.039297115 -0.012713227 -0.15147471
0.031075282 -0.18667547 -0.18985157 0.023830378 -0.2157485 -0.19729836 -0.3065592 -0.25620914
0.16608053 0.058793806 0.093350105 0.25756833 -0.31485736 0.08883643 -0.0010369025 0.121173106
0.04587476 0.0319404 0.042138577 -0.025205383 0.07877802 -0.36346504 0.06870031 -0.03468134
0.11313327 -0.05787978 -0.14528963 -0.1845598 -0.009606465 -0.04479578 0.04940859 0.011434775
0.0025604977 -0.074488424 -0.14409131 -0.057768397 -0.034799773 0.2125 0.1984289 -0.027609004
0.11899456 -0.0017831703 0.073498696 0.010427098 0.11963104 -0.13651383 -0.30234277 0.40976796
0.1602907 0.11115212 0.124056585 -0.08108501 0.20972933 0.005396589 -0.24231052 -0.12492426
0.22280933 -0.0801017 -0.23123199 0.2773894 0.11954101 -0.1618492 0.046254035 -0.15525164
0.102911495 -0.054990213 0.039595727 -0.08129981 0.19794622 0.099423975 -0.079283476 -0.30762783
-0.14387354 -0.32360718 -0.19202882 0.25827327 0.28217798 -0.25659648 0.25085893 0.1708676
-0.07046759 0.048819356 -0.04444722 0.05928219 -0.40114608 -0.07608868 0.16573331 -0.053314295
-0.3205637 0.054297905 0.009973713 0.048919003 -0.31330198 -0.111025184 0.092095494 -0.12462974
0.003924898 -0.28242207 0.11961373 -0.09579826 -0.10821507 -0.15440007 -0.2371235 -0.048843265
-0.19788097 -0.10039492 -0.016188186 0.05773422 -0.23570368 0.20394142 -0.082849346 0.026920421
-0.0057613086 0.021218747 -0.09579618 0.045409843 -0.010319263 -0.21745226 -0.2500417 0.032796077
-0.101492785 0.16255689 -0.07866639 0.0076388596 -0.12583007 0.14405002 0.12016054 0.0699356
-0.07155904 0.040488955 -0.13061854 -0.27312475 0.02193808 0.23019388 -0.0018339509 -0.08029698
0.031954 -0.01196472 -0.26454967 0.119336106 -0.016310366 -0.1306696 -0.1443901 0.18933521
-0.013989798 -0.084573016 0.08249361 -0.21378702 0.18886515 0.02151496 0.07259191 0.21278845
0.33841774 0.16215244 0.060701407 -0.054789476 -0.1031166 -0.111057945 0.18376818 -0.24655145
-0.24309286 0.050650608 0.20412932 0.095595635 0.23452361 0.017432734 0.10037014 -0.10781164
0.07774448 -0.161146 -0.04589196 0.19286293 0.034306426 -0.1340846 0.011734726 -0.24034448
-0.12883033 0.16660407 -0.048287053 -0.035021845 0.12700647 0.04274022 -0.13542189 -0.07166496
0.030828215 0.11308552 -0.10689194 -0.10230739 -0.15769693 -0.23412743 0.1501043 -0.006847059
-0.025126971 0.03330024 -0.11354954 -0.06282108 0.06458415 -0.14952394 -0.19060972 0.11731053
-0.040421303 -0.12839174 -0.09990237 0.1017693 -0.061386727 -0.28113395 0.1060084 -0.20313574
-0.059576992 0.28073132 -0.2656609 -0.16371132 -0.1352463 0.06938641 -0.02996254 -0.05530744
0.09025698 -0.09785879 0.097862415 -0.07077172 -0.08422646 0.040212624 -0.16295134 0.15644203
-0.05843462 -0.20905444 -0.25837776 -0.23119155 0.12570399 -0.23782885 0.03754199 0.14363465
-0.14967756 -0.20209582 -0.053756654 0.24448256 0.14331137 0.14885397 0.0604191 0.012173643
-0.10133524 0.04391859 0.03776176 -0.123056225 -0.23152673 0.037834313 -0.022420079 -0.21443956
00000000: 0d55 de3d a71c 4e3c b99d 143e 35af 333e
00000010: 9b1d d0bd 03f6 203d 244b 50bc 301c 1bbe
00000020: 9791 fe3c db27 3fbe 7368 42be ed37 c33c
00000030: 2ded 5cbe 9508 4abe 54f5 9cbe d82d 83be
00000040: 0411 2a3e c6d1 703d 572e bf3d ffdf 833e
00000050: fc34 a1be e0ef b53d ade8 87ba 9b29 f83d
00000060: 2ce7 3b3d f0d3 023d 8099 2c3d 857b cebc
00000070: 5f56 a13d 1718 babe c0b2 8c3d 050e 0ebd
00000080: 6ab2 e73d 5913 6dbd cec6 14be 3ffd 3cbe
00000090: 6f64 1dbc c87b 37bd a960 4a3d ec58 3b3c
000000a0: 06ce 273b 638d 98bd ac8c 13be 8e9e 6cbd
000000b0: 358a 0ebd 9a99 593e f230 4b3e 472c e2bc
000000c0: 6bb3 f33d 44b9 e9ba 7c86 963d 6bd6 2a3c
000000d0: 1e01 f53d 48ca 0bbe accc 9abe 1bcd d13e
000000e0: 3f23 243e b9a3 e33d 6111 fe3d e60f a6bd
000000f0: 49c3 563e dfd5 b03b 4020 78be 4ad8 ffbd
00000100: 2128 643e 5c0c a4bd 14c8 6cbe fc05 8e3e
00000110: ebd1 f43d ccbb 25be df74 3d3d 49fa 1ebe
00000120: 43c3 d23d 6b3d 61bd 212f 223d 8480 a6bd
00000130: 6ab2 4a3e cc9e cb3d 605f a2bd 6581 9dbe
00000140: 9653 13be d7af a5be 34a3 44be 653c 843e
00000150: a279 903e 9d60 83be 9570 803e ebf7 2e3e
00000160: 5051 90bd cef6 473d 4a0e 36bd e2d1 723d
00000170: 0563 cdbe 62d4 9bbd feb5 293e 1760 5abd
00000180: ed20 a4be 7b67 5e3d c968 233c 4b5f 483d
00000190: 1e69 a0be 2c61 e3bd 909c bc3d e13d ffbd
000001a0: 6e9c 803b a099 90be 0bf8 f43d e131 c4bd
000001b0: dd9f ddbd 0d1b 1ebe 81d0 72be e00f 48bd
000001c0: 4fa1 4abe da9b cdbd 169d 84bc b87a 6c3d
000001d0: 4e5c 71be 05d6 503e ebac a9bd 3788 dc3c
000001e0: 5cc9 bcbb f0d2 ad3c ca30 c4bd acff 393d
000001f0: 2012 29bc ceab 5ebe 7705 80be 2e55 063d
00000200: 73db cfbd 5075 263e d81b a1bd 664f fa3b
00000210: 99d9 00be d981 133e bb16 f63d 653a 8f3d
00000220: 8c8d 92bd bfd7 253d dec0 05be 02d7 8bbe
00000230: 7db7 b33c f2b7 6b3e 2e61 f0ba be72 a4bd
00000240: 33e2 023d ac07 44bc 0e73 87be 7d66 f43d
00000250: 519d 85bc 40ce 05be 00db 13be 17e1 413e
00000260: 7735 65bc 9e34 adbd 69f2 a83d fcea 5abe
00000270: de65 413e 2440 b03c 11ab 943d 37e5 593e
00000280: 1745 ad3e 4a0b 263e 0aa2 783d ee6a 60bd
00000290: cc2e d3bd 5972 e3bd ba2d 3c3e fc77 7cbe
000002a0: 56ed 78be 0377 4f3d 4707 513e a5c7 c33d
000002b0: f526 703e 18cf 8e3c dc8e cd3d 59cc dcbd
000002c0: 7f38 9f3d 7503 25be 35f9 3bbd dc7d 453e
000002d0: e584 0c3d 794d 09be 0243 403c dd1c 76be
000002e0: 19ec 03be 429a 2a3e a5c8 45bd 1173 0fbd
000002f0: fc0d 023e 5e10 2f3d 09ac 0abe 14c5 92bd
00000300: 748b fc3c 6299 e73d 29ea dabd 8986 d1bd
00000310: 4e7b 21be 1abf 6fbe f1b4 193e 4b5d e0bb
00000320: 14d7 cdbc d565 083d a98c e8bd 57a8 80bd
00000330: b244 843d ce1c 19be 322f 43be 8140 f03d
00000340: cf90 25bd 2079 03be 9d99 ccbd 6c6c d03d
00000350: a670 7bbd caf0 8fbe ef1a d93d d102 50be
00000360: 0107 74bd 04bc 8f3e b504 88be f1a3 27be
00000370: 027e 0abe 761a 8e3d 0074 f5bc 0e8a 62bd
00000380: a7d8 b83d 306a c8bd 176c c83d c3f0 90bd
00000390: ec7e acbd feb5 243d b7dc 26be 5732 203e
000003a0: 2459 6fbd 5e12 56be 174a 84be 7abd 6cbe
000003b0: 8cb8 003e 6889 73be a1c5 193d f614 133e
000003c0: 1345 19be 35f2 4ebe f02f 5cbd a359 7a3e
000003d0: 37c0 123e 2d6d 183e 057a 773d f673 473c
000003e0: da88 cfbd fbe3 333d 13ac 1a3d e704 fcbd
000003f0: 5815 6dbe 27f8 1a3d 50aa b7bc 0b96 5bbe

bias f4 [32]
-0.047713105 -0.058654863 -0.056981266 -0.1609057 -0.19455923 -0.13619018 -0.19161284 -0.053792305
-0.46030304 0.069115415 -0.18147865 -0.13211364 0.023081373 -0.09617545 -0.17544477 0.04238086
-0.09032043 -0.14133632 -0.3713525 -0.0028275289 -0.04786016 0.012491061 -0.20810758 -0.043794543
0.04446713 -0.06632001 -0.13828506 -0.05746409 -0.1291016 0.08405896 -0.16925406 -0.21416225
00000000: d16e 43bd 1540 70bd 3065 69bd 77c4 24be
00000010: 893a 47be 7075 0bbe 2836 44be 5255 5cbd
00000020: d7ac ebbe 628c 8d3d 8ad5 39be cc48 07be
00000030: 2615 bd3c a2f7 c4bd cba7 33be 8d97 2d3d
00000040: ebf9 b8bd 78ba 10be ea21 bebe 104e 39bb
00000050: 0409 44bd 4fa7 4c3c 271a 55be e861 33bd
00000060: 2a23 363d c9d2 87bd 999a 0dbe 775f 6bbd
00000070: 3633 04be 1b27 ac3d f050 2dbe 594d 5bbe

weight f4 [12, 32]
-0.13007455 -0.15801716 -0.07995595 0.080096744 0.08486695 -0.040621765 -0.231161 -0.10578526
0.035425875 0.093621925 0.0058145192 0.10235636 -0.13515607 0.024118457 -0.050064612 0.17634298
0.02081162 -0.021265881 0.121780545 -0.008912214 0.08618637 -0.16341026 -0.16367412 0.062090166
-0.0017727944 0.029916786 0.13602388 0.10442478 0.041687902 -0.043004572 -0.021141158 -0.091483004
-0.0044023744 -0.0011369301 0.08449059 0.18042046 0.019119365 -0.21720575 0.20125803 -0.0016534405
0.0059382953 0.13844714 -0.11353799 0.032327503 -0.009129493 0.09533819 -0.32935473 0.12709746
0.05884519 -0.14510822 0.030159777 -0.0061370945 -0.2518601 0.16172189 -0.28395346 -0.19668543
0.060028184 0.25514585 -0.17221369 -0.04803947 -0.10817311 0.035026975 0.07842101 -0.030917136
0.19956966 -0.06930213 -0.09367549 0.04555648 -0.027895166 0.036494516 0.24580197 0.2518565
-0.041970324 0.1991007 -0.073746786 -0.016840618 -0.17639966 -0.048704375 0.061812777 -0.1347212
-0.0008743342 -0.051121157 0.005408915 -0.0070177726 0.15417041 -0.14307445 0.02312748 0.27910754
-0.007189449 0.032701813 -0.115469106 -0.016559236 0.0984385 -0.18430461 -0.17821576 0.073952824
0.15016533 0.0262648 0.046068393 -0.08795576 -0.062330227 0.1284856 0.00782376 -0.029550435
0.09567182 0.17261328 0.020789882 -0.06888995 -0.06546138 -0.083659664 0.048350725 0.044489846
0.0654997 0.22442965 0.03800637 -0.047750976 0.043585256 -0.02210996 0.03627542 0.12156327
-0.11592285 0.09705552 -0.034346186 -0.21749684 0.09646944 0.013399726 0.121108234 -0.22583091
0.13626032 0.024267122 -0.009531862 -0.15310708 -0.066329226 -0.10589685 -0.028098302 0.042679686
-0.084475 -0.12012989 0.11331725 0.13585132 -0.20057096 0.055164985 0.2288932 0.1336028
-0.30433846 0.121600285 -0.051180504 0.0707769 0.10812219 0.088314 -0.006810957 0.013478737
-0.033382054 0.23189914 0.08101205 0.19959392 -0.10659621 0.16673183 0.040032446 0.07256796
0.011498276 -0.07905852 -0.08549141 0.13313237 0.05375164 0.26804605 0.007513529 0.038619336
-0.06537228 -0.075373925 0.0036755998 0.10408234 0.08755639 -0.089368954 -0.09920374 -0.15825385
0.09771418 0.22182798 0.034149077 -0.19262868 -0.014908926 0.079524904 -0.065508805 0.21204498
0.055254072 -0.038731996 -0.20049945 0.34703285 -0.16868186 0.03998754 -0.036005292 -0.13940825
0.12851684 0.09971217 0.083017915 -0.06883485 0.10259081 -0.052668173 0.09898845 -0.1066876
-0.0057122493 -0.1680823 -0.19221026 -0.18485184 -0.005548844 0.023067115 -0.041430205 -0.054347806
-0.037043147 0.04824111 -0.28803113 0.05357998 -0.004099564 -0.118852384 0.14902818 0.09807069
0.1432846 0.11496058 0.032955654 -0.012904076 -0.0069325836 -0.07517055 0.11549394 0.09200724
-0.07023005 -0.06861218 -0.08157133 -0.14163473 -0.10208628 -0.02279712 -0.07121404 -0.0016695719
0.14680296 0.08540785 0.041018106 0.05625607 0.19268794 0.22978044 0.030668702 -0.03267571
-0.19287261 0.082824215 0.06552411 0.051638734 -0.1763521 -0.10579218 -0.059168003 0.09375756
0.00058516726 -0.13718976 0.0029304533 -0.110327944 0.05427041 0.09732837 -0.18991765 0.09295003
00000000: 4332 05be 40cf 21be f2bf a3bd c309 a43d
00000010: b9ce ad3d 0263 26bd 78b5 6cbe f1a5 d8bd
00000020: b91a 113d dabc bf3d b987 be3b 36a0 d13d
00000030: 5a66 0abe 1294 c53c 8d10 4dbd 4193 343e
00000040: 217d aa3c c935 aebc 1468 f93d 8904 12bc
00000050: 7b82 b03d 0555 27be 309a 27be 4252 7e3d
00000060: 1c5d e8ba 0c14 f53c d849 0b3e a9dc d53d
00000070: efc0 2a3d 9025 30bd 3930 adbc 715b bbbd
00000080: cb41 90bb 0b05 95ba 6709 ad3d 24c0 383e
00000090: 37a0 9c3c 2f6b 5ebe 9616 4e3e 42b8 d8ba
000000a0: 0896 c23b 16c5 0d3e 9b86 e8bd d869 043d
000000b0: de93 15bc ab40 c33d 2fa1 a8be d625 023e
000000c0: a707 713d 4097 14be a311 f73c ae19 c9bb
000000d0: cff3 80be 6c9a 253e 5962 91be e867 49be
000000e0: 1de0 753d 7aa2 823e c958 30be 09c5 44bd
000000f0: dd89 ddbd 7278 0f3d 329b a03d ef45 fdbc
00000100: fd5b 4c3e 46ee 8dbd efd8 bfbd 6e99 3a3d
00000110: 6784 e4bc 467b 153d 83b3 7b3e 56f3 803e
00000120: 13e9 2bbd 0ee1 4b3e 8e08 97bd 56f5 89bc
00000130: 1da2 34be 3d7e 47bd 652f 7d3d 5bf4 09be
00000140: 9333 65ba 6b64 51bd 453d b13b 58f5 e5bb
00000150: d9de 1d3e 1c82 12be d775 bd3c 2fe7 8e3e
00000160: 7895 ebbb 56f2 053d 117b ecbd 3ca7 87bc
00000170: 209a c93d 59ba 3cbe 317e 36be 9474 973d
00000180: f1c4 193e 4729 d73c 36b2 3c3d 2622 b4bd
00000190: fb4d 7fbd bb91 033e 3a2f 003c c113 f2bc
000001a0: 96ef c33d 89c1 303e 8b4f aa3c 2d16 8dbd
000001b0: 9e10 86bd c255 abbd 690b 463d fc3a 363d
000001c0: b524 863d e3d0 653e 91ac 1b3d 8796 43bd
000001d0: 7486 323d f21f b5bc 8995 143d 2af6 f83d
000001e0: f668 edbd 0bc5 c63d 96ae 0cbd 7eb7 5ebe
000001f0: c591 c53d 868a 5b3c 9807 f83d 3840 67be
00000200: d387 0b3e d8cb c63c 872b 1cbc 1ac8 1cbe
00000210: 9ed7 87bd 73e0 d8bd 692e e6bc e5d0 2e3d
00000220: 3b01 adbd a906 f6bd e012 e83d 9c1c 0b3e
00000230: 7962 4dbe aef4 613d fb62 6a3e 2ccf 083e
00000240: 40d2 9bbe 9209 f93d a6a2 51bd 7bf3 903d
00000250: 2b6f dd3d f8dd b43d 732e dfbb ecd5 5c3c
00000260: 9fbb 08bd f876 6d3e a5e9 a53d 5962 4c3e
00000270: 1d4f dabd c0bb 2a3e 10f9 233d 839e 943d
00000280: 4463 3c3c 6fe9 a1bd 1f16 afbd da53 083e
00000290: ae2a 5c3d 553d 893e 0d34 f63b 4f2f 1e3d
000002a0: e7e1 85bd a55d 9abd 55e2 703b 1f29 d53d
000002b0: c450 b33d 1207 b7bd 552b cbbd 4c0d 22be
000002c0: 5f1e c83d e026 633e e7df 0b3d 7440 45be
000002d0: 9144 74bc f4dd a23d 7b29 86bd 5222 593e
000002e0: 1852 623d 71a5 1ebd ba4f 4dbe 4aae b13e
000002f0: f0ba 2cbe fac9 233d 497a 13bd 09c1 0ebe
00000300: eb99 033e e535 cc3d 4c05 aa3d 49f9 8cbd
00000310: 211b d23d 95ba 57bd 75ba ca3d 077f dabd
00000320: d22d bbbb c41d 2cbe c4d2 44be cd49 3dbe
00000330: 14d3 b5bb 3ff7 bc3c b8b2 29bd ce9b 5ebd
00000340: 8eba 17bd 7898 453d d178 93be ae76 5b3d
00000350: a355 86bb e168 f3bd d89a 183e 49d9 c83d
00000360: 33b9 123e 7470 eb3d 82fc 063d 9e6b 53bc
00000370: ba2a e3bb 04f3 99bd 1688 ec3d 4b6e bc3d
00000380: c6d4 8fbd 8b84 8cbd df0e a7bd b208 11be
00000390: 9d12 d1bd 07c1 babc abd8 91bd 89d5 daba
000003a0: 8453 163e 50ea ae3d 9a02 283d c46c 663d
000003b0: fd4f 453e 904b 6b3e ee3c fb3c f7d6 05bd
000003c0: 6680 45be be9f a93d 8131 863d 2383 533d
000003d0: a595 34be 92a9 d8bd 265a 72bd f703 c03d
000003e0: e965 193a 797b 0cbe d90c 403b 9ef3 e1bd
000003f0: a64a 5e3d 1954 c73d c679 42be 965c be3d

bias f4 [12]
0.20105132 0.098634854 -0.14412269 0.109000705 -0.12455964 -0.341034 -0.031708356 0.06928779
-0.2968339 0.08209783 0.13034981 -0.17083068
00000000: 66e0 4d3e 1201 ca3d e694 13be c33b df3d
00000010: 2019 ffbd 029c aebe 9fe0 01bd c2e6 8d3d
00000020: 9dfa 97be e822 a83d 6c7a 053e 3dee 2ebe
