deploy/networks/go2/bambi13_shove.pt (torch, 79240 bytes, 8 tensors)

weight f4 [128, 48]
00000000: 17e5 393e 2897 0cbe 02b5 ccbe 476d bb3c
00000010: 066e 643f 3ef5 41bc 0395 ab3e 9ef1 24bf
00000020: a848 463e 2c91 1cbf a02c b63d 95ce b7be
00000030: 6d07 16bc 7ddc 05bf 3c92 dd3d 0aa8 97be
00000040: 8299 f6bd 76f0 c7be 46ce 15bf e506 9f3e
00000050: 988e 153f a36b 383f 5e9f 2d3d 6d51 ac3e
00000060: c0f2 1b3e f12e 083f 44b9 5bbe ff49 a73e
00000070: 614e b6bb c5ed 843e 665c 3cbd f3a2 3a3f
00000080: 0925 58be 5009 c4bc cc3d f03e 29c5 82be
00000090: c00b 0e3c 2121 333d f06e 693d 2279 413e
000000a0: 4314 7e3d 2fbd 77bd 616e 09be 43cc 853c
000000b0: b295 ac3b e46f f1bd 59a1 6cbd a7d9 04be
000000c0: dda7 b4bd 71ba ee3d c3d5 8d3d f85f 9bbe
000000d0: 0537 8d3e 151a 64bd 7b72 5c3f ce00 523e
000000e0: f120 c33d 38d7 18bd f5f3 99be 4a33 9d3e
000000f0: 8609 c3be ae13 923d ab09 a9be 41eb d1be
00000100: 3ed2 01be a423 adbe 4de7 45bf b14e ce3d
00000110: 4534 233e 429b c73e feeb dcbe 1343 543e
00000120: c8cd 81be 3a6d 043f 4bc7 40be 1b59 153e
00000130: 130a 8bbd 679e f93e 37a4 59bd 365c 463e
00000140: f417 79be 2337 4fbf f064 8a3e 075f d1bc
00000150: 8e37 6fbd d5ae f83d da8a 04bd a445 903d
00000160: 80ae 013d aa36 343e d1d0 f7bd 15e1 2c3d
00000170: 07ca 77be b000 27be e27e a0bc ac1c 97be
00000180: 5dd1 9a3e 04b6 63be daba 61ba 7c8b 763e
00000190: f873 96be bdbc af3e e459 593e 7038 f4be
000001a0: 24a8 1f3d b78b e2be b006 da3d 086a abbf
000001b0: 45fc f33e 55cc 0d3f bd88 0d3e 94f0 0c3f
000001c0: 5aad 07bf a40d 03bf 9ab0 9f3d 795b 153e
000001d0: 6354 973c 60df 593e 2437 e6be 127b e53d
000001e0: 613f e33e 9d03 f4bd cb8b 1b3e cab5 963e
000001f0: d2b5 0bbd 2a6c b1bd 4a2f 9e3e 7c36 e33d
00000200: 6002 1f3e bd4f c23d bce0 b9bc c428 cdbd
00000210: 103a adbb 8b04 4bbd 3759 a0bd 6ce2 943d
00000220: 9489 6dbc 1f4d f03c e2cf 40bd 7684 92bc
00000230: 4681 903d 6e1e 8ebd c1f1 e4bc c1d3 86bd
00000240: 585f ccbe a5fb 153e 18be e93c 9d52 88be
00000250: fbd2 213f 5a3a 19bd bda3 143f 9d22 243f
00000260: 3586 4e3c a34f c23e 645b 8dbe 474c 6d3d
00000270: a735 62be e8fa 9bbe 00f8 053e fe3f 05bf
00000280: 3430 1abf 9137 883d a786 a8bd 9514 9ebd
00000290: f18e d73e ce5a 463e 714b aabe 330f c83e
000002a0: a59d b53d 79a1 903d 0d8c e43c d210 04bf
000002b0: 658a de3e ebd9 e43e 294a 3ebd 51ef ff3d
000002c0: e508 6a3e 5fd5 7dbe d25e d7be 45ce b7be
000002d0: 51d9 e43d dc98 45bd e3b2 babd 8cbb 023e
000002e0: f4fa 223e 7410 2bbc 6171 20be a64c 4b3e
000002f0: ec5f 30be d281 823e 48ec 46be 804f 46be
00000300: e996 10bc 577e 9b3c b749 e4bd ff68 34be
00000310: 7751 1bbf e105 4fbf 7512 8f3e 0ffd e5be
00000320: 72d5 ee3a 2a3e 1fbe c863 71bd 1bce 9f3e
00000330: 1747 8d3e 51c6 c8be c911 40be 3683 c0be
00000340: a3b4 093f d655 7d3e 81a9 d6be 8df4 13bf
00000350: 89a3 ef3d 7483 083e 9990 e6bd d279 41be
00000360: f757 9a3e 3f46 a5bd 56ed b83d 9a65 353d
00000370: c0fd 32be 8a33 11bc 94ef a5bc ca7c 61bf
00000380: c0ee 1a3d 7aad e3bc 3d99 6c3e 41b1 313f
00000390: 30d0 64be 1626 06bd a0b6 babb c0d4 7a3d
000003a0: 2b8a 183e 8fee 81bd d41c b0bc 8a56 ff3d
000003b0: 504c 09be a6f9 38bd f304 683d 8816 b03d
000003c0: aade a43e 17f6 0bbe 0371 7f3e a9ae 373d
000003d0: 90bc ea3e c83c cfbe 3360 ae3e dd39 a53e
000003e0: 2e8c 0e3e 377d 53be f654 803d deae aebe
000003f0: a34b 8f3e af10 d93d 9382 05be 09dc 6c3f
0.18153797 -0.13729537 -0.39981848 0.022879256 0.8923038 -0.011838255 0.33512124 -0.6443118
0.19363654 -0.61159015 0.0889523 -0.35899797 -0.009157044 -0.52289563 0.108189076 -0.2962039
-0.12040998 -0.39050645 -0.58517873 0.31059948 0.58420706 0.7203924 0.042388313 0.33655873
0.1522932 0.53196627 -0.21457392 0.32673642 -0.0055635427 0.25962654 -0.045986556 0.7290489
-0.21107878 -0.023930222 0.46922147 -0.25541046 0.008669794 0.043732766 0.056990564 0.18893865
0.06203104 -0.060483154 -0.13421012 0.016332751 0.0052668685 -0.117889196 -0.05777106 -0.12973653
-0.0882108 0.116566546 0.069255374 -0.30346656 0.2758104 -0.055688936 0.86112183 0.2050812
0.095277674 -0.037314624 -0.30068937 0.30703193 -0.38093203 0.0713266 -0.3301519 -0.40999797
-0.12677857 -0.33816254 -0.7730606 0.10073603 0.15937908 0.3898564 -0.43148798 0.20728712
-0.2535231 0.51729167 -0.18826024 0.14584772 -0.06789031 0.48753664 -0.053135123 0.19371113
-0.24325544 -0.80943507 0.27030134 -0.025558008 -0.05840259 0.121427216 -0.03235898 0.07044533
0.031660557 0.17598978 -0.121003754 0.042206842 -0.24198161 -0.16308856 -0.019591752 -0.29514062
0.30237857 -0.22237402 -0.0008610912 0.24076647 -0.29385352 0.34323683 0.21225697 -0.47699308
0.03897871 -0.4424722 0.10645807 -1.3391733 0.47653404 0.5538991 0.13821693 0.55054593
-0.5299889 -0.5119269 0.07797356 0.14585675 0.018472856 0.21276617 -0.44963944 0.112051144
0.44384292 -0.11914752 0.15190046 0.2943557 -0.034108944 -0.08663209 0.30895454 0.110943764
0.1552825 0.09487865 -0.02269017 -0.10017541 -0.0052864626 -0.04956488 -0.078295164 0.07269749
-0.014498133 0.02933365 -0.047073252 -0.017885428 0.07055907 -0.06939398 -0.027947308 -0.065833576
-0.39916492 0.14646776 0.028533027 -0.2662553 0.63212556 -0.037409164 0.58062345 0.64115316
0.01260524 0.37951383 -0.27608788 0.057934072 -0.22090779 -0.30464864 0.13082886 -0.5205077
-0.602298 0.066512235 -0.08228808 -0.077187695 0.42101243 0.19370577 -0.33260682 0.39074096
0.08867959 0.070620485 0.027898813 -0.51588166 0.43464962 0.44697508 -0.046457443 0.12496818
0.22854955 -0.24788426 -0.4206453 -0.3589956 0.11174262 -0.04824148 -0.09116151 0.12766856
0.15916044 -0.010440934 -0.1566825 0.19853458 -0.17224091 0.2548967 -0.19426072 -0.19366264
-0.008825042 0.018981142 -0.111468725 -0.17618178 -0.6067118 -0.80868345 0.2794377 -0.4491963
0.0018221571 -0.15551057 -0.05893305 0.31211933 0.275933 -0.39213803 -0.18756784 -0.37600106
0.53791255 0.24739775 -0.41926196 -0.5779503 0.11701114 0.13331395 -0.112580486 -0.18894127
0.30145237 -0.08070039 0.09029643 0.044286348 -0.1747961 -0.0088623855 -0.020255841 -0.8808104
0.037825346 -0.027792681 0.23105331 0.69411093 -0.22345042 -0.032751165 -0.00569804 0.06123805
0.14896457 -0.063443296 -0.021498121 0.12467678 -0.13408017 -0.04515996 0.056645345 0.085980475
0.3220113 -0.13668095 0.24945454 0.044844303 0.45846987 -0.4047606 0.3405777 0.3227071
0.13920662 -0.20653234 0.06266205 -0.34117788 0.27987394 0.10598885 -0.13038091 0.92523247

bias f4 [128]
00000000: 7d1e 8dbc 026a ccbd 63f0 10be acc7 87bd
00000010: 4b56 023c a727 83be 5ac8 6dbe d6bf 8dbe
00000020: 6967 75be 193f babe b6ad 8fbe ef19 523e
00000030: 28eb 5e3c a14d d4bd e573 79bd 0b93 f9b9
00000040: 0264 3f3e 9968 11be 892f 6cbd 0601 d93d
00000050: 3905 433d 00cf f2bd d7bf 4ebe 1a11 7c3e
00000060: 9cd5 613e 550f 583e 09e3 05be ab5c 31be
00000070: 4c0b 1cbe d62c 833d 234d c0bb d19d 4dbe
00000080: 73fd 6e3d cb89 063e 2f3a bfbd 8e4e 2bbc
00000090: ef21 29bd 0521 703d fd37 2a3e e6cd 49be
000000a0: 5ffe 3eba 35ff b43d c3ac af3b b6c1 1dbe
000000b0: 62c4 8fbd f4a6 92be be3a b63c 43d5 6dbe
000000c0: 3fc0 0bbd 45bf 1f3b 9d2e f83d 0221 7b3d
000000d0: 3f1e 05be af89 f73d f1ac c138 5f14 1cbe
000000e0: 2784 e5bd 18a5 80be 3724 57bd 6731 bbbc
000000f0: 3560 90be d9fc 743d 057a 3cbe ad58 533d
00000100: dc95 f5bb d4fa 00be 2b7a 39be b74b 4ebe
00000110: 9e12 85be 7474 1f3c c5dd ca3d 70fc c4bd
00000120: 58ff 1abe 486f 273c 3e8f 1fbe 487f 453d
00000130: 37bb 233d f83a d03c 5d91 1dbe 89a1 b3bd
00000140: ef53 253d aba2 cdbe bb9d d5bd 637e 3cbe
00000150: 0d8d a0be 321c 18be 2e59 2ebc 65cf 9dbe
00000160: 9833 44be 6098 2bbe b4e6 1f3d 64e3 6abe
00000170: 9e1d 0dbe 3dfb 8dbe 9fbb d93c b3e3 b63d
00000180: 0b32 25be 3863 27be a77f 893d 3122 65be
00000190: 1092 963d 6f54 91bd 3459 ac3d 11fc 2cbe
000001a0: 9470 87be 3852 52bc 70db d63d 1c32 a7be
000001b0: 873c b6be abee c5bc b42a 6fbd cf5f 253e
000001c0: 85b2 bcbd 0b4a 543c 7a35 35be 3f61 9abe
000001d0: e2a9 09be b7ea 08be 9f1a 31bc c67e f23d
000001e0: f9d6 723d f129 353e 911d fd3d fece 86be
000001f0: e0a5 d5be 4885 02be 78e8 cdbd b46b e4bd
-0.017226452 -0.09981157 -0.141542 -0.06629881 0.007955144 -0.2561619 -0.2322096 -0.27685422
-0.23965229 -0.36376265 -0.28062218 0.20517705 0.01360587 -0.10366369 -0.06090154 -0.00047602537
0.18690494 -0.14200057 -0.05766252 0.10595898 0.047612403 -0.11855888 -0.20190369 0.24615899
0.22054142 0.21099599 -0.13074888 -0.17320506 -0.15238684 0.06405036 -0.0058685704 -0.20079733
0.058347177 0.13138501 -0.093372695 -0.010455741 -0.041292127 0.05862524 0.1662292 -0.1970745
-0.0007285829 0.088377394 0.005361171 -0.15405926 -0.07019879 -0.28643 0.022244807 -0.23225884
-0.034118887 0.002437548 0.12118266 0.061310776 -0.12999819 0.12086808 9.23517e-05 -0.15242146
-0.11206847 -0.25125957 -0.05252477 -0.022850705 -0.281984 0.059811447 -0.18405922 0.05159824
-0.0074946713 -0.12595683 -0.1811301 -0.2014607 -0.25990766 0.009732354 0.099055804 -0.09618461
-0.15136468 0.010219403 -0.15581986 0.048217088 0.039973464 0.025418743 -0.15387483 -0.08771045
0.04036325 -0.40163168 -0.10430475 -0.18407588 -0.31357613 -0.14854506 -0.010641379 -0.30822292
-0.19160306 -0.16757345 0.039038375 -0.22938305 -0.1378083 -0.27730742 0.026578723 0.08930149
-0.16132371 -0.16346443 0.06713801 -0.22376324 0.07352078 -0.070961826 0.08415452 -0.1689303
-0.26453078 -0.012836985 0.10491073 -0.32655418 -0.35593054 -0.024161657 -0.058390334 0.1614983
-0.092137374 0.012957106 -0.17696181 -0.30152318 -0.13443711 -0.13370787 -0.01080957 0.11840586
0.059287045 0.1769178 0.12359155 -0.26329798 -0.41728115 -0.12746155 -0.100541055 -0.11153355

weight f4 [64, 128]
00000000: c8aa aabd 0cf4 af3d 5334 c8bc 566d 2f3d
00000010: 9b87 ea3d 6be1 673e d56f cd3e cf14 0cbe
00000020: a864 b33e b521 de3d 4f97 403e b5ab c1bd
00000030: 890f 94bd 7ea1 a23c 5856 3cbd a797 a2be
00000040: b0a2 3bbe 9202 ac3c e420 9d3d 8213 3fbe
00000050: be83 c1bd 7b7d 0b3d 62cf 093e 1478 cbbd
00000060: 075d abbe e245 c3bc 0d9c 833e 31fa acbb
00000070: fcae 8b3e 2620 e43d e98f edbd 3f1d 9c3d
00000080: b021 97bd 16ae a1bb 64bb 8bbe ba55 fbbc
00000090: a130 253e 6e9c 55be 8f37 e7bd 2513 23be
000000a0: dbcf 133d 8565 803d c669 333e 6ced 0239
000000b0: 8582 a23d 5266 9fbd 2d61 0abe 54b0 95bd
000000c0: df71 7b3e 4862 46bd c716 8ebd cbf1 4e3d
000000d0: 6957 96bc 4c91 abbd d35b 4e3c 93e7 e63e
000000e0: 30bb 58bc 0da6 9cbd a65c 2cbe 5399 3e3e
000000f0: 87ef 243c 7ead 543d 2a3d d6be 8f57 83be
00000100: ef96 d3be 6f25 a23b 98d1 aebe 1f93 ac3d
00000110: 77a5 1e3e 2984 ca3e 8d44 61be 9aad f6bc
00000120: 1426 3b3e ff37 a13e 3b6a a43e 7939 9c3e
00000130: 2933 f4bc ea3f 54bd 67e0 27be f5a2 23be
00000140: f47d a8bd 5f0a e7bd 4cf2 593e b3f5 4dba
00000150: 0d8e d0bc 2e9f 83bd 0dd3 0ebe ada4 74bd
00000160: d054 09bd 0e7a a93d b422 543e 59a0 51bd
00000170: 081b 50bd 9c0c 2c3d 7a8c 9e3c a63c 11be
00000180: 0e06 263e 506d b43d d83e cebd 2b84 3c3e
00000190: 0037 163e 87ab 163e a0ae d1bd 4cdb ba3a
000001a0: 5fa4 e7bb 73c9 613e a1d3 7fbd d146 a2bd
000001b0: 0b42 94bd 17ab 313d fa41 04be b9ba 8e3c
000001c0: 8e92 8fbd 1d7e 2bbe 2d30 283e 4bee 373e
000001d0: ad38 3e3e 003f 8b3d 59c3 06bd ded4 143e
000001e0: 73df 503e 0f58 cabd 33f2 45be 2f69 613e
000001f0: 9547 19be ec8d 2d3e 600e 06be c228 933e
00000200: 1b0b 95be 73ce 85be 6c06 e43d 2764 7b3e
00000210: dfd3 40bd 6060 253d 7865 19be fcab 57be
00000220: 6efc 3ebe 2d4a 8a3e e3f4 b9be cfa3 78bd
00000230: 77e3 353e d4a3 80bd 834a 443e 1c3e 8a3e
00000240: 6ad5 9c3d ccbc 8f3e da33 753e 870c f33d
00000250: 3e26 a9bd 6c75 023c 537b 753e 741d 193e
00000260: e814 2abe e5e6 1b3e fb3e 2c3e 7133 6a3e
00000270: f5aa 25be ede4 a73e d32e cabd 287f 8c3e
00000280: 3825 463e 67eb 1abd 7018 37be 5cb4 863e
00000290: d7dc 99be 083b 0f3d e8aa d03e 5005 b03d
000002a0: f7ca 5abe c83a 22be d085 a7bc ea72 5bbd
000002b0: 7546 7bbd adc1 383e b406 83bd 9937 c03c
000002c0: 95ec 753d ad18 b23e 148b 4ebd 3f43 6a3e
000002d0: 1d76 bd3d 20d5 d0bd d7e7 ffbd dcbe 793e
000002e0: 39de ff3e 84d0 d63d d1ab 6fbd ff1e e73d
000002f0: 15e7 0f3d 8a2e 13be 07c1 cbbd 45d5 f53c
00000300: c71b 683b 64fd 9a3e 455e 2d3e ee1b c33c
00000310: fae7 423e b113 2f3e 1034 aabe 7e4f 10be
00000320: 098b bdbe b134 773d dbd1 163e 08d9 b6be
00000330: 2efa 773e f26f 49be 5233 603e bd51 d83d
00000340: a015 803e e3c2 95bd 7b4a ad3b 7c4b 84be
00000350: 6f27 103e d492 88bd c0b8 0e3c 4cd2 1e3e
00000360: 176c 833d c160 cb3e 1e64 02bf 8721 d9bd
00000370: c093 453e c273 943e c367 693e 976e fb3e
00000380: f5b2 5abd 1059 973d ce09 8a3e 7f06 07be
00000390: 83b7 8fbe 4da3 cebd 9d4a a93c bcd0 b83e
000003a0: aaca 11bd ccbb 09be 2679 5bbe 4158 323e
000003b0: 13ac 41bd 6bd1 d0bd 868e 4dbe 597a 83be
000003c0: 9156 853d 9c17 8dbe 6e03 4ebb abf3 61be
000003d0: fc29 1a3e ee6f b23d 72f2 b7b9 273d 61be
000003e0: 863f 7cbc 75ee 35be 27fb 833b 8616 983d
000003f0: 533a f7bd 6941 223d d5ba 463e df0b 91be
-0.08333355 0.0859147 -0.024439013 0.04282888 0.11451646 0.22644584 0.40124384 -0.13679813
0.35037732 0.10846273 0.1880772 -0.09456579 -0.072295256 0.019852396 -0.04598078 -0.31756327
-0.18323779 0.02099732 0.07672289 -0.18659785 -0.09448956 0.034055214 0.13458017 -0.099350125
-0.33469412 -0.023837034 0.25704995 -0.0052788486 0.2728194 0.11138944 -0.11599714 0.07622766
-0.07379472 -0.0049340827 -0.27291405 -0.030680526 0.16131832 -0.20860454 -0.11289894 -0.15925272
0.0360869 0.06269363 0.17520818 0.00012486213 0.07935051 -0.07783188 -0.13513632 -0.073090225
0.24555157 -0.048433572 -0.06937938 0.05052356 -0.018352227 -0.083773226 0.012595135 0.45098552
-0.013228223 -0.07648859 -0.16832218 0.18613176 0.010066873 0.051923268 -0.4184354 -0.2565274
-0.4132609 0.00494831 -0.34144282 0.084264986 0.15492807 0.39553955 -0.21998806 -0.030112077
0.18276244 0.31488034 0.32112297 0.30512598 -0.029809551 -0.051818766 -0.16394196 -0.15980132
-0.08227149 -0.11281275 0.21283835 -0.00078567414 -0.02545836 -0.064268455 -0.13947697 -0.05972736
-0.03352815 0.08275233 0.20716363 -0.05117831 -0.05080703 0.042004213 0.019354094 -0.14183292
0.16213247 0.08809912 -0.1007058 0.18409793 0.14669418 0.1471387 -0.10238385 0.0014256029
-0.007069155 0.22049503 -0.062457684 -0.079236634 -0.07239159 0.043376055 -0.12915793 0.01742302
-0.07010375 -0.16747327 0.16424628 0.17961995 0.18576308 0.06799126 -0.03290114 0.14534327
0.20397739 -0.09880077 -0.19330673 0.2201278 -0.14968713 0.1694867 -0.13091421 0.28742033
-0.29110035 -0.2613407 0.111340374 0.24549924 -0.047077056 0.040375113 -0.14980114 -0.210617
-0.18650982 0.27009717 -0.36319646 -0.060703095 0.17762552 -0.06281248 0.19169049 0.2700051
0.07657893 0.28073728 0.23945561 0.11867624 -0.08259247 0.007962566 0.23972826 0.14952642
-0.16609538 0.15224798 0.168209 0.22871186 -0.16178496 0.32791844 -0.09872212 0.27440763
0.19350135 -0.037822153 -0.17880416 0.26309478 -0.300513 0.034968406 0.4075539 0.08594763
-0.21366487 -0.15842736 -0.020449549 -0.053576387 -0.06134649 0.18042631 -0.06397763 0.023464011
0.060040075 0.3478445 -0.050425604 0.22877215 0.09251044 -0.101969 -0.12495392 0.24389213
0.4997423 0.1048899 -0.058513466 0.11285209 0.035132486 -0.14373222 -0.099489264 0.030008921
0.0035416947 0.30271447 0.16930492 0.023817029 0.19033805 0.17097355 -0.33242846 -0.14092824
-0.37020138 0.060352985 0.14728491 -0.35712457 0.2421653 -0.1967161 0.21894577 0.10562465
0.250165 -0.07312562 0.00528842 -0.2583884 0.14077543 -0.0666863 0.00871104 0.1550991
0.06417101 0.39722255 -0.50934017 -0.10602098 0.19294643 0.28994566 0.22793488 0.4910781
-0.053393323 0.07390034 0.26960605 -0.13186072 -0.28069696 -0.10089741 0.020665461 0.36096752
-0.035593666 -0.13450545 -0.21432933 0.17416479 -0.047283243 -0.10196193 -0.200739 -0.2567928
0.06510652 -0.27557075 -0.003143515 -0.22065608 0.15055078 0.08712755 -0.00035085116 -0.21995984
-0.015396005 -0.17766745 0.0040277424 0.07426171 -0.12071671 0.03961316 0.19407208 -0.2832937

bias f4 [64]
00000000: 9947 b5bd ec44 22be e137 b6bd 2e36 3dbe
00000010: f60c 5cbe f46d 033d 2485 2fbe bdf0 023d
00000020: ab52 2bbe 45c2 7cbe cb5d 86be 07ea 82bd
00000030: 28cf 58bd 8f35 eebd daba d5be a0c5 8cbe
00000040: ed12 51be dbef 08be a221 8ebd cbd1 3bbe
00000050: e342 18be 17d7 713d 0005 09be 9b22 5cbe
00000060: 0e8d 8bbe a8bd 44be a179 81bd 0816 a7be
00000070: bdd4 b4be e40c 7abd 5d73 213d 535e 6fbe
00000080: 38b4 b2be 7e53 3cbe 633b c1bd 95cf d0bd
00000090: c830 14be 0b06 073e 984d e9bd 0c98 3fbe
000000a0: fb76 97bd 13d1 da3d bcdf edbd e82c 41be
000000b0: 3c31 62be 3d20 48be eca2 abbc 6f48 363c
000000c0: e852 323d 9a2f 18be 607e 37bd 34d9 17be
000000d0: 0def 38be 5465 5b3d aa6e 51bd 935d 55be
000000e0: 4091 cebd b6f9 91be 0635 22be a87a 07be
000000f0: 3578 87be b10d 5ebe 3e03 2c3d 6c42 2abe
-0.08851547 -0.15846604 -0.08897377 -0.18477699 -0.21489319 0.03208728 -0.17140633 0.031967867
-0.16730754 -0.24683483 -0.26243433 -0.063922934 -0.052931935 -0.11631309 -0.4174412 -0.27494526
-0.20417376 -0.13372748 -0.06940009 -0.18341748 -0.14869265 0.059043016 -0.13380814 -0.21497576
-0.27256054 -0.19212973 -0.06322027 -0.32633996 -0.35318556 -0.06104745 0.03941666 -0.23375826
-0.3490312 -0.18391225 -0.09435155 -0.10195843 -0.14471734 0.13185899 -0.11391753 -0.18710345
-0.073957406 0.10684409 -0.116149396 -0.18864787 -0.22089094 -0.19543548 -0.02095171 0.011125668
0.043536097 -0.14861909 -0.044798255 -0.1482895 -0.1805994 0.05356343 -0.051130928 -0.20836477
-0.10086298 -0.28510827 -0.1584054 -0.13230383 -0.26458898 -0.2168491 0.04199528 -0.166269

weight f4 [32, 64]
00000000: df33 8d3d 878f 9f3d 1a95 90bd 43cf cebd
00000010: b490 063e da6c e2bd bf82 a1be 4c6f d0bd
00000020: 7a19 a3bd 2df6 19bd f9f2 7a3e 79ae 453e
00000030: 87b9 233e 65ae 2d3d f9bd 583d 343f 4fbe
00000040: e393 b63d 844c 493e 0fd4 0b3e fa82 6cbd
00000050: 0666 e1bc 7ca9 b33d f618 aa3d ac85 053e
00000060: 04dc a53d fd7a 183e 5465 463e b986 d9be
00000070: f6d0 04bd 43d6 08be d295 f7bd 0bf4 2abd
00000080: 2368 683e 4569 86be 7d50 d13a f58b a9bd
00000090: 7b1d 473e cce7 bb3d 4890 033e b64f a7be
000000a0: f85c 01be 1dae 0abe 981c efbd e214 e43d
000000b0: b012 833b 43de 653d c1f0 433e 1039 eabd
000000c0: 1995 46bd b851 8cbd ea81 ee3d e9c9 9cbb
000000d0: b1bf f63c 31ba 41be de74 243d 01c2 433d
000000e0: b08b a93e bce1 1bbe 7854 a0bc e043 76be
000000f0: 55ac 913d d214 c8bc 47bd 3bbe c5a5 cfbc
00000100: 8d9f 11be 3846 92be 7060 b5be 7f94 04be
00000110: 5dbe 363e 0d2f 9c3d 3e77 443e c8e3 c7be
00000120: 4648 44bd e72f 943b 46fb 693e f650 173e
00000130: 66e5 0ebe eeaf ccbd 5834 e43d ccdb a73e
00000140: c6a1 90bd 4336 34bd 5f08 b0be cd68 e73d
00000150: 2400 a3bd fab4 0c3e 8f8e 273e 93eb 85be
00000160: 0a5d de3d fa05 e23d 06a2 08be 66c0 feba
00000170: 105f f8bd 2fa8 e1bd 98f2 51be c8ed 5c3d
00000180: 6e8b 1ebe 207d 9f3d c386 44bd 085c 65bc
00000190: cc84 eb3d 9931 88be 8063 9ebe 02f4 e83d
000001a0: e123 133d 8ed1 f0bd 97ef da3c 309c a7bb
000001b0: d1ed c83c dc4c 293d 00b2 51be 1cd3 9dbd
000001c0: 5ee8 a5be 0c77 1bbe 0d7e ef3d acfc 94bd
000001d0: 23b8 89bc cfe4 fc3d 1025 eabd e22c 19be
000001e0: 5874 bdbb 1480 893b 69b2 50be 1d0e febd
000001f0: d9e6 373e efbf babd 9cd5 53be e0dc 14bd
00000200: d3c1 a5bd 6cf8 6e3e 0c3a c4bd df1f 9ebe
00000210: 485a 1abd e7fc 9ebd a172 49bd b131 0b3e
00000220: 60c0 5b3d c834 323a 07ae f2bc 9fc6 833d
00000230: a613 09bd e276 94bd 0da7 863e 5f17 2d3c
00000240: 47b4 a53e 0261 36be 6088 6fbd 16c4 bbbe
00000250: 5c72 743d 59a6 edbd bfc9 46be 8e7a 75be
00000260: 48c3 65bc 97ae 0d3e 3ee4 e6bc 40a7 b1be
00000270: a085 0bbd 5752 0e3d cc5a fa3b f21a dd3d
00000280: 8e39 b03e 4253 113e ac3e 31be 8f58 5d3c
00000290: 8f0d 0fbe 85e1 083d 81f0 bbbd 2f0c 2ebe
000002a0: 6d50 523c 8b0c ef3d 41ee 49bd 13cc ebbd
000002b0: e63e c83d ba71 10be 7195 503e 3921 993d
000002c0: 245e a3bd 5a79 5abd 4401 d03e fa59 fb3d
000002d0: 7993 9b3c 42ea aebe 7efe 1d3e 293e 7a3d
000002e0: e8ae e5bd 0c79 62bd e9fc 053e e5c3 e13c
000002f0: dc03 ecbc f741 0cbe 5e66 ce3c 66da db3d
00000300: 4c71 75be 83d7 153e d0a3 18be 16bc 6dbd
00000310: 0d4b 2bbd 1c6b 743c 50db e7bd 4db8 563e
00000320: d50f b63d 81ed ac3d bfd1 083d e3e3 f73d
00000330: 85a8 d3bc c198 313d caac 0b3e 1ae6 90bd
00000340: 8715 bc3c 37d3 0b3c 3b38 553c 4864 4a3d
00000350: cdbf 29be 6d04 273d 08a7 553e 303e 0fbe
00000360: 03a4 a63a 2c9a 553d 14c9 06be d6ff d53d
00000370: 1d78 12be 5661 1f3e d816 3f3d 904a c2bd
00000380: 403d 693e 79db 87be a468 7fbc 108d adbd
00000390: 1daf 0c3e 97d5 0dbe b14f 0f3e 8cbb 73be
000003a0: 0549 c13c 8d56 c93d 0455 81be 7d94 febd
000003b0: 3f5f 253d ee97 083c 3651 55bd b85d ddbd
000003c0: d7ed dd3d 2041 fdbd 707c 673d 30a4 fcbd
000003d0: 68aa 823e a484 953c b57b 51bd b384 3bbe
000003e0: a8a8 a0be 46ca c43d e5b0 4c3d 39c0 2b3c
000003f0: 70d3 30be d05d c0bb 64c5 47be e7aa 40be
0.06894659 0.077910475 -0.07059689 -0.10098126 0.13141137 -0.11055918 -0.31545064 -0.10177478
-0.07963844 -0.037588287 0.24506749 0.19304837 0.15988742 0.042402644 0.052915547 -0.20238954
0.08914926 0.19658095 0.13655113 -0.057742096 -0.027514469 0.08772561 0.08305542 0.13039273
0.08098605 0.14890666 0.19374591 -0.42485598 -0.032425843 -0.13362984 -0.12089123 -0.041736644
0.22695975 -0.2625219 0.0015969422 -0.08278648 0.1944484 0.09175071 0.12848008 -0.32678002
-0.12633121 -0.13542981 -0.11675376 0.111367956 0.0040000305 0.05612017 0.19134809 -0.11436665
-0.048482034 -0.06851524 0.11645873 -0.0047848118 0.030120702 -0.18918683 0.040150516 0.04779244
0.33114386 -0.1522283 -0.019571528 -0.2404933 0.07112948 -0.02442399 -0.18333922 -0.0253476
-0.1422102 -0.28569198 -0.35425138 -0.12947272 0.17846055 0.07626162 0.19186112 -0.3904097
-0.047920488 0.004522312 0.2284976 0.14776978 -0.13954696 -0.099944934 0.11142796 0.3278488
-0.07062106 -0.04399706 -0.34381387 0.11299286 -0.07959011 0.13740912 0.16362976 -0.2615629
0.108575895 0.11036296 -0.13343057 -0.0019436001 -0.12127507 -0.110184066 -0.20502698 0.053937703
-0.15482876 0.077875376 -0.04798008 -0.013998993 0.11499938 -0.2660034 -0.30935287 0.11374666
0.03592289 -0.117587194 0.026725573 -0.0051150545 0.024527462 0.041333064 -0.20478058 -0.077062815
-0.32403845 -0.15182132 0.11693964 -0.07274756 -0.016811436 0.12348329 -0.1143285 -0.14958528
-0.0057816915 0.0041961763 -0.20380558 -0.12405036 0.17959155 -0.0911864 -0.20686954 -0.036343455
-0.0809361 0.23336953 -0.09581384 -0.3088369 -0.037683755 -0.07763081 -0.049181584 0.13593175
0.05365026 0.0006798026 -0.029623998 0.06434368 -0.033466004 -0.072492376 0.26299325 0.010564654
0.32364103 -0.17810443 -0.058479667 -0.3667304 0.059679374 -0.11603994 -0.19412898 -0.23972532
-0.014023609 0.13836132 -0.028185006 -0.34697914 -0.03406298 0.034746494 0.0076402184 0.10796155
0.3441891 0.14191917 -0.17309064 0.013509884 -0.13970016 0.033418197 -0.09176732 -0.16996835
0.012836558 0.11672314 -0.049299482 -0.115135334 0.09777622 -0.14105883 0.20369507 0.0747704
-0.0797694 -0.053338386 0.40625966 0.12273021 0.018991219 -0.341631 0.15429112 0.061094437
-0.11215001 -0.05529122 0.13084759 0.02755923 -0.028810434 -0.13697039 0.025195297 0.107350156
-0.23969 0.14632992 -0.1490624 -0.0580407 -0.04181962 0.014918115 -0.113211274 0.20968743
0.088897385 0.08443738 0.033403154 0.12104013 -0.025837192 0.043358568 0.13640133 -0.070751384
0.022959484 0.008534244 0.013013895 0.049412042 -0.16577072 0.040775705 0.20864499 -0.13988566
0.0012713674 0.052148983 -0.13162643 0.104491875 -0.14303632 0.15564474 0.046652645 -0.09486878
0.22777271 -0.26534632 -0.015588913 -0.08474171 0.13738675 -0.1385101 0.13995244 -0.23802012
0.023594389 0.098309614 -0.25260174 -0.12430666 0.040374037 0.008337004 -0.052079402 -0.10808891
0.1083638 -0.12365937 0.056515157 -0.12336004 0.25520635 0.018251725 -0.051143367 -0.1831234
-0.31378675 0.09608893 0.049973387 0.010482841 -0.17268157 -0.0058705583 -0.19508892 -0.18815194

bias f4 [32]
00000000: d3ab de3d dc4e 33be ff86 fcbd 505d af3c
00000010: f537 34be cdfb 343d 28d9 9cbe 4a26 9fbd
00000020: f26a b1bd 3a5e 233e 088d 15be 477f e13d
00000030: df7c d1bd 07ba 29be 6273 19be 3182 46be
00000040: d1b6 56be 0f1f d1bd 2bea 87be 9353 9ebc
00000050: 8c2c 24bd 62e7 5fbe e3b9 0cbe c5ba 58bd
00000060: ff93 883c d373 e6bc a721 09be 3b17 163e
00000070: ed12 42be 3364 ba3d 5d41 c3bc f6b4 20be
0.108726166 -0.17510551 -0.12330436 0.0214068 -0.17599471 0.04418545 -0.30634427 -0.07770975
-0.08662976 0.15953913 -0.1460458 0.11010604 -0.102288954 -0.1657487 -0.14985421 -0.19385602
-0.20968176 -0.10211002 -0.26545843 -0.01932696 -0.040081546 -0.2186561 -0.13742785 -0.052912492
0.016672133 -0.028131401 -0.13391744 0.14657299 -0.18952532 0.09101143 -0.023834879 -0.15694031

weight f4 [12, 32]
00000000: 3572 043e a693 51bd e209 6a3c cd83 10bc
00000010: 1695 cabd 326e e1bd 3617 183d 816c 08bc
00000020: dd9e 1abd 5a94 9a3d 22f1 51be 7e9b 583a
00000030: 3958 953d 3702 12bb 9439 d43d aa7e 6e3e
00000040: 1246 b539 5e91 fdbc 4a06 26bd adb2 493d
00000050: ec2e 2e3e 2d49 573d 4c73 50bc 49d0 a03d
00000060: 5350 4fbd 6505 5b3c 3f7e 42bc 24fa e9bd
00000070: 1aad 9cbc d8a5 22be 68cc 8fbe edb0 57be
00000080: c7cf cd3c 64f7 143d bce8 073e 7ca5 163d
00000090: a442 343d 0adb 183c d21c f63d 451b a3bd
000000a0: 3b5f 803e 6b6c 5e3b 859c 273b 1912 35bd
000000b0: d45a 00be abdc 9bbd 1363 fbbe 13e2 34bd
000000c0: 2bd3 ba3d fdaf d8bd 94d1 fd3d 6a16 0cba
000000d0: 7e5b 34bd 5d3d b83d 8e74 dc3d 6ad9 edbd
000000e0: 4548 783d 3631 913c 7c46 34be aef2 3bbd
000000f0: b2b1 95bd 4874 4abe 7e69 7c3c b8c9 92be
00000100: 7972 803d 6223 91bc b8ea 35bc bb0c 5cbb
00000110: d63f 02be 3740 d23c ac71 8f3d f297 d6bd
00000120: b07d 93be 6876 873e 391a 7f3e b037 c7bc
00000130: c3d7 50bd 3b36 7dbd 1068 a23c 4ef5 e03c
00000140: c13c 6b3d 48fc b4bd 82ff eebd 5aa9 a4bd
00000150: d9af 7c3e ad11 2abd fda6 cb3e 6014 9f3e
00000160: eaf6 90bc f0d1 353d 584b 7b3d db84 03be
00000170: dbef da3c 882e 5e3e 31c0 aebd d7d5 493e
00000180: 6a54 d83d 3bf5 49bc c74d 22be ce7c c8bc
00000190: e915 7dbe 6de2 653e b83a 25bd d7c5 5b3d
000001a0: 8ff6 ff3d 7f11 aa3d 144d 873d 5dde 003e
000001b0: cab9 91bc b6b2 f5bd af50 c4bb b7b0 75bb
000001c0: 42db d03b fafb d53d f98c 3d3e 8773 d2bc
000001d0: 3f2d 95bc 5502 b9bd fbc9 32bd ab8d 233d
000001e0: 3be6 d93b b5ea 4e3e 3b78 13be f0af e8bd
000001f0: 5b1f 0a3e 7558 5f3d 8054 dbbc fe96 b83d
00000200: 7cf7 383e 79d4 04be 0339 f9bd d4f3 4abe
00000210: 0baa fabd 9808 1dbe d4d4 fd3d d37b 1abd
00000220: a0c9 5d3c 5176 cb3d 17a7 fbbd d766 073e
00000230: 208b 1c3d 4792 543e 0902 b83d 5931 14bd
00000240: 4f5c dcbc 9732 0abe f84f 8dbe 6fb0 ae3d
00000250: f7bb 73be d27f 2f3e 09e9 213d e89f fdbc
00000260: 679a 053e d289 2d3e f64e 113e e2e8 513d
00000270: 2db9 3d3e 68c3 c83d f380 f53d a793 7cbd
00000280: 56af 353e 505f 15bd ea73 703e c074 7fbd
00000290: 607a cd3e d6e5 113e 0560 b13e 109f dabd
000002a0: e02e 31bd 9ebe 7cbe 2151 a93d bbe7 c8bc
000002b0: f056 bbbd 7697 ebbd f675 0cbe 2cb8 56be
000002c0: 413f ab3d f804 d43e 854e 48bc 5103 79be
000002d0: 0ef3 fabc 7bde e8bd 9de8 3fbd dda0 5d3e
000002e0: f2e6 f7b9 0b4c e9bd acab 9a3d 2afd 2a3e
000002f0: b441 10be 72bb 9a3d 23be cbbd 388d f73c
00000300: 87d7 4c3e 7acf d2bc 146e 95bd 6e47 a2bd
00000310: a553 9dba 256d 03be 1b5b e3bc 1ce3 99bd
00000320: 975e 09be d782 133c d9c9 813d 6a82 29be
00000330: 2a5c 99bd 51bd 953d ba9e 943d 18af f83d
00000340: c789 8ebd a764 273d 7c46 ce3b 9a56 ca3d
00000350: 4a2e 8dbd 05cb 27be 9ed4 8e3d f14a 0b3c
00000360: 850d ecbd 134a 753c fdad 1ebe 0069 da3d
00000370: 076e a8bd d16c b73c 77ee 313e 145c c53d
00000380: f1ef a13b ce3a ca3d 7fcc 83bd 2abb b9bd
00000390: b48f fb3c 1e62 25bd fe1c afbd 8534 3a3e
000003a0: 7916 9e3d aabf 323e 1b99 06be 24b3 ab3c
000003b0: 3c60 80bd 1fb8 353e aa30 0b3d d5b4 a13c
000003c0: 9c08 6cbe 3103 16bd 0711 f2bd 2800 3abe
000003d0: 0fff 54bd b3b2 683d f6ce 5fbd f67f 213c
000003e0: 786e 283e f88d a9bd fefe 22bd db18 98be
000003f0: 86c6 c8bd 4cc6 a7bd 5293 5e3c c65c 1a3e
0.12934192 -0.0511662 0.014284583 -0.008820486 -0.09891717 -0.11007346 0.03713151 -0.008326651
-0.03774916 0.07547827 -0.20502141 0.0008262916 0.07292218 -0.0022279152 0.10362545 0.23290506
0.00034575217 -0.030953106 -0.04053334 0.049242664 0.17010087 0.05256002 -0.012722801 0.07852227
-0.050613713 0.013367985 -0.01187092 -0.11424664 -0.01912551 -0.15883577 -0.28085637 -0.21063586
0.02512349 0.036368743 0.13272375 0.036778912 0.044008866 0.009329567 0.12017216 -0.079641856
0.25072655 0.0033939134 0.002557547 -0.044206712 -0.12534648 -0.076104484 -0.49099025 -0.044160914
0.09122308 -0.10580442 0.123934895 -0.0005343916 -0.044032566 0.08996079 0.107644185 -0.11613734
0.060615797 0.01772366 -0.17605013 -0.045885734 -0.07309283 -0.1977092 0.015406011 -0.28669524
0.06271834 -0.017717067 -0.011103325 -0.0033576924 -0.12719664 0.025665386 0.07004103 -0.104782
-0.2880683 0.26457524 0.24912347 -0.024318546 -0.050987016 -0.061819296 0.019825011 0.02746072
0.057430986 -0.08837181 -0.11669828 -0.08040114 0.24676456 -0.041520763 0.3977584 0.31070232
-0.017695863 0.044389665 0.06135115 -0.12843649 0.0267257 0.21697438 -0.08532751 0.1971048
0.10562976 -0.012326534 -0.15849982 -0.024473574 -0.2471539 0.22449656 -0.0403392 0.05365547
0.12498199 0.08304118 0.06606498 0.12584825 -0.017788786 -0.11996977 -0.0059910635 -0.0037489363
0.006373794 0.10448451 0.18510808 -0.025689853 -0.018210052 -0.09033648 -0.043649655 0.039930027
0.00664976 0.20206721 -0.14401333 -0.113616824 0.13488524 0.05452772 -0.026773691 0.090131745
0.18063158 -0.12971677 -0.12169077 -0.19819576 -0.12239464 -0.1533531 0.12394109 -0.037715744
0.013536841 0.099346764 -0.12287729 0.13222824 0.038218617 0.20758925 0.08984763 -0.036179874
-0.026899485 -0.13495861 -0.27600074 0.08529746 -0.23802172 0.17138603 0.03952888 -0.030960038
0.13047181 0.16947106 0.14190277 0.051247485 0.1852767 0.09802896 0.11987486 -0.06166425
0.17742667 -0.03646785 0.23481718 -0.0623672 0.40132427 0.14247832 0.3464357 -0.1067487
-0.043257594 -0.2468209 0.08267427 -0.02452456 -0.091474414 -0.11503498 -0.13716874 -0.20968693
0.08361674 0.4141004 -0.012225752 -0.24317671 -0.030633476 -0.1137056 -0.046852697 0.21643396
-0.0004728358 -0.11391457 0.07552275 0.16698137 -0.14087564 0.075552836 -0.09948375 0.030218706
0.20004092 -0.025733698 -0.07296386 -0.079237804 -0.0012003077 -0.12834604 -0.027753403 -0.07514021
-0.1341499 0.009003363 0.063373275 -0.16553655 -0.07488282 0.073115 0.07256837 0.121427715
-0.06959873 0.040867474 0.0062950235 0.09879799 -0.068935946 -0.1638604 0.06974147 0.008501754
-0.11526016 0.014971274 -0.15496059 0.106645584 -0.08224111 0.022390755 0.17376123 0.09636703
0.0049419333 0.09874497 -0.06435489 -0.09068902 0.030708171 -0.040376775 -0.08550452 0.18184097
0.0771913 0.17455927 -0.13144343 0.020959444 -0.06268355 0.17746018 0.033981957 0.019739548
-0.23050159 -0.036624137 -0.11819654 -0.18164122 -0.052001055 0.056811046 -0.054640733 0.009857168
0.1644839 -0.082790315 -0.03979396 -0.29706463 -0.0980349 -0.08192119 0.013584929 0.15074453

bias f4 [12]
00000000: e229 a33e 313e 803e 3bd1 ff3d a216 993e
00000010: e8af 4dbe 8678 85be c935 81bd 8730 cdbc
00000020: d4de dfbd 183c 563e 8741 8c3e eab5 953e
0.31867892 0.25047448 0.124910794 0.2990008 -0.20086634 -0.26068515 -0.06309087 -0.025047554
-0.10931173 0.20921361 0.27393743 0.29240352
