deploy/networks/go2/bambi18_rough.pt (torch, 79240 bytes, 8 tensors)

weight f4 [128, 48]
0.4450632 0.021530334 0.059412114 0.28371385 1.1640339 0.005465589 0.122267365 -0.44885865
0.18773997 -0.20767443 0.074311756 0.5771339 0.42183718 -0.07402231 0.0932356 -0.10421179
-0.04736079 -0.1966103 -0.08277756 0.26356697 -0.018808508 0.33083493 0.080544494 0.72634304
0.083694205 -0.008999817 0.040209338 0.34953126 0.36374542 -0.09260569 -0.29317537 0.21012115
-0.19916438 0.43498197 0.8436017 0.062014163 0.2519184 0.12409793 -0.15637471 0.634314
0.067788444 -3.288418e-05 -0.21072502 -0.24203415 0.092079245 -0.2252311 0.1223305 0.045778934
-0.3841283 0.09526304 -0.09426712 -0.0933445 0.34190774 -0.19343625 -0.32579184 0.22931863
0.06969228 -0.090383045 0.02565506 0.18704751 -0.357189 0.42734265 -0.17040472 -0.8077424
-0.06781215 0.52625227 -1.5731852 0.6615839 -0.047354788 -0.04722871 -0.16133147 -0.39775816
-0.2938258 0.4531681 0.25319165 -0.38052344 0.2749396 0.25261623 -0.0690703 -0.15027222
-0.1434674 0.09490947 0.27151617 -0.045586538 0.03452068 0.09079314 0.24921013 -0.021742713
-0.050017774 -0.1300848 -0.06742268 -0.1400158 0.028521689 0.08317002 -0.00013441755 -0.18228485
0.017998876 0.25768268 -0.007409289 0.40311947 0.28190404 1.079577 0.3490859 -0.9321431
0.010996269 0.044877287 -0.09730105 -1.2349037 0.82091486 -0.17927949 0.17081423 0.51307666
0.34042746 -0.43511063 0.064164266 -0.123748615 0.09883582 0.5168126 -0.12482319 0.782505
0.55417067 0.17601672 -0.13509952 0.13203634 -0.41764924 -0.28233463 0.24912335 -0.28113136
-0.1387024 0.29143524 0.35669896 -0.01832325 0.12129534 -0.066050336 -0.09153139 -0.021354236
0.0076155886 0.16580294 -0.04210536 0.064911254 -0.18223152 0.035565317 0.101947576 0.022807557
-0.19612613 0.0033563557 0.0537087 0.043782845 -0.17552875 -0.41058877 0.25515404 0.07240633
0.08389788 0.29425517 -0.21609989 0.9571936 -0.5952306 0.027047047 0.020266283 0.38568237
0.6670036 0.17365558 -0.0757772 0.20672223 0.5332232 0.23688236 -0.589268 0.20263568
-0.1904436 0.16695966 -0.39970326 0.36139396 -0.47876662 0.23834714 -0.20151395 -0.24956003
0.032654513 0.2882302 0.06574566 -0.48048165 -0.09336961 0.092398405 -0.12754105 0.19683726
0.007943782 0.028739441 0.13002977 0.04508068 -0.08099119 0.13772276 0.03287377 0.058597997
0.103363946 0.11832088 -0.25816974 0.039658993 -0.5249072 -0.36735907 -0.16520002 0.81536186
-0.006550713 -0.26847023 -0.25131443 0.59636515 -0.49741653 0.20629704 0.055907935 -0.39180878
0.15791672 0.13298209 -0.11551597 -0.86223215 0.21834782 -0.41248158 -0.1986578 -0.08820088
0.00061408995 -0.16583222 -0.32410634 -0.31491655 -0.08112792 0.46368107 0.43985707 -0.61505574
0.003935489 0.11549529 -0.33464736 0.22060859 -0.03788547 -0.06417911 0.12776181 -0.11221303
-0.06027537 -0.03438474 -0.078496054 0.050840903 -0.2062767 0.1467056 0.00015746005 -0.0045342366
0.12233368 -0.29050064 0.34266892 0.062032033 1.1837186 -0.043513376 1.2530209 0.07843939
0.031659614 0.11763755 -0.27781644 -0.9222827 0.62885815 0.41855788 0.2506176 0.18165825
00000000: 53df e33e 6260 b03c 1e5a 733d f142 913e
00000010: 10ff 943f af18 b33b 5067 fa3d cdd0 e5be
00000020: e83e 403e 9ba8 54be c330 983d 0cbf 133f
00000030: 0bfb d73e 0299 97bd 4ef2 be3d fe6c d5bd
00000040: 63fd 41bd 3654 49be 4887 a9bd 40f2 863e
00000050: 4d14 9abc 3263 a93e 83f4 a43d 9ef1 393f
00000060: de67 ab3d f873 13bc 8cb2 243d c3f5 b23e
00000070: d73c ba3e 0da8 bdbd 151b 96be 002a 573e
00000080: bff1 4bbe f5b5 de3e 48f6 573f 9002 7e3d
00000090: 73fb 803e 0e27 fe3d b120 20be 6762 223f
000000a0: abd4 8a3d 1fed 09b8 4dc8 57be cdd7 77be
000000b0: 0b94 bc3d fba2 66be 6a88 fa3d b182 3b3d
000000c0: 77ac c4be 4519 c33d 1f0f c1bd 672b bfbd
000000d0: 880e af3e 2714 46be 30ce a6be 81d2 6a3e
000000e0: d3ba 8e3d bf1a b9bd 8f2a d23c 6289 3f3e
000000f0: 7ae1 b6be a8cc da3e 937e 2ebe 35c8 4ebf
00000100: 19e1 8abd 78b8 063f 225e c9bf 905d 293f
00000110: 18f7 41bd e472 41bd 1434 25be f5a6 cbbe
00000120: 5670 96be a605 e83e 56a2 813e f8d3 c2be
00000130: e2c4 8c3e ea56 813e bb74 8dbd f6e0 19be
00000140: 1ee9 12be e55f c23d 2b04 8b3e f3b8 3abd
00000150: 8e65 0d3d c1f1 b93d f130 7f3e c61d b2bc
00000160: 70df 4cbd f334 05be e714 8abd 4d60 0fbe
00000170: 51a6 e93c 0b55 aa3d 70f2 0cb9 e1a8 3abe
00000180: 6172 933c fcee 833e 9fc9 f2bb ad65 ce3e
00000190: ba55 903e 942f 8a3f 63bb b23e eea0 6ebf
000001a0: b229 343c 3fd1 373d c645 c7bd 5311 9ebf
000001b0: 7a27 523f 0b95 37be ede9 2e3e fe58 033f
000001c0: 824c ae3e d2c6 debe 8e68 833d ea6f fdbd
000001d0: 6f6a ca3d d54d 043f 4da3 ffbd 3f52 483f
000001e0: 21de 0d3f ba3d 343e 8757 0abe 8934 073e
000001f0: 1fd6 d5be 2a8e 90be 311a 7f3e 73f0 8fbe
00000200: 0008 0ebe 0037 953e 3fa1 b63e a41a 96bc
00000210: b169 f83d 6645 87bd cf74 bbbd 14ef aebc
00000220: 308c f93b 3fc8 293e ac76 2cbd 31f0 843d
00000230: e69a 3abe f0ac 113d e4c9 d03d ead6 ba3c
00000240: 4ad5 48be 4ef6 5b3b a7fd 5b3d a455 333d
00000250: cfbd 33be b138 d2be 8da3 823e c549 943d
00000260: a7d2 ab3d 9da8 963e 4a49 5dbe a40a 753f
00000270: 0861 18bf c591 dd3c 7a05 a63c 2978 c53e
00000280: bfc0 2a3f c5d2 313e 1431 9bbd feae 533e
00000290: 5181 083f 4a91 723e 45da 16bf ba7f 4f3e
000002a0: a603 43be 79f7 2a3e e8a5 ccbe a108 b93e
000002b0: e620 f5be 4611 743e ac59 4ebe aa8c 7fbe
000002c0: bdc0 053d e992 933e a9a5 863d b101 f6be
000002d0: 9138 bfbd 603b bd3d 1f9a 02be b58f 493e
000002e0: a326 023c fa6e eb3c 8626 053e 85a6 383d
000002f0: b6de a5bd 3207 0d3e a5a6 063d 7404 703d
00000300: 7ab0 d33d 3852 f23d d32e 84be 7871 223d
00000310: 5160 06bf 7d16 bcbe 322a 29be 8ebb 503f
00000320: 5da7 d6bb ee74 89be 49ac 80be 63ab 183f
00000330: 61ad febe 883f 533e b8ff 643d 299b c8be
00000340: ecb4 213e 752c 083e a393 ecbd 3fbb 5cbf
00000350: 9296 5f3e c930 d3be f36c 4bbe aaa2 b4bd
00000360: e1fa 203a eccf 29be 44f1 a5be be3c a1be
00000370: 6526 a6bd 9b67 ed3e f234 e13e 4b74 1dbf
00000380: 46f5 803b cb88 ec3d e656 abbe 38e7 613e
00000390: cb2d 1bbd 5670 83bd fed3 023e f2cf e5bd
000003a0: 4ee3 76bd 03d7 0cbd 8ac2 a0bd 8d3e 503d
000003b0: 333a 53be fe39 163e dc1b 2539 ef93 94bb
000003c0: 158a fa3d 80bc 94be 4d72 af3e 4d15 7e3d
000003d0: 1784 973f 153b 32bd fd62 a03f d5a4 a03d
000003e0: 83ad 013d f5eb f03d f53d 8ebe b81a 6cbf
000003f0: d9fc 203f 384d d63e f350 803e 9f04 3a3e

bias f4 [128]
0.2027623 -0.17923549 -0.026244327 -0.119441085 -0.060157325 -0.14094622 -0.17991838 -0.13269429
-0.22170195 -0.18528178 -0.241911 0.17776363 -0.05192734 0.19147407 0.06467839 -0.13303237
-0.06798134 -0.31840548 -0.11272375 0.14738095 -0.18948889 -0.15875287 -0.29851985 0.10303582
0.35123622 0.2574813 -0.23280689 -0.22494233 -0.28558385 0.04311044 -0.09386825 -0.19251655
0.17700684 0.053611103 -0.2939955 0.15736933 -0.02576917 -0.098990194 0.29376322 -0.28122252
0.07781466 0.17294165 0.0021787868 -0.0079175355 -0.13671418 -0.26468456 0.29064313 -0.22118911
0.0382375 0.17258337 0.11858372 0.08737794 -0.13227552 0.09944491 0.049025923 0.03596688
-0.35716003 -0.3607179 -0.017471502 0.06855546 -0.17873119 0.21956922 -0.0783007 -0.11499903
0.04855064 -0.30565086 -0.3066296 -0.2390167 -0.13540234 -0.029071352 0.14889279 -0.0023105242
-0.40516424 0.3617726 -0.23258582 0.26769808 0.07325561 0.025565976 -0.22240698 0.05902758
0.059720445 -0.33685625 -0.0015980572 -0.24507205 -0.18593289 -0.19057554 0.01200912 -0.3595473
-0.25851855 -0.3000906 -0.15266258 -0.2928637 -0.096179895 -0.4836098 0.012510158 -0.097791746
-0.37281987 0.2736295 -0.04735885 -0.6254955 0.25733417 -0.16419914 -0.05846137 -0.11651769
-0.15625376 0.06749418 0.11462293 -0.5036699 -0.22829197 -0.1714817 -0.2476414 0.074336946
0.017623879 0.081554465 -0.2951526 -0.27875406 -0.23761615 -0.23964392 -0.1675328 0.24742965
-0.09668304 0.20954001 0.018787118 -0.42359817 -0.21384065 -0.4209567 -0.094948664 -0.15011854
00000000: eca0 4f3e 8289 37be 58fe d6bc 879d f4bd
00000010: 8767 76bd 3554 10be 863c 38be 03e1 07be
00000020: d605 63be 82ba 3dbe 84b7 77be ab07 363e
00000030: c3b1 54bd c711 443e 1b76 843d a339 08be
00000040: cd39 8bbd 0b06 a3be b6db e6bd 08eb 163e
00000050: 6009 42be 1d90 22be 98d7 98be 7204 d33d
00000060: 3cd5 b33e 97d4 833e ee64 6ebe 4857 66be
00000070: 0c38 92be 9394 303d ff3d c0bd 0f23 45be
00000080: 4841 353e 5197 5b3d 9486 96be 6d25 213e
00000090: de19 d3bc 5fbb cabd 2268 963e 66fc 8fbe
000000a0: 4b5d 9f3d 9e17 313e fac9 0e3b 8db8 01bc
000000b0: cdfe 0bbe bc84 87be 2dcf 943e 667f 62be
000000c0: ed9e 1c3d b2b9 303e 05dc f23d 35f3 b23d
000000d0: 3c73 07be c6a9 cb3d 68cf 483d 0252 133d
000000e0: aedd b6be 04b0 b8be 6520 8fbc ce66 8c3d
000000f0: 4f05 37be c1d6 603e 1e5c a0bd 9d84 ebbd
00000100: 09dd 463d 457e 9cbe 8efe 9cbe cbc0 74be
00000110: e9a6 0abe 0b27 eebc 5a77 183e 2a6c 17bb
00000120: b071 cfbe 423a b93e fa2a 6ebe b90f 893e
00000130: 0a07 963d bd6f d13c a8be 63be e7c6 713d
00000140: 6d9d 743d 6c78 acbe e775 d1ba 2bf4 7abe
00000150: 3165 3ebe 3c26 43be e6c1 443c 9516 b8be
00000160: 8b5c 84be 7aa5 99be 9453 1cbe 3bf2 95be
00000170: f7f9 c4bd b49b f7be 68f7 4c3c 0a47 c8bd
00000180: 3fe2 bebe 2a19 8c3e 5afb 41bd 7920 20bf
00000190: 4ec1 833e d223 28be 3175 6fbd d4a0 eebd
000001a0: fc00 20be 633a 8a3d 6dbf ea3d 83f0 00bf
000001b0: 5fc5 69be e698 2fbe b595 7dbe f83d 983d
000001c0: f45f 903c 0706 a73d 3e1e 97be dab8 8ebe
000001d0: a651 73be 3765 75be b88d 2bbe 335e 7d3e
000001e0: c201 c6bd a891 563e 71e7 993c dce1 d8be
000001f0: 0bf9 5abe a387 d7be 7274 c2bd adb8 19be

weight f4 [64, 128]
-0.24322593 0.01481408 -0.11131963 0.004877193 0.046761498 -0.109326705 -0.054572277 -0.012098234
0.08573394 0.22397557 -0.009826012 -0.18876344 0.037475128 0.1415971 -0.20996204 0.005783559
-0.14514183 0.093045026 -0.2268565 -0.35301745 0.041164983 -0.13877887 0.023546254 -0.12736672
0.13493778 -0.15475295 0.09312277 0.24237373 -0.26374644 0.18716894 -0.1643978 -0.008060186
0.101972304 0.052529737 0.07145343 -0.037105687 -0.15929006 0.09319027 -0.03513034 0.04036388
-0.28421143 0.07381932 0.10723415 -0.14869493 0.21909821 0.10948285 -0.28530815 -0.08833549
-0.16563198 0.020332074 0.18468359 0.057438575 0.21551481 -0.036448546 -0.10306435 -0.12248049
0.47163156 0.032771397 0.026966557 0.09208058 -0.3066668 -0.117150314 -0.21117872 0.17988198
-0.08867855 -0.17531596 0.09238264 0.0521947 0.43504524 -0.25177062 -0.04597268 0.26822507
0.39914706 -0.13276187 -0.342473 -0.14408463 0.18782762 -0.1794654 -0.19711952 0.104277
-0.31291386 -0.119898915 -0.11851133 -0.06396454 -0.13030154 0.099007495 0.05565667 0.023958607
0.22157009 0.2881681 0.26239592 0.2903184 0.37522325 0.02105516 -0.07289874 -0.03653122
-0.01866398 -0.5238414 -0.10149766 0.071438186 0.087725505 -0.006291724 -0.20499232 0.06281432
-0.14114267 -0.29193395 0.12072337 0.32481682 -0.067379504 -0.18759358 0.16625345 -0.075090386
-0.07306417 0.014499135 -0.03350189 0.20741129 0.1357093 0.05921919 0.21828938 0.0102527505
0.066105075 -0.27831036 -0.04899273 0.044441056 0.37288272 0.15513319 0.17248817 0.43161586
0.21986835 0.23006038 -0.1770151 0.041653134 0.06361264 -0.039500274 -0.2772962 -0.12565011
-0.051190216 -0.3016335 0.00478018 -0.0068551432 0.12601343 -0.19598942 -0.16326548 0.0927683
-0.653299 0.297182 0.082579635 0.12648645 0.17440109 -0.21537137 -0.19655658 -0.18146122
-0.2043593 0.11034418 0.24398197 -0.24720934 -0.13987114 -0.085166395 -0.37934622 -0.14195083
-0.102624044 -0.09454016 0.08846652 -0.2208635 0.25979382 -0.11993287 -0.0026992478 -0.024385363
-0.09222745 0.00992356 0.2959708 0.14178926 0.052733544 0.20619184 -0.14758994 0.17089173
0.28933865 0.22879899 -0.63722557 -0.23446102 -0.29374132 0.20743851 -0.05203643 0.13630842
-0.05805638 0.3217697 0.2954759 -0.2078395 0.069074415 -0.14335431 0.21512452 -0.08472416
-0.15529062 0.10898461 -0.070965245 -0.023662213 -0.06965483 -0.13188134 -0.11632636 -0.019414976
0.37134174 -0.103875406 0.43566343 -0.12239245 -0.020143274 0.17270924 0.11743777 -0.0911676
0.07990149 0.29004753 0.095153056 0.40501916 0.009685724 -0.19219837 -0.3208403 0.1456036
0.15360734 0.05681902 -0.10221827 -0.17680901 -0.2709408 0.26168913 -0.022606151 -0.08169057
0.17230493 0.14280766 -0.14221819 -0.078842245 -0.120052814 -0.2054762 0.17334847 0.11538974
0.05057902 -0.41614744 -0.3760407 -0.16398758 -0.09983902 0.29165363 0.021358624 -0.13359204
0.031279583 -0.28514722 0.18231565 0.101980455 0.079340436 0.21471183 -0.053878948 -0.15581891
-0.13037758 -0.00060052826 -0.09318356 0.13184522 -0.14968276 -0.046666738 -0.10794004 -0.2817011
00000000: 3810 79be c1b6 723c 8cfb e3bd dcd0 9f3b
00000010: fc88 3f3d aee6 dfbd 2e87 5fbd ac37 46bc
00000020: 4795 af3d da59 653e 48fd 20bc 344b 41be
00000030: 857f 193d d5fe 103e 4a00 57be 0284 bd3b
00000040: 0fa0 14be 648e be3d 124d 68be b4be b4be
00000050: 9d9c 283d 0c1c 0ebe 13e4 c03c 6c6c 02be
00000060: 212d 0a3e 8f77 1ebe 27b7 be3d d230 783e
00000070: c609 87be 37a9 3f3e e657 28be df0e 04bc
00000080: dbd6 d03d 6c29 573d 2d56 923d 22fc 17bd
00000090: ef1c 23be 8ada be3d d5e4 0fbd 9954 253d
000000a0: 2984 91be 952e 973d 949d db3d 7c43 18be
000000b0: 485b 603e 8b38 e03d e913 92be 3de9 b4bd
000000c0: 6e9b 29be 738f a63c b21d 3d3e b644 6b3d
000000d0: eaaf 5c3e 124b 15bd 6713 d3bd 0dd7 fabd
000000e0: b179 f13e 4d3b 063d f8e8 dc3c be94 bc3d
000000f0: 6e03 9dbe 81ec efbd 3c3f 58be fb32 383e
00000100: 1a9d b5bd 0786 33be 1c33 bd3d 1cca 553d
00000110: 40be de3e 14e8 80be d94d 3cbd cc54 893e
00000120: 015d cc3e baf2 07be 9f58 afbe ec8a 13be
00000130: e255 403e c7c5 37be b3d9 49be 2e8f d53d
00000140: 3f36 a0be 908d f5bd 11b6 f2bd d7ff 82bd
00000150: c46d 05be 71c4 ca3d 40f8 633d d744 c43c
00000160: 45e3 623e c58a 933e c258 863e 9da4 943e
00000170: 431d c03e df7b ac3c ef4b 95bd c3a1 15bd
00000180: 34e5 98bc 781a 06bf 01de cfbd 2f4e 923d
00000190: 6ea9 b33d ce2a cebb 82e9 51be cba4 803d
000001a0: b487 10be 5e78 95be d03d f73d 644e a63e
000001b0: 44fe 89bd 8818 40be 583e 2a3e fdc8 99bd
000001c0: aba2 95bd c88d 6d3c 4739 09bd a063 543e
000001d0: 61f7 0a3e d28f 723d 4087 5f3e 27fb 273c
000001e0: 1962 873d b27e 8ebe 9aac 48bd d307 363d
000001f0: 7cea be3e 3cdb 1e3e bda0 303e c1fc dc3e
00000200: 2b25 613e f394 6b3e 7243 35be 7a9c 2a3d
00000210: 5847 823d 0acb 21bd c4f9 8dbe 6caa 00be
00000220: d5ac 51bd b56f 9abe 0ea3 9c3b 1ca1 e0bb
00000230: aa09 013e 73b1 48be 112f 27be 4efd bd3d
00000240: 9a3e 27bf 3d28 983e 831f a93d aa85 013e
00000250: 3396 323e 508a 5cbe 2146 49be f8d0 39be
00000260: 9043 51be 21fc e13d 69d6 793e 7224 7dbe
00000270: 613a 0fbe b86b aebd ab39 c2be 8f5b 11be
00000280: 8e2c d2bd 459e c1bd ef2d b53d 0b2a 62be
00000290: b203 853e 5d9f f5bd dde5 30bb d0c3 c7bc
000002a0: bfe1 bcbd 6d96 223c 7c89 973e 3431 113e
000002b0: 21ff 573d f423 533e d121 17be 3efe 2e3e
000002c0: 3224 943e 484a 6a3e 3721 23bf 8d16 70be
000002d0: 4365 96be c36a 543e 2724 55bd 6f94 0b3e
000002e0: 87cc 6dbd 00bf a43e 9e48 973e e1d3 54be
000002f0: e376 8d3d 79cb 12be 9a49 5c3e dc83 adbd
00000300: 8104 1fbe 5333 df3d 3a56 91bd 42d7 c1bc
00000310: 31a7 8ebd e70b 07be 843c eebd 280c 9fbc
00000320: 8120 be3e a1bc d4bd 470f df3e e5a8 fabd
00000330: 8203 a5bc b1da 303e 3783 f03d 14b6 babd
00000340: 64a3 a33d 1c81 943e 9bdf c23d ac5e cf3e
00000350: dfb0 1e3c a6cf 44be 2e45 a4be 1c19 153e
00000360: 3e4b 1d3e 10bb 683d d057 d1bd 6c0d 35be
00000370: c1b8 8abe 1efc 853e 8930 b9bc 634d a7bd
00000380: b470 303e 2c3c 123e a5a1 11be 0b78 a1bd
00000390: 40de f5bd 5a68 52be 4382 313e 7551 ec3d
000003a0: f22b 4f3d 4711 d5be 6888 c0be 5cec 27be
000003b0: 6678 ccbd a053 953e 48f8 ae3c 5acc 08be
000003c0: 051f 003d d1fe 91be f4b0 3a3e 21db d03d
000003d0: 3d7d a23d 6bdd 5b3e 2cb0 5cbd fe8e 1fbe
000003e0: b381 05be c56c 1dba 06d7 bebd 6f02 073e
000003f0: 7046 19be 9f25 3fbd ab0f ddbd 203b 90be

bias f4 [64]
-0.098121166 -0.32428995 -0.30842185 -0.30495936 -0.21540222 -0.12963375 -0.1298898 -0.11183582
-0.27114093 -0.21132217 -0.38220268 -0.10672568 -0.032259855 -0.28543687 -0.23744383 0.024342692
-0.035635106 -0.20551595 -0.20723112 -0.25217748 -0.42607865 -0.053154968 -0.14320621 -0.22777505
-0.25907567 -0.15916173 -0.3999937 -0.22186835 -0.3583413 -0.28295884 -0.007305478 -0.31954685
-0.30541232 -0.24594751 -0.12617351 -0.1570686 -0.07230345 -0.20813656 -0.079908766 -0.20822822
-0.2984893 -0.058893643 -0.020086605 -0.13542904 -0.2982213 -0.1218461 -0.034442145 -0.14793514
-0.2054921 -0.15786229 -0.18439838 -0.17707236 -0.4398097 -0.27141508 -0.015078402 -0.06107691
-0.15019238 -0.3107091 -0.2529194 -0.00066118623 -0.23394136 -0.16925932 -0.02867654 -0.17601281
00000000: c0f3 c8bd 5509 a6be 78e9 9dbe a223 9cbe
00000010: 6692 5cbe b6be 04be d501 05be 2e0a e5bd
00000020: fcd2 8abe d764 58be 12b0 c3be fe92 dabd
00000030: e922 04bd c824 92be 7a24 73be 536a c73c
00000040: 1ef6 11bd c672 52be 6534 54be 681d 81be
00000050: fb26 dabe 06b9 59bd a6a4 12be dd3d 69be
00000060: 91a5 84be 4bfb 22be f9cb ccbe 7531 63be
00000070: 8378 b7be fbdf 90be cb62 efbb a59b a3be
00000080: 015f 9cbe aad9 7bbe a133 01be 97d6 20be
00000090: d513 94bd c021 55be 35a7 a3bd c739 55be
000000a0: 97d3 98be 763a 71bd aa8c a4bc e9ad 0abe
000000b0: 76b0 98be 738a f9bd 3513 0dbd 4f7c 17be
000000c0: 856c 52be a7a6 21be eed2 3cbe 7552 35be
000000d0: bd2e e1be ebf6 8abe 670b 77bc c82b 7abd
000000e0: 08cc 19be 4315 9fbe a77e 81be 7553 2dba
000000f0: 538e 6fbe 5152 2dbe 10eb eabc b43c 34be

weight f4 [32, 64]
0.08864744 -0.020109592 -0.22346571 0.14208171 0.10467764 -0.027228469 0.16867512 -0.17489183
0.073970735 0.012679791 -0.11313552 0.0052439026 -0.026267303 0.0039017242 -0.16362506 0.010858621
-0.064192705 0.017140666 0.028051417 -0.09890884 -0.35032815 0.087833874 -0.2885021 0.21263906
-0.16266012 0.025841417 0.15663177 0.05243361 0.038730547 -0.41945022 0.024182625 0.024734637
0.04388133 -0.1362826 0.121006384 -0.019352889 -0.014545261 -0.065963484 -0.18030661 -0.23476425
0.21034905 -0.121733084 -0.09439965 0.21142128 -0.13752161 -0.06147588 -0.15825808 -0.48337576
-0.26425081 0.2128748 -0.09833062 -0.07270749 -0.17778216 -0.17777005 -0.11109383 -0.045342594
0.15406752 0.18482497 0.21295309 0.15665594 0.2337818 0.004141547 -0.32751507 -0.17845464
0.30445883 -0.098476425 -0.40888417 -0.14852436 0.122255266 -0.19954988 0.059157155 -0.19986798
0.38575357 -0.20912497 -0.19616704 -0.020258466 0.0019606878 -0.01523844 0.14357097 0.048946343
0.04254602 -0.07985119 -0.04770596 -0.10251155 -0.088838845 -0.06162241 -0.080802545 -0.122001685
-0.13641162 0.11603724 0.16559114 0.10484784 -0.16641414 -0.30710828 0.15300778 -0.14194685
-0.056971256 0.16249909 -0.06415488 -0.05124762 -0.052987147 -0.10956791 -0.055442717 -0.3365917
0.052363828 -0.09996566 -0.13640234 -0.21528624 -0.06835401 -0.053160697 -0.22123769 -0.065801986
-0.35576054 0.0053011565 0.23935321 -0.06371445 -0.288922 -0.102152586 -0.030455349 -0.18072887
-0.114807084 0.10624896 -0.04046614 -0.3744977 0.06647248 -0.13147348 -0.16653028 -0.099483356
-0.097692885 -0.1575708 0.09322299 0.26100346 -0.04845072 0.05475683 0.23011209 -0.044874147
-0.04146203 -0.007199031 -0.3038249 -0.3016431 -0.16408494 0.14200853 -0.15334423 -0.050752986
-0.11149206 -0.08554969 0.35157558 -0.16187857 0.0038831537 -0.08783414 -0.08460866 0.1180358
-0.070711896 -0.15189353 0.0361029 -0.24203722 0.24175787 0.10421728 -0.29739013 0.1351023
0.38602987 -0.10963055 -0.20250973 -0.062354453 0.28567675 -0.2002806 0.11196525 -0.45227614
0.07154512 0.014405022 0.17230043 0.033373754 0.21261989 -0.035214987 -0.068263635 0.16677693
0.2065816 -0.22166952 0.14722766 0.09512607 0.109323606 -0.2755845 -0.08658338 0.09451445
0.06775646 0.16586342 0.22337961 0.176345 0.17959918 0.3316411 -0.08391472 0.18054868
-0.029798258 0.18028715 -0.17805204 0.07456919 0.06843126 -0.023474421 -0.019263264 0.09069354
0.036160592 0.05646868 0.031037292 -0.3511539 -0.075021245 -0.12645373 -0.13064642 -0.14200121
0.08945257 0.257606 0.09244905 0.061251543 -0.04174221 0.21106076 -0.0321222 -0.028196055
-0.115460575 0.04932378 -0.15430833 0.106718585 0.21910135 0.05673082 -0.044271566 -0.111833155
0.092941344 -0.009718431 -0.06282141 0.018480811 0.0008035523 0.0022142548 -0.06872651 -0.15816185
-0.17986575 0.061002467 0.18802887 0.053147256 0.086969174 -0.09668424 -0.12149914 0.0949721
-0.17810208 0.027593667 0.15621813 0.12359004 0.0336585 0.024528204 -0.38917944 -0.082523406
-0.05379019 0.11228785 -0.12875612 -0.114289105 -0.016257029 0.15596291 -0.07617646 -0.074817225
00000000: ca8c b53d dfbc a4bc 32d4 64be de7d 113e
00000010: 3b61 d63d 3d0e dfbc 2cb9 2c3e d816 33be
00000020: f87d 973d e6be 4f3c 98b3 e7bd 0bd5 ab3b
00000030: 872e d7bc 12b4 7f3b 548d 27be 5ce8 313c
00000040: 7777 83bd 956a 8c3c 16cc e53c b890 cabd
00000050: 365e b3be 3fe2 b33d 8cb6 93be 0ebe 593e
00000060: 6090 26be 61b1 d33c 1464 203e a0c4 563d
00000070: eca3 1e3d 2ec2 d6be a41a c63c 4ba0 ca3c
00000080: e9bc 333d aa8d 0bbe 32d2 f73d f389 9ebc
00000090: 3f4f 6ebc dd17 87bd 4ca2 38be 0a66 70be
000000a0: be65 573e 324f f9bd 9b54 c1bd d27e 583e
000000b0: 77d2 0cbe 22ce 7bbd 680e 22be 077d f7be
000000c0: e24b 87be dafb 593e 9061 c9bd aae7 94bd
000000d0: 870c 36be 5a09 36be 2985 e3bd 28b9 39bd
000000e0: e0c3 1d3e c242 3d3e 6010 5a3e 6a6a 203e
000000f0: 7f64 6f3e d0b5 873b 0eb0 a7be d0bc 36be
00000100: 07e2 9b3e 02ae c9bd 4459 d1be c516 18be
00000110: f860 fa3d ce56 4cbe c64e 723d 31aa 4cbe
00000120: 7e81 c53e db24 56be 03e0 48be 15f5 a5bc
00000130: e27e 003b a6aa 79bc 4504 133e f67b 483d
00000140: bc44 2e3d 0589 a3bd 5367 43bd 93f1 d1bd
00000150: 24f1 b5bd c867 7cbd ce7b a5bd 05dc f9bd
00000160: 7daf 0bbe efa4 ed3d b990 293e 77ba d63d
00000170: 7868 2abe 4c3d 9dbe 12ae 1c3e 845a 11be
00000180: b15a 69bd 2966 263e a263 83bd 06e9 51bd
00000190: 0d09 59bd 2465 e0bd e717 63bd bf55 acbe
000001a0: 747b 563d ccba ccbd 0ead 0bbe ff73 5cbe
000001b0: 30fd 8bbd 08bf 59bd 228c 62be 31c3 86bd
000001c0: 3f26 b6be 53b5 ad3b 0219 753e b97c 82bd
000001d0: 96ed 93be 6035 d1bd 7f7d f9bc fd10 39be
000001e0: fa1f ebbd 0e99 d93d d3bf 25bd 2abe bfbe
000001f0: b922 883d fca0 06be ea86 2abe eebd cbbd
00000200: 3513 c8bd 3d5a 21be b2eb be3d 3fa2 853e
00000210: 4374 46bd b348 603d 81a2 6b3e f4cd 37bd
00000220: 17d4 29bd d9e5 ebbb f08e 9bbe f770 9abe
00000230: e205 28be af6a 113e 4506 1dbe 5de2 4fbd
00000240: f355 e4bd ad34 afbd b701 b43e 7fc3 25be
00000250: 827c 7e3b 63e2 b3bd 4e47 adbd c1bc f13d
00000260: 66d1 90bd fa89 1bbe a2e0 133d 9bd8 77be
00000270: 608f 773e df6f d53d 8543 98be 4258 0a3e
00000280: b5a5 c53e fb85 e0bd b65e 4fbe 6267 7fbd
00000290: 3944 923e 5c16 4dbe 094e e53d bd90 e7be
000002a0: 3f86 923d 0b03 6c3c 866f 303e ebb2 083d
000002b0: 07b9 593e 973d 10bd cecd 8bbd 92c7 2a3e
000002c0: 208a 533e 56fd 62be d9c2 163e 75d1 c23d
000002d0: 0ee5 df3d 6919 8dbe a152 b1bd cb90 c13d
000002e0: e6c3 8a3d 1ad8 293e a0bd 643e c993 343e
000002f0: d9e8 373e ddcc a93e 7bdb abbd c1e1 383e
00000300: 7a1b f4bc 329d 383e 4653 36be bbb7 983d
00000310: b025 8c3d 6e4d c0bc fecd 9dbc 89bd b93d
00000320: 211d 143d b44b 673d eb41 fe3c 72ca b3be
00000330: bda4 99bd 167d 01be 2dc8 05be c468 11be
00000340: e932 b73d efe4 833e ed55 bd3d e6e2 7a3d
00000350: e1f9 2abd 5020 583e 9192 03bd 6afb e6bc
00000360: 9876 ecbd bb07 4a3d 0103 1ebe 468f da3d
00000370: 1b5c 603e 945e 683d 1a56 35bd c808 e5bd
00000380: 0858 be3d 0e3a 1fbc 83a8 80bd 1265 973c
00000390: 7ba5 523a 081d 113b 7cc0 8cbd 2ef5 21be
000003a0: ba2e 38be b9dd 793d a48a 403e f0b0 593d
000003b0: e51c b23d 6302 c6bd 8bd4 f8bd bb80 c23d
000003c0: 6460 36be 1d0c e23c a5f7 1f3e c61c fd3d
000003d0: 7fdd 093d 5fef c83c 8742 c7be 0802 a9bd
000003e0: 1a53 5cbd 2cf7 e53d a5d8 03be 6810 eabd
000003f0: 762d 85bc beb4 1f3e 6702 9cbd c639 99bd

bias f4 [32]
0.019338675 0.06487634 -0.25965568 -0.1695403 -0.21383277 -0.13400333 -0.060663454 -0.05524839
-0.0760701 0.11263113 -0.081849456 -0.05347744 -0.11500674 -0.022975938 -0.17242436 -0.22001801
-0.17658974 -0.25928187 -0.2750978 -0.27853245 -0.017600521 -0.2357343 -0.15185347 -0.19717427
-0.079779655 0.09491966 -0.010019837 0.056464616 -0.02496131 -0.10807288 0.009323638 -0.16120353
00000000: 246c 9e3c e3dd 843d 97f1 84be f99b 2dbe
00000010: faf6 5abe 2b38 09be 3e7a 78bd 234c 62bd
00000020: a4ca 9bbd 26ab e63d b0a0 a7bd 290b 5bbd
00000030: a788 ebbd 0938 bcbc 0390 30be 674c 61be
00000040: f1d3 34be 98c0 84be 9ed9 8cbe ce9b 8ebe
00000050: f82e 90bc 5564 71be 7a7f 1bbe 0de8 49be
00000060: 8463 a3bd 3d65 c23d 3e2a 24bc 7147 673d
00000070: a97b ccbc 5055 ddbd 2cc2 183c 8a12 25be

weight f4 [12, 32]
-0.0031361536 -0.09377615 -0.07298072 -0.032684494 -0.013136285 -0.19289039 -0.04273722 -0.05129262
-0.034396507 0.07921688 -0.088493615 -0.03169976 -0.04926283 0.05691085 0.15561208 0.06317123
0.18691139 0.18528877 0.059662197 0.078666784 0.08917314 -0.08696985 -0.11471821 -0.110300995
0.116989605 0.048474424 -0.21121669 -0.054035712 0.029014578 0.09735528 -0.22170055 -0.04155003
0.16690746 -0.09560215 0.09350263 0.10483501 -0.2082919 0.11355803 -0.0611023 0.40138775
-0.036475915 0.2148177 -0.095527455 0.15624635 0.08433016 0.27924266 -0.26794437 0.025221981
0.016912185 0.066477686 0.10596567 0.07658969 -0.10786695 -0.02574769 -0.027699316 0.046832018
-0.025394851 -0.21064192 0.011480991 -0.026655018 0.0005039861 0.0790589 0.05957136 0.09692773
0.105156034 0.06448493 0.001760301 -0.060062896 0.09600904 -0.051024955 -0.19157301 -0.12979086
-0.19417977 0.05256159 -0.16477978 0.13278079 0.065687925 -0.015469836 0.18645802 -0.19365272
-0.06291664 -0.013796599 -0.21692608 -0.18721765 0.38259512 -0.2418672 0.025118098 0.1015061
-0.003450493 0.17877682 0.27724665 -0.1763788 -0.13914597 -0.30070648 -0.017913543 0.08760262
0.10917439 0.02554576 0.066006444 -0.023128431 -0.05441096 -0.055773914 0.16224907 0.09425074
-0.09302826 0.07799557 0.105602086 0.003145279 -0.00090783683 -0.021096023 -0.07017883 -0.13565482
0.102328494 0.020061016 0.21120848 -0.08148253 -0.0318975 0.035179786 -0.068362534 -0.21588746
-0.009909677 0.17032322 -0.007647591 -0.18582943 -0.027635127 0.054349467 0.010085838 -0.15498085
0.20652151 -0.08076962 -0.15059431 -0.07264474 0.17671934 0.16546147 -0.105057344 0.002561142
0.029851014 -0.17210378 0.16433205 0.2267054 -0.038304914 0.01048907 0.14822097 0.09175902
-0.08410024 0.036493134 -0.007829511 0.046694115 0.09415452 0.2012695 -0.10413608 -0.08434077
0.22349057 -0.03511371 -0.024041187 0.09655166 -0.12692367 0.31446746 0.021863036 -0.15229598
0.020400384 0.11950705 0.11264437 0.014172398 0.002183174 0.18303664 0.51175374 0.13825473
-0.10123366 -0.06549307 6.380338e-05 -0.12579595 -0.0192945 -0.031483572 0.03946329 -0.08034658
0.010538666 -0.012768814 -0.021810977 -0.2637039 -0.07596307 -0.05254576 0.22673662 0.26213086
-0.076428205 -0.07769209 0.036227476 0.22225276 0.22879343 0.19284241 -0.26584506 0.01091888
0.10103042 -0.008301592 -0.01943997 -0.027937857 0.17711942 -0.019726051 -0.17299223 0.02145974
-0.046175253 -0.14258118 -0.13903162 0.04629894 -0.061643906 -0.06320591 0.03009897 -0.027089367
-0.2517429 0.17333244 0.035927773 0.0740352 0.0050428906 -0.025050525 0.07149191 -0.02956495
-0.11517041 -0.009181518 -0.04412381 0.1447509 0.022449873 -0.2516692 0.11166513 -0.05923507
0.036138378 -0.16339783 -0.26307252 -0.084188476 0.096908376 -0.09144422 0.067572795 0.10387416
0.09650288 0.2628357 0.027751029 -0.020697424 0.15066297 0.034357954 -0.10255522 0.13262837
-0.12958492 0.018495264 -0.15951167 -0.059451617 0.0496444 0.069209985 0.017874088 0.044389375
0.12614109 -0.045595475 0.14950277 -0.15490334 0.16468054 0.09576061 0.06253572 0.12863538
00000000: ed87 4dbb b60d c0bd ea76 95bd 2de0 05bd
00000010: 9339 57bc 0f85 45be 390d 2fbd 3618 52bd
00000020: 5ae3 0cbd 763c a23d 243c b5bd 9cd7 01bd
00000030: d2c7 49bd 5a1b 693d c658 1f3e eb5f 813d
00000040: b365 3f3e 57bc 3d3e 5960 743d 0d1c a13d
00000050: 68a0 b63d 401d b2bd 62f1 eabd 7de5 e1bd
00000060: 3f98 ef3d 1e8d 463d 3049 58be 8d54 5dbd
00000070: fbaf ed3c 3462 c73d 7805 63be 5d30 2abd
00000080: cae9 2a3e 0fcb c3bd 4f7e bf3d bdb3 d63d
00000090: 794a 55be 1d91 e83d 6846 7abd b282 cd3e
000000a0: c567 15bd 2cf9 5b3e e6a3 c3bd 0bff 1f3e
000000b0: 4ab5 ac3d e5f8 8e3e 0130 89be 549e ce3c
000000c0: 6c8b 8a3c 7425 883d 8704 d93d 0edb 9c3d
000000d0: 59e9 dcbd d2ec d2bc ade9 e2bc eed2 3f3d
000000e0: dd08 d0bc 84b2 57be c41a 3c3c a05b dabc
000000f0: ef1d 043a a2e9 a13d 1901 743d 0c82 c63d
00000100: 0c5c d73d ad10 843d e6b9 e63a 8304 76bd
00000110: 63a0 c43d 8bff 50bd b72b 44be e5e7 04be
00000120: 10d7 46be d24a 573d 08bc 28be b0f7 073e
00000130: 6487 863d 3275 7dbc daee 3e3e e64c 46be
00000140: 70da 80bd 210b 62bc df21 5ebe fcb5 3fbe
00000150: 82e3 c33e 09ac 77be 78c4 cd3c 6ee2 cf3d
00000160: ab21 62bb 4511 373e 46f3 8d3e a59c 34be
00000170: 487c 0ebe 33f6 99be 6cbf 92bc 0169 b33d
00000180: d396 df3d 5745 d13c 632e 873d d677 bdbc
00000190: 07de 5ebd 3073 64bd 9f24 263e 8806 c13d
000001a0: 9a85 bebd 24bc 9f3d e845 d83d 0621 4e3b
000001b0: e6fb 6dba 91d1 acbc ebb9 8fbd 19e9 0abe
000001c0: 9a91 d13d 0057 a43c 0947 583e 50e0 a6bd
000001d0: f4a6 02bd ae18 103d a801 8cbd 9a11 5dbe
000001e0: 335c 22bc 3669 2e3e a598 fabb 124a 3ebe
000001f0: 1063 e2bc 8c9d 5e3d 123f 253c 4db3 1ebe
00000200: 607a 533e 8b6a a5bd 6535 1abe c4c6 94bd
00000210: eaf5 343e bb6e 293e 4e28 d7bd d5d8 273b
00000220: 1d8a f43c f93b 30be a946 283e 7625 683e
00000230: 9de5 1cbd 59da 2b3c 3dc7 173e 27ec bb3d
00000240: bf3c acbd d379 153d 5947 00bc 5442 3f3d
00000250: 16d4 c03d 9819 4e3e 4c45 d5bd dbba acbd
00000260: b6da 643e 65d3 0fbd 06f2 c4bc e0bc c53d
00000270: 47f8 01be e101 a13e 1c1a b33c 7af3 1bbe
00000280: b51e a73c 1dc0 f43d 17b2 e63d 5833 683c
00000290: 9513 0f3b f56d 3b3e 4b02 033f a692 0d3e
000002a0: 9853 cfbd 3b21 86bd 2ece 8538 a7d0 00be
000002b0: 800f 9ebc ebf4 00bd 42a4 213d bf8c a4bd
000002c0: 5eaa 2c3c 4a34 51bc efac b2bc 3304 87be
000002d0: 8792 9bbd 393a 57bd a52d 683e 0436 863e
000002e0: 6486 9cbd 081d 9fbd 4363 143d 3a96 633e
000002f0: d348 6a3e 7b78 453e d81c 88be 1ae5 323c
00000300: 09e9 ce3d 6703 08bc 9240 9fbc efdd e4bc
00000310: cb5e 353e 8798 a1bc e024 31be 56cc af3c
00000320: 4322 3dbd cd00 12be 4e5e 0ebe f5a3 3d3d
00000330: 527e 7cbd 1a72 81bd 1d92 f63c 85ea ddbc
00000340: 72e4 80be 0f7e 313e 0029 133d c49f 973d
00000350: d53e a53b c236 cdbc 5a6a 923d 3232 f2bc
00000360: 77de ebbd 146e 16bc 2bbb 34bd 9439 143e
00000370: cce8 b73c c9da 80be b0b0 e43d 79a0 72bd
00000380: d605 143d c351 27be 71b1 86be 026b acbd
00000390: e677 c63d 1b47 bbbd 9b63 8a3d fabb d43d
000003a0: 4da3 c53d 6792 863e 2056 e33c a58d a9bc
000003b0: 6547 1a3e edba 0c3d 7908 d2bd bbcf 073e
000003c0: e9b1 04be 6183 973c 0757 23be 8a83 73bd
000003d0: ed57 4b3d f7bd 8d3d ae6c 923c a2d1 353d
000003e0: 212b 013e 52c2 3abd 4117 193e fb9e 1ebe
000003f0: 04a2 283e 241e c43d ba12 803d feb8 033e

bias f4 [12]
0.11730731 -0.23742072 0.02434672 0.28275764 -0.5466625 -0.45826167 -0.058359284 -0.10144195
-0.13518427 0.14702219 0.24953249 -0.23107433
00000000: d13e f03d 6b1e 73be c672 c73c 9cc5 903e
00000010: 13f2 0bbf 46a1 eabe 250a 6fbd ccc0 cfbd
00000020: bf6d 0abe fc8c 163e 7285 7f3e c09e 6cbe
