deploy/networks/go2/bambi4.pt (torch, 79240 bytes, 8 tensors)

weight f4 [128, 48]
000000 0b 1e fe 3e e9 01 82 3c 31 20 77 be 63 c1 84 bd
       0.49632296 0.015870051 -0.24133374 -0.06482198
000010 45 25 40 3f 22 54 4b 3f 07 07 96 be e6 53 8f be
       0.7505687 0.7942525 -0.29302236 -0.27993697
000020 2b 09 80 3e 29 6b 2a bf e7 24 2c be e0 31 62 bf
       0.25006995 -0.66569763 -0.16810952 -0.88357353
000030 37 c7 a1 3e c9 53 75 be de 46 d9 3d eb d8 56 3e
       0.315973 -0.23957743 0.1060922 0.20981185
000040 65 78 c7 3d 53 1f a9 be 5c a7 bf be da 85 1d 3e
       0.0973976 -0.3303171 -0.37432373 0.15383092
000050 03 22 c8 3e 9e 32 bd 3e a2 48 00 be 38 d5 0e 3f
       0.3908845 0.3695268 -0.12527707 0.55794096
000060 b1 6a 7f 3e d7 83 5b be 4a f3 91 3e 75 9d 26 3e
       0.24943043 -0.21437012 0.28505927 0.16271003
000070 9e 39 8b 3e 7c 06 34 be 89 f2 a1 3d 1f 5a 5e be
       0.27192396 -0.17580599 0.07907588 -0.21714066
000080 9a ee 48 3e 46 ee 30 bf 4b 06 34 3e 56 13 30 be
       0.1962227 -0.69113576 0.17580526 -0.17194876
000090 7e bb 5a 3e d3 97 d0 bd 2c 5a 16 3e 34 9c 9e 3e
       0.21360585 -0.10185208 0.14682835 0.3097855
0000a0 d5 c0 7e 3b 52 68 2f be b9 75 97 bd 91 60 0b be
       0.003887226 -0.17129639 -0.07395501 -0.13611056
0000b0 4b ab 48 3d de 9f 34 3d 1d 40 d2 3d 36 f4 78 be
       0.048991483 0.044097774 0.10266135 -0.24311909
0000c0 ba ab a7 3c 5c 28 68 3e 2c ed 95 3e c4 8f 84 be
       0.020467628 0.22671646 0.2928251 -0.25890934
0000d0 c9 03 49 3e 2b 7e bb be 52 15 36 3f 6b 4d 44 3d
       0.1963035 -0.36619696 0.7112628 0.047925394
0000e0 01 a2 1e 3e 14 fe 63 be 82 c8 b9 be 40 94 b3 3e
       0.15491487 -0.22264892 -0.36285788 0.35074043
0000f0 fc bd 7e 3d 50 d5 20 bf 60 62 0d bf 11 13 44 bf
       0.062192902 -0.6282549 -0.55228233 -0.76591593
000100 25 26 31 3e 03 1f 01 bf 86 b2 9c 3d a9 17 1e be
       0.17299707 -0.50437945 0.07651238 -0.15438713
000110 e3 25 85 3e a1 6f 1b 3e e5 c7 2f be ac fb d0 3d
       0.26005468 0.15179302 -0.17166097 0.102042526
000120 b4 a7 30 be 8f 4e 09 3f d5 a8 7e be e9 4e 04 bf
       -0.17251474 0.53635496 -0.24869092 -0.5168291
000130 e0 90 0c 3e df 7a 84 3d ca 48 2a be 47 98 1f bf
       0.1372714 0.06468748 -0.1662933 -0.6234173
000140 6f 63 1a 3f 53 7e b8 be 94 4a 0e 3e b2 fd 85 3c
       0.60307974 -0.36033878 0.13895637 0.016356323
000150 a1 da a2 3d ef 30 50 bc 58 92 02 bd cf 2f e2 3d
       0.079518564 -0.012706979 -0.031877846 0.11044275
000160 6f 42 1e 3e 79 ff 05 3d cf 70 c9 bd 03 79 38 be
       0.1545503 0.03271434 -0.0983597 -0.18014912
000170 ef 35 b5 3d b0 50 49 be 47 98 a4 3d 9d 24 2c bd
       0.08848178 -0.19659686 0.08036857 -0.042027105
000180 0f 5c f5 3d 50 16 cd bd 17 51 63 be c3 cd 67 3e
       0.119804494 -0.100140214 -0.22198902 0.22637086
000190 3d d9 a2 be 47 24 bb 3f 51 58 a2 be 81 82 3c be
       -0.31806365 1.4620446 -0.31708005 -0.18409158
0001a0 aa 00 94 3c 6d c5 b4 be a2 28 ba 3e 8a 50 fd bf
       0.018066723 -0.35306874 0.36359125 -1.9790204
0001b0 5f 36 15 3f d2 a7 83 3e bb 8a b8 3d cb bf 54 3f
       0.5828609 0.25713974 0.09010836 0.8310515
0001c0 72 e8 0f bf fe 10 46 be 74 f9 9b 3d 33 a2 a0 bd
       -0.5621406 -0.1934242 0.07615939 -0.07843437
0001d0 96 5c 25 3b 64 0f c0 bd 73 1d 27 bf 8c 4a 60 3e
       0.0025232187 -0.093779355 -0.6527931 0.21903437
0001e0 c3 4f b8 3e 6b fd 53 3d e3 11 b3 3d 6e 23 19 3e
       0.35998353 0.05175535 0.08743646 0.14954922
0001f0 86 12 a8 be fc 5d 8b be 11 f1 a7 3e 6f a7 73 3d
       -0.32826632 -0.27220142 0.32801107 0.05948585
000200 39 28 63 bd cd 09 60 bd d2 5e 62 be 77 25 48 3e
       -0.05545828 -0.054696847 -0.22106484 0.19545542
000210 ad d7 55 3c b7 53 cb bb 67 65 12 be 0c c8 da 3c
       0.013051909 -0.006205048 -0.14296494 0.026706718
000220 98 16 e1 3c fe 64 7f 3d f4 2c 3d 3d b9 7c ab 3b
       0.027476594 0.062352173 0.04618545 0.005233374
000230 38 47 78 bd be 30 fc bd 4e cc 7f bd c8 3a 1a 3d
       -0.060614794 -0.12313984 -0.0624507 0.037653714
000240 e3 c0 b6 bd 0f 9b 9e 3d 6b 41 1f bd 4d 83 50 be
       -0.08923509 0.07744419 -0.038880747 -0.20362587
000250 02 b6 5b be d8 e9 9d 3e 0f 57 54 3d 13 f2 2c 3f
       -0.21456149 0.3084247 0.051840838 0.67556876
000260 99 bc 93 3d 0c 77 13 3f f3 55 f0 be 5b 34 9a be
       0.072137065 0.57603526 -0.46940574 -0.3011807
000270 53 02 0f be 9b f3 d8 be 5e 15 43 3d e8 3b de bc
       -0.1396573 -0.42373356 0.0476278 -0.027128175
000280 f1 21 2c bf 26 f8 c0 3d 3c dd e5 3c c1 3d 48 3e
       -0.6723929 0.094223306 0.028059594 0.19554807
000290 6b 1e ad 3e df 13 43 3f 26 8b 35 be e2 a0 f7 3d
       0.3381227 0.76202196 -0.17728862 0.12091233
0002a0 81 74 8c be 06 74 8b 3e df 6e 8d be 7b ba 6a be
       -0.27432635 0.27236956 -0.2762365 -0.22922699
0002b0 5d 7e 86 3d e4 43 f0 3e 2f c5 f2 bc 50 a7 0d 3e
       0.06567071 0.46926796 -0.02963504 0.13833356
0002c0 e5 d2 a3 be 3d f8 06 3e 6b 4f dc be fe 49 da be
       -0.31996837 0.13180633 -0.4302934 -0.42634577
0002d0 2b 42 70 bd 18 a7 5e 3e 05 e6 21 bd 06 ca 77 bd
       -0.058656853 0.21743429 -0.039526004 -0.0604954
0002e0 77 9d b1 3d ed 21 33 3e 17 ab 9a be 21 e7 99 3d
       0.08672612 0.1749341 -0.30208656 0.075147875
0002f0 45 34 af bd 49 49 5d 3e 91 49 03 be 5b 06 5b bc
       -0.085548915 0.21609987 -0.12821032 -0.0133682145
000300 cd 0a 82 3d 7d da 1e 3e 24 df 51 3e 85 e4 bb be
       0.06349716 0.15513034 0.20495278 -0.36697784
000310 77 c3 39 bf 0a 74 dc 3d 3c 89 82 bf 99 3b e4 3e
       -0.7256388 0.1076432 -1.0198131 0.4457672
000320 40 cb 02 3e 91 06 29 be 2b 03 7e bd 54 d1 b1 3e
       0.12772846 -0.16506411 -0.06201474 0.34730017
000330 e4 6e 10 bf 3b a9 50 bf 65 72 8a bd 3c 69 8c be
       -0.56419206 -0.81508225 -0.067601 -0.27424037
000340 0f 62 c9 bd 99 94 7c 3e db 43 c9 be eb 48 3f bf
       -0.09833156 0.2466606 -0.39309582 -0.7472064
000350 f0 73 db bd 5b b0 be bd 31 52 2e bf d7 82 3c 3e
       -0.10715473 -0.09310981 -0.68094164 0.18409286
000360 e4 e4 08 be aa f2 0e 3e 91 99 96 3e 42 61 ac be
       -0.13368565 0.13959756 0.29414037 -0.33667952
000370 2b aa 95 3e 61 a1 19 be 85 6b 86 be 15 b6 3e bf
       0.2923139 -0.15002967 -0.26253906 -0.74496585
000380 80 49 df 3d e4 50 2a 3e ec f5 1c be 11 35 07 bd
       0.10902691 0.1663242 -0.15328187 -0.033009592
000390 19 b4 bd 3c 6f 68 82 bc ba 48 b8 3c 17 2e fc bd
       0.023157166 -0.015918938 0.022495616 -0.123134784
0003a0 8e 7c fb bc 51 86 3e bd 80 f9 c1 bd bb 0c 90 bd
       -0.03069904 -0.046514813 -0.094714165 -0.07033678
0003b0 55 f5 c1 bd a0 44 c7 3b ea f2 2a 3e d9 be b8 3c
       -0.094706215 0.006081179 0.16694227 0.02255194
0003c0 91 a1 ff 3d 52 43 76 be 5f 32 9b 3e 89 41 d4 bc
       0.12481988 -0.24049118 0.30311868 -0.025910156
0003d0 62 f5 70 3f c1 d2 44 bd 38 b0 8b bd 8d 69 87 3e
       0.94124424 -0.048052553 -0.068207204 0.26447716
0003e0 ac 48 4f 3e 05 e6 98 bc 27 8e 3b bc a0 b9 b9 be
       0.20242566 -0.01866437 -0.011447466 -0.36274433
0003f0 31 aa 09 3f 17 c1 f2 be 13 8e 34 be 6c 5b 12 3f
       0.53775316 -0.4741294 -0.17632322 0.5717075

bias f4 [128]
000000 8e a8 6f bb c6 f8 08 be 81 64 3e bd 0f 9e e4 bd
       -0.0036568972 -0.1337615 -0.046482567 -0.1116296
000010 d2 b7 36 be d2 39 90 be 65 be 8c be 0d c0 1a be
       -0.1784356 -0.28169113 -0.2748901 -0.15112324
000020 e8 91 6b be fb d2 1c be 27 af 57 be af d2 a0 3d
       -0.23004878 -0.15314858 -0.21062909 0.07852685
000030 e1 d1 8f 3d 0c 69 20 3d 1d 8f b2 3d 2a b3 6e be
       0.07022453 0.03916268 0.08718703 -0.23310533
000040 b8 36 b0 3d 5b 42 3a be a4 38 90 bd a6 fe cc 3d
       0.08604187 -0.18189375 -0.07042053 0.10009508
000050 76 a4 c4 bd e4 36 31 be bd 9f 06 be 41 42 92 3d
       -0.09601681 -0.17306095 -0.13146873 0.07141543
000060 61 d5 95 3e 05 7c 36 3e 62 23 dc bd cf 52 66 bd
       0.29264358 0.17820747 -0.10748936 -0.056231316
000070 6b 5b 2d be 56 7a bc bc ea 95 5e 3d 6b 6c 07 be
       -0.16929404 -0.023007553 0.054342188 -0.13224952
000080 8d 89 23 3d 56 d1 7c bd 8f e1 b8 bd a7 15 ab 3d
       0.0399261 -0.061723076 -0.09027397 0.08353739
000090 2b 4b 95 bb d7 ea a5 3c 42 db 6c 3e c0 6a b9 bd
       -0.00455608 0.020253582 0.23130515 -0.09053564
0000a0 f5 c2 56 3d 81 4c f6 3d 31 a3 ee 3c 73 15 10 b9
       0.05243202 0.12026311 0.02913055 -0.000137409
0000b0 57 5c 2e 3d 88 4c 52 be b9 bd 57 bc b1 d5 59 be
       0.04256853 -0.20537007 -0.013167792 -0.21272923
0000c0 cb f5 eb bc 93 84 e5 3d 81 c0 c4 3d 34 23 08 bd
       -0.028803727 0.11206927 0.0960703 -0.033236697
0000d0 6c 62 86 bc ad a5 d3 3c dc 82 3c bd 4a a3 59 be
       -0.016404353 0.025835836 -0.046023235 -0.21253696
0000e0 dc 39 79 be d8 d4 21 be 1a 60 ff bd a3 61 2e 3d
       -0.24338478 -0.1580385 -0.12469502 0.042573582
0000f0 c8 27 57 3d b3 8b fa 3d 05 ff 08 be 78 b9 a8 bd
       0.052528173 0.12233677 -0.13378532 -0.082385
000100 c7 81 d7 3d e5 ec 05 be 1b c8 1d be 3c 7b 86 bd
       0.105228 -0.1307865 -0.15408365 -0.06566474
000110 1e ae 46 be b4 ca 3b bc 91 47 2a 3e ef 63 74 bc
       -0.19402358 -0.011461902 0.16628863 -0.014916404
000120 0e f5 56 be 65 f5 03 be f9 62 3c be 72 e0 5d 3d
       -0.20991918 -0.1288658 -0.1839713 0.054169126
000130 6f af 25 bd fb a7 7a bd 27 8d 66 be 82 85 a9 bd
       -0.04045051 -0.061195355 -0.22514783 -0.08277418
000140 da 1b d5 3d 5b 8f 53 be a0 a3 55 bd ac 14 43 be
       0.10405703 -0.20660155 -0.052157998 -0.19050854
000150 ca 22 88 be 12 84 57 be 53 06 5e 3d 49 b0 72 be
       -0.26589042 -0.21046475 0.05420525 -0.2370006
000160 c9 e1 39 be 15 03 2e be 38 89 df bd 2c 6f 80 be
       -0.18152536 -0.16993363 -0.10914844 -0.25084817
000170 b4 c0 e7 bc 84 e9 9b be a0 81 e2 3c 69 6d 19 3c
       -0.02829013 -0.30451596 0.0276497 0.009364464
000180 72 e6 4c be 52 39 d4 3b 47 c3 f8 bc 6b c1 53 be
       -0.20009783 0.0064765597 -0.030366553 -0.20679252
000190 42 69 7a 3d 78 81 d6 bd 48 1a f8 bd b8 31 ee 3c
       0.061135538 -0.10473913 -0.12114388 0.029076442
0001a0 cd d3 0b be 39 81 2e be df 08 99 3d 6e 1a 49 be
       -0.13655014 -0.17041482 0.07472395 -0.19638988
0001b0 2f 8d 0d be 52 f3 2e 3c d8 d3 50 be 42 dd 2a 3e
       -0.13823389 0.010678129 -0.20393312 0.16685966
0001c0 8b fb 99 3a 0a 23 09 3e fe b4 22 be 5d 2b bc be
       0.0011747939 0.13392273 -0.15889356 -0.36751834
0001d0 e7 95 10 be 13 de 55 be 10 16 36 3d 9a f1 a1 3d
       -0.14119683 -0.20885496 0.044454634 0.0790741
0001e0 b2 6d ed 3c 65 ac 63 3e b7 ea 25 3e 26 8f af be
       0.02898297 0.22233732 0.16202818 -0.342889
0001f0 e6 3c 89 be 0f c1 28 bd 3b bc a1 3d ed fd 50 bc
       -0.26804274 -0.04119974 0.0789723 -0.012755853

weight f4 [64, 128]
000000 fd d4 96 bd 1b 01 fc be 54 0e 31 3e cb bb bc bd
       -0.07364843 -0.49219593 0.17290622 -0.09215506
000010 26 f5 12 be 6c 6d 70 3c e5 3d 52 3e 25 70 f6 3a
       -0.14351329 0.014674526 0.20531423 0.0018801732
000020 1c 7e 3e 3e 09 8c 9a 3d 27 1a fb 3c 2e 75 57 bd
       0.18602794 0.07546241 0.030652119 -0.052601986
000030 02 21 38 3d db c8 9a 3e 17 96 44 3d fc 54 3a be
       0.044953354 0.30231366 0.0479947 -0.18196481
000040 fc bf 5e be 64 75 bf 3c 74 4a 96 bd 6d 6b 00 3e
       -0.21752924 0.023371406 -0.073384196 0.1254098
000050 4f 73 5d 3d 8a 50 0e be fb b5 0d be 24 3d 1f be
       0.054065045 -0.1389791 -0.13838951 -0.15550667
000060 54 95 3d be 08 b8 07 be 4f 7d 02 3e 90 0c 3c 3e
       -0.18513995 -0.13253796 0.12743114 0.18364167
000070 37 90 d2 bd 06 d1 dd bd 11 46 4c be 9a a2 54 3e
       -0.10281413 -0.10830884 -0.19948603 0.20765153
000080 f2 89 a4 be e9 47 5e bc 94 1d 77 be b1 6a 97 3d
       -0.32136494 -0.013566949 -0.24132377 0.07393397
000090 4c 00 78 be c3 03 3a be 99 7f 00 bd 7d 42 36 bd
       -0.24218863 -0.18165497 -0.031371687 -0.044497002
0000a0 11 81 82 3d 6b fe 9f 3d 42 b6 c1 3c ba a7 cb bc
       0.06372274 0.07812198 0.023646478 -0.024860252
0000b0 01 8a 16 3d c3 99 50 3d c3 e5 71 3e 20 b0 41 be
       0.036752705 0.05092789 0.23622803 -0.18914843
0000c0 52 16 6a 3d 46 e3 31 3e af ce 25 be 74 23 b1 bb
       0.057150193 0.17371854 -0.16192125 -0.0054058377
0000d0 05 62 ba 3d 07 f5 5c 3e f9 b2 b9 bd 23 2f 97 3d
       0.09100727 0.21577846 -0.090673395 0.073820375
0000e0 4f 2d fb bd a0 8f 65 be dd 63 a3 be 58 d8 ba 3b
       -0.12264501 -0.2241807 -0.31912127 0.0057020597
0000f0 f6 ae 4a be 3f 21 90 be be d4 1f 3e f1 27 ee 3c
       -0.19793305 -0.28150365 0.15608498 0.02907178
000100 46 82 d7 be 2f e8 84 bc 0e d2 18 3e db 08 14 3e
       -0.42091578 -0.016223995 0.1492388 0.14456503
000110 c8 b3 1f be c8 df 45 3e f2 c1 71 be 91 79 d6 bd
       -0.15595925 0.19323647 -0.2360914 -0.10472406
000120 40 23 85 bd a3 72 07 be f8 78 79 3d 5e c0 c9 3d
       -0.06500864 -0.13227324 0.06090638 0.09851144
000130 cc 9a 31 bc d9 92 3a 3e 11 d3 60 be fb 82 92 3e
       -0.010840129 0.1822008 -0.21955515 0.28615555
000140 d5 a0 8e be e7 5a 17 be fa f9 1c 3d fe 11 1a be
       -0.2785708 -0.1478077 0.038324334 -0.15045926
000150 f1 7f 94 3d db 4a 78 3d 67 22 a0 3e 40 8b 20 3d
       0.072509654 0.060618263 0.31276247 0.0391953
000160 9e 8f 48 3e 71 67 47 be d4 80 0c 3c 14 93 0e 3e
       0.19586036 -0.19473054 0.008575637 0.13923293
000170 55 c9 c9 3c 09 0e a2 bd d1 5f 09 3d 52 85 f6 bc
       0.024632135 -0.07912833 0.033538643 -0.030092869
000180 7b 74 2e 3d 9c b3 04 be 74 38 7b be 2e 53 b2 3b
       0.042591553 -0.1295914 -0.24533254 0.0054420447
000190 fa 3f 1d 3b ed c9 fe 3c c5 07 86 be ed 8c be bd
       0.0023994432 0.031102145 -0.26177803 -0.09304223
0001a0 30 dc b9 bc f3 ca f7 bd e5 d2 1e 3d 68 f7 67 be
       -0.022688001 -0.12099256 0.038775343 -0.22652972
0001b0 fd 90 03 3e 08 fc c6 bd 7d da ba be 15 0a 6a bc
       0.12848277 -0.0971604 -0.36494818 -0.01428463
0001c0 df 30 08 3e c9 9a ae 3c ff 9a e3 3e 51 b0 e1 3d
       0.13299893 0.021314042 0.4445419 0.11019958
0001d0 16 94 29 3e 4b c8 e1 3d e4 a9 c4 bd 35 c1 04 be
       0.16560397 0.11024531 -0.096027166 -0.12964328
0001e0 5d bb 2a 3e 7f 43 21 be 3a b0 dc 3d a9 f5 86 3d
       0.16673036 -0.15748404 0.107758 0.06589825
0001f0 44 13 6e 3e 3e 97 f6 3d 66 5a e8 3d 18 73 70 3d
       0.23249537 0.12040566 0.11345367 0.058703512
000200 bc 59 48 bb f7 27 00 3e d0 de 4a bd 74 66 c2 3d
       -0.0030571064 0.12515245 -0.049528897 0.09492198
000210 34 80 09 be ec cc 2a be 51 e0 ae bd e6 58 d2 be
       -0.13427812 -0.16679734 -0.08538879 -0.4108345
000220 1e f8 eb bd fd 75 ba bd 0e f6 bd bc 97 db f9 3b
       -0.11521934 -0.09104536 -0.023188617 0.007625054
000230 fa 33 65 3e 12 05 f1 be 86 92 17 3c ae f4 f9 bd
       0.22383109 -0.4707418 0.0092512425 -0.12204872
000240 84 55 c8 3d 4a 72 44 bd 9f 75 a8 be 03 4b 38 be
       0.09781936 -0.047960557 -0.32902238 -0.17997365
000250 ce ba 39 3e ff 4b dc 3d 02 c8 68 bc f1 68 44 3d
       0.18137667 0.107566826 -0.014207842 0.047951642
000260 fa f3 7d 3e 0d e5 75 be fe b6 29 be c9 e5 a2 be
       0.24800101 -0.24013157 -0.16573712 -0.31815937
000270 e1 57 01 be 38 f0 20 3e 11 d8 21 be 2f 21 11 3e
       -0.1263118 0.15716636 -0.15805079 0.14172815
000280 85 21 47 3e ce f8 c9 3d 02 4e 91 3e 44 25 09 bd
       0.1944638 0.09861909 0.28379828 -0.033482805
000290 07 1c f9 3c b7 be 9c 3e 83 36 66 3e 91 88 75 bd
       0.030408872 0.30614254 0.22481732 -0.059944693
0002a0 01 fd c0 be b5 c1 97 3d 5c 79 47 3e b0 51 f4 bd
       -0.37693027 0.074099936 0.19479889 -0.11929643
0002b0 10 7c 0f 3e 71 55 9a 3e 50 29 ac be 4f 03 18 3e
       0.1401217 0.30143312 -0.3362527 0.14845012
0002c0 b1 cc 33 3d 80 ed 06 3e 32 87 de be 92 29 70 3e
       0.04389638 0.13176537 -0.4346252 0.23453358
0002d0 3b 11 1c be 1c bf b3 3e 5a 1e 8a 3e da c9 bc 3e
       -0.15240948 0.35106742 0.2697628 0.3687275
0002e0 36 35 70 3d 5d b0 c0 3c 97 de 29 3d c5 0d 83 3e
       0.058644496 0.023521597 0.041472044 0.25596443
0002f0 0a f2 8a bd 1b b2 47 be 30 ef ae bb 08 29 2a 3e
       -0.067844465 -0.19501536 -0.005338572 0.16617215
000300 64 a8 4a be 7f cf 9e bc 9d 2e b0 3e 78 d4 53 be
       -0.19790798 -0.019386051 0.34410563 -0.20686519
000310 c5 9c fd 3c 80 95 f2 bd bd f1 a9 bc 8b 5f 8a be
       0.030958543 -0.11844921 -0.020745153 -0.27026019
000320 c3 f8 0e bd 79 c1 48 bd 47 73 9b 3d 6f 15 09 be
       -0.034905206 -0.049012635 0.07590347 -0.13387083
000330 50 87 d5 bb 07 6d 2e 3d fb 67 d5 3d 14 0c 97 be
       -0.0065163746 0.042584445 0.10420223 -0.29501402
000340 6c 01 3c bd fd c3 df be 09 92 d7 3d 66 ad a8 be
       -0.045899794 -0.43704215 0.10525901 -0.32944793
000350 e4 31 9d 3e 01 44 2d 3e 31 7e e9 bd bd 5b 18 bd
       0.30702126 0.16920473 -0.11401022 -0.037196863
000360 c3 28 a4 bd e9 71 6d 3e 95 fb 22 be d9 fa aa 3c
       -0.08015587 0.23187985 -0.15916283 0.020871567
000370 51 0d 87 3e d4 20 0b 3e 5b e7 7a 3e 2d 02 50 3e
       0.26377347 0.13586742 0.24502318 0.2031333
000380 35 4a 14 bd 4d 17 b5 3e 5b 4c 0f be d9 76 9c bd
       -0.03620358 0.3536934 -0.13993971 -0.07639856
000390 ba 64 05 3e 1f f0 53 be db ed a4 bc c2 8b b0 3c
       0.13026705 -0.20697068 -0.02013295 0.021551017
0003a0 bf d6 59 be 59 64 63 3d bb 62 16 be 09 ad 55 be
       -0.21273325 0.05551562 -0.146861 -0.20866789
0003b0 97 12 7d 3e d8 bb ce 3c 4f 03 42 bd 56 52 70 be
       0.24714123 0.025236055 -0.047366437 -0.23468909
0003c0 5d 2a 3b 3e 60 31 34 be 6d 33 f4 bc 1e 86 0b 3e
       0.18277879 -0.1759696 -0.029809678 0.1362538
0003d0 28 2f 5c 3e 05 1b 53 3e a1 39 29 bd a5 0c 4d be
       0.21502364 0.20615776 -0.041314725 -0.20024355
0003e0 c2 3d ba 3d c4 dc a8 3d 9b 56 37 bd 04 b3 bf 3b
       0.090938106 0.08245233 -0.044760328 0.0058501977
0003f0 28 34 33 be 51 68 92 3b 42 0e 94 bd 0b 72 ef bd
       -0.17500365 0.004468002 -0.07229282 -0.11691674

bias f4 [64]
000000 3b f5 b6 bd 4c 93 37 be 3e 52 80 bd a4 c8 61 be
       -0.08933493 -0.17927283 -0.062656865 -0.22049195
000010 7d f7 cb bd fe 24 1c bc f1 1a 93 bd e2 80 59 be
       -0.09959314 -0.009530304 -0.07182873 -0.21240571
000020 07 25 76 be ec 65 a9 be db 98 83 be d1 d2 29 3c
       -0.24037562 -0.33085573 -0.25702557 0.010365204
000030 2d cc 40 be b9 fc 0c bd 92 d1 70 be f6 b3 1f bd
       -0.18827887 -0.034420703 -0.23517445 -0.038989983
000040 78 6e cd bd 5b 71 b4 bd d3 5f 22 be 35 28 31 be
       -0.10030836 -0.08810683 -0.15856867 -0.17300494
000050 77 e0 3e be 14 69 9c ba 4f d4 1e be 2f 8d 64 be
       -0.18640314 -0.0011933171 -0.15510677 -0.22319482
000060 8c f9 45 be ca 08 79 bd 84 1e 10 be 90 a4 1c be
       -0.19333476 -0.060799398 -0.14074141 -0.1529715
000070 88 c0 c9 bd fd 04 eb bc 02 c4 cb 3c c8 82 21 be
       -0.098511755 -0.028688902 0.024873737 -0.15772545
000080 01 41 a4 be aa 62 60 be a3 38 bd bd 6c d7 c0 3c
       -0.32080844 -0.21912637 -0.09239318 0.023540221
000090 21 63 9a be 64 48 51 bc a9 b6 c4 bd 93 a4 20 be
       -0.30153754 -0.012773607 -0.09605152 -0.1568778
0000a0 fa 18 4a be 0e 4f 3f be e5 3c 8a bd d5 a1 d3 bd
       -0.1973609 -0.186825 -0.06749896 -0.103336014
0000b0 37 0a ee bd 2c 74 e5 be 44 ce 34 be 88 2a fe bd
       -0.11623042 -0.44815195 -0.17656809 -0.12410456
0000c0 3a cd 08 be 8a 14 ba bd 06 54 01 be 6d aa 37 be
       -0.13359538 -0.09085949 -0.12629709 -0.17936106
0000d0 dc 6a 70 be c1 58 ba bd 03 f3 06 be 7b 28 84 be
       -0.23478264 -0.0909896 -0.13178639 -0.25812134
0000e0 a1 64 31 bd e1 67 83 be ae c7 81 be ab 9a 9f 3c
       -0.043308858 -0.2566519 -0.25347656 0.019482931
0000f0 f3 22 36 be a4 87 1f be bf c5 5a 3d 25 01 7d bd
       -0.1778677 -0.15579087 0.05341124 -0.06176867

weight f4 [32, 64]
000000 26 1c 2b 3d fa cf af bd 77 40 1a be 42 f7 46 be
       0.04177489 -0.0858459 -0.15063654 -0.19430259
000010 26 82 2f 3d 25 7d dd bd 79 b7 1f be 4d b3 28 be
       0.04284873 -0.10814885 -0.15597333 -0.16474648
000020 62 b2 85 3d 24 ee 39 3e a7 78 39 3e 56 10 ad bd
       0.065281644 0.1815725 0.18112431 -0.084503815
000030 a1 e2 6a bd 97 a3 d2 3c e9 3d 3b 3d 53 43 70 be
       -0.057345036 0.025712771 0.04571334 -0.23463182
000040 55 1f af bd d3 d8 55 3e dd 8f 11 3e c3 f5 d8 3b
       -0.08550898 0.20883493 0.14215036 0.006621094
000050 5c dd 96 bd 6c 69 04 3c 62 2c 5d 3d 4b 8e 15 bd
       -0.0736644 0.008081775 0.053997405 -0.036512654
000060 62 8b e0 3d 59 3a 3d 3e 16 53 43 3d d9 9b 94 be
       0.10964085 0.18479289 0.04768666 -0.29025152
000070 6a 3d b9 3a 5e 43 cb 3b 5b e6 a6 be da 48 0a 3e
       0.0014132683 0.006203099 -0.32597622 0.13504353
000080 7b e2 5c bc d1 88 74 be 19 6c a0 bc e9 bb 0f bc
       -0.0134817315 -0.23880316 -0.019582795 -0.008772829
000090 78 13 db 3d 8e 77 db 3d 7c 66 7d 3e 92 26 93 be
       0.10697073 0.107161626 0.24746126 -0.28740364
0000a0 e5 15 8a 3e 6d ce 46 3d 50 9e aa bd f6 d7 4f 3e
       0.2696983 0.048536707 -0.08330977 0.20297226
0000b0 75 8c 11 bc 6f 28 03 3e 82 58 21 3e 3e 10 eb 3d
       -0.008883585 0.12808393 0.1575642 0.11477707
0000c0 46 a6 ea 3c 09 cb 89 3d 54 94 47 3d 95 b8 8e bd
       0.028643738 0.06728179 0.04872544 -0.069688
0000d0 f4 8f 0c bd c0 28 4c be e7 40 e4 bd d4 d2 4b 3e
       -0.034316972 -0.1993742 -0.11145192 0.19904643
0000e0 51 0a 70 3c 53 8a 35 be c4 18 23 3d cd 79 92 bd
       0.014650897 -0.17728548 0.03981854 -0.07152138
0000f0 e8 0b 47 3e 91 ca c0 bd 80 11 80 3c fb 31 c2 bd
       0.19438136 -0.094136365 0.015633345 -0.09482189
000100 5c 9e 4b be 9c 53 cf bc 8c 8b c3 3c b4 be 22 be
       -0.19884628 -0.025308423 0.023870252 -0.1589306
000110 0e 81 21 3e 5a 30 9e be ad b1 00 be 2f e1 2a be
       0.15771887 -0.30896264 -0.12567778 -0.16687463
000120 33 d3 fa bc 48 56 f5 bc 84 39 3d bc 7a 75 f6 bc
       -0.030618286 -0.029948369 -0.011549357 -0.030085314
000130 be 4a 1e 3e 7a 74 4c 3e d7 e3 d4 bd 52 cf f9 bd
       0.154582 0.19966307 -0.103950195 -0.12197746
000140 9e ee b0 bc dc 51 fc bd f2 ca 2d bf d9 39 28 bd
       -0.021598157 -0.12320301 -0.67887795 -0.041070793
000150 20 16 d3 bd 1a e5 b5 3d e6 ab 14 be 58 09 6a bd
       -0.103069544 0.08881588 -0.14518699 -0.057137817
000160 c6 1d 91 3d 56 03 51 3c 19 a8 a6 be 69 da 97 be
       0.07085757 0.012757143 -0.32550123 -0.2965882
000170 1d ce e2 bd 24 fd 26 be 0b 62 97 3c 93 60 11 be
       -0.11074469 -0.16307503 0.018479368 -0.14196996
000180 90 00 54 3e da 81 38 3e 95 9e f4 3d 5f 79 f7 bd
       0.2070334 0.18018284 0.119443096 -0.120836966
000190 2a 52 1d be 2e a0 ff bd 16 03 b6 be c1 3a 52 3d
       -0.15363374 -0.12481724 -0.3554923 0.051325563
0001a0 b0 b3 51 3d fd 74 28 be 28 79 87 bc b4 9a 08 bd
       0.051196754 -0.16450877 -0.016537264 -0.03335066
0001b0 3f 4a 8b be ef 02 35 bc 10 99 14 be 24 8d 24 3e
       -0.27205083 -0.011048063 -0.14511514 0.16069466
0001c0 b6 9e 18 3d 9d dd ea bd 62 45 f7 3d 76 c2 76 be
       0.037260734 -0.11468051 0.120737806 -0.24097618
0001d0 96 f1 42 3e 0c 38 57 3e 00 53 e0 3d 92 32 bf bb
       0.1903747 0.21017474 0.10953331 -0.005834886
0001e0 0f 5c 75 3c a1 ad 99 3e c2 ea 03 bd 3c 1c f4 bd
       0.014975562 0.3001528 -0.032206304 -0.11919448
0001f0 f7 83 27 3e 30 63 be bd 2f d0 20 be 5b b1 07 be
       0.16358934 -0.09296262 -0.15704416 -0.1325125
000200 dc fc 49 3e b2 e7 7c bd 15 84 d3 bc 9c 99 c2 bd
       0.19725364 -0.0617444 -0.025819818 -0.09501955
000210 42 9e 8e bd 8b 72 73 bd d1 4a af bd 86 65 2a 3d
       -0.06963779 -0.05943541 -0.08559192 0.041600727
000220 4e ff aa 3d c1 74 26 be b6 58 83 be a8 bf 2f be
       0.08349477 -0.16255476 -0.2565362 -0.17162955
000230 b0 d2 9d 3d 1e ad 9b be c6 d3 79 3e c4 db 29 3d
       0.07706201 -0.30405515 0.24397191 0.04146935
000240 5a 7e 25 bd 76 d9 8b be 98 0c 1b 3d d3 56 4c bd
       -0.0404037 -0.27314347 0.037853807 -0.04988749
000250 7f 0e bc bd fe ed 8d be fe 87 ff 3a de 79 57 be
       -0.091824524 -0.27720636 0.0019495485 -0.21042582
000260 f1 e0 79 be d5 48 a3 bd 53 81 ab be 7e 8f a6 3d
       -0.24402215 -0.07972876 -0.33497104 0.08132838
000270 12 9e 88 3e 06 92 72 bc 60 71 1f be 73 a4 24 3e
       0.26683098 -0.0148053225 -0.15570593 0.16078357
000280 cf 48 f1 bd 72 a5 66 bd 85 5e b4 bd 10 9c 8c 3e
       -0.11781465 -0.056310125 -0.08807091 0.27462816
000290 b1 72 97 3d 9e 1e 30 be 28 ae ba 3e 1f a0 9c be
       0.073949225 -0.1719918 0.36460996 -0.30590913
0002a0 b3 ca b7 3d 2a 83 88 3d 70 0a 59 3d 04 0b 4c bc
       0.08974209 0.066656426 0.05298847 -0.012453798
0002b0 88 59 02 3e 20 06 90 3d 84 33 2e bc 74 ae 6c bd
       0.12729466 0.07032418 -0.0106323995 -0.05778356
0002c0 19 62 ee bd a8 14 98 bd 2e 7a c8 bd b6 e3 24 3e
       -0.116398044 -0.07425815 -0.09788929 0.1610249
0002d0 0c 86 1a be 04 1f b9 bd a6 fb 5e be a0 ce af 3d
       -0.15090197 -0.09039119 -0.21775684 0.085843325
0002e0 30 91 48 be 65 57 25 3e b4 f6 bc bc ce 96 c2 bd
       -0.19586635 0.1614662 -0.023066856 -0.0950142
0002f0 6b a2 37 be f9 c0 d8 bc 74 5d a1 3d e1 46 a6 bd
       -0.17933051 -0.026459204 0.07879153 -0.08118988
000300 8f d9 5b 3c b9 e1 49 3e 6d b6 dd bd 87 3d 05 3e
       0.013418569 0.19715013 -0.108258106 0.13011752
000310 59 2e 48 be 49 db b6 be c7 ba a7 bd b4 f0 c6 3d
       -0.1954893 -0.35714176 -0.08189922 0.09713879
000320 19 3c 9f 3e ac 65 d5 3d d4 f0 88 be 48 97 3f 3e
       0.31100538 0.10419783 -0.26746237 0.18710053
000330 8f 93 64 bd 85 ec e0 3d 2b 47 e1 bc 96 c0 c9 bc
       -0.055804785 0.109826125 -0.027499756 -0.024627965
000340 ea b1 54 be ac 84 96 bb e2 ad 89 bd d9 05 34 3e
       -0.20770994 -0.0045934524 -0.06722619 0.17580356
000350 de 91 9f bc c6 02 17 be 8e 22 54 be c1 72 1b 3d
       -0.019478735 -0.14747152 -0.20716307 0.037951235
000360 be 85 48 be 04 6b 55 3e 26 1d 10 3c e1 be 97 3d
       -0.19582269 0.20841604 0.008796012 0.07409454
000370 61 cd 65 3e 53 19 5c 3c 35 e4 b8 3d 0f e6 58 be
       0.22441627 0.013433772 0.09027902 -0.2118151
000380 5f 48 56 3e cf b8 87 ba 26 f5 f2 3d 03 25 7a 3b
       0.20926045 -0.001035476 0.118631646 0.0038169033
000390 a0 6c 8c bd 17 44 f9 bd 2e 90 fc bd ba 16 e0 bd
       -0.06856656 -0.1217119 -0.123321876 -0.10941835
0003a0 d3 e7 30 be 4c bd 88 be ab e0 4a be b8 7b 04 be
       -0.17275934 -0.26706922 -0.19812267 -0.1293782
0003b0 55 b2 54 3e 25 ef 0a 3e 18 1d 4e be a7 05 6f 3d
       0.20771153 0.13567789 -0.20128286 0.058355
0003c0 84 09 27 bc fe 84 86 be 52 9e e3 3d 8c 88 71 3e
       -0.01019514 -0.2627334 0.111141816 0.23587245
0003d0 de b2 03 3e dd ab 34 3e df fc 81 be 54 32 13 be
       0.12861201 0.17643686 -0.25388238 -0.14374667
0003e0 86 a2 83 be ac f9 0f be fa 42 92 3d fa 13 a4 be
       -0.25709933 -0.14060086 0.07141681 -0.3204649
0003f0 22 23 93 bd 7d be 8c 3d bf 29 38 be b6 93 26 bd
       -0.071844354 0.0687227 -0.17984675 -0.040668212

bias f4 [32]
000000 97 e6 43 bd db b4 ea bd d6 6b 24 be cc 3a 80 be
       -0.04782733 -0.11460277 -0.16056761 -0.25044858
000010 a1 13 08 be f7 b8 1c be c3 d5 ff bd 4e c7 af be
       -0.13288738 -0.15304933 -0.12491944 -0.34331745
000020 2c 6b fe bd 47 55 df 3d cc d0 22 be a6 ca 7e bd
       -0.12422785 0.10904937 -0.15899962 -0.06220498
000030 95 94 00 be 0d 9b 68 bd dd 57 34 be 80 61 fa bd
       -0.1255668 -0.056788493 -0.17611642 -0.12225628
000040 08 83 e1 bd 43 3a b9 bd 69 ac 79 be f4 b8 27 be
       -0.1101132 -0.09044316 -0.24382176 -0.16379148
000050 f8 6d e6 bd f0 f9 c0 be f5 07 31 be 87 ee 86 bd
       -0.112514436 -0.37690687 -0.17288192 -0.06588464
000060 3c cc 51 be e4 fb 7d bc 8f 67 73 be 04 cd 90 bd
       -0.20488065 -0.01550195 -0.23769973 -0.070703536
000070 c2 58 89 bd f4 c5 f8 bb 8a 47 75 bd 7c bd 1e be
       -0.06706382 -0.007591957 -0.059882678 -0.1550197

weight f4 [12, 32]
000000 eb ce 0b 3e d5 ac 68 bd 37 ae a2 3c 4c 88 45 3c
       0.13653152 -0.05680545 0.019858463 0.0120564215
000010 d2 0b 3d 3d 2c 7a 4b 3c 68 dc d7 bd 51 ee d5 bd
       0.04615385 0.012419265 -0.10540086 -0.10445846
000020 91 15 4a bd 92 26 dd 3d fb 65 da 3d 0a f4 b9 3c
       -0.049336974 0.10798372 0.106639825 0.022699375
000030 87 a3 6d be 91 9a a6 3d 4c 85 7f bd e7 d9 7a 3d
       -0.23206912 0.0813495 -0.06238298 0.061242964
000040 5d 11 b7 3d 1b 96 aa bd 02 b7 02 3e ed 4f 4a bc
       0.08938859 -0.083294116 0.12765124 -0.012348157
000050 8e 23 23 3c 0f 66 28 3e c1 54 b0 bd 51 33 2a 3d
       0.009957207 0.16445182 -0.086099155 0.041552845
000060 b3 24 64 3d f1 13 5a 3c a9 a3 27 bd 35 27 13 bd
       0.05569906 0.013310418 -0.040927563 -0.035926063
000070 3f 9c e6 3b 53 1b d9 bd 0e d0 13 3d 62 2f c0 3d
       0.007037669 -0.10600915 0.03608709 0.093840376
000080 e7 48 b2 bd d2 8d 35 bd 7a 0b d0 bb f9 f0 bf 3d
       -0.08705311 -0.044324704 -0.0063490244 0.09372134
000090 54 67 81 3d 1e 2b 48 3c ef 13 22 3c 17 dd 85 3d
       0.063185364 0.012217311 0.009892448 0.0653631
0000a0 9b 7f 85 3e fd e7 a2 3d 09 c4 bd bc be 1b 20 3e
       0.26073918 0.079544045 -0.023164766 0.15635583
0000b0 1d 50 1d 3e e1 1c 2a 3e d4 96 7b bd c6 e6 20 bd
       0.15362592 0.16612579 -0.061423138 -0.039282583
0000c0 9a b5 db bd db 8e 60 be 70 79 1f bd 78 af 98 3e
       -0.10727997 -0.21929495 -0.03893417 0.29821372
0000d0 d4 90 28 be 9f 48 0d bd a4 a8 76 bd de ff 93 bc
       -0.16461498 -0.034493085 -0.060219422 -0.018066343
0000e0 12 8c 08 3e 16 d1 81 bd bc 8c 69 3d 26 e3 f5 bb
       0.13334683 -0.06338708 0.05701898 -0.007503885
0000f0 fc d7 f7 bd 98 1d fd bd ff 98 55 3c eb fb 28 be
       -0.121017426 -0.1235916 0.013036965 -0.16502349
000100 42 f9 d4 3d de 3c 38 3d 52 36 b8 3d 90 c2 59 3e
       0.10399105 0.044979922 0.08994736 0.21265626
000110 c9 03 90 bd e5 23 33 be 83 a3 cc 3e db e4 96 bc
       -0.07031972 -0.17494161 0.399685 -0.018419674
000120 52 39 20 be 95 90 c0 3d 9a b3 93 bd a4 4b c9 bd
       -0.15646866 0.09402577 -0.07211991 -0.098288804
000130 95 28 98 3c 91 72 f7 bd 4a fe 2f 3d 42 46 d2 3c
       0.018574039 -0.12082399 0.04296712 0.025668267
000140 10 19 bd 3d 86 bc 19 be 02 0e 5c 3e f5 4a 9a bc
       0.09233296 -0.15013322 0.21489719 -0.01883457
000150 8f 43 41 3e bb 71 eb 3c 8f b9 2d bd 8c 15 47 3e
       0.18873428 0.028740754 -0.04241329 0.19441813
000160 de 1a 85 bd 39 ce 99 bc 4d 5e 77 3d 54 06 35 be
       -0.06499265 -0.018775092 0.060392667 -0.17678195
000170 7a ac 20 3e 05 a8 2c bb 6c c7 8d be 71 d0 fc bd
       0.15690795 -0.0026345265 -0.2769121 -0.123444445
000180 2c 2d 0d 3e 90 c1 3a bd cd c6 0b 3d b3 2c 40 3d
       0.13786763 -0.04559475 0.034125138 0.04691763
000190 ff 5f 10 be 69 24 ad 3c bc 72 dc 3d ae 46 2c 3c
       -0.1409912 0.021135526 0.10764071 0.010514898
0001a0 47 fb 96 bd 9e 24 b9 3d c6 ed c7 bb 3c ea 8e 3d
       -0.07372146 0.09040187 -0.006101343 0.069782704
0001b0 4e 96 d7 bd d2 b8 0d 3e 69 9e dc bd 06 96 04 be
       -0.10526715 0.13840035 -0.10772402 -0.12947854
0001c0 47 db 6d bd bb 27 6a 3d b7 00 79 3d 51 45 dc bd
       -0.058070447 0.057166796 0.060791697 -0.107554086
0001d0 de 82 18 3d a1 6a 28 be 21 e7 23 3e 0d d5 5e 3c
       0.03723418 -0.16446926 0.16006137 0.0136006
0001e0 39 00 c2 3d 5d cf 52 3b e9 45 53 be 99 5f be bd
       0.09472699 0.0032167055 -0.20632137 -0.092955776
0001f0 f5 9e ea bc 4a 21 6b bd ca 8f bf bc b8 05 cc 3c
       -0.02864025 -0.057404794 -0.023383994 0.02490507
000200 2a 3d b5 3d ad cf 60 3d 6d 06 05 be cf 05 4f bc
       0.08849557 0.054885555 -0.12990732 -0.012635662
000210 42 a3 42 be b7 2b 77 bd 82 bb 23 3e 05 75 7c bd
       -0.1900759 -0.060344424 0.15989497 -0.061635036
000220 13 12 c4 bd 64 ce 61 3d a4 cb e8 3d c8 46 51 3d
       -0.0957376 0.05512847 0.11366966 0.051092893
000230 16 aa f8 bd 88 12 fa 3d d7 41 1e bd f8 58 4f 3e
       -0.12141816 0.12210566 -0.03863701 0.20248783
000240 e8 52 32 be 24 83 30 be 8c 6b f9 bd 34 9d 91 3c
       -0.17414439 -0.17237526 -0.12178716 0.017775156
000250 d0 7e c5 3c 56 0c 5c be 37 d1 23 be 19 b8 82 3a
       0.02410832 -0.21489081 -0.15997778 0.0009973078
000260 44 ea 8c bd fa d5 36 3c 95 09 a0 3c de a5 7a 3e
       -0.0688062 0.011159414 0.019535819 0.24477336
000270 f7 2f 46 be d4 3c 9f 3b 1f 79 a9 3d bd 5f 25 3c
       -0.19354235 0.004859546 0.08275055 0.010093627
000280 98 e3 3a 3e f0 12 d9 3d 9d f1 38 3d c3 bb a5 3d
       0.18250883 0.10599315 0.045152295 0.08092453
000290 d0 93 84 3e 3d b4 02 3e 1b 5d 90 3c 4a 92 88 bc
       0.25894022 0.12764068 0.017622521 -0.016671319
0002a0 6f c1 bf bd f7 cf 2e be 3d 28 85 be 84 0f eb bd
       -0.093630664 -0.1707152 -0.26007262 -0.11477569
0002b0 e2 e8 5e be 46 9f f4 3c 0d 92 95 3d 9f ce 42 be
       -0.21768525 0.029861104 0.073032476 -0.19024132
0002c0 82 dd 89 bc 04 69 08 3d ff 6c b8 bd 17 7f e0 3c
       -0.016829256 0.033303276 -0.09005164 0.027404351
0002d0 4c 93 66 bc 12 96 b0 3b 9e af c0 3e cd 13 5b 3e
       -0.014073204 0.0053889835 0.37633985 0.21394272
0002e0 40 db 1a 3e d9 ac 85 bd aa ee 8d 3c 7a 2d 91 3e
       0.151227 -0.06527109 0.017325718 0.28355008
0002f0 62 34 83 bd d9 4e 7d 3e 46 1e 71 bd 83 fd ae bd
       -0.064064756 0.24737109 -0.05886676 -0.08544447
000300 cd 81 1c 3e 71 82 3f bd d5 62 ef 3c 08 fe 0f bd
       0.1528389 -0.046755258 0.029221931 -0.035154372
000310 aa a2 01 3d a0 6a 5d 3c 22 43 2a 3d be 13 26 be
       0.03164927 0.013514191 0.04156793 -0.16218469
000320 7c 2b 65 3d ae 32 04 be 64 d6 e4 3d e2 27 eb 3c
       0.055949673 -0.12909958 0.11173704 0.028705541
000330 dc 86 88 3e 8c 49 01 be 85 ba a1 bd 49 b0 59 3c
       0.2666539 -0.12625712 -0.07896904 0.013286659
000340 42 33 4b bd 6e 0e 47 3c e2 84 c2 bd 13 88 0c 3d
       -0.04960943 0.012149436 -0.09498002 0.034309458
000350 94 85 9a bd 22 79 d0 bd 36 79 0e bd 39 e5 fe bd
       -0.07545009 -0.10179354 -0.034783565 -0.124460645
000360 c3 0b c8 bd 16 de 9e 3d 5e c5 37 bd fc 12 e9 3c
       -0.09767868 0.07757203 -0.04486596 0.028451435
000370 f3 54 1f 3e e5 97 c6 3a 55 9b 34 bc 33 d5 64 bd
       0.1555975 0.0015151469 -0.011023362 -0.055867385
000380 a7 8f 83 bd 58 b0 24 3e 63 6f e3 bd b1 e9 92 be
       -0.06423884 0.16082895 -0.1110523 -0.28693917
000390 a5 d5 2b bc 4a a3 8a bd 10 62 d7 bd 70 2b 53 3c
       -0.010487949 -0.06769426 -0.10516751 0.012888774
0003a0 cf 7b a5 bc 5c 5e 6f 3e 0b 77 f9 bc d5 63 b0 bc
       -0.020200638 0.23375839 -0.030452272 -0.021531979
0003b0 bf 7d 8a 3b 81 e7 ca bd 61 68 17 bc d2 dc e1 bb
       0.004226416 -0.09907437 -0.009241194 -0.006892779
0003c0 37 26 2f be 82 f4 3e 3d 2d d0 d8 3c af ee 44 3d
       -0.17104422 0.0466199 0.026466453 0.04807919
0003d0 d5 7f 6e bc 16 e1 7e bd ce f3 60 bc 62 57 03 3e
       -0.014556845 -0.062226377 -0.013730003 0.12826303
0003e0 26 d4 3e bd aa 78 c4 3c e4 cb 08 3e 75 d6 87 bc
       -0.04658904 0.023983318 0.13359028 -0.016581753
0003f0 5c 56 26 bd de 53 bc 3b 8e ba 76 bd 25 13 1a 3e
       -0.040609702 0.0057473024 -0.060236506 0.15046366

bias f4 [12]
000000 c8 f7 f3 3d 90 85 4f 3d c0 8b 13 be 94 80 63 3e
       0.11912495 0.050664485 -0.14408779 0.22217017
000010 8d 4a 14 be b7 cf 91 be ec 5a b0 bc b4 10 ae bb
       -0.14481564 -0.28478786 -0.02152773 -0.0053120498
000020 95 f1 18 be 10 c7 9f 3d 6a fc 87 3e b1 c5 53 bd
       -0.14935906 0.0780164 0.26559764 -0.051702205
