deploy/networks/go2/rudolf_4_35k.pt (torch, 784904 bytes, 8 tensors)

weight f4 [512, 53]
-0.19545528 0.03701551 -0.45671147 0.34243742 1.1401882 0.0990704 0.009157057 0.0566876
0.30941445 -0.7003198 -0.2822178 0.20433313 -0.042792127 0.08743202 -0.18383743 0.216241
-0.025782341 0.07210507 -0.22297093 0.14858094 0.4274754 -0.11565032 -0.07501874 0.38696405
0.15327017 0.606102 -0.17128037 -0.37256935 -0.30672678 0.2629759 0.17496513 0.03416032
0.28621837 -0.07014309 0.01189109 -0.036684927 -0.057566427 -0.03729965 -0.023394609 -0.02982998
-0.02567513 0.008867395 0.027759153 0.004472555 -0.072954394 0.05780608 -5.0572517e-06 -0.09647339
-0.045758788 -0.019417452 0.054534826 -0.10399327 0.12455362 -0.2047717 0.3495156 -0.21281968
0.29355112 0.7937735 -0.0387987 -0.012243596 0.04211746 0.6320871 -0.4511116 -0.32783115
-0.3478935 -0.27736914 -0.47741097 -0.26894432 0.026277427 0.11773847 0.019679813 -0.6018313
0.16101283 0.38349766 -0.58959043 0.3118545 0.107997335 -0.12769745 0.052999735 0.09490983
-0.04954081 0.33556822 0.034745984 -0.0048150015 0.2914037 0.1492089 0.09572217 -0.052470002
0.10797185 -0.0071154353 -0.008512209 -0.001696978 -0.067704424 0.015175823 0.024786372 -0.015738169
-0.03126527 -0.06587967 -0.030170687 0.116355136 -0.10157926 0.013255937 -0.0064142547 -0.12493124
0.0061299866 -0.08429063 -0.211938 -0.3195195 0.19546399 0.47109437 0.9327371 0.20425327
0.035617214 -0.09260566 -0.08516792 -0.36330402 0.016106853 -0.21456653 0.049304947 0.2439196
0.20082928 -0.011204436 0.5296931 -0.21721219 -0.1966159 -0.03738247 -0.26568234 -0.51122445
0.122783445 0.3703084 0.039798062 -0.02277635 -0.059366904 -0.20654467 0.21555752 0.26993886
0.28387842 0.04774542 0.02148416 -0.040094074 0.03547862 0.12541336 -0.09404341 -0.040454388
-0.055367906 0.17879331 -0.11221158 -0.05530034 -0.007158651 -0.1166165 -0.047851156 -0.016282855
-0.0038858643 0.12295524 -0.0920799 -0.008897852 0.0047558756 -0.086502574 0.045916263 0.053790744
0.08717522 -0.023902867 -0.7186006 0.2841748 0.18940009 -0.0035568825 -0.08970105 0.8122333
-0.10958696 -0.556179 -0.16589333 0.25577593 -0.21595265 -0.16974704 -0.2513757 -0.23177302
0.022183247 -0.26547843 0.038245182 -0.07285759 -0.447377 -0.33416125 -0.45696586 0.37850022
0.23279722 -0.0048020785 0.45324287 -0.22254413 -0.11458374 -0.26047206 -0.29269838 -0.16012733
0.05239739 0.047322128 0.035595298 -0.08316585 -0.055818874 0.009421922 0.05413214 0.038483333
-0.0017346194 0.026752423 0.01618617 0.03711563 -0.019448169 -0.04106243 -0.008716456 -0.008460118
0.062207438 -0.08185791 0.0679436 -0.0043524345 0.10348422 -0.06979405 0.43550527 0.68244433
0.50843424 0.14706197 -0.019008452 -0.15711445 -0.5838725 -0.19685653 0.12856932 -0.2584158
0.1817728 -0.092139676 0.60019696 -0.23212497 0.17141688 0.18924645 0.21324638 -0.3781521
-0.16672233 0.5406604 -0.4354397 -0.2219544 0.02939293 0.018278547 0.7488118 -0.3399379
0.05920099 -0.099299155 0.36704537 -0.22880626 0.070243545 -0.057739843 0.057175305 0.008769793
0.09838352 -0.07482337 -0.044651907 0.114429094 -0.008572068 -0.062965594 -0.04540915 0.09666075
00000000: 6e25 48be 939d 173d 16d6 e9be f553 af3e
00000010: b0f1 913f 6ce5 ca3d 7b07 163c 4231 683d
00000020: 926b 9e3e 2948 33bf da7e 90be b43c 513e
00000030: cc46 2fbd 8f0f b33d e13f 3cbe 486e 5d3e
00000040: 7d35 d3bc d3ab 933d 7e52 64be 9a25 183e
00000050: 0ede da3e 13da ecbd 6da3 99bd 2720 c63e
00000060: dbf2 1c3e 8029 1b3f 1f64 2fbe 69c1 bebe
00000070: 4b0b 9dbe c7a4 863e 0f2a 333e b1eb 0b3d
00000080: 378b 923e 2ea7 8fbd d9d2 423c ef42 16bd
00000090: c6ca 6bbd 85c7 18bd 0da6 bfbc 015e f4bc
000000a0: a654 d2bc 8d48 113c 2a67 e33c 838e 923b
000000b0: 1d69 95bd 11c6 6c3d 76b1 a9b6 d793 c5bd
000000c0: 916d 3bbd 5911 9fbc e95f 5f3d 6cfa d4bd
000000d0: f815 ff3d acaf 51be b5f3 b23e 67ed 59be
000000e0: 554c 963e bd34 4b3f 63eb 1ebd 5d99 48bc
000000f0: 5c83 2c3d 76d0 213f 1af8 e6be 7cd9 a7be
00000100: 191f b2be 5403 8ebe 366f f4be 12b3 89be
00000110: c243 d73c de20 f13d 8f37 a13c 9e11 1abf
00000120: 8ce0 243e ce59 c43e 66ef 16bf 65ab 9f3e
00000130: b52d dd3d 1fc3 02be 4016 593d 1660 c23d
00000140: 4eeb 4abd 99cf ab3e ce51 0e3d 29c7 9dbb
00000150: de32 953e 38ca 183e fc09 c43d c9ea 56bd
00000160: 5820 dd3d 9928 e9bb cb76 0bbc 226d deba
00000170: 9ea8 8abd 04a4 783c ca0c cb3c 55ed 80bc
00000180: 0310 00bd eceb 86bd 8428 f7bc 9a4b ee3d
00000190: c908 d0bd 6e2f 593c ab2e d2bb f3db ffbd
000001a0: 0ede c83b 91a0 acbd 4606 59be 0f98 a3be
000001b0: b627 483e 4833 f13e dcc7 6e3f c527 513e
000001c0: 5be3 113d 09a8 bdbd 856c aebd fc02 babe
000001d0: 85f2 833c 54b7 5bbe fcf3 493d 0fc6 793e
000001e0: 31a6 4d3e d092 37bc f899 073f df6c 5ebe
000001f0: ae55 49be 5c1e 19bd 8407 88be 9bdf 02bf
00000200: e375 fb3d 1099 bd3e 4b03 233d 7895 babc
00000210: b62a 73bd 7280 53be 1cbb 5c3e 6d35 8a3e
00000220: 8358 913e b490 433d 8dff af3c af39 24bd
00000230: 0852 113d 5c6c 003e d599 c0bd 80b3 25bd
00000240: 75c9 62bd 9815 373e 2fcf e5bd 9c82 62bd
00000250: 1e93 eabb a2d4 eebd 93ff 43bd 9f63 85bc
00000260: fca9 7ebb f5cf fb3d 6394 bcbd 4cc8 11bc
00000270: 2dd7 9b3b 4328 b1bd b112 3c3d af53 5c3d
00000280: ec88 b23d f2cf c3bc 35f6 37bf 5c7f 913e
00000290: 19f2 413e 961a 69bb 2fb5 b7bd 86ee 4f3f
000002a0: 216f e0bd bf61 0ebf f1df 29be 10f5 823e
000002b0: b122 5dbe 2bd2 2dbe 51b4 80be e855 6dbe
000002c0: a4b9 b53c caec 87be fba6 1c3d 5c36 95bd
000002d0: 990e e5be 2f17 abbe 6ef7 e9be c8ca c13e
000002e0: 6562 6e3e c15a 9dbb 730f e83e 9ce2 63be
000002f0: e1aa eabd 985c 85be 90dc 95be 6bf8 23be
00000300: a59e 563d d9d4 413d 60cc 113d db52 aabd
00000310: 55a2 64bd 685e 1a3c aab9 5d3d b3a0 1d3d
00000320: 2b5c e3ba e627 db3c dc98 843c 8f06 183d
00000330: c451 9fbc 1431 28bd 77cf 0ebc 4f9c 0abc
00000340: 3acd 7e3d 1fa5 a7bd 0426 8b3d de9e 8ebb
00000350: 89ef d33d 2ff0 8ebd 8cfa de3e acb4 2e3f
00000360: bf28 023f 6a97 163e 9db7 9bbc 9ce2 20be
00000370: ab78 15bf c294 49be ada7 033e 134f 84be
00000380: a622 3a3e bab3 bcbd 82a6 193f 2bb2 6dbe
00000390: e887 2f3e d2c9 413e 425d 5a3e 279d c1be
000003a0: 42b9 2abe b868 0a3f f4f1 debe 0448 63be
000003b0: 71c9 f03c e4bc 953c 21b2 3f3f 570c aebe
000003c0: bd7c 723d 5b5d cbbd 5fed bb3e 304c 6abe
000003d0: d9db 8f3d 9d80 6cbd a730 6a3d 2eaf 0f3c
000003e0: 4d7d c93d ff3c 99bd ebe4 36bd cd59 ea3d
000003f0: dc71 0cbc 1bf4 80bd f2fe 39bd 12f6 c53d

bias f4 [512]
-0.1271658 -0.2472879 0.13483939 -0.13399255 0.18115328 0.1600306 -0.032693796 -0.07032274
-0.008505753 -0.2722551 -0.4530964 -0.11186225 -0.23547867 -0.4059633 -0.20723242 -0.14375731
-0.21389054 0.11654285 -0.035393044 -0.00845398 -0.0842186 0.12214184 -0.01640837 -0.029985808
0.003944789 -0.057933953 0.017946707 -0.0866336 -0.06827359 0.108991936 -0.13967213 0.0059864046
-0.013914883 0.0038537427 0.12908909 -0.13789473 0.20951906 0.040554985 0.07182426 -0.036811654
-0.027541017 -0.1750871 0.011613297 -0.36514 0.14658287 -0.18909837 -0.40447736 -0.023217903
-0.27096295 -0.20848729 0.04512186 -0.35893652 0.11677688 -0.11540084 -0.039280906 0.17347123
-0.3266192 -0.13204868 -0.05535861 0.11364535 0.26633245 -0.17469484 -0.022743162 0.046437535
0.050131455 -0.041421086 -0.3990485 -0.15478718 -0.10946729 0.014780528 -0.23208088 0.05551225
-0.06866325 -0.17285879 -0.04951729 0.007715114 -0.18798722 0.11127431 -0.16460937 -0.2839293
0.090693444 0.0005425946 0.04092155 -0.053457655 0.17571764 0.08507312 -0.23612463 -0.016216587
0.05359945 -0.06783652 -0.15115547 -0.08473247 -0.053630922 -0.21233028 -0.31957844 0.15350363
-0.08363109 0.29227856 0.013263459 -0.021815231 -0.09570983 0.14100134 -0.28613073 -0.06276593
0.20988357 -0.19129562 0.030516898 -0.094102435 0.067146204 -0.21382222 0.16491652 -0.17421246
0.066509545 -0.2771465 -0.21101244 0.053845897 -0.047628857 -0.19402191 0.16098525 0.11638552
-0.281399 0.052814934 0.20061378 0.12905084 -0.20844093 -0.27206206 -0.060047667 -0.1703424
-0.036252115 0.12361755 -0.18322088 -0.073592715 -0.25317198 -0.13594076 0.0850236 -0.09516514
-0.12330568 -0.087775484 -0.04294178 -0.3453968 0.23309183 -0.006950112 0.13170613 -0.20796835
0.07980198 -0.0693762 0.09078255 -0.018346563 -0.19120178 0.13286363 0.01569691 0.05154465
0.035942886 -0.015511711 -0.103564456 -0.08637694 -0.36134282 -0.16861008 -0.17109469 0.0745393
0.16041344 -0.024014525 -0.15045418 -0.009814368 0.16845846 -0.116976745 -0.17942247 -0.09742441
-0.017730247 -0.19654961 -0.4365254 -0.032211363 -0.06578841 -0.3357228 -0.19186513 -0.106895305
0.036481824 0.06828902 0.0036796036 0.0067078113 -0.33419272 -0.010970355 -0.09185952 0.07402523
0.038053647 0.019250035 -0.09076139 0.018336127 0.1751717 -0.048640564 0.18064313 -0.036429606
-0.004999953 -0.07421479 -0.21771795 -0.1947414 -0.077728614 -0.19984087 -0.10327905 0.21041138
-0.27703202 -0.1402166 0.06527569 -0.104258195 0.17357434 -0.11906198 -0.14962292 -0.08452277
-0.28784993 0.006892276 0.09257591 -0.2708135 -0.2951788 -0.078936964 -0.30057663 -0.13224238
0.18626222 0.108681574 -0.2007461 -0.099867225 -0.14207153 0.17797707 -0.15054485 0.023258252
-0.24932525 -0.15893419 -0.11015154 -0.16172622 0.10754758 -0.12779944 0.0012758473 0.18796976
-0.021478299 -0.24078171 0.14941806 -0.09822023 -0.21196543 -0.06361882 -0.10905218 -0.26967916
0.19409095 0.11175786 -0.08796229 -0.06931586 1.1934008e-05 -0.16644345 -0.13311183 0.1585389
0.03353258 0.16869125 -0.111881934 0.073217094 0.095715865 0.066705845 0.0026483797 -0.02163486
00000000: c037 02be 0a39 7dbe 5613 0a3e 5835 09be
00000010: 3f80 393e 10df 233e eee9 05bd 5e05 90bd
00000020: b75b 0bbc 0565 8bbe 40fc e7be 0918 e5bd
00000030: 5221 71be 6cda cfbe bc34 54be 1e35 13be
00000040: 1f06 5bbe 05ae ee3d 4cf8 10bd 9082 0abc
00000050: cd7a acbd 8025 fa3d d96a 86bc cca4 f5bc
00000060: 4a43 813b 274c 6dbd f904 933c f56c b1bd
00000070: 06d3 8bbd 2a37 df3d 3606 0fbe 9a29 c43b
00000080: 40fb 63bc 138f 7c3b ee2f 043e 4734 0dbe
00000090: 2a8c 563e fc1c 263d 9918 933d d1c7 16bd
000000a0: b39d e1bc 084a 33be b345 3e3c a1f3 babe
000000b0: d219 163e 01a3 41be a817 cfbe 7933 bebc
000000c0: a8bb 8abe b17d 55be b3d1 383d 87c6 b7be
000000d0: b828 ef3d 4757 ecbd 04e5 20bd 71a2 313e
000000e0: a23a a7be c537 07be b6bf 62bd e5be e83d
000000f0: ba5c 883e 34e3 32be de4f babc 4935 3e3d
00000100: a456 4d3d 28a9 29bd 1650 ccbe 8880 1ebe
00000110: 6330 e0bd 072a 723c 9ca6 6dbe d060 633d
00000120: 519f 8cbd e501 31be a4d2 4abd 11cf fc3b
00000130: b97f 40be c9e3 e33d 5c8f 28be 2e5f 91be
00000140: 7cbd b93d e83c 0e3a 5b9d 273d 6af6 5abd
00000150: 53ef 333e d13a ae3d a8ca 71be a6d8 84bc
00000160: 198b 5b3d e0ed 8abd 80c8 1abe 3888 adbd
00000170: 19ac 5bbd 1c6d 59be c99f a3be 0e30 1d3e
00000180: c746 abbd 89a5 953e fb4e 593c dbb5 b2bc
00000190: 8403 c4bd a862 103e ba7f 92be 6d8b 80bd
000001a0: b8eb 563e 00e3 43be 93fe f93c c7b8 c0bd
000001b0: f383 893d 36f4 5abe e0df 283e c064 32be
000001c0: 2836 883d 25e6 8dbe a513 58be 848d 5c3d
000001d0: 7a16 43bd aead 46be 51d9 243e 885b ee3d
000001e0: 8813 90be 7954 583d b36d 4d3e e725 043e
000001f0: 8a71 55be b84b 8bbe 8bf4 75bd 3d6e 2ebe
00000200: 197d 14bd 332b fd3d 419e 3bbe c7b7 96bd
00000210: c29f 81be 0e34 0bbe da20 ae3d f1e5 c2bd
00000220: b087 fcbd a2c3 b3bd b8e3 2fbd d9d7 b0be
00000230: a0af 6e3e c4bd e3bb f9dd 063e a8f5 54be
00000240: 386f a33d 1c15 8ebd 34ec b93d 884b 96bc
00000250: 66ca 43be 670d 083e ce96 803c 7c20 533d
00000260: d938 133d d524 7ebc 9a19 d4bd 65e6 b0bd
00000270: ed01 b9be 1fa8 2cbe 7233 2fbe 0fa8 983d
00000280: 6c43 243e 1cba c4bc a910 1abe 71cc 20bc
00000290: 6080 2c3e 8191 efbd 86ba 37be 7386 c7bd
000002a0: 063f 91bc 4d44 49be 4280 dfbe 10f0 03bd
000002b0: 13bc 86bd dce3 abbe 4b78 44be edeb dabd
000002c0: f76d 153d 1ddb 8b3d 8125 713b 33cd db3b
000002d0: 4f1b abbe 01bd 33bc d820 bcbd 8a9a 973d
000002e0: 24de 1b3d 40b2 9d3c 1ce1 b9bd a535 963c
000002f0: 3660 333e 543b 47bd 83fa 383e 3637 15bd
00000300: a5d6 a3bb ecfd 97bd 74f1 5ebe 4a6a 47be
00000310: 2e30 9fbd 16a3 4cbe f783 d3bd 1576 573e
00000320: 24d7 8dbe f194 0fbe 43af 853d 5285 d5bd
00000330: 79bd 313e c4d6 f3bd c036 19be 461a adbd
00000340: 1161 93be 9ad8 e13b 7098 bd3d 11a8 8abe
00000350: ad21 97be b4a9 a1bd 2ee5 99be 8c6a 07be
00000360: 86bb 3e3e 7294 de3d 6390 4dbe 3087 ccbd
00000370: 337b 11be 9f3f 363e 6e28 1abe 1788 be3c
00000380: 1e4f 7fbe a5bf 22be 2197 e1bd 8f9b 25be
00000390: e841 dc3d dbdd 02be 553a a73a 257b 403e
000003a0: 42f3 afbc 7b8f 76be 0c01 193e b027 c9bd
000003b0: 770d 59be 954a 82bd c056 dfbd 6313 8abe
000003c0: c7bf 463e 4ee1 e43d 9325 b4bd 79f5 8dbd
000003d0: 2d38 4837 2770 2abe 784e 08be 0558 223e
000003e0: 7559 093d 66bd 2c3e 5b22 e5bd d8f2 953d
000003f0: ae06 c43d 139d 883d 7090 2d3b 973b b1bc

weight f4 [256, 512]
-0.0751809 0.117878735 -0.08019494 -0.047678325 0.007193419 -0.25794274 0.15853466 -0.13316509
-0.07894337 0.24221806 0.03994956 -0.059507478 0.14287482 0.32219577 -0.08441705 0.059923578
0.15323359 -0.1786139 0.13629596 0.16094321 0.07611146 -0.04869594 0.086682096 0.08501172
-0.103059 -0.13006465 0.019925507 0.010615299 -0.065505005 -0.018608628 -0.07614565 -0.04533116
-0.067808576 -0.26236525 -0.011026575 0.32678857 -0.12952344 0.099148385 0.046453208 -0.00807903
-0.09087015 0.16701801 -0.10592085 0.13311099 -0.19771428 0.056951135 0.08583637 0.30817753
0.00996751 0.10944479 -0.09022353 0.17433375 -0.14813893 0.061478395 0.10148596 -0.18089563
0.056925736 0.044481173 -0.10772264 -0.13011284 -0.02840916 0.3179922 -0.19278902 -0.11893778
0.033058353 -0.019626714 0.13223347 -0.0830973 0.07286845 -0.21843246 0.15839894 -0.080770224
0.010941957 -0.09007495 -0.21543853 0.025713535 0.030714082 -0.051800553 -0.059641685 0.20297128
-0.14328171 0.06428967 -0.05403351 -0.109693855 -0.12515885 0.015870461 -0.029571325 -0.015702086
-0.024092246 0.065920785 -0.035348628 -0.053738013 0.08763837 -0.15669395 0.2867372 -0.22195777
0.09195657 -0.060294878 -0.00970973 -0.15539369 0.13282911 0.063297465 -0.0012398497 0.008595488
0.025393771 -0.07709381 0.053468466 0.20851049 0.13746789 -0.028623635 -0.011445036 0.051827174
0.04743975 0.028444136 0.053606033 -0.0700365 0.0074599497 0.09135755 -0.14809999 -0.011670475
0.19848052 -0.028757513 -0.06403924 -0.1861734 0.14259142 0.03387269 -0.15584828 -0.028565895
-0.13800508 -0.0037269397 -0.007503183 -0.07586779 0.031513274 -0.030649012 -0.08131717 0.07260014
0.12687455 0.03990298 -0.14154592 0.012032597 -0.09333954 0.007418412 -0.17556581 0.01963655
0.19723572 0.054790273 -0.182451 0.14555341 -0.12054899 0.058286566 0.09396368 0.030030463
-0.0052591814 0.12500116 -0.016249089 -0.11243189 -0.08018741 0.03176885 -0.010113502 -0.1910487
-0.010361393 -0.084686846 0.037497472 -0.028333468 -0.08654181 -0.005089941 0.0509124 0.16834809
0.09110591 -0.076906055 0.282167 0.040229637 0.051566172 0.091597386 0.0082938885 -0.037703842
0.025171047 0.010118872 -0.14321443 -0.30446783 0.028446024 0.14058694 0.071077555 -0.115945905
0.062213678 0.10733815 -0.03431246 -0.09545622 -0.07515151 -0.05843062 -0.10066076 0.0027395578
-0.14835945 -0.0953687 0.059712082 -0.041390214 -0.0065119765 -0.012181982 -0.118040726 -0.1084293
-0.14338402 -0.0744405 0.13019659 -0.008513631 -0.015063874 0.031511843 0.032420024 -0.12539536
0.123820096 -0.107736096 -0.021015713 0.094738126 -0.03730606 0.081137165 0.14103961 -0.03493361
0.032577578 -0.30311516 -0.05594302 0.027447036 0.11613729 -0.12908474 0.06524373 -0.11988752
0.09468183 0.24840248 0.03073151 -0.047081094 -0.032881968 -0.011649277 -0.029253641 0.031027012
0.060491752 0.09580959 -0.18699862 -0.26506287 0.09636781 0.0015892538 0.22892974 0.1012994
-0.119254865 -0.21722749 0.027379759 -0.020527793 -0.055107385 0.16279656 -0.17535996 -0.07491408
0.043076288 0.044139694 -0.05246654 -0.061833825 -0.123859435 -0.14082845 -0.024657 0.0062869014
00000000: 72f8 99bd 686a f13d 3f3d a4bd 594a 43bd
00000010: c6b6 eb3b 1211 84be e956 223e 6e5c 08be
00000020: 10ad a1bd 0308 783e 26a2 233d 1dbe 73bd
00000030: c74d 123e d8f6 a43e d9e2 acbd 6d72 753d
00000040: 44e9 1c3e 90e6 36be 2b91 0b3e 4cce 243e
00000050: 53e0 9b3d 6575 47bd 6286 b13d a01a ae3d
00000060: 9910 d3bd ab2f 05be d13a a33c cbeb 2d3c
00000070: 7d27 86bd 1f71 98bc 40f2 9bbd 2bad 39bd
00000080: 39df 8abd bd54 86be cfa8 34bc d550 a73e
00000090: cba1 04be 4f0e cb3d b845 3e3d e85d 04bc
000000a0: 211a babd c506 2b3e 08ed d8bd 3f4e 083e
000000b0: 9d75 4abe 9845 693d fbca af3d 72c9 9d3e
000000c0: c44e 233c 9724 e03d 1dc7 b8bd 8c84 323e
000000d0: bbb1 17be c5d0 7b3d dfd7 cf3d b43c 39be
000000e0: f62a 693d e431 363d b09d dcbd 4d3c 05be
000000f0: 54ba e8bc e0cf a23e 7c6a 45be a795 f3bd
00000100: 3268 073d 34c8 a0bc 3668 073e eb2e aabd
00000110: 0e3c 953d c2ac 5fbe 5533 223e dc6a a5bd
00000120: e545 333c 3779 b8bd eb9b 5cbe 31a5 d23c
00000130: 199c fb3c d12c 54bd d74a 74bd b4d7 4f3e
00000140: 71b8 12be 4daa 833d 3e52 5dbd 2ca7 e0bd
00000150: a429 00be c502 823c 903f f2bc a9a1 80bc
00000160: 1a5d c5bc 7a01 873d b9c9 10bd 641c 5cbd
00000170: bf7b b33d 6174 20be 38cf 923e e648 63be
00000180: ba53 bc3d c3f7 76bd 8f15 1fbc 861f 1fbe
00000190: 5b04 083e 1aa2 813d 7482 a2ba 17d4 0c3c
000001a0: 9906 d03c 5ce3 9dbd c001 5b3d c683 553e
000001b0: 62c4 0c3e 1d7c eabc f683 3bbc bb48 543d
000001c0: 2f50 423d ad03 e93c 0092 5b3d 4c6f 8fbd
000001d0: 9872 f43b ab19 bb3d 86a7 17be 8535 3fbc
000001e0: 7a3e 4b3e e094 ebbc 0127 83bd 3da4 3ebe
000001f0: 7c03 123e 17be 0a3d b196 1fbe 0603 eabc
00000200: 3451 0dbe ac3f 74bb 43dd f5bb 9260 9bbd
00000210: 1014 013d a313 fbbc 9e89 a6bd 62af 943d
00000220: 67eb 013e 4f71 233d 6af1 10be 5f24 453c
00000230: cd28 bfbd 2616 f33b 86c7 33be d5dc a03c
00000240: 29f8 493e c46b 603d 6fd4 3abe f40b 153e
00000250: 64e2 f6bd e5bd 6e3d 0870 c03d 7202 f63c
00000260: 3655 acbb 4e00 003e cf1c 85bc b142 e6bd
00000270: 4c39 a4bd 0e20 023d 1ab3 25bc 45a2 43be
00000280: d5c2 29bc 4c70 adbd f396 193d 971b e8bc
00000290: d53c b1bd 85c9 a6bb 8589 503d 7163 2c3e
000002a0: bc95 ba3d ec80 9dbd 3178 903e d5c7 243d
000002b0: 0d37 533d 6997 bb3d 17e3 073c 586f 1abd
000002c0: 8333 ce3c a0c9 253c cea6 12be 35e3 9bbe
000002d0: a307 e93c 06f6 0f3e 1c91 913d 0c75 edbd
000002e0: c5d3 7e3d 1bd4 db3d 398b 0cbd 8d7e c3bd
000002f0: 09e9 99bd f254 6fbd 3b27 cebd 278a 333b
00000300: 8aeb 17be aa50 c3bd a894 743d c988 29bd
00000310: 6b62 d5bb f096 47bc 56bf f1bd 2e10 debd
00000320: 43d3 12be 4374 98bd 4152 053e c27c 0bbc
00000330: 78ce 76bc 9012 013d dcca 043d a467 00be
00000340: 6495 fd3d bea4 dcbd 2529 acbc 1006 c23d
00000350: 3dce 18bd 3e2b a63d b06c 103e 8c16 0fbd
00000360: 1170 053d e931 9bbe 8224 65bd 9bd8 e03c
00000370: 63d9 ed3d ca2e 04be 819e 853d 9787 f5bd
00000380: 8ce8 c13d 385d 7e3e a6c0 fb3c 1bd8 40bd
00000390: 3eaf 06bd 9cdc 3ebc 55a5 efbc 5c2c fe3c
000003a0: 33c6 773d d137 c43d 917c 3fbe 52b6 87be
000003b0: 7d5c c53d 824e d03a 8f6c 6a3e 0f76 cf3d
000003c0: e53b f4bd e270 5ebe 844b e03c e729 a8bc
000003d0: 48b8 61bd 24b4 263e 9091 33be 8e6c 99bd
000003e0: c370 303d d3cb 343d 28e7 56bd 7745 7dbd
000003f0: 04aa fdbd 5535 10be 7afd c9bc 5a02 ce3b

bias f4 [256]
-0.23720387 -0.11256878 -0.15821882 -0.33432966 -0.12725043 -0.038539458 -0.00839153 -0.12510641
-0.16281709 -0.013688492 -0.022461612 -0.13120095 -0.09297756 0.025581071 -0.19198775 -0.052981544
-0.04641677 -0.12169567 -0.18675148 0.035229973 -0.12044972 -0.13194989 -0.14816588 -0.13007823
-0.07851971 0.06659176 -0.2574435 -0.14355496 -0.01820353 -0.062602 -0.035506055 -0.267805
-0.06938247 -0.1077092 -0.26303282 -0.03631995 -0.13520715 -0.20491399 -0.04112228 -0.15524445
-0.11981354 -0.14394508 -0.112614304 -0.16034533 -0.12998185 -0.1233725 -0.049913056 -0.102450125
-0.16184273 -0.07301021 -0.21362576 -0.19211726 -0.16384505 -0.37474078 -0.03157752 -0.15514137
-0.22021109 0.011077377 -0.096247636 -0.14199749 -0.27838096 0.13099346 -0.1777866 -0.16867739
-0.21104361 -0.18241043 -0.16408637 -0.1380669 0.015074724 -0.14639069 -0.115103096 -0.32876098
-0.078159526 -0.26572776 -0.14319457 0.016695412 -0.1292352 -0.14515361 0.039787903 -0.06864572
-0.20835991 -0.14988236 0.022123007 -0.051199652 -0.04481899 -0.094137296 -0.079248324 -0.3072417
-0.03245611 -0.2448514 -0.049906205 -0.24917746 0.06578923 -0.13467185 -0.13546354 -0.09004309
-0.024928708 -0.18069942 -0.056149535 -5.721423e-05 -0.0312727 -0.027102139 -0.1673951 -0.19054267
-0.044632476 -0.0907892 -0.15200822 -0.060981497 -0.13454646 0.0012626742 -0.11081858 -0.20353366
-0.09515252 -0.1270906 -0.040666964 -0.060389724 -0.13272059 -0.22513206 -0.06031799 -0.08089518
-0.050560396 0.052307006 -0.14274615 -0.13393271 -0.11864894 -0.1759613 -0.111304626 -0.27307618
-0.16816384 -0.22036095 -0.2197504 -0.114409626 0.046886325 -0.0420485 -0.20530878 -0.12136696
-0.1806348 -0.16657978 -0.14683233 -0.18133849 -0.101710126 -0.13332298 -0.16566816 -0.121505156
-0.32833952 -0.15352558 -0.10972991 -0.025180582 -0.20150171 -0.06697846 -0.26358765 -0.05010141
-0.022568071 0.02502587 -0.03678664 0.03227092 -0.25809893 -0.16879806 -0.15007417 -0.12941034
-0.14216828 -0.12329729 -0.019168288 -0.19235311 -0.110565916 -0.09488808 -0.2512168 -0.21451123
0.02538055 -0.097507805 0.0074389377 -0.038507376 -0.082910195 -0.14353265 -0.19785991 -0.09377923
-0.07957809 -0.2096825 -0.32169983 -0.13547595 -0.15628314 -0.20769006 -0.013183003 -0.03575101
-0.19717291 -0.12916178 -0.21888359 -0.09265004 -0.17093463 0.008151007 -0.006772108 -0.10632939
-0.06615363 -0.030186927 -0.15202951 -0.020597069 -0.16650355 -0.19836153 -0.043630987 -0.038336754
-0.11370754 -0.09794412 -0.16002685 -0.18972406 -0.001429016 -0.19141713 -0.16221352 -0.22075136
-0.09701883 -0.028062511 -0.11383625 -0.21223424 -0.022253798 0.041402016 -0.13851015 -0.25605258
-0.27931634 -0.16784999 -0.07124746 -0.105937004 -0.0023770658 -0.023396546 -0.1616007 0.1176307
0.009597716 -0.076575324 -0.25138876 -0.18478587 -0.067342125 -0.18389127 -0.13538858 -0.14300808
-0.23078704 -0.18909144 -0.19030811 -0.4043328 -0.19112532 -0.045382116 -0.24532568 -0.12047582
-0.046460774 -0.21508625 -0.17717187 -0.3267513 -0.17604287 0.061244093 -0.08131836 -0.13260236
-0.21989499 -0.14410144 -0.10903557 -0.12678768 0.059595976 -0.0447142 -0.14119637 -0.31681237
00000000: 92e5 72be 768a e6bd 1d04 22be 422d abbe
00000010: f04d 02be 8ddb 1dbd a17c 09bc e51b 00be
00000020: 86b9 26be b245 60bc 6a01 b8bc 8b59 06be
00000030: 056b bebd 658f d13c 7098 44be 2d03 59bd
00000040: 831f 3ebd 943b f9bd c83b 3fbe 4e4d 103d
00000050: 58ae f6bd df1d 07be ccb8 17be 3a33 05be
00000060: f1ce a0bd 4361 883d a2cf 83be 1200 13be
00000070: 921f 95bc 7a35 80bd cc6e 11bd bd1d 89be
00000080: 6518 8ebd a496 dcbd 3dac 86be 3ac4 14bd
00000090: be73 0abe f9d4 51be d66f 28bd 67f8 1ebe
000000a0: cd60 f5bd 5766 13be 54a2 e6bd 9131 24be
000000b0: f619 05be b9aa fcbd a271 4cbd 5fd1 d1bd
000000c0: 1aba 25be 6186 95bd b6c0 5abe 63ba 44be
000000d0: ffc6 27be 06de bfbe 6e57 01bd 61dd 1ebe
000000e0: 047f 61be e37d 353c 7b1d c5bd ca67 11be
000000f0: f387 8ebe 2623 063e b10d 36be c4b9 2cbe
00000100: d11b 58be cdc9 3abe 4206 28be 6961 0dbe
00000110: fafb 763c 71e7 15be 2cbb ebbd 5c53 a8be
00000120: 1a12 a0bd 780d 88be 99a1 12be d1c4 883c
00000130: 3b56 04be 26a3 14be a4f8 223d 2196 8cbd
00000140: 4d5c 55be c37a 19be 4f3b b53c bab6 51bd
00000150: 1e94 37bd 0ecb c0bd f24c a2bd c94e 9dbe
00000160: b3f0 04bd 53ba 7abe 736a 4cbd 6028 7fbe
00000170: 81bc 863d 6be7 09be f4b6 0abe 8368 b8bd
00000180: 4a37 ccbc 4509 39be 0efd 65bd 50f9 6fb8
00000190: cd17 00bd 4e05 debc 9f69 2bbe 9e1d 43be
000001a0: 8bd0 36bd b0ef b9bd 0ba8 1bbe bcc7 79bd
000001b0: 8cc6 09be 5180 a53a daf4 e2bd 216b 50be
000001c0: 53df c2bd 0a24 02be 6792 26bd 375b 77bd
000001d0: e8e7 07be 0589 66be ff0f 77bd 5fac a5bd
000001e0: 6b18 4fbd df3f 563d 0c2c 12be a825 09be
000001f0: 37fe f2bd 332f 34be aef3 e3bd a4d0 8bbe
00000200: 2433 2cbe 4da6 61be 4006 61be 984f eabd
00000210: e00b 403d 0c3b 2cbd 773c 52be 3e8f f8bd
00000220: 54f8 38be e493 2abe 375b 16be ccb0 39be
00000230: 664d d0bd d285 08be eaa4 29be b2d7 f8bd
00000240: 1e1c a8be cf35 1dbe 13ba e0bd 8247 cebc
00000250: 7756 4ebe 012c 89bd f6f4 86be 2337 4dbd
00000260: ade0 b8bc 0e03 cd3c 96ad 16bd 832e 043d
00000270: 8b25 84be 66d9 2cbe 0bad 19be 2584 04be
00000280: 9094 11be 4a83 fcbd d006 9dbc 37f8 44be
00000290: 6270 e2bd af54 c2bd 7d9f 80be d5a8 5bbe
000002a0: dfea cf3c 2cb2 c7bd 55c2 f33b e9b9 1dbd
000002b0: d2cc a9bd 39fa 12be ca9b 4abe 530f c0bd
000002c0: d6f9 a2bd 02b7 56be d7b5 a4be 35ba 0abe
000002d0: b008 20be b4ac 54be 86fd 57bc a76f 12bd
000002e0: b2e7 49be fc42 04be 0523 60be 4ebf bdbd
000002f0: 7d09 2fbe cd8b 053c 8fe8 ddbb 39c3 d9bd
00000300: 8e7b 87bd 934a f7bc a0ad 1bbe 2fbb a8bc
00000310: e87f 2abe 491f 4bbe 68b6 32bd 0007 1dbd
00000320: 80df e8bd ed96 c8bd 14de 23be 0647 42be
00000330: d24d bbba da02 44be 4d1b 26be a50c 62be
00000340: cfb1 c6bd 5ae3 e5bc fb22 e9bd ef53 59be
00000350: 994d b6bc 2995 293d 9bd5 0dbe 5319 83be
00000360: 8d02 8fbe dee0 2bbe 30ea 91bd 80f5 d8bd
00000370: 8cc8 1bbb 1daa bfbc a77a 25be 5de8 f03d
00000380: bd3f 1d3c 86d3 9cbd 07b6 80be 8238 3dbe
00000390: abea 89bd fe4d 3cbe 4ea3 0abe b670 12be
000003a0: 7053 6cbe 30a1 41be 21e0 42be b504 cfbe
000003b0: 5bb6 43be 99e2 39bd a836 7bbe 07bc f6bd
000003c0: a74d 3ebd 923f 5cbe 8b6c 35be f24b a7be
000003d0: 9544 34be 16db 7a3d 3e8a a6bd eac8 07be
000003e0: 272c 61be 548f 13be 0a4e dfbd a1d4 01be
000003f0: e91a 743d 3d26 37bd c895 10be 3b35 a2be

weight f4 [128, 256]
0.018275157 -0.08180674 0.041024826 -0.08256693 -0.0057931864 -0.18492189 -0.19609235 0.12009832
-0.060492024 0.14333047 -0.2504252 0.022388538 -0.04326705 -0.071488716 0.09187416 -0.043714777
0.09540854 0.07147772 0.013748561 -0.016821664 -0.04257815 0.05157699 -0.060221784 -0.016816154
-0.010440567 -0.08184206 0.0504977 0.0031265076 -0.08350202 -0.06800202 0.030584423 0.11176669
-0.046285883 -0.015607573 0.092981376 -0.08462371 0.12650412 -0.00073903747 0.07917877 -0.18134841
0.031917185 -0.009048179 0.16978198 0.026472224 -0.12434451 -0.0059924237 0.019617887 -0.0444279
0.0013296076 0.054323375 -0.07516534 0.10162324 -0.018138362 0.030061334 -0.124822386 -0.03469311
-0.013555335 -0.09860383 0.033459447 -0.14210589 0.08380508 -0.12694716 0.02718926 0.19115128
-0.1092972 -0.017346017 0.055328608 -0.08344978 -0.06628552 -0.13673362 -0.08893646 -0.03930543
-0.04871017 0.08946421 0.025585916 -0.13771439 0.008618734 0.1523531 0.02444669 -0.034990072
0.05912935 0.00784981 0.0026558265 -0.0012256223 -0.042965475 -0.14813168 0.065039404 0.0006160419
0.119861 -0.0925432 -0.18586305 0.08554294 0.059980694 -0.12550999 0.16594887 0.07538413
-0.062255315 0.06023646 0.030056667 -0.08684884 -0.06676698 0.10924582 0.14272526 -0.005607903
0.17518976 -0.19295831 -0.01974849 -0.09933771 -0.13516831 -0.0028575805 -0.123464815 0.046246257
0.14321804 -0.029722817 0.10424979 -0.19004521 0.022392966 -0.17428009 0.004258807 -0.15225504
-0.09873448 -0.14703824 -0.09356927 -0.061517853 0.12997128 0.07611168 -0.0052015004 0.027548503
0.09169341 -0.043564033 0.112696916 -0.03587891 -0.020224623 -0.105339125 0.0021970319 -0.05146876
0.033312462 0.0033145475 0.084789276 0.005823455 0.10004157 -0.060919296 -0.17606747 -0.021727728
0.14633489 -0.0381303 0.10295539 -0.053498395 0.0037035148 0.14277835 0.046873886 0.008674246
0.04127463 -0.21096382 0.065336525 -0.05561022 -0.012212858 -0.0023869069 0.08612344 -0.05392302
0.10806999 -0.0030179746 -0.10037592 -0.031165477 0.023380587 0.08106887 0.036721304 -0.11661417
-0.0094123855 -0.1320258 0.023487756 -0.13781959 0.017214281 0.048789296 -0.048291385 -0.033194825
0.1156716 -0.0026096727 0.04671083 -0.0064989817 -0.06320314 0.090418525 -0.124157175 -0.064082265
-0.058778826 -0.077457726 0.15065677 -0.008995618 0.017056089 0.096614696 0.10987461 -0.181287
-0.027128302 0.09751155 -0.017076317 -0.11528045 -0.008522051 0.09503762 -0.086347796 -0.055669982
0.008258576 0.030188117 0.04528147 -0.15905163 0.06671265 0.061488148 -0.1346939 -0.055257846
0.07146155 -0.032716684 0.0798812 -0.038617764 0.077574275 0.12970187 0.10317425 0.031538326
-0.07742172 0.025463229 -0.09135237 -0.021092022 0.12747161 0.017369794 -0.06923177 -0.010381968
-0.1416462 -0.13866635 0.111312896 -0.03609173 0.16259496 0.08709313 -0.16902104 -0.059088822
0.057767905 0.037521664 0.1882588 0.050057657 0.10072819 -0.05097133 0.112623885 -0.067402944
-0.008271401 0.036500186 -0.06937463 0.10811741 0.002741432 -0.058394905 -0.0689043 0.033218566
-0.026957002 -0.036239143 -0.109895356 0.18242463 0.024845105 0.0057245516 -0.058571067 0.113236725
00000000: c8b5 953c 4b8a a7bd a609 283d da18 a9bd
00000010: c5d4 bdbb 2a5c 3dbe 6fcc 48be 1cf6 f53d
00000020: 7cc6 77bd 39c5 123e bb37 80be 2b68 b73c
00000030: ca38 31bd ad68 92bd 8528 bc3d 440e 33bd
00000040: 8d65 c33d e962 923d a541 613c 96cd 89bc
00000050: 6d66 2ebd 6542 533d 1eab 76bd 08c2 89bc
00000060: e90e 2bbc cf9c a7bd add6 4e3d 18e6 4c3b
00000070: 1b03 abbd a544 8bbd 2f8c fa3c efe5 e43d
00000080: 4496 3dbd e8b6 7fbc 056d be3d 324f adbd
00000090: 4c8a 013e f7bb 41ba 7b28 a23d 66b3 39be
000000a0: 98bb 023d d03e 14bc 54db 2d3e 47dc d83c
000000b0: 56a8 febd 185c c4bb b1b5 a03c 08fa 35bd
000000c0: 3a46 ae3a 3082 5e3d 49f0 99bd d81f d03d
000000d0: e796 94bc 3043 f63c e1a2 ffbd 5d1a 0ebd
000000e0: 3217 5ebc cef0 c9bd c60c 093d 3584 11be
000000f0: ffa1 ab3d 70fe 01be 03bc de3c 29bd 433e
00000100: 36d7 dfbd 3c19 8ebc 40a0 623d b8e7 aabd
00000110: b4c0 87bd e603 0cbe 5224 b6bd bbfe 20bd
00000120: 5184 47bd 0339 b73d 8e99 d13c 0005 0dbe
00000130: 9735 0d3c 7302 1c3e 6d44 c83c c051 0fbd
00000140: 9e31 723d 7d9c 003c 600d 2e3b 0fa5 a0ba
00000150: 91fc 2fbd d5af 17be 6133 853d df7d 213a
00000160: af79 f53d 4a87 bdbd e252 3ebe 2331 af3d
00000170: 51ae 753d b185 00be 80ee 293e ff62 9a3d
00000180: 6eff 7ebd 82ba 763d 6639 f63c cedd b1bd
00000190: 20bd 88bd 46bc df3d 9226 123e 80c2 b7bb
000001a0: f264 333e dd96 45be 96c7 a1bc 9271 cbbd
000001b0: 9069 0abe 3f46 3bbb 1fdb fcbd b76c 3d3d
000001c0: c0a7 123e 447d f3bc ea80 d53d 369b 42be
000001d0: 7471 b73c 7b76 32be 768d 8b3b bfe8 1bbe
000001e0: 4e35 cabd 3191 16be 3fa1 bfbd 25fa 7bbd
000001f0: 3117 053e 71e0 9b3d 5971 aabb 66ad e13c
00000200: c1c9 bb3d 3370 32bd a4cd e63d c4f5 12bd
00000210: 1cae a5bc 0abc d7bd 14fc 0f3b e8d0 52bd
00000220: a672 083d e138 593b 00a6 ad3d aed2 be3b
00000230: 98e2 cc3d 8386 79bd 084b 34be 59fe b1bc
00000240: d0d8 153e 842e 1cbd 47da d23d 2221 5bbd
00000250: abb6 723b 7d34 123e d5fe 3f3d 6d1e 0e3c
00000260: 960f 293d e606 58be 28cf 853d 8bc7 63bd
00000270: 7018 48bc a76d 1cbb 7c61 b03d 62de 5cbd
00000280: cd53 dd3d 36c9 45bb e491 cdbd be4e ffbc
00000290: a588 bf3c 7007 a63d 1469 163d 69d3 eebd
000002a0: 6836 1abc c531 07be 6569 c03c 9420 0dbe
000002b0: f704 8d3c 49d7 473d 30cd 45bd 4cf7 07bd
000002c0: 3be5 ec3d 0b07 2bbb db53 3f3d 69f5 d4bb
000002d0: a670 81bd 592d b93d 1e46 febd 903d 83bd
000002e0: 11c2 70bd 28a2 9ebd c545 1a3e 5b62 13bc
000002f0: 36b9 8b3c eddd c53d f105 e13d 4da3 39be
00000300: 2c3c debc 23b4 c73d a2e3 8bbc 2818 ecbd
00000310: 13a0 0bbc 15a3 c23d 1dd7 b0bd 3506 64bd
00000320: fa4e 073c 124d f73c 1079 393d 6ede 22be
00000330: a4a0 883d ffda 7b3d 33ed 09be 0d56 62bd
00000340: 6f5a 923d ee01 06bd c198 a33d a92d 1ebd
00000350: 43df 9e3d 91d0 043e 054d d33d 552e 013d
00000360: 478f 9ebd 4398 d03c f416 bbbd 2dc9 acbc
00000370: eb87 023e 194b 8e3c 63c9 8dbd 2119 2abc
00000380: b40b 11be 8dfe 0dbe 04f8 e33d ecd4 13bd
00000390: 4b7f 263e e25d b23d da13 2dbe 1f07 72bd
000003a0: 0a9e 6c3d 51b0 193d eac6 403e 4209 4d3d
000003b0: 954a ce3d 50c7 50bd 5aa7 e63d 8e0a 8abd
000003c0: c584 07bc 3881 153d 4914 8ebd a96c dd3d
000003d0: 99a9 333b 7f2f 6fbd b31d 8dbd 3110 083d
000003e0: eed4 dcbc 7f6f 14bd d110 e1bd 86cd 3a3e
000003f0: f687 cb3c 0595 bb3b 37e8 6fbd a8e8 e73d

bias f4 [128]
-0.21079445 -0.099689364 -0.1140933 -0.10264041 -0.06745499 -0.079421125 -0.04001378 0.0070156953
-0.06243536 -0.1300603 -0.07854802 -0.011778691 -0.13098405 -0.165963 -0.03933977 -0.07074993
-0.19514908 0.00041986906 -0.110133484 -0.112556554 -0.07959526 -0.14373471 -0.12176268 -0.08524973
-0.15494877 -0.0560905 -0.1448709 -0.19725753 -0.0030941973 -0.16968562 -0.052838746 -0.11479988
-0.08388868 -0.17141059 -0.17606212 -0.052360356 -0.09864101 -0.12891859 -0.07532434 -0.22682175
-0.11030585 -0.08106449 -0.20847239 -0.08175872 -0.08532514 -0.05077483 -0.111370385 -0.08152648
-0.035031833 -0.12655295 -0.12597105 -0.15885578 -0.2015959 -0.1257683 -0.25069916 -0.10006285
-0.1491279 -0.061609786 -0.08071811 -0.064737216 -0.26824206 -0.095932774 -0.1482925 -0.13647027
-0.06513038 -0.06411754 -0.11130757 -0.22918351 -0.11898567 -0.17750233 -0.091991626 -0.0041964175
-0.13519825 -0.21123968 -0.08782395 -0.026061036 -0.03471834 -0.16583706 -0.41959465 -0.12214981
-0.076950036 -0.066281 -0.117810965 -0.13986844 -0.10130956 -0.10362805 -0.09704359 -0.15348528
-0.14281024 -0.340105 -0.06917981 -0.08973327 -0.06827585 -0.11119431 -0.08200957 -0.10120293
-0.14197916 -0.045343168 -0.12514226 -0.14520591 -0.07207473 -0.13342191 -0.31970763 -0.13296187
0.013184281 -0.23206602 -0.10816019 -0.065166235 -0.10221606 -0.18557292 -0.121428646 -0.13803694
-0.17499384 -0.18730341 -0.12564431 -0.13845164 -0.055147756 -0.07729123 -0.048713583 -0.18595283
-0.053143747 -0.06188453 -0.20663881 -0.111445315 -0.012839141 -0.15018584 -0.03848557 -0.10416891
00000000: 80da 57be f029 ccbd c0a9 e9bd 2335 d2bd
00000010: d825 8abd 8ba7 a2bd 7de5 23bd ebe3 e53b
00000020: 38bc 7fbd 872e 05be c9dd a0bd 69fb 40bc
00000030: af20 06be 34f2 29be bd22 21bd 57e5 90bd
00000040: 29d5 47be df21 dc39 aa8d e1bd 0d84 e6bd
00000050: d702 a3bd 312f 13be b65e f9bd 6997 aebd
00000060: e4aa 1ebe 27bf 65bd 0a59 14be e1fd 49be
00000070: 04c8 4abb 11c2 2dbe 716d 58bd 331c ebbd
00000080: d4cd abbd 4286 2fbe a149 34be d077 56bd
00000090: 4c04 cabd 3c03 04be a643 9abd f643 68be
000000a0: 09e8 e1bd 2405 a6bd c979 55be 1e71 a7bd
000000b0: f2be aebd 45f9 4fbd 2816 e4bd 5bf7 a6bd
000000c0: 8a7d 0fbd 1997 01be 8efe 00be 17ab 22be
000000d0: 286f 4ebe 68c9 00be a45b 80be c0ed ccbd
000000e0: fcb4 18be 8b5a 7cbd 894f a5bd f294 84bd
000000f0: 0657 89be 6778 c4bd fdd9 17be ddbe 0bbe
00000100: 1463 85bd 0f50 83bd 39f5 e3bd 15af 6abe
00000110: c2ae f3bd 2cc3 35be 1b66 bcbd 1a82 89bb
00000120: 6971 0abe 374f 58be 0bdd b3bd f47d d5bc
00000130: d134 0ebd 31d1 29be 1cd5 d6be ae29 fabd
00000140: fb97 9dbd 55be 87bd e046 f1bd ac39 0fbe
00000150: 637b cfbd f13a d4bd cabe c6bd 3f2b 1dbe
00000160: d93c 12be 3e22 aebe 25ae 8dbd 14c6 b7bd
00000170: 35d4 8bbd d8b9 e3bd a2f4 a7bd 7b43 cfbd
00000180: fc62 11be c2b9 39bd 4b25 00be dcb0 14be
00000190: eb9b 93bd c19f 08be b8b0 a3be 2827 08be
000001a0: e202 583c b7a2 6dbe 1783 ddbd e075 85bd
000001b0: a756 d1bd d406 3ebe 95af f8bd 8e59 0dbe
000001c0: 9631 33be 77cc 3fbe e7a8 00be 44c6 0dbe
000001d0: 9de2 61bd dd4a 9ebd e587 47bd 6b6a 3ebe
000001e0: 42ad 59bd a27a 7dbd 2099 53be 713d e4bd
000001f0: 435b 52bc 51ca 19be 0ca3 1dbd 8256 d5bd

weight f4 [12, 128]
0.017876184 -0.013143147 -0.06835176 -0.0020711112 0.0012026789 -0.052344598 0.018725967 -0.03343668
-0.0021530024 -0.024551043 -0.02749732 0.013859777 0.043648474 -0.031281263 0.033612173 -0.024854383
0.04128247 -0.004576475 0.024522718 0.0015048202 -0.034370575 -0.04450723 -0.02317135 0.020191928
-0.012840539 -0.0021962272 -0.022981048 0.005022778 -0.037741628 -0.007922376 -0.027360162 0.04394847
-0.0006895117 0.040268105 0.043446198 -0.01615161 -0.007838828 -0.022480417 0.0058409725 -0.0016988548
0.028395092 -0.0010372149 -0.044896666 -0.066967845 -0.08998558 0.036788348 0.009720694 0.012726094
0.031880766 0.05266891 0.057613768 0.057146646 0.0016060509 0.018837882 -0.06700654 0.0373907
-0.01773207 0.041111685 0.057878945 -0.039014183 0.1049397 -0.01098598 -0.054190345 -0.019321436
0.0002784999 0.0117193675 0.00946917 0.05634033 0.014685293 0.018702215 -0.00027833067 0.013692811
0.0084652 0.016512394 0.012792107 0.04738482 -0.07916852 0.00023019372 0.13639042 0.018434035
-0.019445214 0.016655605 0.015034595 -0.024037644 0.020945365 -0.004142881 -0.004343848 0.090232335
-0.029557297 -0.031287216 0.017187199 0.031863775 0.011960489 -0.024647592 -0.009740281 0.01785961
0.023576645 0.00024882733 0.030717181 -0.013390673 0.019077182 -0.002485982 0.057372555 -0.00048048975
-0.021918343 -0.0012835239 0.02746859 -0.008128072 -0.022768343 -0.014417082 0.054466143 -0.004915421
-0.07183253 -0.048475843 0.011062162 -0.09633534 0.008812251 -0.047898345 -0.04575086 0.065305494
-0.008100234 -0.048104454 -0.009090643 0.05145474 -0.03467671 -0.02930619 -0.017056275 0.012038081
0.057374123 -0.042892206 -0.11190253 -0.0765785 -0.0012219176 0.1755199 0.03499245 -0.06103545
-0.027866531 0.0013130663 0.013080586 -0.028944312 0.02510266 0.049348366 0.009211556 -0.043916106
-0.021002265 0.001954855 -0.0519418 0.05072703 -0.043682437 0.041478667 -0.050185535 0.08751499
-0.029419983 -0.04832666 -0.007466566 0.0099239405 -0.0038955063 0.089472175 0.07938626 0.003936791
0.027491136 -0.1598169 -0.038656637 -0.019854985 -0.0015785833 0.030385029 0.016123218 0.051810358
0.029964743 0.03086225 -0.0059429957 0.008479781 -0.012553715 0.03380508 -0.04856355 0.044580657
-0.015344031 0.12668121 0.041365087 -0.012996781 -0.0077205864 0.0119524775 -0.02504096 0.04407157
-0.13334858 0.014310866 -0.03663362 -0.016211452 0.012001973 -0.03733587 0.07459129 0.029532732
0.0031647808 -0.009212663 -0.021025091 -0.049654305 -0.0277854 0.039160278 -0.020019336 -0.08833885
-0.06945266 0.015242483 0.059307262 -0.009155502 -0.017509062 0.0055856104 0.11802657 -0.026731407
-0.031706747 -0.041264728 -0.029728187 -0.008973602 0.0060192994 -0.012543682 -0.06138039 0.040849477
-0.019918215 0.05742015 -0.0155735295 -0.020630041 -0.011768484 -0.0028391609 -0.020685753 -0.019135829
-0.030814867 0.03585308 0.04252405 -0.00407696 0.00945516 0.026589911 0.20649369 0.044069495
-0.107843146 0.034844358 -0.019686358 -0.005746418 0.12107502 0.05968967 -0.029613653 0.05997061
0.05802621 -0.1242807 0.07458738 -0.018828372 -0.011194522 -0.004839956 0.055010654 0.04764929
0.0153164705 -0.08745363 0.0021612283 0.07029371 -0.016604926 -0.081208766 0.009019838 0.024154533
00000000: 1371 923c 5b56 57bc 02fc 8bbd 7bbb 07bb
00000010: 35a3 9d3a 4a67 56bd 3367 993c e6f4 08bd
00000020: 6319 0dbb 451f c9bc 0f42 e1bc 1e14 633c
00000030: bec8 323d c820 00bd ebac 093d 6b9b cbbc
00000040: cf17 293d 41f6 95bb dee3 c83c 633d c53a
00000050: 29c8 0cbd 374d 36bd d8d1 bdbc 8b69 a53c
00000060: 2061 52bc 94ee 0fbb c042 bcbc 1e96 a43b
00000070: f796 1abd dacc 01bc 6b22 e0bc 5003 343d
00000080: 59c0 34ba 2bf0 243d a4f4 313d 6250 84bc
00000090: 6d6e 00bc da28 b8bc a165 bf3b 1cac deba
000000a0: d39c e83c 28f3 87ba 91e5 37bd 7026 89bd
000000b0: 5c4a b8bd 61af 163d 8c43 1f3c 1b81 503c
000000c0: 6895 023d 5bbb 573d 6afc 6b3d 9a12 6a3d
000000d0: 2082 d23a e751 9a3c ba3a 89bd fe26 193d
000000e0: d942 91bc ba64 283d 7912 6d3d 56cd 1fbd
000000f0: a0ea d63d 8afe 33bc b2f6 5dbd fd47 9ebc
00000100: a003 9239 9702 403c 9424 1b3c 1ec5 663d
00000110: 959a 703c 6335 993c e9ec 91b9 d057 603c
00000120: 9fb1 0a3c 0045 873c fc95 513c 9616 423d
00000130: 1b23 a2bd 2860 7139 eea9 0b3e f902 973c
00000140: 924b 9fbc 5671 883c a953 763c 98ea c4bc
00000150: 9d95 ab3c 01c1 87bb d756 8ebb bbcb b83d
00000160: 2522 f2bc 0627 00bd 2bcc 8c3c 9783 023d
00000170: edf5 433c bfe9 c9bc b395 1fbc 514e 923c
00000180: cf23 c13c 0a75 8239 99a2 fb3c 8e64 5bbc
00000190: c047 9c3c dbeb 22bb 7cff 6a3d 3eea fbb9
000001a0: 198e b3bc ea3b a8ba cf05 e13c 9b2b 05bc
000001b0: ad84 babc a035 6cbc e417 5f3d 8a11 a1bb
000001c0: ef1c 93bd 9b8e 46bd 123e 353c 764b c5bd
000001d0: 4261 103c 0e31 44bd 4165 3bbd e3be 853d
000001e0: d8b6 04bc 2d09 45bd ecf0 14bc 35c2 523d
000001f0: 2a09 0ebd 8913 f0bc 9ab9 8bbc 5f3b 453c
00000200: 2101 6b3d bdaf 2fbd 272d e5bd 30d5 9cbd
00000210: c028 a0ba 7dbb 333e 3e54 0f3d 4f00 7abd
00000220: 5a48 e4bc 321b ac3a f44f 563c 9f1c edbc
00000230: 18a4 cd3c 8321 4a3d 11ec 163c 60e1 33bd
00000240: f10c acbc 061d 003b edc0 54bd 25c7 4f3d
00000250: 5bec 32bd 89e5 293d 598f 4dbd 0f3b b33d
00000260: 2d02 f1bc 2df2 45bd 18aa f4bb 0698 223c
00000270: c04b 7fbb 303d b73d 4395 a23d 3200 813b
00000280: 1735 e13c 0ba7 23be 6c56 1ebd eca6 a2bc
00000290: 77e8 ceba 06ea f83c d714 843c 1937 543d
000002a0: 9f78 f53c d4d2 fc3c 76bd c2bb c8ee 0a3c
000002b0: 19ae 4dbc 3277 0a3d 93ea 46bd 359a 363d
000002c0: 8865 7bbc b8b8 013e 706e 293d 73f0 54bc
000002d0: f9fc fcbb 53d4 433c b322 cdbc 6484 343d
000002e0: 888c 08be 1f78 6a3c 220d 16bd e1cd 84bc
000002f0: eca3 443c 7fed 18bd 51c3 983d a1ee f13c
00000300: 3668 4f3b b6f0 16bc d03c acbc 5062 4bbd
00000310: 359e e3bc 8766 203d 97ff a3bc 00eb b4bd
00000320: 323d 8ebd 9bbb 793c 2cec 723d f500 16bc
00000330: 2a6f 8fbc 7f07 b73b eab7 f13d d3fb dabc
00000340: efde 01bd 3405 29bd 8788 f3bc 0406 13bc
00000350: 8b3d c53b 0484 4dbc 016a 7bbd c851 273d
00000360: 862b a3bc 6431 6b3d 1e28 7fbc 5500 a9bc
00000370: 99d0 40bc 3711 3abb 2b75 a9bc bec2 9cbc
00000380: 766f fcbc aeda 123d b32d 2e3d 0598 85bb
00000390: d1e9 1a3c 16d3 d93c 1573 533e 3782 343d
000003a0: dedc dcbd f5b8 0e3d 4945 a1bc 734c bcbb
000003b0: 2ef6 f73d 287d 743d 5598 f2bc bea3 753d
000003c0: e4ac 6d3d e186 febd 45c1 983d f53d 9abc
000003d0: 3a69 37bc 7e98 9ebb da52 613d e72b 433d
000003e0: eff1 7a3c e41a b3bd 65a3 0d3b 26f6 8f3d
000003f0: 0e07 88bc c850 a6bd f1c7 133c badf c53c

bias f4 [12]
-0.03547649 -0.072410636 -0.05739299 -0.04764052 -0.014467628 -0.14051493 0.02018034 -0.03649083
-0.059759833 0.0048072618 -0.016846962 -0.12009134
00000000: cc4f 11bd 074c 94bd e914 6bbd b522 43bd
00000010: a109 6dbc 25e3 0fbe 3e51 a53c 6977 15bd
00000020: bac6 74bd 3c86 9d3b a402 8abc 73f2 f5bd
