deploy/networks/go2/rudolf2_45k.pt (torch, 776712 bytes, 8 tensors)

weight f4 [512, 49]
000000 d6 c3 b4 be ad 9d 2d 3e ed f1 e4 bd 95 e0 d4 3e
       -0.3530566 0.1695468 -0.11178956 0.41577592
000010 78 c0 52 bc 4a fd 63 3d 8d ee 49 be 6a d1 8b 3a
       -0.012863271 0.055661477 -0.19719906 0.0010667269
000020 13 9d 80 3e 6b e8 ce be 94 c7 ad be b4 03 d9 3c
       0.25119838 -0.40411696 -0.3394133 0.026491024
000030 10 7f 9c 3e 80 a2 11 3f de 8c 75 3d ff 13 a0 3c
       0.3056569 0.5688858 0.059948795 0.019540785
000040 2c 29 1e be 42 76 9c bd e8 db e2 bd 1e 06 01 be
       -0.15445393 -0.076397434 -0.110771 -0.1259999
000050 a4 6f 24 3e ae d3 22 bf ab 1a 89 3f a9 b1 16 3d
       0.16058213 -0.6360425 1.0711263 0.036790524
000060 b3 5a 35 be 26 63 37 3e f1 cb bf bd 51 67 8b be
       -0.1771038 0.17908916 -0.093650706 -0.27227262
000070 d9 24 8e be 4b f3 cd 3c 18 97 a4 3d 1f e2 48 3e
       -0.27762488 0.025140425 0.08036631 0.19617508
000080 3b 66 0e 3f 00 4a e1 bc 20 45 67 bd 11 aa a6 3d
       0.5562474 -0.027501106 -0.056462407 0.08137906
000090 5f 31 86 bd 62 cd 3e bd 9d d1 b6 3b 34 d2 de 3d
       -0.065523855 -0.046582587 0.005579187 0.10879937
0000a0 a4 05 ea 3b a1 52 e6 bc 74 eb 0b 3c c3 f8 2a 3c
       0.0071417857 -0.028115572 0.008540023 0.010435286
0000b0 fa d7 b9 3c 52 27 fb 3b d6 2f 88 bd d2 7e dd bc
       0.022685993 0.0076645995 -0.06649749 -0.027038012
0000c0 91 a9 96 bc 13 36 8a bd bb 74 69 3e f6 57 0f bf
       -0.018391402 -0.06748595 0.22798435 -0.5599359
0000d0 98 95 46 3e 48 35 cb be 3c 61 68 3e e6 98 21 3d
       0.19393003 -0.39689088 0.22693342 0.039452456
0000e0 dc d4 2a bd 83 40 f3 3c b3 af 1a bf 86 1b 64 be
       -0.041706905 0.029693848 -0.60424346 -0.22276124
0000f0 f5 c9 61 be 36 b0 e4 be 04 7e 87 be cc 78 3b be
       -0.22049697 -0.44665688 -0.2646333 -0.18307799
000100 ef a6 bf be b0 b4 aa bc 64 2e 29 be ce 99 86 be
       -0.37432048 -0.020838112 -0.16521603 -0.2628922
000110 33 60 a1 bd 34 17 e4 3d 4b 6b 9a bd 2b db 0e bf
       -0.07879677 0.11137238 -0.07539996 -0.55803174
000120 42 05 80 be 9e 80 78 3e 7a 57 a6 3e 42 41 8a 3e
       -0.2500401 0.24267814 0.32488614 0.27002913
000130 3f d2 94 bd f4 f3 1d 3f bc 57 a9 3e 7d 57 a7 be
       -0.07266664 0.6170037 0.3307475 -0.32683936
000140 5d 69 20 3e c8 7d 53 be 2c c2 b0 bc 1d 50 54 3c
       0.15665193 -0.2065345 -0.021576963 0.012958554
000150 a8 8f 93 3d 7b d1 09 3e b4 9b 58 bc 8c 2e 00 3c
       0.07205135 0.13458817 -0.013220716 0.007823598
000160 b4 bb 38 3d 84 df b7 bc eb 33 3f 3d 82 34 a6 3d
       0.045100883 -0.022445448 0.046680372 0.08115484
000170 f5 03 9f 3d 8e 4b 8f 3c 34 a1 9b bd df ba 9a bd
       0.077644266 0.017492082 -0.075991064 -0.07555174
000180 0a fd ed bd 1d a9 40 bd 0c b8 00 3d 36 58 d5 3e
       -0.11620529 -0.04703628 0.03142552 0.41668862
000190 e3 81 99 be b7 2c 89 bd d5 2d 77 be 8e d5 e0 bd
       -0.29981908 -0.06697982 -0.24138577 -0.10978232
0001a0 10 90 69 bd 36 51 9f bc f2 0c 15 3e da 2c ee be
       -0.057022154 -0.019447904 0.1455572 -0.46518594
0001b0 46 c2 4e 3e c5 64 88 3e 53 d3 c7 3d 69 08 55 3d
       0.20191297 0.2663938 0.09757104 0.052009974
0001c0 0d 9a 34 bf c3 09 6f 3d b0 cb 59 be db 6a c0 be
       -0.7054756 0.05835892 -0.21269107 -0.37581524
0001d0 d1 8e 37 3f 9d 6d a6 be 62 20 d6 bd 79 44 9c 3e
       0.71702296 -0.32505503 -0.10455395 0.3052099
0001e0 34 0d 12 3e 52 88 51 bd 05 63 82 be 4b 27 30 3a
       0.14262849 -0.051155396 -0.2546617 0.00067197223
0001f0 c2 f4 15 be 16 f5 33 3e c4 2a 9c bd 69 7e 7d be
       -0.14644149 0.17573962 -0.076253444 -0.24755253
000200 73 e9 04 be b3 d0 87 3e 88 20 ca bc 09 df 9a bc
       -0.12979679 0.26526412 -0.024673715 -0.01890518
000210 4d 7f 4f 3d 3e 67 2f 3c 16 85 11 3d da 2d 1f 3d
       0.050658513 0.010705767 0.03552731 0.038862087
000220 7b 0f f7 3c 2e 6d af bb 81 bb 65 3d d2 6b 0a bd
       0.030158749 -0.0053535914 0.05608702 -0.03379423
000230 b5 ae 3a bb 90 c7 24 bb 8b 08 92 bc 50 a7 21 bd
       -0.002848548 -0.0025143363 -0.01782634 -0.039466202
000240 7f 58 18 be e2 44 97 bd b5 eb 73 bd 2b d9 66 bd
       -0.14877509 -0.07386185 -0.05955096 -0.05635945
000250 b0 40 55 be 10 79 8e 3e bd 6a 15 bf cd e2 3e bf
       -0.20825458 0.27826738 -0.58365995 -0.7456482
000260 3c 93 88 3d 18 13 58 3e 80 66 46 be 9d 4e cc bd
       0.06668708 0.21101034 -0.19375038 -0.09975932
000270 86 5c 14 3d 13 d5 05 bf 24 87 72 3d 49 3d 95 be
       0.03622105 -0.5227825 0.05921091 -0.2914832
000280 5e eb 12 3e 76 0a d5 3e e8 9c 9b be cb 5f fb 3d
       0.14347598 0.41609544 -0.30393147 0.122741304
000290 7b bc e2 3e 6d 83 0b 3f 25 9e b0 be ac 14 72 3e
       0.44284424 0.54497415 -0.34495655 0.23640698
0002a0 45 ce 93 be 50 e5 53 be 6a ce 0a 3e eb c0 50 3e
       -0.2886831 -0.20692945 0.13555303 0.20386092
0002b0 8d d8 78 bd 93 72 5b 3e 2b e0 a3 3d 62 78 0d 3e
       -0.060753394 0.21430425 0.08001741 0.13815454
0002c0 92 ee c3 3d 95 fd 41 be da 91 07 be 24 1a 08 3f
       0.09566988 -0.1894439 -0.13239232 0.5316489
0002d0 09 0c c2 bc c7 ab 1f 3e 38 27 9a be ea 04 20 3e
       -0.02368738 0.15592872 -0.30108047 0.15626875
0002e0 3e a2 3e bd 2f 22 e3 bd ff fb d9 3d c8 b0 ab 3d
       -0.046541445 -0.110905044 0.106437676 0.08383328
0002f0 0e 0a e7 bd df 39 f8 ba 43 e3 12 be 83 06 5a bb
       -0.11281215 -0.0018938145 -0.14344506 -0.0033268041
000300 d7 9e c9 3d 29 ff 1e 3c 20 5d df 3c 99 c2 54 bd
       0.098447494 0.00970439 0.027266085 -0.051943395
000310 a1 38 72 bd 0a aa 37 3e 01 18 8d 3d 1a 1e 1b 3e
       -0.059136037 0.17935959 0.06889344 0.15148202
000320 bf 05 89 be 0b c7 a9 3c 68 c2 c1 b8 25 d4 49 bd
       -0.26762196 0.020724794 -9.239168e-05 -0.049274582
000330 18 e7 ff bd a2 ba 78 3e 41 c4 3d b9 de d8 dd be
       -0.124952495 0.24289945 -0.00018097555 -0.4332952
000340 d0 d4 84 3e f1 f4 78 bc 36 69 f4 3e 34 a0 fc bd
       0.25943613 -0.015195117 0.4773652 -0.12335244
000350 c7 4a 4b 3e 9c e2 39 3f 7f 08 d5 3c 8a 3b de 3e
       0.19852744 0.72611403 0.026005028 0.434048
000360 3f 88 14 3e ee ad 8f 3e 9c a3 0c bf 3f 42 79 bd
       0.14505099 0.28062385 -0.5493715 -0.060854193
000370 f6 3b e8 bd 8c fe 16 be a1 fd 3e 3e 6f 06 5f 3c
       -0.11339562 -0.1474554 0.18651439 0.013612374
000380 71 bf bb 3e e0 59 10 3f 45 c7 16 bf 22 71 cb 3e
       0.36669496 0.5638714 -0.5889781 0.3973475
000390 a3 c4 c5 be a1 3f 41 bc bf 2d c5 3c 89 4c 43 bd
       -0.38626584 -0.0117949555 0.024069665 -0.04768041
0003a0 c8 77 6c bc b6 28 b8 3c 29 6f fa bd 50 d2 54 3d
       -0.014432855 0.02248035 -0.12228233 0.051958382
0003b0 60 ed 9e bd a2 f9 ef bd fc 5a 66 bc 88 9f aa 39
       -0.077601194 -0.117175356 -0.014059778 0.00032543787
0003c0 23 b1 eb 3c 31 7e 8f bd 1a 39 31 3d 05 fc d4 bd
       0.028770989 -0.07006491 0.043267347 -0.103996314
0003d0 88 27 0f 3e 9d 8c 12 be 3d 49 b0 bd 7f e3 99 bd
       0.13979924 -0.14311452 -0.08607719 -0.075140946
0003e0 07 29 42 3f 29 0e af be 09 f5 32 bd df fa cb bd
       0.7584385 -0.3419049 -0.043690715 -0.09959959
0003f0 77 4e 37 3d 15 9f fe bd 2e 49 77 3e b1 81 89 bd
       0.044752564 -0.12432686 0.2414901 -0.0671419

bias f4 [512]
000000 4d f1 cf 3d 27 d4 c0 bc 2c f2 34 3e 1f fa ed 3c
       0.10153446 -0.023538662 0.17670506 0.029049931
000010 5e e1 c5 3d de 5e 9f bd 73 75 1a bd 3c 39 bc bd
       0.09662126 -0.07781766 -0.037709665 -0.09190604
000020 2e 9d 97 be 1a 42 fc 3d ee 25 55 3e 59 18 8b bd
       -0.29612106 0.12317295 0.2081525 -0.06791753
000030 63 6e 36 be f8 33 61 3e f2 56 96 be c0 36 2d 3e
       -0.17815547 0.21992481 -0.2936321 0.16915417
000040 06 5a c5 bd b5 ce 81 be dd 43 60 be 1b 12 88 3d
       -0.09636311 -0.25353017 -0.21900888 0.06644078
000050 08 eb 74 be 7a b0 cb bd 6c 05 18 be c5 89 a5 bd
       -0.23917782 -0.099457696 -0.14845818 -0.08082918
000060 ae 6d 40 be 17 ea 98 3e f3 97 4a be 4c 62 56 3e
       -0.1879184 0.29866096 -0.19784527 0.20935935
000070 0e 05 95 be 07 7d 0c 3e 6a 2d 30 be 29 a4 e2 bd
       -0.2910542 0.13719569 -0.17204824 -0.11066467
000080 fc 6a 48 bd 28 c6 37 be 1b ce 3f 3e 2f 21 01 be
       -0.048930153 -0.17946684 0.18730967 -0.12610315
000090 dc 63 90 3d 35 a0 6a 3e b5 93 8a bd 69 14 24 be
       0.07050297 0.22912677 -0.06766454 -0.16023411
0000a0 95 dd 3f be 01 97 67 be 6f 4c 0a bd ae b1 29 3e
       -0.1873687 -0.22616197 -0.0337643 0.16571686
0000b0 4a cc d5 bc d6 93 3d 3e 96 ed b5 be bd df f1 bc
       -0.02609839 0.18513426 -0.35532826 -0.029525632
0000c0 0b e6 7b be 8e 2a 81 be de 5d 90 bb 0f 05 47 be
       -0.24599473 -0.2522778 -0.004405721 -0.19435523
0000d0 73 66 84 be 0b 57 e8 bd 37 19 99 be 78 e8 82 be
       -0.25859413 -0.11344727 -0.2990205 -0.25567985
0000e0 9b a6 16 be b7 b9 5a be 92 80 d2 3c 03 18 1d bd
       -0.14711992 -0.21359907 0.025696073 -0.038352977
0000f0 f3 69 6e 3d 66 cc 9d bd e5 c4 dc bd 97 f4 0d be
       0.05820651 -0.077050015 -0.10779742 -0.13862835
000100 59 d6 24 be 32 ef 26 bc 54 88 fe bd 2f fc 7e bd
       -0.16097392 -0.010188865 -0.12428346 -0.06225222
000110 a5 41 7a bc 1f 14 34 be 76 ff 02 3e ff d3 a6 3d
       -0.01527444 -0.175858 0.12792763 0.08145904
000120 9a 4e 9e be 57 bb 5a 3e 23 39 cc 3c d0 1a 00 3e
       -0.30919343 0.21360527 0.024929589 0.12510228
000130 6e 32 59 bd ca 39 95 bd ba 02 57 be 6e 04 34 3e
       -0.05302661 -0.07286413 -0.20997134 0.17579815
000140 c8 f3 4f be df e1 9d 3d 35 bc 37 3e 50 48 7e 3d
       -0.20307839 0.07709097 0.17942889 0.06208068
000150 6d 75 ac 3d 88 48 a2 bd f8 05 05 3e c9 f5 cf 3c
       0.08420835 -0.079239905 0.12990558 0.025385754
000160 23 8f 93 be 6b ce 22 3e dd 53 49 3e 7c 9a 9b bc
       -0.28820142 0.15899055 0.19660898 -0.018994562
000170 47 42 88 be aa 6e 32 be b0 18 b1 3d 04 6b 20 bd
       -0.26613066 -0.17425027 0.08647287 -0.039164558
000180 73 ff 57 be 2d b8 e2 bd d6 d8 ae bd 27 42 89 be
       -0.2109354 -0.11070285 -0.08537452 -0.26808283
000190 e7 df 86 be 26 65 8f 3e e6 c9 34 be 68 2c eb bd
       -0.263427 0.28006858 -0.17655143 -0.11483079
0001a0 40 10 0e be 69 8b 3d be b7 97 9c 3d fc bb 9a 3d
       -0.13873386 -0.18510212 0.07646125 0.075553864
0001b0 2b 37 bf bd ac 0f 24 3e f7 be a9 bd 8a fa f0 bb
       -0.09336694 0.16021603 -0.08288377 -0.0073540853
0001c0 51 dd 69 bd e0 23 17 be 5e e0 5e bd e3 64 bd 3d
       -0.05709583 -0.14759779 -0.054413192 0.09247758
0001d0 f2 af bd 3d 39 ff dd bc 53 42 6b bd ba 04 5a 3e
       0.092620745 -0.027099239 -0.0574363 0.21290866
0001e0 78 6d b3 be 8d 7c 7c 3d 92 a2 e3 bd bf f3 8e be
       -0.35044456 0.06164222 -0.11114992 -0.2792034
0001f0 47 d1 02 be 22 6f 85 bb 14 4e d8 3d ff 91 6f be
       -0.12775145 -0.004072086 0.10561767 -0.23395537
000200 10 58 1b 3e b5 6e 9b 3d f5 e5 76 be 5f e1 0d be
       0.15170312 0.07589475 -0.24111159 -0.13855503
000210 2f b8 3d be 88 cf 3a be 7a 67 18 3e df e4 90 be
       -0.18527292 -0.1824323 0.14883223 -0.28299615
000220 73 97 81 be c7 57 0d 3e 4c 09 e5 3d 78 21 fa bc
       -0.2531086 0.13803016 0.11183414 -0.030533537
000230 c3 b1 4a 3d ea 47 11 3e 59 58 98 be 56 6a 05 3e
       0.049485933 0.1418759 -0.29754904 0.13028845
000240 44 69 aa 3e 87 c5 ce 3d e4 4a ae bd 4e 1b eb bd
       0.33283436 0.10096269 -0.08510378 -0.11479817
000250 88 b2 9b be 6e 7e 37 bd 7e f7 64 be 92 f4 ab bd
       -0.30409646 -0.044798307 -0.22360036 -0.083962575
000260 fb 13 43 3e 27 3c 02 3d c5 0b ab be 48 15 07 3e
       0.1905059 0.031795647 -0.33407417 0.13191712
000270 15 df be bd 9c b0 1f 3e a3 e2 08 3e 08 bb 32 3e
       -0.09319893 0.15594715 0.13367705 0.1745416
000280 2c 9c bd bd 1c 17 67 bc c1 97 98 bd b9 4a fd bd
       -0.09258303 -0.014104631 -0.0745082 -0.12367768
000290 22 d7 3a 3d a8 9b fe bc 59 bf 5b be 5a 40 4d 3d
       0.045615323 -0.031080082 -0.21459712 0.0501102
0002a0 06 b6 31 3e 27 aa 2c bc 59 45 80 be 8e ff 77 3d
       0.17354593 -0.010538614 -0.25052908 0.06054645
0002b0 f4 f1 77 be 38 5f f6 3d 81 b6 ef bd b6 09 68 bd
       -0.24213392 0.1202988 -0.11704732 -0.056649886
0002c0 19 a0 d9 3c 38 3a 8b be 83 32 91 be 26 62 36 3d
       0.026565598 -0.27192855 -0.2835885 0.044527195
0002d0 33 5f 8b 3b 53 1f 4a 3e b0 73 a3 bd d2 3e 0d 3e
       0.004253292 0.19738512 -0.0798105 0.13793495
0002e0 e5 b4 b2 bd b0 19 94 3e 45 ac ae be 9c 41 1e 3d
       -0.08725909 0.28925848 -0.34115806 0.03863679
0002f0 5a aa 4f be f7 86 74 3d 03 9a ac be 55 4b c4 3d
       -0.20279828 0.059699025 -0.33711252 0.09584681
000300 ab e3 89 3d e9 8d d4 bb cd 08 b9 bc 2d aa bb 3d
       0.06732877 -0.0064866436 -0.022587204 0.09163318
000310 1b f8 32 be 7e 07 6b 3d 21 58 40 bc fa ef 41 3e
       -0.17477457 0.057380192 -0.011739762 0.189392
000320 78 0c 94 3d e9 51 fe 3d 46 49 14 be ae 3a ad 3d
       0.07228941 0.12417967 -0.14481077 0.08458458
000330 6a c0 56 3d 0b c8 8e bd 7c 60 ca 3d ed a3 2a be
       0.052429594 -0.06971749 0.09881684 -0.16664095
000340 66 fa 9f be 1a a7 2a be 65 3d bd bd f2 bf c6 3d
       -0.31245726 -0.16665307 -0.09240226 0.097045794
000350 01 57 f4 3d 64 14 47 3c 66 34 82 be bc a1 f1 3b
       0.11930657 0.012150858 -0.25430602 0.0073740166
000360 cc 3d 81 3e bd 25 6b 3d c5 a9 12 3e 4f 13 d3 3d
       0.2524246 0.057409037 0.14322574 0.10306417
000370 cc 7f 83 be 6f 9e 5b be 5a c7 64 be fc 28 8f bd
       -0.2568344 -0.21447156 -0.22341672 -0.06990239
000380 b6 95 99 bc f5 84 46 bc f4 84 af 3d 33 69 2b be
       -0.018748146 -0.01211666 0.08570281 -0.16739349
000390 0c fb 24 be b0 3d 95 bd 79 64 c1 bc 2a 5c 59 be
       -0.16111392 -0.072871566 -0.02360748 -0.21226564
0003a0 e2 7f 56 3e 11 0e ab 3d 69 31 66 be 86 4f 22 be
       0.20947221 0.08352292 -0.22479786 -0.15850648
0003b0 32 37 6b bd 39 b8 b3 bd 9c 33 aa bd 15 2f ca 3c
       -0.057425685 -0.08775372 -0.08310625 0.024680654
0003c0 7c 1e 3b 3d 15 0f 6f 3d 63 ce 5f 3e c6 62 2d be
       0.04568337 0.058363993 0.21856074 -0.1693221
0003d0 ea d4 47 be f8 93 55 be e2 5d eb bd e4 d3 40 be
       -0.19514814 -0.20857227 -0.11492516 -0.1883083
0003e0 74 9c 0f be 89 97 b2 bd 0e 61 02 bf 37 22 6e 3e
       -0.14024526 -0.08720309 -0.50929344 0.2325524
0003f0 9d e1 f7 be 06 8e 51 be 4a 19 54 bd 5a c9 28 3d
       -0.48414317 -0.20464334 -0.05178193 0.04120765

weight f4 [256, 512]
000000 67 79 2d 3e a1 9c 18 bf dc a8 0d be 5f 4f 6c 3d
       0.16940843 -0.59613997 -0.13833946 0.05769288
000010 b6 40 8f 3c b5 5f be 3d b4 83 26 be df 1a 99 3d
       0.017486911 0.092955984 -0.16261178 0.074758284
000020 b2 10 49 3e cf 58 3f 3d e1 82 e4 be 9f 90 9b 3d
       0.19635275 0.046715554 -0.44631103 0.07595944
000030 0c 9e 97 bd b0 e7 ab 3e 26 68 8e 3e 3c 5f cb 3e
       -0.07403192 0.335752 0.27813834 0.39721096
000040 38 81 94 be 4a 5a fe 3e d8 89 40 3e 90 ca 10 3f
       -0.29004836 0.4967826 0.18802583 0.56559086
000050 07 e4 40 3e eb 70 bc 3e ca 33 3e bd f9 44 ac 3e
       0.18836986 0.368049 -0.04643611 0.33646372
000060 ed 16 53 3e 69 a6 a7 be 99 69 e4 3e 9c 38 e3 be
       0.20614214 -0.32744148 0.44611815 -0.44379127
000070 0f 8c c7 3e 49 4c 5c 3e f9 74 c6 bd 75 f4 28 3e
       0.38974044 0.21513475 -0.096902795 0.16499503
000080 ee 97 80 be 8c c3 e2 3e 12 a7 cb bb e7 49 59 3e
       -0.25115913 0.44289815 -0.0062149847 0.21219598
000090 9c 8a e7 3d c8 a8 bb be f5 ee 82 be a1 c6 3d 3e
       0.113057345 -0.36652207 -0.25572935 0.18532802
0000a0 d0 96 4f be 53 00 0d bd e7 d8 47 3d 72 05 f6 bc
       -0.20272374 -0.034424137 0.04879084 -0.030031893
0000b0 c2 f9 2d 3d 04 de c1 3d b1 ca 41 3e 29 39 1c 3e
       0.042474516 0.09466174 0.18924977 0.1525618
0000c0 2d e8 69 3e 51 6f c6 bd a4 46 4e be b7 1d 9c bd
       0.22842474 -0.09689201 -0.20144135 -0.07622855
0000d0 7a 9c 39 3e 75 25 f6 3e 90 14 9d 3d db e0 a1 be
       0.18126097 0.48075452 0.076699376 -0.31616864
0000e0 cf 6c 1d bb 3b dc 4b bd 0b 7b 36 be 3e 1e 52 3f
       -0.0024021154 -0.049770575 -0.17820375 0.82077396
0000f0 db f2 8d bd ea 0c ac bd dc 0d 08 be 9d 0c 67 3e
       -0.06931087 -0.08400901 -0.13286537 0.22563405
000100 e6 1c d9 bd 52 b5 cb be 45 71 9b 3d 2c db cd bd
       -0.10601215 -0.39786774 0.07589964 -0.10051569
000110 99 e7 de 3d c9 a2 a6 3e 87 63 04 3d 6f 7a 63 3d
       0.108840175 0.3254607 0.03232148 0.055536684
000120 cc e1 1d 3c e7 35 de 3d 63 c6 a0 3d 50 ca f1 be
       0.009636354 0.10850125 0.07850339 -0.47224665
000130 a6 1a 8f be a9 d4 1e be 9c ff 0b 3e b8 76 c3 bb
       -0.2795002 -0.15510811 0.13671726 -0.00596508
000140 d2 c6 94 3e 95 74 aa 3d b7 e4 49 bc 2c 49 83 3e
       0.29057938 0.083230175 -0.012322596 0.25641763
000150 99 42 8b be a4 25 c4 bd 9b 79 80 3e 76 19 54 3e
       -0.27199247 -0.09577492 0.25092778 0.20712838
000160 95 6a 7a 3e 95 87 4e 3e 31 cf 9b 3d 7a 77 07 3f
       0.2445472 0.20168908 0.07607878 0.5291668
000170 8c e1 5f bc 6e b1 f5 3e cd 45 a6 bd 56 f2 5f bc
       -0.013664614 0.4798693 -0.08118782 -0.013668617
000180 0e 68 01 3e 34 72 96 3e 1a 96 04 3e b2 37 d0 3e
       0.1263735 0.29384005 0.12947884 0.40667492
000190 b1 4e b2 3d 59 1a 20 be 46 ec c1 3e 76 90 2b 3e
       0.087064154 -0.15635051 0.37875575 0.16754326
0001a0 be 53 cc 3d db cc c7 3d ad ad 04 3e 3a f3 56 3e
       0.0997691 0.0975587 0.12956877 0.20991221
0001b0 ec 36 c4 bd b9 26 8e 3e 72 d5 bc 3d 49 ee c6 3e
       -0.09580788 0.27763918 0.09220399 0.38853672
0001c0 37 34 3d 3e 51 d2 b8 bd ff af 6e be 8c 54 f9 bc
       0.1847695 -0.0902449 -0.23309325 -0.030435823
0001d0 3a 75 07 bf 9d 6c a2 3e 27 5c 09 3f d2 af d4 3e
       -0.5291325 0.3172349 0.5365624 0.4154039
0001e0 22 f4 60 be 43 c8 bb 3d 8e ce e7 3b d1 06 6b be
       -0.2196813 0.09169056 0.007074184 -0.22951819
0001f0 c4 20 d8 3e 92 b2 a4 be 4e d5 86 be 48 8c b1 be
       0.42212498 -0.32167488 -0.26334614 -0.3467734
000200 81 f7 71 bc 91 61 a7 3d d0 f8 76 3d 2a 56 6a 3e
       -0.014768482 0.08172906 0.06029588 0.22884431
000210 dd 33 10 be 02 3c d0 3e a9 78 2c 3e 6b 06 d2 bd
       -0.14082284 0.40670782 0.16842903 -0.102551304
000220 83 b2 5f 3e 3c 58 f5 3c b8 8e 34 3e 57 11 5c bd
       0.2184544 0.0299493 0.17632568 -0.053727474
000230 f3 93 3b 3d 32 03 a7 bc c4 b0 11 3f 11 b6 d8 3c
       0.045795392 -0.020387266 0.5691035 0.026454004
000240 70 90 e6 be 2e e5 52 be 1a 6b 50 bc 30 98 8b be
       -0.45032072 -0.20595238 -0.0127208475 -0.27264547
000250 1d f3 40 be 29 89 a4 3c f2 0b 30 bb d8 3b f3 3d
       -0.1884274 0.020084934 -0.0026862589 0.11876649
000260 5b f1 3e 3e 45 32 1a 3d 89 12 d0 3d c8 32 1c be
       0.18646757 0.037645597 0.10159785 -0.15253747
000270 bf ba 0c be 0c f4 34 3e d4 78 27 bd f7 8c e3 3d
       -0.13743113 0.17671221 -0.040886715 0.11110871
000280 64 a5 54 3e 28 f5 17 3d e0 fa 99 3d b6 91 2f be
       0.20766217 0.037099034 0.07518554 -0.17145428
000290 39 8e 0f bf c8 fa 13 3e 6f 8d 45 3e ed ec f8 3d
       -0.5607639 0.14451134 0.19292234 0.12154565
0002a0 91 2f 88 3e 26 83 1c 3e 9f e0 a1 be fa ba a4 be
       0.2659879 0.15284404 -0.31616685 -0.32173902
0002b0 52 95 1d 3e b1 c0 88 bc 1e 31 c2 3e 10 c0 36 3e
       0.15388992 -0.016693445 0.37928098 0.17846704
0002c0 b7 9c b0 3e d9 1e 1b 3e ef 6b 8d bd 91 a6 f5 3e
       0.34494564 0.15148486 -0.06905352 0.47978643
0002d0 22 f6 98 3e d4 d8 43 3e 54 f9 14 3d e3 12 d0 3e
       0.29875284 0.19125682 0.03637059 0.4063941
0002e0 5f 63 49 3e ae 82 d6 3e 60 ce 18 be a3 c9 89 bd
       0.19666813 0.41896576 -0.14922476 -0.06727912
0002f0 d7 b0 9d 3d 59 96 0e 3d b6 86 90 3e b0 34 36 be
       0.07699745 0.03481135 0.28227776 -0.17793536
000300 6b a3 f4 3d 0f a8 97 3e f6 37 44 3e 90 11 39 3b
       0.11945232 0.29620406 0.19161972 0.0028239228
000310 4e 14 53 be ff f8 93 3d ce e8 8c 3e 95 de 5b bd
       -0.20613214 0.072252266 0.27521366 -0.053679068
000320 e8 72 d3 bb 10 d4 50 bd 47 c0 0a be e5 d2 7c be
       -0.006452907 -0.05098349 -0.1354991 -0.24689825
000330 43 f8 51 3e 20 ee 56 3e 34 99 c7 bd 5c 08 2a 3e
       0.2050486 0.20989275 -0.09746018 0.16604751
000340 bc fb ac 3e b9 35 fa 3d 33 0a 55 3c 7a 93 d6 bd
       0.33785808 0.12217278 0.01300292 -0.10477348
000350 0f cb 44 bd 99 b8 b2 3c 6d 0c cc bd 3a 74 5e 3d
       -0.048045214 0.021816539 -0.099633075 0.05431006
000360 e5 bb c6 be 18 2a c6 bd 7b 2d 27 3e 32 4d 14 3d
       -0.38815227 -0.096759975 0.16325943 0.03620643
000370 7c f2 ae bd 4c 11 66 bd 58 74 5a 3e 76 60 9a bd
       -0.08542344 -0.05616884 0.21333444 -0.0753793
000380 7f 19 2f 3e ac fa af bc b4 d1 95 be d4 a9 9e be
       0.1709957 -0.021481834 -0.29261553 -0.30988944
000390 c0 80 30 3e 9d eb f9 3d 9a 32 0e 3f ca f7 91 3e
       0.17236614 0.12203143 0.5554596 0.2850936
0003a0 9d 73 02 be 9b 5b d7 3d c8 95 3b 3e c2 b6 77 bd
       -0.12739415 0.10515519 0.18318856 -0.060477026
0003b0 1e 77 a3 bd 8d bb 6f 3c d9 f2 12 be 5f 9c 4f be
       -0.07981704 0.014632118 -0.14350452 -0.20274495
0003c0 a1 90 d2 3d 76 9b 34 be fb cb 5e 3e 32 c9 7c 3d
       0.10281492 -0.17637429 0.217575 0.061715312
0003d0 91 25 5e 3d 03 b6 36 be f3 cb 3a 3f 83 39 00 be
       0.054235045 -0.1784287 0.7296745 -0.12521939
0003e0 9c 25 02 3e fd e1 e5 bd 36 8b ce 3e 0e bc 86 bd
       0.1270966 -0.112247445 0.40340585 -0.06578837
0003f0 7d b3 2c 3e 0b 93 c7 3c b8 fa d2 bd 53 f4 bc 3e
       0.16865344 0.024362108 -0.10301727 0.36905155

bias f4 [256]
000000 6b 46 ac be ab 6c ae be 7a a9 1b be e2 ea 8b be
       -0.33647475 -0.34067282 -0.15201369 -0.2732764
000010 45 82 2d be 29 df 2b be ac 6e 8f be 17 30 b1 bd
       -0.16944225 -0.16784348 -0.28014123 -0.086517505
000020 fa b9 2e bd ef 18 70 be 6c 4e 16 be 56 a8 c2 bd
       -0.04265783 -0.23447011 -0.14678353 -0.09504764
000030 50 ed 24 be b4 3d e2 bd 67 63 85 bd 25 05 2f be
       -0.16106153 -0.11046925 -0.065131 -0.17091806
000040 54 0b e5 3c 0c a0 07 3d df 76 45 3c 12 83 8a be
       0.027959503 0.033111617 0.012052267 -0.27053124
000050 ca 68 cd bd a2 ce 09 be 50 a1 36 be 75 1f f4 bd
       -0.100297526 -0.1345773 -0.17834973 -0.119200625
000060 b9 d5 8b be c5 54 22 bd 49 fb 39 be 17 f2 e1 bc
       -0.27311495 -0.039631624 -0.18162264 -0.027581258
000070 5a 97 35 bd c7 db c3 3c 22 8d d0 bd d3 75 bf bd
       -0.044333793 0.023908509 -0.10183169 -0.09348645
000080 c6 c3 87 be 5d ec 12 bc 8f 85 93 bd 7e 52 0b be
       -0.2651655 -0.008967486 -0.07203209 -0.13605687
000090 10 81 0b be c0 35 23 bd 95 49 88 be 52 27 cf bd
       -0.13623452 -0.039846182 -0.2661864 -0.10114922
0000a0 6f d2 03 be 28 7d a3 be b9 25 7e be 54 63 36 be
       -0.12873243 -0.31931424 -0.24819078 -0.17811328
0000b0 33 f4 b1 bd 73 df f8 bd ea b5 bf be ed 13 c5 bd
       -0.086891554 -0.121519946 -0.37443477 -0.09622941
0000c0 04 42 e0 bd e5 19 70 be 5c 95 30 be c3 5c 2c bd
       -0.109500915 -0.23447378 -0.17244476 -0.042080652
0000d0 d7 e7 69 be 63 cf 4d be b9 9b 3d be 98 22 3b 3c
       -0.22842346 -0.20098643 -0.18516435 0.011421822
0000e0 13 ca 59 bd 85 c1 8a be 78 fd 19 be e9 aa a0 bd
       -0.05317123 -0.2710077 -0.15038097 -0.078450985
0000f0 f0 ba 35 bd 99 d6 53 be 5e c8 38 be f4 f9 a3 be
       -0.04436773 -0.20687331 -0.18045184 -0.32026637
000100 2b 12 43 be 9e ca 8f be 60 41 3a bd e3 60 07 bf
       -0.190499 -0.28084272 -0.045472503 -0.5288221
000110 70 b9 48 be c3 68 05 be ec 90 cc bc 6b 7d a5 bd
       -0.19601989 -0.13028245 -0.024971448 -0.08080562
000120 b3 5d 92 bd 04 d3 5a be d2 20 16 be 34 62 14 be
       -0.07146778 -0.21369559 -0.14660957 -0.14490587
000130 70 9b 5d be 7e 97 f6 bd f8 7d 84 bd 9c 18 a0 be
       -0.21641326 -0.120406136 -0.06469339 -0.31268775
000140 73 0c ae bd 89 9a d0 3c d5 fc 3a be ce 44 03 bf
       -0.08498468 0.025464313 -0.1826051 -0.5127686
000150 fe 53 86 be fb bf 03 be 8b 6a 6a be 2d 44 57 be
       -0.26235956 -0.12866203 -0.22892205 -0.21022101
000160 0e 99 b3 3b 28 f1 00 be 94 96 83 bd 83 58 85 be
       0.005480892 -0.12591994 -0.06425205 -0.26044092
000170 ab e5 42 bd 49 ad 2c be 55 75 60 bd 1f eb 9c be
       -0.04758231 -0.16862978 -0.054799397 -0.30648133
000180 60 11 04 bd 96 42 44 be b0 7e 8d be 43 31 34 be
       -0.032243133 -0.19166026 -0.27635717 -0.17596917
000190 e8 e8 bd bd 79 47 82 be 8c 02 fd bd 07 ff a1 be
       -0.09272939 -0.25445154 -0.123540014 -0.31639883
0001a0 ef cc a2 bd 97 72 30 be 12 fc a6 bd e2 00 f9 bd
       -0.07949244 -0.17231213 -0.08153547 -0.121583715
0001b0 87 ec 6a be 01 8d 16 be 1e 3b c9 bd 56 5e b5 bd
       -0.2294179 -0.14702226 -0.09825729 -0.08855884
0001c0 98 3a 61 be 98 0f 8e be 0e f4 43 be 22 87 2e be
       -0.21995008 -0.27746272 -0.19136068 -0.17043737
0001d0 41 2f 30 be da 51 bf be b2 6d 7c be 1d e5 c8 bc
       -0.17205526 -0.37367135 -0.2465122 -0.024523312
0001e0 2a 21 3b 3e 90 4d 2f bd ed 95 b4 bd 20 3f db bd
       0.1827437 -0.04279858 -0.088176586 -0.107053995
0001f0 b3 6c 97 bd 7d 8d 85 38 39 33 e4 bd 60 8b 9f 3c
       -0.073937796 6.3682885e-05 -0.111425824 0.019475639
000200 5c d9 aa bd d1 83 eb bd 06 99 33 be af 9d 42 be
       -0.08342239 -0.11499751 -0.17538843 -0.19005464
000210 86 aa 79 bd 4b 68 69 bc 51 fa 57 bd 8b 3b 88 bd
       -0.06095364 -0.014246057 -0.052728955 -0.06651982
000220 14 b9 e8 be f8 0f cd bd 0c ae 10 be c2 7a f7 bd
       -0.45453703 -0.100128114 -0.14128894 -0.12083961
000230 76 ce 85 bd b8 03 75 be cd f1 68 bd e3 9b 07 be
       -0.0653352 -0.239272 -0.056871224 -0.1324306
000240 62 24 86 be 00 ca 39 bd 7f a4 69 be 0c e5 6d be
       -0.26199633 -0.045358658 -0.22816657 -0.23231906
000250 d2 8c 48 3d 34 d8 15 be fa 91 53 be dc a6 e9 bd
       0.04896242 -0.14633256 -0.20661154 -0.11408779
000260 35 c4 9f bb da 0b 8d be bb b0 3a 3c da f7 92 bc
       -0.0048756846 -0.27548105 0.011394675 -0.01794045
000270 7b 09 fe bd bd 07 bd bd d2 dd b2 bd 2e b7 83 be
       -0.12404152 -0.092299916 -0.08733715 -0.25725693
000280 d0 8f 89 bd 0e 11 4f be 54 77 5d be 8f 76 a9 be
       -0.06716883 -0.2022135 -0.21627551 -0.33098266
000290 f5 f3 a1 bd 7b c7 2e bd 89 a6 1a 3d d3 6b 16 be
       -0.07907859 -0.04267071 0.037756477 -0.14689569
0002a0 9d 2b f6 bd ea 97 7b bd 16 8d 62 be 5e bb 29 be
       -0.12020037 -0.061424173 -0.22124133 -0.16575381
0002b0 c6 40 63 be 01 f0 88 bd 25 d5 32 be a1 19 50 be
       -0.22192678 -0.06686402 -0.1746412 -0.20322277
0002c0 9d f2 1a be 66 fb e8 bd 08 03 ac bd f9 bc 5e be
       -0.15131612 -0.113760754 -0.08399016 -0.21751775
0002d0 54 1a a9 be 95 c4 7a be d2 3e 23 be 2f df 79 bd
       -0.330279 -0.24489053 -0.15941933 -0.06100386
0002e0 4a b0 da bd bb 63 a3 bc e9 50 c3 bd 5d 05 25 be
       -0.10678156 -0.019945016 -0.09536917 -0.16115327
0002f0 c7 7c 6b bc 73 45 f1 bd 24 99 74 be 4b 76 a4 be
       -0.014373011 -0.117808245 -0.23886544 -0.321215
000300 af c9 0a 3e b5 2a 18 3c 51 47 80 be 12 2b b5 be
       0.13553499 0.009287526 -0.2505441 -0.35384423
000310 7b 4a 03 be a8 00 42 be 29 65 85 be 90 ac b2 be
       -0.12821381 -0.18945563 -0.26053742 -0.3489728
000320 f0 cd 22 3e d2 b0 6c be 2e 1a 23 be a2 d7 ce be
       0.15898871 -0.23114327 -0.15927956 -0.4039889
000330 11 4d 43 bc 3d 09 1c bf 34 11 25 be e6 e2 16 be
       -0.0119202295 -0.60951596 -0.16119844 -0.14734992
000340 7c 44 6d be dc 7e 06 be d4 ce 3e be ac 61 69 bd
       -0.23170656 -0.1313433 -0.18633586 -0.056977913
000350 ea cb 18 be 59 00 6c be 24 2b 2f be dc 80 80 be
       -0.14921537 -0.23047008 -0.171063 -0.25098312
000360 87 41 89 3d 8b 58 a1 be 83 b3 dd bc 73 a4 95 bd
       0.067019515 -0.31512865 -0.027063137 -0.07306757
000370 ea 5a 8a be dd 04 1c be 09 f1 fb bc 98 fd 44 bd
       -0.27022487 -0.1523623 -0.030754583 -0.04809341
000380 c7 c5 38 be 18 64 f1 be 65 f9 73 be 1b 29 19 be
       -0.18044196 -0.47146678 -0.23825605 -0.14957087
000390 c9 59 3d bd ba 60 68 bd 66 06 14 be c6 36 d8 be
       -0.046228204 -0.05673287 -0.14455566 -0.4222929
0003a0 cb 69 d2 3d a8 a3 8d be 19 18 ec bd 61 9b 8c be
       0.10274085 -0.27663922 -0.11528034 -0.27462295
0003b0 d7 f6 d8 3c 91 0b 17 be b7 2b 09 3c 54 93 ae be
       0.02648489 -0.14750506 0.008372239 -0.34096777
0003c0 11 42 25 bd fe b7 b1 bd 7c 0c 04 be cc 32 06 be
       -0.04034621 -0.08677672 -0.12895387 -0.13105315
0003d0 63 22 44 be 28 a2 41 be 16 5c 9a 3d 4a da 32 be
       -0.19153742 -0.18909514 0.07537095 -0.17466083
0003e0 98 d9 4e bd 0e ae e9 bd 0e e9 ca bd 89 4e 1e be
       -0.050500482 -0.114101514 -0.09907733 -0.15459646
0003f0 d6 1f 3f be b4 6d 98 be 31 db c6 be fe bd d3 bd
       -0.18664488 -0.29771197 -0.38839105 -0.103389725

weight f4 [128, 256]
000000 9b e3 fa 3d 50 75 00 3e bc 4d 90 3c b1 eb 66 3d
       0.122504435 0.12544751 0.017615192 0.056377117
000010 1d ee 5f be 8d 70 21 3e fc 34 44 bc 36 c7 a4 3e
       -0.21868177 0.15765591 -0.011975523 0.32183236
000020 4f b1 9a 3d c7 26 e7 3d a5 d9 09 3e b7 bf 0b 3d
       0.0755335 0.11286693 0.13461931 0.03411838
000030 1a ae da 3c 4d 8d ec bd a7 44 0b be ad 3f 39 3d
       0.026694346 -0.115503885 -0.13600408 0.04522674
000040 ff aa f2 bd f3 7d 17 3c 91 c9 30 bd 6c d1 02 3e
       -0.11849021 0.009246337 -0.04316098 0.127752
000050 83 67 13 3e 49 cf f3 bd d6 33 36 3e 76 a3 9e 3d
       0.14394955 -0.11904771 0.17793211 0.077460214
000060 91 aa de 3a 43 06 e6 bb 0d ab 0c 3e 62 6c e4 bd
       0.0016988089 -0.0070197894 0.13737126 -0.11153485
000070 8f a7 48 be ce 6e dc bd bb 08 a3 bd 8e 91 2c be
       -0.19595169 -0.10763322 -0.079606496 -0.168524
000080 dd 7b f7 bd f7 ec 67 be e1 a3 6a be 3b 18 6e bb
       -0.12084172 -0.22648989 -0.22914077 -0.003633036
000090 29 2f 8f be 92 b0 80 bd 6f 93 f3 bc 51 ad ae bd
       -0.27965668 -0.06283678 -0.029733388 -0.08529151
0000a0 c2 c9 91 be 91 40 43 be 87 7b a7 3e 62 3e 03 3e
       -0.28474241 -0.19067599 0.3271143 0.12816766
0000b0 be 42 c6 ba ac 47 fb 3c 1a 31 31 bd 3b 92 c9 be
       -0.0015126092 0.030673824 -0.043259718 -0.39369377
0000c0 50 fe 95 3c 85 a4 15 3e 73 29 3e 3e 03 5c c1 bc
       0.018309742 0.1461354 0.18570499 -0.023603445
0000d0 f5 94 38 3d 8d f3 56 bd 7a ba a3 3d 17 e0 1d be
       0.04506393 -0.052478362 0.07994552 -0.15417515
0000e0 2a ad f5 3d 1a a2 bb 3c 7e b7 36 3e 58 53 ea bd
       0.11995919 0.022904444 0.17843434 -0.11441678
0000f0 f2 d0 30 be 5a 57 8c 3e eb 89 16 be 49 fa 03 be
       -0.17267206 0.27410394 -0.14701049 -0.12888445
000100 b7 61 61 be 46 41 0f 3d 81 a7 f0 ba fd 1b 1d 3e
       -0.22009932 0.03497436 -0.0018360467 0.15342708
000110 c1 e4 52 be f2 e0 dc be 79 db 78 be 03 33 e2 bd
       -0.20595075 -0.4314037 -0.24302472 -0.11044886
000120 19 f6 56 be b5 35 37 be 14 9d 80 3e d2 38 4b 3e
       -0.20992316 -0.17891581 0.2511984 0.19845894
000130 cd d4 88 3d c8 dc ea bd 85 a3 7b be 9a bd 84 3d
       0.066812135 -0.11467892 -0.24574097 0.06481476
000140 4f 3b 10 3e a8 bb bf bd c0 9d 3d 3e e7 dc d7 3d
       0.14085124 -0.093619645 0.18517208 0.10540181
000150 13 3f 8d 3e 2d 69 46 bd f9 6c b3 bd 58 73 1d 3d
       0.27587184 -0.048440147 -0.08761019 0.03844008
000160 4c 30 c1 3c 91 ec ab 3c 42 2c bc 3c ab 33 c8 3d
       0.0235826 0.020986827 0.022970323 0.0977548
000170 00 f9 dc 3d 81 db 1d be ba b4 1f 3d d9 4d de 3d
       0.107896805 -0.15415765 0.038990714 0.10854692
000180 03 ea de ba de e7 3c 3c ac 21 f7 3d 0e 62 2c bd
       -0.0017006997 0.011529891 0.12066969 -0.0420857
000190 07 ee bb 3d a7 d9 7a 3d 18 cc ca bd 3a 94 7a bc
       0.091762595 0.061242726 -0.09902209 -0.015294129
0001a0 09 bf c9 bd 7f 1a 1d 3e fa a4 77 be c0 95 8e bd
       -0.0985089 0.15342139 -0.24184027 -0.06962156
0001b0 ac 0c 39 3e b2 8a b9 be fc 05 46 be 7c 70 0f 3e
       0.1807124 -0.3623863 -0.1933822 0.14007753
0001c0 01 6a b1 be 24 29 3f bc 25 39 f7 3d 1f fd 3e bd
       -0.34651187 -0.0116675235 0.12071446 -0.046628114
0001d0 e6 d7 8e be 0a a9 8b bd 56 b7 aa bc 67 c4 17 3e
       -0.27899092 -0.06819351 -0.020839375 0.14821015
0001e0 e9 06 4f bb ad 01 4f bd 65 85 16 3d bb 25 40 be
       -0.0031589812 -0.050538708 0.03674831 -0.18764393
0001f0 6d 16 2e 3c af 85 69 bc ee 1b 61 bd 81 9f b2 3c
       0.010625464 -0.014253064 -0.054958276 0.021804573
000200 75 41 94 3d e6 d1 37 ba fc ea 20 3d fa 38 9b 3e
       0.072390474 -0.00070121733 0.0392866 0.30316907
000210 aa 6c f5 bd e5 8d 80 3d ce 79 f5 bd f2 e7 73 3d
       -0.11983617 0.06277064 -0.11986123 0.059547372
000220 a8 46 6d 3e c5 44 5d 3d 7f d1 57 bd 49 63 87 bc
       0.23171484 0.05402066 -0.052690025 -0.016526835
000230 bb 8d 8b bd e4 fc 19 bc 78 ee 8f be 19 ba 5a bd
       -0.06814142 -0.009398673 -0.28111625 -0.053400133
000240 89 54 7d 3d 67 ac 02 3d a8 5a 16 3c 81 3d bd bd
       0.061848197 0.031902697 0.009176888 -0.092402466
000250 50 01 06 be 4e 54 23 3e 47 1c ce bd 0c 90 6a 3c
       -0.13086438 0.15950128 -0.10063987 0.01431657
000260 b7 2c 74 be 98 8c d1 bd da b0 05 3d bb dc c3 bd
       -0.23845182 -0.10231894 0.032639362 -0.09563585
000270 f7 f4 11 be db dc 87 3e a9 44 03 be 93 ad 1e bd
       -0.14253603 0.26535687 -0.1281916 -0.038739752
000280 54 e2 0e 3d 44 a1 4b bc fa 9f 54 bd f4 6f 85 3e
       0.034883812 -0.012428585 -0.051910378 0.26061976
000290 e9 9c 4c be ea bb a9 3d 83 fb 36 3c b0 58 7a bd
       -0.19981731 0.08287795 0.0111683635 -0.061119735
0002a0 89 db 06 bd 0a a2 86 bb a8 61 37 3e 57 af 51 3e
       -0.03292421 -0.004108672 0.17908347 0.20477043
0002b0 76 8a 21 3d bb 83 95 3e 9b f0 61 3e 29 f4 fb bd
       0.039438687 0.29202065 0.2206444 -0.12302429
0002c0 3f ad f0 3d fa ba 81 3e 85 f7 c9 3d a4 0e b7 3d
       0.11751794 0.25337964 0.09861664 0.08938339
0002d0 58 e4 0b 3e de d3 ac 3e de 10 0b be f4 7a 28 3d
       0.13661325 0.33755392 -0.13580653 0.041132882
0002e0 e0 7c c1 3d 6f 79 45 be 31 9b 0c be 29 03 e5 3c
       0.09447646 -0.19284604 -0.13731076 0.027955608
0002f0 f6 79 8d bd 34 2c 09 bd 09 cd c5 bd 16 fe c3 bd
       -0.06908028 -0.03348942 -0.09658248 -0.095699474
000300 44 a6 86 bd 8d f3 0f be 07 f6 01 bd 83 5f e3 bd
       -0.065746814 -0.14057751 -0.03172877 -0.11102202
000310 25 13 7b be 14 18 3d 3e 79 cc e9 3c 1d af 76 3d
       -0.24519022 0.18466216 0.028539883 0.060225595
000320 3c c7 d9 bd 4c 29 a3 3c 90 44 2c 3d 46 2b 2e 3e
       -0.10633704 0.019917153 0.042057574 0.17008695
000330 4b 94 b7 be 11 1d 4d 3d 44 ac 90 bd 2a a5 9f be
       -0.35855326 0.050076548 -0.07064107 -0.31180698
000340 b3 2e 66 3d 12 7f 59 be ee cb bd be 3d 0b bc bc
       0.05619688 -0.2123988 -0.37069649 -0.022954578
000350 bb fe b3 bd dc d1 a6 bd 79 9a f9 bd fd 37 6a 3e
       -0.0878882 -0.08145496 -0.121876664 0.2287292
000360 f3 5f 0f be 57 f6 8f 3e 53 72 d8 bd 44 86 3a bd
       -0.14001445 0.2811763 -0.105686806 -0.045538202
000370 f2 6f 9b 3c 71 af dc 3d bd 4b 64 3d 07 d8 27 be
       0.018974278 0.1077565 0.055736292 -0.16391002
000380 34 ca 17 bd db 9f aa bb 0a 64 57 3c 4d bb 8a bd
       -0.03705807 -0.0052070445 0.01314641 -0.06774006
000390 dd f7 2f 3e 22 1b 03 be 60 b8 1f 3a ea 41 28 3e
       0.17184396 -0.12803319 0.00060928427 0.16431394
0003a0 2c d5 48 3d 64 ce 87 3e 4f 49 b2 be ba 08 2f 3e
       0.04903142 0.2652465 -0.34821555 0.17093173
0003b0 a8 17 61 bc ac 33 cb 3d e9 76 14 be e4 38 83 3d
       -0.01373855 0.09921965 -0.14498486 0.064073354
0003c0 65 77 68 3c 08 38 1e bc c9 ea 4a be 00 84 10 3d
       0.014188622 -0.009656914 -0.19816126 0.035282135
0003d0 cf cb 11 3e ba ad 9d bd fb 38 7b 3e 7a e4 00 3e
       0.14237903 -0.07699151 0.24533455 0.12587157
0003e0 a8 6e 73 3d 0d 64 1e be 64 29 1a 3e 9f 02 d3 3c
       0.059431702 -0.15467854 0.15054852 0.025758086
0003f0 5c 44 6e 3e 4c fb af bd 56 eb 9f 3e 99 a6 80 bb
       0.23268265 -0.08592853 0.31234235 -0.00392611

bias f4 [128]
000000 52 f0 29 be 77 55 4f be d3 03 00 be 7d a9 41 be
       -0.16595581 -0.20247446 -0.12501459 -0.18912311
000010 5c d8 01 be b2 9a 04 be 58 45 a8 bb 44 d0 0e 3e
       -0.12680191 -0.12949637 -0.0051352195 0.13946635
000020 7f a5 c6 bd 50 a9 0c be dc 58 3f be ec f7 3d be
       -0.096995346 -0.13736463 -0.18686241 -0.18551606
000030 df 75 24 be 9c 59 37 be 02 12 59 be a4 22 90 bd
       -0.16060589 -0.17905277 -0.21198276 -0.07037857
000040 8c 79 f9 bd 85 9e 45 be 07 cc 72 be 46 ca fb bd
       -0.12181386 -0.19298752 -0.23710643 -0.1229444
000050 23 6e 4a be 6f 28 06 be 32 a6 6f be f5 d5 19 be
       -0.19768576 -0.13101362 -0.23403242 -0.15023024
000060 23 63 e8 bd 4c 06 55 be 6f 61 3e be 9f 0f 16 be
       -0.11347034 -0.20803183 -0.18591855 -0.14654396
000070 28 64 2d be da fc 71 be 5a 01 01 bf 31 36 b5 bd
       -0.16932738 -0.23631611 -0.5039269 -0.08848227
000080 49 59 3e bd b6 81 22 bd 3e e8 42 be 53 01 93 bd
       -0.046471868 -0.039674483 -0.19033906 -0.07177987
000090 a1 99 6e be a1 40 84 be cf f5 57 bd 6e f9 12 be
       -0.23300792 -0.25830558 -0.052724656 -0.14352962
0000a0 e1 0a 99 bd c5 2e ac be 16 c6 fb bd 43 b9 2f be
       -0.07472778 -0.33629432 -0.12293641 -0.17160515
0000b0 2f 02 01 be ae 8a fd bd 79 dd 29 bc 46 53 80 be
       -0.12598489 -0.12379967 -0.010367745 -0.25063533
0000c0 29 06 3f be 30 8c b0 bd f0 96 39 be a3 03 42 be
       -0.18654694 -0.08620489 -0.18123984 -0.189467
0000d0 d1 5c 68 be 31 53 46 be 6f f0 75 be e1 fc 87 bd
       -0.22691657 -0.19367673 -0.240175 -0.0664003
0000e0 99 9d 62 be 8d 42 09 bf 33 af 68 be 45 01 01 be
       -0.22130431 -0.53617173 -0.22723083 -0.1259814
0000f0 4a 8a 3b be a5 35 6c bd 55 b1 dd bd ca a0 55 bd
       -0.18314472 -0.057668347 -0.10824839 -0.052155294
000100 bd fe a7 be 85 75 21 be 5f b6 17 be fc c7 7b be
       -0.32811537 -0.15767486 -0.14815663 -0.24588007
000110 81 55 7d be 3c 5d 78 be 62 0f 1b be 33 f9 52 be
       -0.24739648 -0.24254316 -0.15142587 -0.20602874
000120 3d 7f 24 bc ea 0c c1 bd ed c2 f0 be 91 21 c4 bd
       -0.010040102 -0.09426291 -0.47023717 -0.09576715
000130 c8 68 80 be 16 f5 43 be 25 5a bd bd 07 9b 37 be
       -0.25079942 -0.19136462 -0.09245709 -0.17930232
000140 d1 01 96 bc dc f9 04 be c5 53 55 be 76 be d2 bd
       -0.018311413 -0.12985939 -0.20832737 -0.10290234
000150 73 34 65 be ff df 6f be 90 21 af be 8d 26 53 be
       -0.22383289 -0.23425291 -0.34205294 -0.20620175
000160 37 b6 09 be fd 92 13 be 8d 1c cc bd a7 9b 00 bd
       -0.13448416 -0.1441154 -0.09966383 -0.03139844
000170 00 5c 62 be b3 07 51 be 54 8e ab be d4 9e b4 bd
       -0.22105408 -0.20413093 -0.33507025 -0.088193566
000180 eb 65 26 be 0b 44 0b bf f2 62 1c be 74 9c 50 be
       -0.16249816 -0.544007 -0.1527212 -0.20372182
000190 96 07 27 be 45 28 ec bd 2a 32 5a be 1a 45 03 bd
       -0.16311488 -0.11531118 -0.21308199 -0.032048322
0001a0 f2 db 24 be fb 4b da bc 87 71 50 bf 98 e0 fa bd
       -0.16099527 -0.026647558 -0.8142323 -0.12249869
0001b0 a0 b2 f1 bd 2a e9 83 bd 36 c2 34 be 70 03 07 be
       -0.11801648 -0.06440957 -0.1765221 -0.13184905
0001c0 3d 32 a3 bd a7 b2 d3 be ce c1 5b be d9 9b 77 bd
       -0.079685666 -0.41347238 -0.2146065 -0.060451362
0001d0 31 d0 bd bd c8 b4 87 be 17 a1 1b bd 19 0f 78 be
       -0.09268225 -0.26505113 -0.037995424 -0.2422451
0001e0 71 f8 12 be 30 b3 b1 bd c6 03 5e be e0 ce 12 be
       -0.14352585 -0.086767554 -0.21681127 -0.14336729
0001f0 b7 60 2f be d9 f5 48 be b9 20 09 be 6d ab f5 bd
       -0.17126738 -0.19625033 -0.13391389 -0.119955875

weight f4 [12, 128]
000000 30 53 1a bd e6 0b aa bc 08 88 36 bc 19 2f 1e 3d
       -0.03767699 -0.020757627 -0.011140831 0.038619135
000010 3f 97 70 3c 34 40 5f 3d c9 0b 24 bd b4 b6 db 3c
       0.014684497 0.05450459 -0.0400503 0.026820518
000020 c9 4d 77 bd 45 76 f4 ba 22 bc 6d 3d e5 64 f9 bc
       -0.060376916 -0.001865097 0.058040746 -0.030443618
000030 9f 90 17 bd b1 a5 16 bd c1 98 c5 bc e7 41 70 bc
       -0.037003156 -0.03677911 -0.02412069 -0.01466415
000040 7b f6 72 bd 8b bf b1 bc a1 55 dc 3c d8 a7 02 bd
       -0.059317093 -0.02169778 0.0268963 -0.03189835
000050 87 f7 a8 3b 18 33 04 3c e6 5f 55 3c 50 f9 9f bc
       0.0051564607 0.008068822 0.013023352 -0.019528061
000060 a0 70 cb bc b0 bd 0a 3d 98 71 b0 3c f2 38 a8 3c
       -0.024833977 0.033872306 0.02153854 0.020534966
000070 48 46 a6 bb bc 9b 34 3d 48 32 26 3e db 63 a8 3a
       -0.005074296 0.044093832 0.16230118 0.0012847142
000080 80 37 6a ba 3d b6 59 3b 1b a7 bc 3c 52 fb f7 bc
       -0.0008934662 0.0033220195 0.0230289 -0.030271206
000090 46 47 2e 3c 98 bd 48 3c 8e 98 fb bb 69 a3 e0 bc
       0.01063711 0.012252234 -0.007678098 -0.02742167
0000a0 20 73 55 3d 0e cd 85 3b 10 6f 95 3c 88 ab 5f 3d
       0.052111745 0.0040832823 0.018241435 0.054606944
0000b0 da 54 d2 bc 1f 29 66 3d 07 c1 2f bc b0 a0 84 bc
       -0.025675226 0.05619156 -0.010727174 -0.016189903
0000c0 99 a2 f1 bc 87 8f 6a 3d ac f9 2b bc 67 d4 8e 3c
       -0.029496478 0.057265785 -0.010496538 0.017435266
0000d0 36 a1 a9 bc 8b 9a 9c 3c 1b 55 c1 3c e9 5b 37 bd
       -0.020706754 0.01911666 0.023600152 -0.044765387
0000e0 31 a8 d0 3a 18 fa 29 bd c4 8d 91 3c 73 97 0c bc
       0.0015919266 -0.041498274 0.017767794 -0.00858103
0000f0 c7 9b d0 3b 58 b6 43 bc d8 90 4b bc 44 54 c3 bc
       0.0063662264 -0.01194533 -0.01242467 -0.023843892
000100 29 cc 8c 3b f1 20 50 3c 52 1a ef bb 93 a3 38 3b
       0.0042967987 0.012703166 -0.007296839 0.002817367
000110 69 cb 92 3c f4 e5 44 3d 90 7d cf bb 50 65 60 3b
       0.01791926 0.048070863 -0.006332107 0.0034240074
000120 97 4e 02 bc 98 a1 0b 3c fd 38 f3 3b 2e d5 cc 3c
       -0.007953308 0.008522414 0.007422565 0.025003996
000130 e0 99 f7 bc cf 14 cf 3c 95 74 94 3c 68 46 3c bc
       -0.03022474 0.025278477 0.018121997 -0.0114913955
000140 24 43 b4 bc 8e f6 88 bc ac 39 f2 bc 06 14 9d bd
       -0.022004671 -0.016719129 -0.029568516 -0.07669835
000150 ae a7 63 3c d3 6a c4 3c 6d 68 0d ba 0b b8 1e 3c
       0.013894958 0.023976719 -0.0005394284 0.009687434
000160 a8 ed 87 3a 19 81 28 3d c4 80 d3 3b 56 3b 17 3d
       0.001037051 0.041138742 0.006454559 0.03692182
000170 7c fd 38 bd b1 0f d9 3d 00 a6 9f bd ce 23 99 bc
       -0.045163617 0.10598696 -0.07795334 -0.01869383
000180 5a cf 72 3d f0 02 c6 3c 1e f4 b5 3c 46 39 00 3c
       0.059279777 0.024171323 0.02221113 0.007826155
000190 0d 9f 3c bd f1 94 4d bc 44 e8 91 bc ca ed 40 bd
       -0.04605012 -0.012547717 -0.017810948 -0.047101773
0001a0 87 94 c2 3b c9 9a 70 bc a2 3c d9 3a a0 9b 8f 3c
       0.005938116 -0.014685341 0.0016573856 0.017530262
0001b0 60 10 21 bc 8e 2b 1e bd 86 04 c3 bc e1 a2 32 bc
       -0.009830564 -0.038615756 -0.023805868 -0.010903091
0001c0 25 ac e0 3c f9 04 40 3d 7e c4 17 3d 1d e6 1f bd
       0.027425835 0.046879742 0.037052624 -0.039037813
0001d0 0f 17 3a bc a4 1b 20 3b 4c 8a c7 bc 4c b2 f5 3d
       -0.011358037 0.0024430538 -0.024357937 0.11996898
0001e0 ab 7a 40 3d e1 cb 74 3c e8 d1 9a 3b 71 8f 2a bd
       0.046991985 0.014941187 0.00472473 -0.041640703
0001f0 1e e3 91 3c b5 cb 84 3c f0 69 27 3d f4 cf cc bb
       0.017808493 0.016210416 0.040872514 -0.006250376
000200 c2 6d 7e 3c 4d 2a b4 bc a4 02 a9 3c 3e 1f fc 3b
       0.015529098 -0.021992827 0.020631142 0.007694154
000210 83 84 f6 3b 69 05 42 be 97 6c 34 bd f1 40 55 3d
       0.007523121 -0.18947376 -0.04404887 0.052063886
000220 c2 e2 40 3c 48 0a 57 3c b3 68 34 bc 43 20 96 bc
       0.011772813 0.01312501 -0.01101129 -0.01832593
000230 f3 50 29 3c 70 4d 10 bc ac 17 88 3c e8 2f 51 bb
       0.010334241 -0.008807525 0.01661285 -0.0031919423
000240 26 4f f4 3b c1 60 da 3c 64 f1 d9 bd 9f 6a 40 3d
       0.0074557243 0.026657464 -0.10641745 0.04697668
000250 6e b4 cb 3b 27 db 46 bd 50 7b 32 3c 3d bc e3 bb
       0.0062165773 -0.048548844 0.010893658 -0.00694993
000260 50 f3 99 3c 10 88 a2 3c d6 b9 b7 3c d8 97 cf bc
       0.018792778 0.01984027 0.02242748 -0.02534096
000270 20 2f 17 3d 64 63 3d 3d 6c fd 85 3c 6f 1d b0 bc
       0.036910176 0.046237364 0.016356193 -0.02149841
000280 3d 18 c3 3c 45 d4 15 3c ad 65 0d bb 65 78 cd 3c
       0.023815269 0.009144847 -0.0021575496 0.025081823
000290 65 21 99 3c 4b de f3 3c 2a 25 a4 ba da 2f 01 3c
       0.018692682 0.029769083 -0.0012523283 0.007884944
0002a0 04 7c 47 3c d8 52 a5 3c 6d 14 ca 3c bd 91 4a 3c
       0.012175564 0.020181105 0.024667943 0.012363848
0002b0 dc ad a1 39 52 64 7b bd 72 15 9b 3c 9f 40 db 3a
       0.00030837848 -0.06137497 0.018931124 0.0016727633
0002c0 49 13 15 bc 8a 35 76 3d 6f f9 55 39 64 9e 47 3c
       -0.009098836 0.060109653 0.00020406184 0.012183759
0002d0 42 20 39 bd 14 11 94 bc f6 de 12 3d 50 c0 8e 3c
       -0.04519678 -0.01807455 0.035857163 0.017425686
0002e0 76 7a 80 3c 54 ef 65 3d e5 16 e3 bb 5e 6e a5 bc
       0.015683394 0.056136444 -0.0069302195 -0.020194229
0002f0 3f 7b 81 3a a0 d0 27 bd a9 4f 63 bd e6 9b 3f bd
       0.0009878649 -0.040970445 -0.05549589 -0.046779536
000300 78 53 e7 bb fb 9b 0c bd 64 67 33 bc 19 7b 76 bb
       -0.007059511 -0.034328442 -0.010949943 -0.0037609993
000310 fb 79 9b 3b f9 28 67 3c 09 7b e5 3b 14 6e 01 3c
       0.004744766 0.01410889 0.0070031923 0.00789978
000320 38 75 57 bc 1e 56 ab 3c 96 cd ce bd e9 8d e6 3c
       -0.013150506 0.020915087 -0.10097806 0.02814384
000330 1e 7a 31 3d 86 7b a1 3c b6 e4 97 bb e1 12 bc 3c
       0.04332935 0.01971222 -0.0046354188 0.02295822
000340 9f e6 20 3d 6e 6d 1b bd 2f b2 d6 bc 59 00 c9 bc
       0.039282437 -0.037946157 -0.026208011 -0.024536299
000350 56 c9 46 bb d3 6d 60 bd f7 d3 fb bc af bd 4e 3d
       -0.0030332408 -0.054792237 -0.030740721 0.050473865
000360 f3 2b a4 3c 9f d9 50 38 4f ed 3c 3c 7b a6 b8 3c
       0.020040488 4.979374e-05 0.011531188 0.022540322
000370 7e b7 4b 3a 95 0e e0 3c 24 b8 1e 3e 35 68 67 3c
       0.0007771178 0.027350703 0.15499932 0.014123966
000380 5f 5a 2a 3d b1 3e 9d bc a6 c9 04 3d a6 ed 27 bc
       0.04159009 -0.019194933 0.03241887 -0.010249531
000390 0b 27 fe 3d ff 34 2c bb f0 64 ef bb 52 67 15 bd
       0.124097906 -0.0026276705 -0.007305734 -0.036475487
0003a0 db 27 08 bd 88 55 28 bd 5e 1b d0 bc 61 d1 3d bc
       -0.033241134 -0.041097194 -0.025403675 -0.011585564
0003b0 37 e7 ad bd c2 ab 40 3a 9d 72 f2 3a 09 3b 45 3c
       -0.08491366 0.00073498127 0.0018497292 0.012038001
0003c0 c7 e2 91 3b 6c 6f c8 3b af 19 15 bc 7b 35 57 3b
       0.004452083 0.006116798 -0.009100362 0.0032838273
0003d0 78 d3 9c 3c 3a 30 50 3c 1f fe da 3d 1c fc b6 3d
       0.019143805 0.012706811 0.10693001 0.08934805
0003e0 62 4c e5 bc a6 38 86 3c b1 81 d0 3b 57 ec 1d bd
       -0.027990524 0.016384434 0.0063631167 -0.03855547
0003f0 4f 53 12 3c ba 9e 01 3a e1 ee 16 3b 9f 1b f4 bb
       0.008930995 0.00049446116 0.0023030567 -0.0074495818

bias f4 [12]
000000 fd 6c 5a bb 75 ba e3 bd 81 d0 e4 bd 74 32 96 3d
       -0.0033329122 -0.11119548 -0.111725815 0.07333842
000010 13 f7 a0 be 27 bc a5 bd bd 65 24 bd fc 14 e9 3d
       -0.31438503 -0.08092528 -0.040136088 0.113809556
000020 b8 3b 6f bd 1a d8 85 3d 52 4b 92 3c bc a4 27 be
       -0.05840656 0.06535359 0.017858181 -0.16371435
