deploy/networks/go2/parkour_v1/adaptation_module.pt (torch, 38381 bytes, 8 tensors)

weight f4 [30, 52]
0	0xbd807dc4	-0.06273988
1	0x3bd3d810	0.0064649656
2	0xbd3a9c8d	-0.045559455
3	0x3b28441c	0.0025675362
4	0xbb1d362a	-0.0023988583
5	0xbd0ac117	-0.03387555
6	0x3d94aafa	0.07259174
7	0xbe0c4538	-0.1369828
8	0x3e041689	0.12899221
9	0x3d98744f	0.07444059
10	0xbd8a3b08	-0.067495406
11	0x3d6ebe52	0.058286972
12	0xbdf1542b	-0.11783632
13	0x3def8a88	0.116963446
14	0xbd0f357a	-0.03496311
15	0x3e966bbb	0.29379067
16	0xbce86501	-0.028368475
17	0xbe37136c	-0.17878503
18	0xbf099c9d	-0.537546
19	0x3de44467	0.11145859
20	0x3ddefceb	0.10888084
21	0x3d22bce5	0.039730925
22	0x3d0400cf	0.032227334
23	0x3d1b9e70	0.037992895
24	0x3cff4bab	0.031164011
25	0x3cbcabd0	0.023031145
26	0xbe50d174	-0.203924
27	0x3ed6e8c8	0.41974473
28	0x3b73d5f7	0.003720639
29	0xbd23b789	-0.039969955
30	0xbe0e76f9	-0.13912572
31	0x3cf9471f	0.030429421
32	0xbd0716b8	-0.03298065
33	0x3ce9acf7	0.028524859
34	0xbd3b477b	-0.045722466
35	0xbd759352	-0.05995495
36	0x3c9b15d0	0.0189313
37	0xbd87c390	-0.066290975
38	0x3d36a4b7	0.044590678
39	0xbd14da53	-0.036341023
40	0x3e0304de	0.12794825
41	0x3d39d33d	0.04536747
42	0x3e726a0a	0.23673263
43	0x3da156c4	0.07877877
44	0x3e41aa6d	0.18912669
45	0x3dcde101	0.10052682
46	0x3db597d5	0.0886685
47	0x3da16f73	0.078825854
48	0xbccd3959	-0.02505176
49	0xbc88fc22	-0.016721789
50	0xbc8de137	-0.017319305
51	0xbcc856d7	-0.024455471
52	0xbc8e4b4a	-0.017369885
53	0x3c33e045	0.010978763
54	0x3ccbdbf0	0.024885148
55	0x3d9cefb6	0.07662909
56	0x3d7135e2	0.058889277
57	0x3d5b0d15	0.053479273
58	0x3d721b72	0.059108205
59	0xbe333f29	-0.17504562
60	0x3d52373e	0.051322214
61	0x3e2260b0	0.15857196
62	0xbd3c98d8	-0.0460442
63	0x3db91069	0.09036333
64	0x3dc0d2d3	0.094152115
65	0x3de116cd	0.10990677
66	0xbd0686c6	-0.032843374
67	0x3ea9d84a	0.33172828
68	0xbc66aea7	-0.014079726
69	0xbe39bb7b	-0.18137924
70	0xbe8f2e3b	-0.2796496
71	0x3e029353	0.12751512
72	0xbc9203bc	-0.017824046
73	0xbcfec3b7	-0.031099183
74	0x3ce60b6f	0.028081624
75	0xbd8642a4	-0.065556794
76	0x3cf9c65c	0.030490093
77	0x3cfc57ed	0.030803645
78	0xbde9207a	-0.113831475
79	0x3d984ac8	0.074361384
80	0xbd5b4309	-0.053530727
81	0xbe3b13d5	-0.18269284
82	0xbe3f89ad	-0.18704863
83	0x3da28061	0.079346426
84	0xbce116fe	-0.027476784
85	0xbd9b4059	-0.07580633
86	0x3d634dec	0.055494234
87	0xbcdc60a0	-0.026901543
88	0x3cd0cd55	0.025488535
89	0x3c9b2752	0.018939648
90	0x3df1125a	0.117710784
91	0xbe145ebd	-0.14489265
92	0xbb3caefc	-0.0028790822
93	0x3dacfabe	0.08446263
94	0x3c11c744	0.008897606
95	0xbe015980	-0.12631798
96	0x3d33c6dd	0.043890823
97	0x3d0d44a2	0.03448928
98	0x3d01a788	0.03165391
99	0xbd908769	-0.070570774
100	0x3e38fb35	0.18064578
101	0xbcf9dd7c	-0.03050112
102	0x3e2fc5a7	0.17165242
103	0x3d077fa3	0.03308071
104	0xbd3e129e	-0.046404473
105	0xbe2f3d2b	-0.17113177
106	0x3e7bb034	0.24578935
107	0xbbf23fb0	-0.007392846
108	0xbda5bccd	-0.080926515
109	0x3dc8b4f5	0.0980014
110	0x3da32e30	0.07967794
111	0x3e0f0e49	0.13970293
112	0x3e961477	0.29312488
113	0x3e4e06ca	0.20119777
114	0xbda15b46	-0.07878737
115	0x3ded47bc	0.11585948
116	0xbcb839ab	-0.022488436
117	0xbaeea062	-0.0018205757
118	0xbe04199a	-0.12900391
119	0x3e9da259	0.30787924
120	0xbd8792e1	-0.06619812
121	0xbe309735	-0.17245181
122	0xbeb7e867	-0.35919496
123	0x3dc77f6b	0.097411
124	0x3df00565	0.11719779
125	0x3db7abfd	0.08968351
126	0xbccb27aa	-0.024799187
127	0x3d9bb1d5	0.07602278
128	0xbc310307	-0.010803944
129	0xbd6bae29	-0.05753914
130	0x3d4db84f	0.0502246
131	0x3d7a2d19	0.061078165
132	0xbd7d18ee	-0.061791353
133	0xbda18d9a	-0.078883365
134	0xbe2b9d27	-0.16759168
135	0x3cc70016	0.024292033
136	0xbdc2da52	-0.095142975
137	0xbd728343	-0.059207212
138	0xbda34d5f	-0.07973742
139	0xbde40763	-0.111342214
140	0xbd521340	-0.05128789
141	0x3dd5dcfe	0.104425415
142	0xbd351d5b	-0.04421745
143	0xbdcfde18	-0.10149783
144	0xbd7ac742	-0.061225183
145	0x3d57e66c	0.05270998
146	0x3de4a84d	0.11164913
147	0xbcc7fc97	-0.024412436
148	0xbc6aad54	-0.014323551
149	0xbd5e582e	-0.054283313
150	0x3c3d6e1e	0.0115618985
151	0x3dc85e6f	0.09783637
152	0xbd91f8b7	-0.07127517
153	0x3bb10740	0.0054024756
154	0xbdcc58ec	-0.09977898
155	0x3e04aaae	0.12955734
156	0xbd497214	-0.04918106
157	0xbd957416	-0.07297532
158	0xbe9012ea	-0.2813943
159	0x3d4c1c46	0.04983165
160	0xbd8937c8	-0.067000926
161	0x3de62209	0.112369604
162	0xbb73c147	-0.003719406
163	0x3da5e561	0.08100391
164	0xbdd2cbe1	-0.10292793
165	0xbd06cb4c	-0.032908723
166	0xbcbc012f	-0.022949783
167	0xbdb7ff8c	-0.089842886
168	0xbd4011c1	-0.04689193
169	0x3dd3b789	0.10337741
170	0xbdbc44bf	-0.091928
171	0x3e06cc8e	0.13163969
172	0xbd0426b0	-0.032263458
173	0xbdc4e37e	-0.09613703
174	0xbe8332ff	-0.25624844
175	0xbd05abb7	-0.032634463
176	0xbc28c875	-0.010301699
177	0x3b9e3ac7	0.004828784
178	0xbd32b63a	-0.043630816
179	0xbde9c6fe	-0.11414908
180	0x3d0c11b9	0.03419659
181	0xbc0f7736	-0.008756449
182	0x3cc7e790	0.02440241
183	0x3e0780ec	0.13232774
184	0x3c267b41	0.010161222
185	0x3d13d4f9	0.03609178
186	0x3d2d96d8	0.042380184
187	0x3c22750a	0.0099156
188	0xbb223b77	-0.0024754682
189	0x3cd63381	0.026147606
190	0x3b8d4263	0.0043108924
191	0x3c6a50a3	0.014301452
192	0xbd7dfddd	-0.06200968
193	0x3c910312	0.01770166
194	0xbcee09c0	-0.029057384
195	0xbe048020	-0.12939501
196	0xbd8ba001	-0.06817628
197	0xbd3ff093	-0.04686029
198	0x3dfcc56e	0.12342344
199	0x3d09daf0	0.03365606
200	0xbdd92d27	-0.10604315
201	0x3e02fb2d	0.12791128
202	0xbb1e3b90	-0.0024144389
203	0xbdda3893	-0.10655322
204	0x3da10ad5	0.07863394
205	0xbdb3ed26	-0.08785467
206	0xbd1f2985	-0.038857955
207	0xbd0ed6bd	-0.03487276
208	0x3c507cb4	0.012725044
209	0x3c4dd789	0.012563595
210	0xbe67f503	-0.22652058
211	0xbd8b2c44	-0.067955524
212	0x3cd1fc10	0.025632888
213	0xbde0e835	-0.1098179
214	0xbda6be76	-0.08141796
215	0x3e3d3fff	0.18481444
216	0xbda3fc28	-0.08007079
217	0x3c3e842d	0.011628193
218	0x3e1c5fbb	0.15270893
219	0xbcdd61d2	-0.027024183
220	0xbe24d051	-0.16095091
221	0x3df38300	0.11890221
222	0xbcdc0721	-0.026858868
223	0x3d322f67	0.043502238
224	0x3cfe0b4d	0.031011248
225	0xbdf525e7	-0.1197012
226	0xbbbd2f8c	-0.0057734903
227	0xbd9949a8	-0.07484752
228	0xbd870167	-0.06592064
229	0xbc76e881	-0.015070082
230	0x3d95b23b	0.073093854
231	0xbc202a79	-0.009775751
232	0x3da772f8	0.081762254
233	0xbc55a9cf	-0.013040974
234	0x3d7f62b3	0.062349986
235	0x3d93a6ae	0.07209526
236	0x3e0afb68	0.13572466
237	0x3e4909e9	0.19632687
238	0x3e038460	0.12843466
239	0x3cd04ebd	0.02542817
240	0x3d4c9926	0.04995074
241	0x3d12c3a9	0.035831127
242	0xbd03507f	-0.03205919
243	0x3d280f07	0.041029956
244	0xbc8f7deb	-0.017516097
245	0xbd13a816	-0.03604897
246	0xbcca14d5	-0.024668137
247	0x3bdffe2f	0.006835721
248	0xbd0c39e2	-0.03423489
249	0xbd98aea0	-0.07455182
250	0x3c9b70bd	0.018974656
251	0x3c982b95	0.018575469
252	0xbcc078f2	-0.023495171
253	0x3df30cb6	0.11867659
254	0x3d3cefa9	0.046126995
255	0xbe0c0065	-0.13672026

bias f4 [30]
0	0xbe1617f2	-0.14657572
1	0xbdc60acd	-0.09670029
2	0xbcf69374	-0.030099608
3	0x3dee6f4c	0.11642322
4	0xbe892833	-0.26788482
5	0x3d667d56	0.056271873
6	0x3e36e2ce	0.17859957
7	0xbe633588	-0.2218839
8	0x3de61654	0.112347275
9	0xbe44cff7	-0.19219957
10	0xbe2dbed6	-0.1696733
11	0xbd997371	-0.07492722
12	0x3e22e357	0.15907036
13	0xbd0e065b	-0.03467403
14	0x3e7651fc	0.24054712
15	0x3e65136d	0.22370692
16	0x3e19bcfd	0.150135
17	0x3e33b047	0.17547713
18	0xbc88408d	-0.016632343
19	0xbe7a6e49	-0.24456133
20	0x3e2dcb44	0.16972071
21	0x3e251a19	0.16123237
22	0x3d7f0f5c	0.062270507
23	0xbe45f8d4	-0.19333202
24	0x3e76ffb2	0.24120978
25	0xbe611f68	-0.21984637
26	0x3e6dccc9	0.2322265
27	0x3dc18756	0.094496414
28	0xbe4f2f96	-0.20232996
29	0x3e8d7cee	0.27634376

weight f4 [20, 30, 4]
0	0xbd673a4f	-0.05645209
1	0xbe1c87cb	-0.15286176
2	0xbe0e1efd	-0.13879009
3	0xbe2fcd8d	-0.17168255
4	0xbdb39395	-0.087683834
5	0xbc190ba1	-0.009341151
6	0xbd2096cc	-0.03920631
7	0xbd87a707	-0.06623655
8	0xbdac6d1b	-0.08419248
9	0xbd3e67c6	-0.046485685
10	0xbdcac91d	-0.099016406
11	0x3c67759b	0.01412716
12	0x3dd183f5	0.10230247
13	0xbcff18f3	-0.031139826
14	0xbc465f6b	-0.01210771
15	0xbda2eb29	-0.079550095
16	0x3d13c5b6	0.036077224
17	0x3d96089b	0.0732586
18	0x3c5dd2f5	0.013539066
19	0xbb7f884b	-0.003899115
20	0xbd0f6110	-0.035004675
21	0xbd8a97d4	-0.0676724
22	0xbdadaf74	-0.08480731
23	0xbdd04eac	-0.101712555
24	0x3d44ca35	0.048044402
25	0xbc9f4735	-0.019443134
26	0x3c9c09d3	0.019047653
27	0xbcb44fbc	-0.022010677
28	0x3dc2ba4a	0.09508188
29	0x3db7f2c3	0.0898185
30	0x3e2bfde5	0.16796072
31	0x3e2a1ad2	0.16611794
32	0xbe0b1ba5	-0.13584764
33	0xbd8dc254	-0.06921831
34	0xbda947c3	-0.082656406
35	0xbdc3e5c8	-0.09565312
36	0x3da289e8	0.0793646
37	0x3dc15ae5	0.09441165
38	0x3d26a2db	0.040682655
39	0x3c46615c	0.012108173
40	0xbdbdf285	-0.092747726
41	0xbdb34ce2	-0.087548986
42	0x3bab3edf	0.0052260007
43	0x3d1bac1e	0.03800594
44	0xbc334ba8	-0.010943331
45	0x3e262c61	0.16227867
46	0x3de81fdf	0.11334204
47	0xbb3ab3bc	-0.0028488478
48	0x3cbbe802	0.022937778
49	0xbc9b8477	-0.018984063
50	0xbe19156a	-0.14949575
51	0xbe16526d	-0.1467988
52	0xbc9f6a28	-0.019459799
53	0x3b094613	0.0020946309
54	0x3df8f1e5	0.12155513
55	0x3e0360e6	0.12829933
56	0x3d29dca6	0.041470192
57	0xbcddefb4	-0.027091838
58	0xbd361856	-0.044456802
59	0xbbba0a70	-0.005677514
60	0xbc2bd806	-0.010488516
61	0x3cf7f104	0.030266292
62	0x3d3310d7	0.04371723
63	0xbc3d43de	-0.011551825
64	0xbd6f79a2	-0.058465607
65	0xbd2ef593	-0.042714667
66	0xbd3eb09d	-0.04655515
67	0x3bf9ad6e	0.0076195514
68	0xbe2d0e2d	-0.16899939
69	0xbe159ee6	-0.14611396
70	0xbdb611d6	-0.08890121
71	0x3d8f865d	0.0700805
72	0x3dce4c39	0.10073132
73	0x3db6ec9b	0.08931848
74	0xbd84ce36	-0.06484644
75	0xbdcb5ef7	-0.099302225
76	0x3d1d0292	0.03833253
77	0xbd2b62dd	-0.04184233
78	0xbd517ee1	-0.05114639
79	0x3d243748	0.040091783
80	0x3c66c307	0.014084584
81	0xbc7c3fdd	-0.015396086
82	0xbd3dc691	-0.046331946
83	0xbd992fb4	-0.07479802
84	0xbd0d1059	-0.03443942
85	0xbd1f0e5d	-0.038832057
86	0xbdfaa15f	-0.1223781
87	0xbe04f01d	-0.12982221
88	0xbd939779	-0.072066255
89	0xbc46615c	-0.012108173
90	0x3deab625	0.114605226
91	0x3dd01784	0.10160735
92	0x3d059035	0.03260823
93	0x3d55dde2	0.052213557
94	0x3d990dcb	0.07473334
95	0x3ddb3c35	0.10704843
96	0xbe08f8f1	-0.13376214
97	0xbdaaf912	-0.08348288
98	0xbdb70491	-0.08936418
99	0xbcb374e2	-0.02190632
100	0x3d143125	0.03617968
101	0x3d8e657c	0.0695295
102	0x3e16d6f3	0.14730434
103	0x3e941762	0.2892409
104	0x3caaf90a	0.020870704
105	0xbdb2810e	-0.087160215
106	0xbcf47eb0	-0.029845566
107	0xbd554412	-0.05206687
108	0xbdb431cf	-0.08798563
109	0xbdc7c225	-0.09753827
110	0xbd04bedb	-0.032408576
111	0xbd7eeebc	-0.062239394
112	0x3a58a2a7	0.0008263983
113	0x3c9d8267	0.01922722
114	0xbe0b18f4	-0.13583738
115	0xbe049581	-0.12947656
116	0xbde39d70	-0.11114013
117	0xbd2b2f03	-0.04179288
118	0xbcc8a72a	-0.024493773
119	0x3d9f92e1	0.07791687
120	0xbe179bb4	-0.1480549
121	0xbda54e45	-0.08071569
122	0xbd4cc2de	-0.049990527
123	0xbdda0cc6	-0.106469676
124	0x3dea6575	0.11445133
125	0x3c8de79e	0.017322358
126	0x3d43872c	0.04773633
127	0xbcfb6450	-0.030687481
128	0xbbeb858e	-0.007187552
129	0x3d464daa	0.04841391
130	0x3ce53960	0.02798146
131	0xbc998791	-0.0187414
132	0xbce1e960	-0.027577102
133	0x3cdb890a	0.026798744
134	0xbbf2731e	-0.007398977
135	0x3d907c56	0.07054965
136	0x3c5cb11c	0.013469961
137	0xbdb767ee	-0.0895537
138	0xbcb588db	-0.022159984
139	0xbd8640ed	-0.06555352
140	0x3d3a250a	0.04544548
141	0x3cbc6e66	0.02300186
142	0xbc4852d8	-0.012226783
143	0x3cd2ce7e	0.025733229
144	0xbd3a72ff	-0.045519825
145	0x3dc3deb6	0.09563963
146	0x3d8b8a00	0.06813431
147	0x3b013eed	0.0019721345
148	0xbbcb98bc	-0.0062132757
149	0x3b97f943	0.0046378686
150	0xbdcd929a	-0.10037728
151	0xbd1bd6df	-0.038046714
152	0x3d34894c	0.04407625
153	0x3d77ae63	0.060469043
154	0x3cc21116	0.023689788
155	0x3da60680	0.081067085
156	0xbe3952a9	-0.18097939
157	0xbe4204fc	-0.18947214
158	0xbe1877ce	-0.14889452
159	0xbe509934	-0.20370942
160	0xbdb5b2ff	-0.088720314
161	0xbdacbe1b	-0.08434697
162	0xbd894366	-0.06702308
163	0x3d61562a	0.055013813
164	0x3d49f242	0.0493033
165	0xbda1d66d	-0.079022266
166	0x3c02bbef	0.007979377
167	0x3bfa710b	0.0076428703
168	0x3d036a97	0.032084074
169	0x3ca527b3	0.020160532
170	0x3de0499c	0.1095154
171	0x3d68b793	0.056815695
172	0x3d5c27de	0.053748958
173	0xbbd2ac77	-0.006429251
174	0xbd13dc5f	-0.036098834
175	0x3d90b2a4	0.07065323
176	0x3db6d2d1	0.08926929
177	0x3d71a019	0.05899057
178	0x3c1ea32c	0.009682458
179	0x3ca0de8a	0.019637365
180	0x3e250c4d	0.16117974
181	0x3e2200a7	0.15820561
182	0x3db3c4ae	0.08777748
183	0x3e2206fd	0.15822978
184	0x3d9582a5	0.07300309
185	0x3cd19c3a	0.02558719
186	0x3c97e635	0.018542388
187	0x3c575abf	0.013144194
188	0x3c70ab83	0.014689329
189	0x3d9d6e50	0.07687056
190	0x3dc264e1	0.094918974
191	0x3d2d438e	0.042300753
192	0xbd5ad416	-0.053424917
193	0x3d67a5c6	0.05655458
194	0xbadcfa11	-0.0016859194
195	0xbca25724	-0.019816943
196	0xbc8e02a4	-0.017335244
197	0x3b2ff306	0.0026847734
198	0xbdd61f0e	-0.10455142
199	0xbe056dca	-0.13030162
200	0x3d319cc0	0.04336238
201	0x3da8fdc3	0.08251526
202	0x3df0a4a6	0.11750154
203	0x3d4ea9ea	0.05045501
204	0x3cefe5db	0.029284408
205	0x3deb6873	0.114945315
206	0x3d32e9ad	0.04367988
207	0x3d5507d3	0.052009415
208	0x3d633aa8	0.05547586
209	0x3c1e3721	0.009656698
210	0x3c003799	0.0078257555
211	0xbcd533d8	-0.026025698
212	0xbd5b5826	-0.05355086
213	0xbda722cd	-0.081609346
214	0xbdcf3b43	-0.10118725
215	0xbde24c70	-0.110497355
216	0x3ddbb732	0.10728301
217	0x3da67d93	0.0812942
218	0x3e162c6c	0.14665383
219	0x3e27e099	0.16394271
220	0xbda2bdde	-0.079463705
221	0xbd9806db	-0.074231826
222	0xbdba2300	-0.09088707
223	0xbe187de1	-0.14891769
224	0x3c8ee92b	0.017445168
225	0x3d86c9e9	0.0658148
226	0x3e0da53e	0.13832566
227	0xba243dac	-0.00062652933
228	0xbda51fe7	-0.080627255
229	0x3d2a1b4c	0.04152994
230	0x3bb4d286	0.0055182604
231	0xbc22a9e1	-0.009928198
232	0xbdd20051	-0.102539666
233	0xbc3bf32a	-0.011471549
234	0xbd2951e0	-0.041337848
235	0xbd8acdb5	-0.06777517
236	0x3df2f4f4	0.11863127
237	0x3c873fe3	0.016509956
238	0x3e41590b	0.18881623
239	0x3dbd52ec	0.09244332
240	0xbdafaaef	-0.08577525
241	0xbd8b0a48	-0.0678907
242	0xbcd4499d	-0.025914008
243	0xbdba774f	-0.091047876
244	0x3cf584be	0.029970523
245	0x3cd67a38	0.026181325
246	0xbcc2ee38	-0.023795232
247	0x3ce771ed	0.028252566
248	0x3ce176a0	0.027522385
249	0xbd0163d6	-0.03158935
250	0xbc3fb721	-0.011701376
251	0xbcdb1b1f	-0.02674633
252	0x3d765567	0.06014004
253	0x3ceeae43	0.029135829
254	0x39fc9550	0.00048176432
255	0x3d885458	0.06656712

bias f4 [20]
0	0xbe21bdff	-0.15795134
1	0x3dc94f0f	0.09829532
2	0x3ce6c8d2	0.02817193
3	0x3c5d6746	0.013513392
4	0xbb0de1fd	-0.0021649592
5	0xbe18679a	-0.14883271
6	0x3d1acf39	0.03779528
7	0x3d994937	0.07484668
8	0x3dba89f3	0.09108343
9	0x3dd1b46f	0.10239493
10	0x3dd5f48d	0.10447035
11	0x3dfbee56	0.12301318
12	0x3dcb917c	0.09939858
13	0x3cb63db8	0.022246227
14	0x3be8ae17	0.0071008313
15	0xbdd56d78	-0.1042127
16	0xbd81fde9	-0.06347258
17	0x3925fbf3	0.00015829485
18	0xbdcfb194	-0.10141292
19	0x3e0d0665	0.1377197

weight f4 [10, 20, 2]
0	0xbd9b4d07	-0.07583051
1	0xbc514604	-0.012773041
2	0xbb45c9d6	-0.0030180118
3	0x3da81365	0.08206824
4	0x3de3aa9b	0.11116525
5	0x3c2a6f23	0.010402474
6	0xbdd4a787	-0.10383516
7	0x3df43fdd	0.119262435
8	0xbdf13076	-0.11776821
9	0xbdc96aad	-0.098348
10	0x3d1c6eb1	0.0381915
11	0x3dc8a964	0.09797934
12	0xbd8c512d	-0.068514206
13	0x3d3edbf6	0.04659649
14	0x3bbeb08f	0.0058193873
15	0xbcbab9a2	-0.022793595
16	0xbcf85853	-0.030315554
17	0x3d340dbd	0.043958414
18	0x3d966ccd	0.07344971
19	0x3e158d7b	0.14604752
20	0x3d7d40bd	0.061829317
21	0x3dc684fa	0.09693332
22	0xbd516239	-0.051119063
23	0xbdfc2afb	-0.123128854
24	0x3c9da826	0.019245218
25	0x3dcfd3e9	0.101478405
26	0x3e4e0ae1	0.20121337
27	0xbe2fbe4b	-0.17162435
28	0x3d0e5c18	0.034755796
29	0x3da128d5	0.07869116
30	0xbd894b72	-0.06703843
31	0x3c85cb40	0.016332269
32	0x3d8c1b95	0.06841198
33	0x3dea8112	0.114503995
34	0xbe01650d	-0.12636204
35	0x3dada873	0.08479395
36	0xbad528b5	-0.0016262742
37	0x3d0b3aa9	0.03399149
38	0x3d4db992	0.0502258
39	0xbd8e4254	-0.06946245
40	0xbdaef832	-0.08543433
41	0xbd5a2645	-0.053259153
42	0xba026dff	-0.0004975497
43	0x3e163889	0.14670004
44	0x3d08bc74	0.033382848
45	0xbdbaf0e3	-0.09127977
46	0x3d491b17	0.0490981
47	0x3d18984c	0.037254617
48	0xbcd3750a	-0.025812645
49	0xbe113a03	-0.14182286
50	0x3c9e6baf	0.019338457
51	0x3dac39fa	0.08409496
52	0x3db8750a	0.090066984
53	0x3d935676	0.071942255
54	0x3d2aa433	0.0416605
55	0x3dc43f1a	0.09582348
56	0x3db07336	0.08615725
57	0xbb7050d5	-0.0036669273
58	0x3e0b8a53	0.13626985
59	0xbd58a0a5	-0.052887578
60	0x3d66f21c	0.056383237
61	0x3e1ff31f	0.15620087
62	0x3e18f094	0.14935523
63	0x3e1aa86b	0.15103309
64	0x3dd5b518	0.104349315
65	0xbd715de3	-0.058927428
66	0xbe5a290f	-0.21304725
67	0x3e1b9edd	0.1519732
68	0x3dcea67d	0.10090349
69	0xbd06057a	-0.032720067
70	0xbd86eaf7	-0.06587785
71	0xbd535f2f	-0.051604446
72	0x3c9800e0	0.018555105
73	0xbe172cb2	-0.14763144
74	0x3e43bbe0	0.19114637
75	0x3db3291a	0.08748074
76	0x3d37b486	0.044849895
77	0x3d4c63dd	0.049899925
78	0x3d38355c	0.044972762
79	0x3ce7e76a	0.028308589
80	0x3c9df48b	0.019281646
81	0x3e2593fe	0.16169736
82	0xbe4d036e	-0.2002084
83	0xbe0cd4be	-0.1375303
84	0xbdb9ffa5	-0.090819634
85	0x3e04380f	0.1291201
86	0xbe6de9f6	-0.2323378
87	0xbe20ce38	-0.15703666
88	0x3e026d88	0.12737095
89	0x3e89bd2b	0.26902136
90	0x3e20465f	0.15651844
91	0x3e364e2d	0.17803259
92	0x3d15409c	0.03643857
93	0xbd531493	-0.051533293
94	0xbe81c88e	-0.25348324
95	0xbd9feef4	-0.078092486
96	0xbe1646fb	-0.14675514
97	0xbe253f10	-0.16137338
98	0xbe2f634b	-0.17127721
99	0xbe32c85e	-0.17459247
100	0xbdfc5f2e	-0.123228416
101	0xbe5ec43a	-0.21754542
102	0xbdd5a82c	-0.10432467
103	0x3ced21f6	0.028946858
104	0xbd43d3d5	-0.04780944
105	0xb7947207	-1.7696073e-05
106	0x3ddabb40	0.10680246
107	0xbda21b70	-0.079153895
108	0xbea28cce	-0.3174805
109	0xbda9de15	-0.08294312
110	0xbd89d5cb	-0.06730231
111	0xbd3f6143	-0.046723615
112	0xbdd2eceb	-0.10299095
113	0xbe67b63f	-0.22628115
114	0x3d8d3d67	0.06896477
115	0x3cc08400	0.023500443
116	0x3e08593e	0.13315293
117	0x3e788ab0	0.24271655
118	0xbe617931	-0.22018887
119	0xbe0bda18	-0.13657415
120	0x3e380e56	0.17974219
121	0x3dbe6d68	0.09298211
122	0x3daf809f	0.085694544
123	0xbe0801e9	-0.13281979
124	0xbd19fdad	-0.03759544
125	0x3dcf0bdc	0.10109684
126	0x3d7bc643	0.061468374
127	0xbd45a162	-0.04824961
128	0x3e29d320	0.16584444
129	0xbd476b40	-0.048686266
130	0xbd908489	-0.07056529
131	0xbd11c976	-0.03559252
132	0xbdbe3dd3	-0.09289136
133	0xbcc6960b	-0.024241468
134	0xbe347fd1	-0.17626883
135	0xbe71dcbc	-0.2361936
136	0xbd553a21	-0.05205739
137	0xbe6ae5c2	-0.22939208
138	0xbe3721be	-0.17883965
139	0x3c026411	0.007958428
140	0x3cca08e9	0.024662452
141	0xbdef3643	-0.116802715
142	0xbdff7db6	-0.12475149
143	0xbdaa97ab	-0.083297096
144	0x3d817f30	0.06323087
145	0xbc936c36	-0.017995935
146	0x3a545498	0.00080997637
147	0x3e0af289	0.13569082
148	0xbdea0b4d	-0.11427937
149	0xbdd3d989	-0.10344226
150	0x3d824e3b	0.063625775
151	0xbd575fc9	-0.052581582
152	0xbc73576a	-0.014852384
153	0x3d001821	0.03127301
154	0xbde97d27	-0.11400824
155	0xbe11e4e7	-0.14247476
156	0x3e10aa0f	0.14127372
157	0x3e056e23	0.13030295
158	0xbdc0bb28	-0.09410697
159	0xbe190131	-0.1494186
160	0xbb97078b	-0.0046090535
161	0xbc86fcf4	-0.01647804
162	0x3e04094f	0.12894176
163	0xbcc220ce	-0.023697283
164	0xbd484bce	-0.048900418
165	0xbdda3ac6	-0.106557414
166	0x3e0a8fa3	0.13531356
167	0x3dd619c2	0.10454132
168	0x3d912295	0.07086674
169	0x3d63ad42	0.055585153
170	0xbdd99b11	-0.1062528
171	0x3da2060a	0.07911308
172	0x3d4d9b61	0.05019701
173	0x3d944424	0.07239559
174	0x3daac0fa	0.083375886
175	0xbdb69f9a	-0.0891716
176	0x3c894071	0.01675436
177	0xbcac667e	-0.021044966
178	0x3d804f88	0.062651694
179	0x3d80aab1	0.06282557
180	0x3ccfaea7	0.025351835
181	0xbd360f66	-0.04444828
182	0x3ddffbc7	0.109366946
183	0xbd826621	-0.06367136
184	0x3c80b7bf	0.015712617
185	0xbda8c2ec	-0.082403034
186	0xbddb4348	-0.10706192
187	0xbdfa83ef	-0.122321956
188	0x3caa6d81	0.020804169
189	0x3d6b0201	0.057374958
190	0xbcd9f449	-0.026605742
191	0x3d6fec00	0.058574677
192	0xbd26480a	-0.040596046
193	0x3cbefa49	0.023312705
194	0x3dfb9e15	0.12286011
195	0x3d23aaf2	0.039957948
196	0xbd50eded	-0.051008154
197	0x3d951387	0.07279115
198	0x3bbd71cd	0.0057813884
199	0xbdbc763c	-0.09202239
200	0xbdfd7a75	-0.123768725
201	0xbddb49e1	-0.10707451
202	0x3dbae521	0.09125734
203	0xbc9533d5	-0.018213192
204	0xbd34a596	-0.044103228
205	0x3e01a896	0.12661967
206	0x3db25be7	0.08708935
207	0xbd4ac1ec	-0.049501345
208	0x3cdf05a2	0.027224366
209	0xbd98dd90	-0.07464135
210	0x3e15cfbf	0.1463003
211	0x3df4189c	0.11918756
212	0xbdef125c	-0.11673424
213	0xbca7dd63	-0.020491308
214	0x3d7ff285	0.062487144
215	0xbdb20b3f	-0.08693551
216	0x3daf480d	0.085586645
217	0xbdf78a64	-0.12086943
218	0xbd5d9951	-0.054101292
219	0xbd832f14	-0.06405464
220	0x3dd92d53	0.10604348
221	0x3dd63d6c	0.10460934
222	0xbe020da3	-0.12700514
223	0xbc5c80ca	-0.01345844
224	0x3c1d3d37	0.009597114
225	0x3d86e999	0.06587524
226	0x3d989488	0.07450205
227	0x3ec463d5	0.38357416
228	0x3d8b3fe3	0.06799295
229	0xbdebb191	-0.115084775
230	0xbdb6ded6	-0.08929221
231	0xbd8ceaea	-0.06880744
232	0xbdb04a2f	-0.086078994
233	0xbdd99ec0	-0.10625982
234	0xbb7fb68a	-0.0039018714
235	0x3c676825	0.014123951
236	0x3e298965	0.16556318
237	0x3c091672	0.008367168
238	0x3df26239	0.11835141
239	0x3db3074e	0.08741628
240	0xbd049cb1	-0.032375995
241	0xbe21b49f	-0.15791558
242	0xbd1a45bf	-0.03766417
243	0xbdcda39d	-0.100409724
244	0xba38e4d6	-0.0007053142
245	0xbe1308a7	-0.1435877
246	0xbd687ebd	-0.056761492
247	0xbe222bce	-0.15837023
248	0xbdac4943	-0.08412411
249	0x3d2d2974	0.04227586
250	0xbd8c9647	-0.06864601
251	0x3c0d79f6	0.008635035
252	0xbd3a4cb9	-0.045483325
253	0xbd513e9b	-0.051085096
254	0x3d597fb9	0.05310032
255	0xbdba6f15	-0.091032185

bias f4 [10]
0	0xbe1482fb	-0.1450309
1	0x3c45e6a9	0.012078919
2	0xbe5d51ee	-0.21613285
3	0x3d9042d7	0.07043999
4	0x3d442299	0.047884557
5	0x3d45e2fc	0.048312172
6	0xbdd2fbb1	-0.103019126
7	0xbe2903ed	-0.16505404
8	0x3ddc9a44	0.10771611
9	0x3e63ac8d	0.22233792

weight f4 [20, 30]
0	0xbd82c29d	-0.06384776
1	0x3ceaf5dc	0.028681688
2	0x3aef9383	0.0018278215
3	0xbe409af1	-0.18809105
4	0x3c2b1fd1	0.010444597
5	0x3d8093ab	0.062781654
6	0x3e2a539b	0.16633455
7	0xbdf153a5	-0.11783532
8	0xbdd0be58	-0.10192555
9	0xbdf23295	-0.11826054
10	0x3e315e38	0.17321098
11	0xbdaa8eb5	-0.083280005
12	0x3dd0b03f	0.10189866
13	0xbce5c979	-0.028050171
14	0x3c69b162	0.014263483
15	0xbbe9d50e	-0.007135994
16	0x3b91e817	0.004452716
17	0x3cc40337	0.023927314
18	0x3dd73a36	0.1050915
19	0x3cecf0d5	0.028923431
20	0x3e0b9b38	0.1363343
21	0xbdde9d7c	-0.108698815
22	0xbd985d9b	-0.07439729
23	0x3d1ba308	0.037997276
24	0xbc97f2e8	-0.018548444
25	0xbc956c83	-0.018240219
26	0xbd9c250a	-0.07624252
27	0x3e14dcec	0.145374
28	0x3d99a36c	0.075018734
29	0x3e202109	0.15637602
30	0x3e85f439	0.2616289
31	0xbde4f7a9	-0.1118005
32	0xbe16d064	-0.14727932
33	0x3c9e2eeb	0.019309482
34	0xbdef4108	-0.116823256
35	0xbbd58cce	-0.0065170294
36	0x3c8f10cb	0.017464062
37	0xbd93f7b0	-0.07224977
38	0x3cb520f3	0.022110438
39	0xbdfd9fbd	-0.12383983
40	0x3c21376c	0.009839874
41	0xbdda28c9	-0.106523104
42	0xbe1c2b2e	-0.15250847
43	0xbcbb28fe	-0.022846695
44	0x3dbd5e23	0.09246471
45	0x3d0e9360	0.034808517
46	0xbddbcb72	-0.107321635
47	0x3d307f16	0.04308995
48	0x3e8cab3b	0.27474388
49	0x3d9950cf	0.07486116
50	0x3ea2d18a	0.3180049
51	0x3d8dac19	0.06917591
52	0xbdb1242c	-0.08649477
53	0xbe0fe192	-0.14050892
54	0xbd8470f2	-0.06466855
55	0x3d66c4fb	0.0563402
56	0x3e89a36a	0.26882488
57	0x3de39c99	0.11113853
58	0x3d1eb7bc	0.03874944
59	0x3cdf4948	0.027256623
60	0x3e526140	0.2054491
61	0x3e7c8044	0.24658304
62	0xbdca3907	-0.09874158
63	0x3cdeca27	0.027196003
64	0xbc965a03	-0.018353468
65	0xbcdf2193	-0.02723769
66	0x3e33b658	0.17550027
67	0x3e08061e	0.13283584
68	0x3db60877	0.08888333
69	0xbe21889d	-0.1577477
70	0x3cee6162	0.02909917
71	0x3e2aff7a	0.16699019
72	0xbe08c762	-0.13357309
73	0xbda75b7d	-0.08171747
74	0xbdf761c9	-0.12079198
75	0xbe0e0640	-0.13869572
76	0xbe2ef315	-0.17084916
77	0xbd967489	-0.07346446
78	0x3e791e10	0.24327874
79	0x3e6ab176	0.22919258
80	0x3eac6173	0.33668098
81	0x3db0cb80	0.086325645
82	0x3c998620	0.018740714
83	0xbd911796	-0.07084577
84	0xbdbcfbb9	-0.092277
85	0x3d9e4c6c	0.0772942
86	0xbbd546fc	-0.006508706
87	0xbc7b8a1a	-0.01535275
88	0x3c3ae48c	0.011407029
89	0xbe09c0ad	-0.13452406
90	0xbe2d92e4	-0.16950566
91	0x3d23e419	0.040012453
92	0x3cbe8a65	0.023259351
93	0xbdd42a33	-0.10359611
94	0x3d572420	0.052524686
95	0xbde89e68	-0.113583386
96	0xbe0d818f	-0.13818954
97	0x3dac25bc	0.08405635
98	0x3de9c87d	0.11415193
99	0x3d22578d	0.039634276
100	0xbcfb9834	-0.030712225
101	0x3c46a410	0.0121240765
102	0x3d8c4ea3	0.06850936
103	0x3d1b571b	0.037924867
104	0x3d5855b5	0.05281611
105	0x3bb1a60f	0.005421407
106	0x3ca3aafa	0.019978989
107	0x3cd41877	0.025890572
108	0xbda2fb72	-0.07958116
109	0xbd25660b	-0.04038052
110	0xbd67778d	-0.056510497
111	0xbe0fce91	-0.14043643
112	0x3dabeeb5	0.08395139
113	0xbdadec07	-0.08492284
114	0xbd9c7df1	-0.07641209
115	0x3c8be7bb	0.017078271
116	0xbe0085e5	-0.12551077
117	0x3d0e2d7d	0.03471135
118	0x3dfd7ddf	0.12377524
119	0xbd603337	-0.054736342
120	0x3cef2ec6	0.029197108
121	0x3cef4f85	0.029212723
122	0xbbfec8a7	-0.0077753845
123	0xbc9e468c	-0.019320749
124	0xbd9c2fef	-0.0762633
125	0xbdbc6df6	-0.09200661
126	0xbdfcb178	-0.12338537
127	0x3d819978	0.063281
128	0x3e354c9a	0.17705002
129	0x3dd56c95	0.10421101
130	0x3df3775f	0.118880026
131	0x3d22c45a	0.039738037
132	0x3ba88ae4	0.00514351
133	0x3db5a98c	0.08870229
134	0xbce12b7a	-0.027486552
135	0xbbe6133c	-0.007021336
136	0xbd5ee514	-0.054417685
137	0x3ba1de62	0.00493984
138	0xbd8304b4	-0.063973814
139	0x3ce1d38d	0.027566696
140	0xbbff079f	-0.007782891
141	0x3d79688f	0.06089073
142	0x3cc0e6cf	0.023547558
143	0xbd4d7529	-0.05016056
144	0x3d11d6ca	0.03560523
145	0x3d0eb82c	0.03484361
146	0x3d11df70	0.035613477
147	0xbd947eb8	-0.07250732
148	0xbd2175fa	-0.03941915
149	0x3b1ccc37	0.0023925432
150	0xbd9b5290	-0.07584107
151	0xbde82d4c	-0.11336765
152	0xbd199324	-0.03749384
153	0x3e3fbd53	0.18724565
154	0x3ccf882e	0.02533349
155	0x3d633204	0.05546762
156	0x3de94e6a	0.113919094
157	0xbe53dac0	-0.20688915
158	0x3dcf9328	0.1013549
159	0xbcee0dc9	-0.029059308
160	0xbdedafcc	-0.11605796
161	0xbe2ec53c	-0.17067426
162	0xbe1a46c3	-0.15066056
163	0x3db33cc5	0.08751825
164	0x3bf455d2	0.0074565196
165	0x3dad258b	0.084544264
166	0x3d9b7121	0.07589937
167	0x3d1e88f9	0.038704846
168	0xbe0908c4	-0.1338225
169	0x3bc64ba4	0.0060514975
170	0xbe36b96e	-0.17844173
171	0x39bbfd52	0.00035856158
172	0xbca2c8fa	-0.019871224
173	0xbe30aa91	-0.17252566
174	0xbdb438da	-0.08799906
175	0xbcd9c015	-0.02658085
176	0xbd0e6f9b	-0.034774404
177	0x3c7c601d	0.015403775
178	0x3d245ae9	0.04012576
179	0x3df92c91	0.121667035
180	0x3de7c0f2	0.11316098
181	0x3af96159	0.0019026204
182	0x3d848c34	0.06472054
183	0x3e2ab1db	0.16669409
184	0xbe108b69	-0.14115681
185	0x3df84ff6	0.12124626
186	0x3e24dc5d	0.16099687
187	0x3dc2d4ce	0.095132455
188	0xbc790a30	-0.015200183
189	0xbde7a198	-0.113101184
190	0xbca9bb6e	-0.020719256
191	0x3e05daa2	0.13071683
192	0xbdc0c807	-0.09413152
193	0x3d84b536	0.06479876
194	0xbdecd8e6	-0.115648076
195	0x3d719b92	0.058986254
196	0x3d75111a	0.059830762
197	0xbd9566f4	-0.072950274
198	0xbdc8fd57	-0.09813946
199	0xbe141905	-0.14462669
200	0xbd056e16	-0.03257569
201	0x3e2b3a02	0.16721347
202	0x3e5f5d78	0.21812999
203	0x3e08ab6a	0.1334664
204	0xbdc035b7	-0.09385245
205	0xbd84e637	-0.064892225
206	0x3bee4d75	0.007272417
207	0xbdcf0e0e	-0.101101026
208	0xbe5c0339	-0.21485604
209	0xbd8a9405	-0.06766514
210	0xbd66f4ad	-0.056385685
211	0x3d966275	0.07342998
212	0xbca425e2	-0.020037595
213	0xbd37ee88	-0.044905216
214	0x3e13c118	0.14429128
215	0xbd021f7b	-0.031768303
216	0x3d51199c	0.051049814
217	0xbd73cb72	-0.059520192
218	0xbe256f0d	-0.16155644
219	0xbd9d9f6a	-0.076964214
220	0xbda953e6	-0.082679555
221	0x3e14b97f	0.14523886
222	0xbcf7c969	-0.030247407
223	0x3dd490db	0.103791915
224	0xbe0dc76c	-0.13845605
225	0x3d976476	0.07392208
226	0x3cac1bed	0.02100941
227	0xbe03f974	-0.12888128
228	0x3da2f067	0.07956009
229	0xbd13bf21	-0.036070947
230	0x3db93967	0.09044152
231	0xbd9e1db0	-0.07720506
232	0x3b6bd995	0.0035987843
233	0xbe00485c	-0.12527603
234	0xba2d5c4b	-0.0006613179
235	0xbc9fe826	-0.019519877
236	0x3dc78734	0.09742585
237	0x3d9d66d1	0.07685626
238	0xbddd015e	-0.107912764
239	0xba329492	-0.00068123
240	0xbe80491d	-0.2505578
241	0x3d819149	0.06326539
242	0xbc43038d	-0.011902702
243	0xbd978f4a	-0.07400377
244	0x3d8d99a2	0.06914069
245	0xbe445a13	-0.19174986
246	0xbcdb1d03	-0.026747232
247	0x3e42684e	0.18985102
248	0xbd9035da	-0.07041521
249	0x3decc487	0.11560922
250	0x3d6d2099	0.057892416
251	0x3d8fedce	0.070277795
252	0xbc4ce156	-0.012504896
253	0x3a09eb93	0.00052612385
254	0x3c9549e9	0.01822372
255	0x3d8e87ab	0.0695947

bias f4 [20]
0	0xbd896043	-0.067078136
1	0xbdaf6f16	-0.0856611
2	0xbcec2fdf	-0.02883142
3	0x3c3bac31	0.011454628
4	0xbdc4cb02	-0.09609033
5	0xbddb0c65	-0.106957234
6	0xbe017d1f	-0.12645386
7	0x3e453309	0.1925775
8	0x3d16ccb4	0.036816314
9	0x3e20c87d	0.1570148
10	0x3dc92967	0.0982235
11	0x3b6d82df	0.0036241335
12	0xbdfccace	-0.123433694
13	0x3da07a4e	0.07835828
14	0x3cf77d9c	0.030211262
15	0xbe45808c	-0.19287318
16	0xbd92f5e8	-0.07175809
17	0xbc07caae	-0.008288069
18	0xbd993906	-0.074815795
19	0x3d8d938a	0.069129065
