deploy/networks/go2/parkour_v1/scan_encoder.pt (torch, 120750 bytes, 6 tensors)

weight f4 [128, 132]
0.039726436 -0.040243763 0.06368289 -0.0012807497 0.027463816 -0.013984466 -0.05576994 0.017000863
-0.119616665 -0.048707094 -0.15829957 0.030701503 0.015784351 0.037054025 -0.06738317 -0.048558794
-0.08592647 -0.061619803 -0.021097466 0.004662965 -0.05727572 -0.05089129 -0.080918625 -0.051088303
-0.0016544653 0.019722562 -0.062235508 0.021963118 -0.017651895 -0.07804372 -0.06949783 -0.05365848
-0.11450129 0.025696456 0.07725314 0.10695666 -0.037830696 0.07423961 0.017552653 0.07080204
0.038420156 0.06656112 0.08663149 -0.061948385 0.035826035 0.082660995 0.13718292 -0.04072848
0.08179414 0.15882562 0.022323126 0.09509591 0.07418682 0.003202024 -0.046098594 0.017956113
0.027709194 0.09589071 0.15762128 0.15674378 0.13330376 0.116119236 0.120917425 0.14040871
0.0033552835 0.043908656 -0.017161952 0.142205 0.090309076 0.019759621 -0.03341606 0.027848752
-0.039387602 0.10765374 0.07127291 0.034368925 -0.07536836 -0.0028743758 -0.03282391 0.041027054
-0.03845319 -0.050266378 -0.043231107 -0.08024054 -0.11862914 0.013256878 -0.031244291 0.0093219355
0.008903601 0.0018479098 -0.007798376 -0.1276097 -0.095894925 -0.008930662 -0.097598225 -0.04209414
-0.028916763 -0.082758576 -0.11423545 -0.024752544 0.049492918 0.16664462 0.120491244 0.015156697
0.112781145 0.011196539 0.012701778 0.00618374 0.07371063 -0.09233735 0.12920697 0.1215841
0.081396356 0.048430905 0.11543506 0.0029958105 0.112727664 0.09127305 0.039089013 0.04824122
-0.11083344 0.09155394 0.021782894 0.10037344 0.0009183682 -0.009475007 -0.01782672 0.025627177
-0.0028702985 -0.014706322 -0.03723716 -0.2147262 0.032808986 0.11032643 0.06611085 0.1302349
0.02773635 0.1423221 0.02740693 0.07114347 0.10041209 0.02825039 0.0039603254 0.03269641
-0.060006674 -0.03669261 -0.04680204 -0.01232445 0.020447476 0.106588215 0.08594636 0.08375472
-0.05918164 0.021924691 0.01843945 0.019514255 0.11632635 0.1290864 0.017723748 0.030084848
-0.023090592 0.06811384 -0.020739812 -0.05219621 -0.023763986 0.013443515 -0.045543943 0.07739764
-0.062424727 -0.06047707 0.017324086 -0.0012503427 -0.01755891 0.03459289 -0.03979727 0.040129095
0.03185599 -0.045996334 -0.094599396 -0.1002257 -0.09252476 -0.022546701 -0.10816373 -0.112012625
-0.095502414 -0.094947934 0.04355144 0.011957982 -0.0241574 -0.02338608 -0.024255399 -0.049230978
0.018106544 0.09144327 0.06532584 -0.053266056 0.09470379 -0.06455362 0.03920365 -0.020652821
0.06492063 0.0817259 0.13873854 0.091891795 0.1272567 0.05494528 -0.045786887 -0.03318607
-0.07497588 -0.032947473 0.11612198 -0.035132814 -0.056364935 0.07728577 -0.01642826 -0.040877514
0.094531134 0.024876915 0.027431032 -0.07442081 -0.052918814 0.10792955 -0.0053476444 -0.01602901
-0.008648784 0.0026773482 0.04827911 0.06519344 0.06308527 -0.024717666 0.030947743 0.050519984
0.009303152 0.061804254 0.013148113 0.07187176 0.11553716 0.049736526 -0.042887576 0.05810101
-0.080797866 -0.0075485725 -0.056286737 0.14563741 0.12332311 -0.014587763 -0.096537106 0.007853301
0.012261822 -0.090752125 -0.003891284 -0.01950276 -0.06261145 -0.04858175 0.015993593 0.03720587
00000000: 30b8 223d a5d6 24bd 2d6c 823d d4de a7ba
00000010: ccfb e03c 1a1f 65bc 056f 64bd 6545 8b3c
00000020: 95f9 f4bd 1781 47bd 4819 22be b881 fb3c
00000030: 2f4e 813c f6c5 173d 3000 8abd 96e5 46bd
00000040: 38fa afbd 0c65 7cbd 98d4 acbc c9cb 983b
00000050: f299 6abd 6373 50bd aab8 a5bd f841 51bd
00000060: a5da d8ba 3691 a13c a9ea 7ebd ffeb b33c
00000070: b59a 90bc 63d5 9fbd e154 8ebd ffc8 5bbd
00000080: a77f eabd 6081 d23c e536 9e3d 180c db3d
00000090: 5cf4 1abd f00a 983d 95ca 8f3c a900 913d
000000a0: 745e 1d3d 3251 883d da6b b13d 97bd 7dbd
000000b0: 52be 123d 2b4a a93d ae79 0c3e e8d2 26bd
000000c0: b083 a73d 2fa3 223e fdde b63c a5c1 c23d
000000d0: 42ef 973d 0cd9 513b e1d1 3cbd b318 933c
000000e0: 64fe e23c 5962 c43d 7967 213e 7181 203e
000000f0: c880 083e eccf ed3d 8ea3 f73d 4dc7 0f3e
00000100: 51e4 5b3b 90d9 333d 3997 8cbc 309e 113e
00000110: f7f3 b83d eede a13c 47df 08bd 1123 e43c
00000120: e554 21bd 9079 dc3d 88f7 913d 6ec6 0c3d
00000130: ba5a 9abd 0660 3cbb 5d72 06bd fc0b 283d
00000140: 1881 1dbd 1ee4 4dbd 1a13 31bd 2755 a4bd
00000150: d6f3 f2bd 6033 593c 07f4 ffbc 08bb 183c
00000160: 69e0 113c 9035 f23a 8589 ffbb 1eac 02be
00000170: 8f64 c4bd e951 12bc 94e1 c7bd e86a 2cbd
00000180: d9e2 ecbc 547d a9bd 47f4 e9bd d9c5 cabc
00000190: 16b9 4a3d e3a4 2a3e 1dc4 f63d cb53 783c
000001a0: cdf9 e63d b071 373c 1e1b 503c f9a0 ca3b
000001b0: 99f5 963d 5d1b bdbd d54e 043e 1601 f93d
000001c0: 22b3 a63d 7c5f 463d 3769 ec3d 5c55 443b
000001d0: c3dd e63d 5ded ba3d cd1b 203d 9698 453d
000001e0: a5fc e2bd a280 bb3d 0a72 b23c 9790 cd3d
000001f0: a6be 703a 0f3d 1bbc 5709 92bc 16f0 d13c
00000200: 9e1b 3cbb c9f2 70bc fe85 18bd 2fe1 5bbe
00000210: b762 063d d3f2 e13d 2065 873d 4c5c 053e
00000220: 5837 e33c e2bc 113e 8084 e03c abb3 913d
00000230: dba4 cd3d 5d6d e73c 9ec5 813b acec 053d
00000240: 8fc9 75bd fd4a 16bd 7fb3 3fbd 7dec 49bc
00000250: 7781 a73c ec4a da3d a504 b03d 9887 ab3d
00000260: 7368 72bd 699b b33c 540e 973c 5cdc 9f3c
00000270: 823c ee3d 3a2f 043e 6531 913c 8074 f63c
00000280: 7b28 bdbc 457f 8b3d 8ae6 a9bc b1cb 55bd
00000290: b1ac c2bc 3042 5c3c 498c 3abd a782 9e3d
000002a0: 12b1 7fbd ceb6 77bd 3eeb 8d3c 8ae2 a3ba
000002b0: b4d7 8fbc 46b1 0d3d 7602 23bd 685e 243d
000002c0: 6d7b 023d a766 3cbd 54bd c1bd 2243 cdbd
000002d0: 9f7d bdbd dcb3 b8bc f284 ddbd e066 e5bd
000002e0: c596 c3bd 1074 c2bd ff62 323d 69eb 433c
000002f0: bde5 c5bc 2a94 bfbc 42b3 c6bc 6ca6 49bd
00000300: 2d54 943c 9c46 bb3d 8ec9 853d 822d 5abd
00000310: 10f4 c13d b034 84bd 0294 203d 1b30 a9bc
00000320: 1bf5 843d e95f a73d 7a11 0e3e c431 bc3d
00000330: 954f 023e 4d0e 613d 088b 3bbd 1eee 07bd
00000340: f48c 99bd eef3 06bd 5cd1 ed3d 6de7 0fbd
00000350: ebde 66bd 0048 9e3d 8f94 86bc 2e6f 27bd
00000360: 8a99 c13d acca cb3c 0bb7 e03c f069 98bd
00000370: 66c1 58bd 2b0a dd3d 4b3b afbb 454f 83bc
00000380: a1b3 0dbc 7376 2f3b 51c0 453d 2384 853d
00000390: da32 813d b47c cabc 1f86 fd3c 0bee 4e3d
000003a0: 3f6c 183c 7526 7d3d 2f6b 573c 8031 933d
000003b0: bf9e ec3d 87b8 4b3d e2aa 2fbd 53fb 6d3d
000003c0: 5a79 a5bd 045a f7bb ec8c 66bd f921 153e
000003d0: d490 fc3d 8301 6fbc 3fb5 c5bd 22ab 003c
000003e0: cfe5 483c 40dc b9bd ea04 7fbb 41c4 9fbc
000003f0: 6f3a 80bd a8fd 46bd ff04 833c 2f65 183d

bias f4 [128]
-0.0741505 0.08083585 -0.03634982 -0.007796392 -0.05667959 0.022344958 -0.052971534 -0.044727974
-0.035930015 0.08383781 0.06279921 0.018039254 0.0022664855 -0.06397207 -0.07086357 0.021872578
0.048227403 -0.06093507 -0.051805668 -0.01910139 -0.0058729234 -0.07420814 -0.08076031 -0.065527305
0.031093242 -0.07165166 -0.08592821 -0.050157722 0.07262563 -0.034638744 0.04726489 0.040596467
-0.0013881208 -0.03377908 0.01484887 0.070514 -0.027744384 0.094224535 -0.03911379 0.056737345
-0.061111744 -0.015217749 0.04942499 -0.0789269 -0.0400984 -0.027017988 -0.020570874 -0.058660172
-0.07156208 0.09701445 -0.029598784 0.017518515 -0.040702652 -0.004389138 0.010997553 0.019884229
0.0075215544 0.06997075 -0.013767895 -0.06152707 -0.00028847525 0.06261496 -0.01562691 -0.006146026
-0.08538362 0.047027595 0.01027313 -0.052472297 -0.0035429408 0.08903193 -0.055139523 -0.03545921
0.06780907 -0.0149276145 0.056588758 -0.036394 -0.0077047693 -0.08816508 -0.013254902 0.008013919
0.018183555 -0.072793335 0.02015584 0.009380082 0.015357895 0.049105823 0.02506151 -0.06397497
-0.004487965 -0.020275885 0.018840032 0.0062704994 0.00041061168 -0.055895425 0.048698027 -0.0649242
-0.029337453 -0.064639084 -0.06252976 0.037453357 -0.0036698896 -0.04498499 0.002634732 -0.0178498
-0.099297166 -0.015073653 -0.01947019 -0.06075418 -0.07890663 -0.0024883603 0.008978049 0.006366587
0.067016914 -0.019185986 0.08621282 0.07126141 -0.07513303 0.08659396 0.08044321 -0.020880973
0.012001633 -0.077841334 -0.06249038 0.011919539 -0.07423104 -0.05423468 -0.07652648 0.04323618
00000000: 38dc 97bd 448d a53d 8de3 14bd e078 ffbb
00000010: dc28 68bd c60c b73c aef8 58bd ae34 37bd
00000020: 5a2b 13bd 28b3 ab3d df9c 803d 0fc7 933c
00000030: 5189 143b ca03 83bd eb20 91bd 1f2e b33c
00000040: 198a 453d 0d97 79bd 2e32 54bd 857a 9cbc
00000050: a771 c0bb 70fa 97bd a965 a5bd 2e33 86bd
00000060: 41b7 fe3c 1bbe 92bd 21fb afbd 2f72 4dbd
00000070: bfbc 943d 5be1 0dbd d498 413d 7b48 263d
00000080: 9bf1 b5ba ef5b 0abd ad48 733c a569 903d
00000090: 3148 e3bc cbf8 c03d c835 20bd 6b65 683d
000000a0: 4f50 7abd de53 79bc dc71 4a3d 6da4 a1bd
000000b0: 383e 24bd d454 ddbc 4084 a8bc a645 70bd
000000c0: 248f 92bd 83af c63d 2679 f2bc fd82 8f3c
000000d0: d3b7 26bd c2d2 8fbb 152f 343c 40e4 a23c
000000e0: 5f77 f63b d34c 8f3d bd92 61bc cf03 7cbd
000000f0: 7e3e 97b9 463c 803d 0104 80bc 9a64 c9bb
00000100: 9bdd aebd 02a0 403d a150 283c 31ed 56bd
00000110: af30 68bb 5f56 b63d fbd9 61bd ad3d 11bd
00000120: 7bdf 8a3d f492 74bc 9dc9 673d e011 15bd
00000130: 4a78 fcbb e58f b4bd 172b 59bc d04c 033c
00000140: aef5 943c ac14 95bd dc1d a53c eaae 193c
00000150: ae9f 7b3c 3023 493d cc4d cd3c 4f05 83bd
00000160: c70f 93bb 9d19 a6bc 6956 9a3c c378 cd3b
00000170: 5e47 d739 9af2 64bd 9577 473d fbf6 84bd
00000180: 1955 f0bc 7f61 84bd 9a0f 80bd b168 193d
00000190: 8882 70bb 2e42 38bd 78ab 2c3b be39 92bc
000001a0: 505c cbbd 7cf7 76bc f37f 9fbc 60d9 78bd
000001b0: cd99 a1bd c213 23bb ab18 133c cd9e d03b
000001c0: 2a40 893d ee2b 9dbc 5990 b03d 81f1 913d
000001d0: 59df 99bd 2d58 b13d 69bf a43d 930e abbc
000001e0: 7fa2 443c 476b 9fbd eaf5 7fbd 2c4a 433c
000001f0: 7206 98bd 2f25 5ebd eab9 9cbd 6c18 313d

weight f4 [64, 128]
-0.0017416714 -0.035110183 0.04334124 -0.050595593 -0.037176814 -0.02772569 0.11088912 0.07798101
0.019927556 0.033598207 -0.09998711 -0.0494957 0.013540803 0.18438624 0.05790179 0.017634101
-0.010555816 0.058024682 -0.01736927 -0.023882268 0.04835104 0.13602135 0.15746714 -0.048807096
-0.09203268 -0.08502165 0.043434534 0.09555873 -0.015672859 0.03746283 -0.073640525 -0.029329056
0.09172139 0.09603447 0.05068021 -0.0964084 0.032537498 -0.050216105 -0.026797216 -0.029968478
0.011503728 0.0018218387 -0.048137993 0.021373406 -3.9376024e-05 -0.11831658 -0.008112498 -0.029130189
0.07665715 -0.000413887 0.11396942 0.023492277 0.027202873 -0.11245538 -0.07491676 -0.15746202
0.101770766 -0.046824608 -0.060173146 0.08591569 -0.042735476 0.05457993 0.08901077 0.0838921
0.09765616 -0.018387344 -0.13068168 0.09283333 0.18133509 -0.05413093 -0.018389557 -0.03402328
-0.045183927 0.0931437 -0.047312684 0.02290175 0.015808778 -0.02860543 0.019229801 0.12590745
0.0426011 0.09675694 -0.013140192 -0.07786404 0.09591058 -0.06714716 0.0078972485 0.07368061
0.08461495 0.03213356 -0.08753272 0.035837382 -0.008676315 -0.026797384 -0.0020875344 0.05469801
0.06274536 -0.023666715 0.04720071 0.0026645667 -0.02986544 -0.0015198395 -0.07823632 0.048876375
0.048442364 0.014057299 -0.027708348 0.09831233 0.006891458 0.05658378 0.08538808 -0.13846645
0.040376566 -0.0748977 0.030790089 0.04071056 -0.003179932 0.058745258 -0.052479986 0.048781984
0.0027508435 0.11776934 0.0754488 -0.017546093 0.061149955 -0.044869024 0.1462321 -0.07580053
-0.04934112 -0.012398943 -0.06759018 0.027836934 -0.024326295 0.1294075 0.10958126 -0.047817618
-0.025493624 -0.035378348 -0.08700884 -0.03312129 0.035741314 -0.06106024 -0.0381287 0.06244828
0.0210914 -0.029070621 0.04619318 -0.026815392 -0.049589075 0.05278465 0.031401973 0.05708467
0.06752449 -0.08765461 -0.06995967 0.081343874 -0.068658605 0.050478306 -0.0419295 -0.032923818
-0.00085807627 0.09117626 -0.03909281 -0.08118039 -0.09472376 -0.03913397 -0.0013896335 -0.072968274
-0.07936338 -0.053828184 -0.043848526 0.08134716 -0.0138533935 0.059351083 -0.086390086 -0.047180634
0.0013122358 0.037721418 0.116915114 -0.037667356 0.06566011 0.071347654 -0.10343177 -0.084569864
-0.014220627 0.0823293 -0.07657743 0.12250435 0.025389077 0.019812107 -0.15119058 0.082191065
0.046820614 0.12634508 0.008380669 -0.06537037 -0.056204643 0.06910666 -0.06871857 0.004884295
-0.023872351 0.017341742 0.020919476 -0.018189222 -0.11515421 -0.087083146 -0.14752403 -0.026102405
0.02582745 -0.035160016 -0.04918242 0.09346941 0.016688941 -0.024025945 -0.018415006 0.009481137
0.109700315 0.027509732 0.06820001 0.0153759625 0.04578753 0.1294636 -0.026661575 -0.07629034
0.047436703 0.067341626 0.081052825 -0.0027222496 -0.11197802 0.08521263 -0.10778946 0.019404108
0.011940887 -0.06285767 -0.00024779464 0.009106201 -0.10537009 -0.051792763 0.06977066 0.030513944
-0.060614977 0.028277526 0.0495273 -0.043969702 0.048809815 -0.009945685 0.09116203 -0.010715538
0.0051453207 -0.008357421 -0.09048078 0.11012223 -0.030679826 0.009784811 0.015418096 0.06109905
00000000: cb48 e4ba b2cf 0fbd 9686 313d 533d 4fbd
00000010: b746 18bd fc20 e3bc d619 e33d 82b4 9f3d
00000020: 1d3f a33c 469e 093d 0bc6 ccbd 01bc 4abd
00000030: 3fda 5d3c bfcf 3c3e 6d2a 6d3d 6475 903c
00000040: 4df2 2cbc 4aab 6d3d 004a 8ebc bfa4 c3bc
00000050: bd0b 463d 2e49 0b3e 113f 213e f3e9 47bd
00000060: a17b bcbd d51f aebd 69e8 313d 4cb4 c33d
00000070: 5e64 80bc a072 193d d8d0 96bd 7d43 f0bc
00000080: 6dd8 bb3d b8ad c43d 0d96 4f3d c471 c5bd
00000090: 0a46 053d 67af 4dbd d685 dbbc 7480 f5bc
000000a0: 227a 3c3c c3ca ee3a 582c 45bd 4817 af3c
000000b0: af27 25b8 f74f f2bd 48ea 04bc 6fa2 eebc
000000c0: 6dfe 9c3d f9fe d8b9 cd68 e93d e072 c03c
000000d0: 8fd8 de3c 024f e6bd f56d 99bd b93d 21be
000000e0: 316d d03d 29cb 3fbd 1e78 76bd 91f4 af3d
000000f0: 650b 2fbd 348f 5f3d 474b b63d 9fcf ab3d
00000100: f4ff c73d 0ea1 96bc 6bd1 05be 671f be3d
00000110: e8af 393e 65b8 5dbd b2a5 96bc ff5b 0bbd
00000120: c812 39bd 20c2 be3d f2ca 41bd 739c bb3c
00000130: 6981 813c ef55 eabc d187 9d3c e2ed 003e
00000140: 7e7e 2e3d 8128 c63d f649 57bc 2f77 9fbd
00000150: c46c c43d 7384 89bd 7663 013c dce5 963d
00000160: 9a4a ad3d 7b9e 033d 5b44 b3bd 38ca 123d
00000170: 1a27 0ebc 3086 dbbc 04cf 08bb 050b 603d
00000180: a480 803d b3e0 c1bc 8855 413d 03a0 2e3b
00000190: 5ea8 f4bc 5a35 c7ba 5d3a a0bd 9832 483d
000001a0: 806b 463d 9650 663c 9efc e2bc fa57 c93d
000001b0: bdd1 e13b 65c4 673d f2df ae3d 26ca 0dbe
000001c0: e661 253d f763 99bd 7f3b fc3c 1ec0 263d
000001d0: 6866 50bb de9e 703d 41f5 56bd 9ecf 473d
000001e0: 7f47 343b 0d31 f13d e784 9a3d d3bc 8fbc
000001f0: 6078 7a3d 95c8 37bd debd 153e 4f3d 9bbd
00000200: ea19 4abd f024 4bbc b86c 8abd 480a e43c
00000210: f047 c7bc 6683 043e 246c e03d 68dc 43bd
00000220: 01d8 d0bc e3e8 10bd b131 b2bd 31aa 07bd
00000230: 7c65 123d 4d1a 7abd d72c 1cbd c5c9 7f3d
00000240: dfc7 ac3c 8325 eebc 0f35 3d3d f4ab dbbc
00000250: ea1d 4bbd b834 583d 5b9f 003d 9dd1 693d
00000260: 484a 8a3d 4384 b3bd 0447 8fbd 9e97 a63d
00000270: e29c 8cbd 57c2 4e3d 44be 2bbd 20db 06bd
00000280: 86f0 60ba 9eba ba3d c81f 20bd e841 a6bd
00000290: 88fe c1bd f14a 20bd 5d24 b6ba 6470 95bd
000002a0: 4589 a2bd f17a 5cbd 839a 33bd 5799 a63d
000002b0: 58f9 62bc 1f1a 733d 49ed b0bd 7b40 41bd
000002c0: 54ff ab3a c681 1a3d 3171 ef3d 1649 1abd
000002d0: cf78 863d b81e 923d 09d4 d3bd f732 adbd
000002e0: a2fd 68bc 449c a83d a1d4 9cbd 90e3 fa3d
000002f0: c1fc cf3c 004d a23c b4d1 1abe ca53 a83d
00000300: f9c6 3f3d 9b60 013e 134f 093c e7e0 85bd
00000310: d736 66bd cb87 8d3d 52bc 8cbd 700c a03b
00000320: f38f c3bc 4510 8e3c 525f ab3c 9001 95bc
00000330: f8d5 ebbd a658 b2bd 8a10 17be b6d4 d5bc
00000340: 1794 d33c f303 10bd 8173 49bd e46c bf3d
00000350: 3fb7 883c 0fd2 c4bc 11db 96bc c556 1b3c
00000360: 8faa e03d 175c e13c 72ac 8b3d 76eb 7b3c
00000370: b48b 3b3d 1b92 043e 6069 dabc 1c3e 9cbd
00000380: fd4c 423d 68ea 893d 06ff a53d c567 32bb
00000390: bb54 e5bd f683 ae3d b8c0 dcbd 5df5 9e3c
000003a0: b6a3 433c 86bb 80bd 6fea 81b9 2d32 153c
000003b0: 46cc d7bd a624 54bd ebe3 8e3d 61f8 f93c
000003c0: 6947 78bd 45a6 e73c 23dd 4a3d 9319 34bd
000003d0: cdec 473d 3af3 22bc 29b3 ba3d 3990 2fbc
000003e0: 149a a83b 90ed 08bc fd4d b9bd c487 e13d
000003f0: 4254 fbbc 7950 203c 2f9c 7c3c ff42 7a3d

bias f4 [64]
0.022311138 -0.050706085 0.04827838 -0.04763313 0.038841695 0.025263067 -0.031646967 -0.08365335
0.06992747 0.026166275 0.08622942 -0.053835485 -0.0655875 0.040578753 -0.08358449 -0.0844451
-0.0016257785 0.0069805416 -0.07129357 0.085867226 0.01111367 0.06478266 -0.04350474 -0.068570435
-0.07909048 -0.07036999 0.026530266 -0.02691138 -0.07435488 0.08182535 -0.06657006 0.07449242
-0.08100374 0.034835156 0.093941055 0.04511764 0.03468323 -0.042061046 -0.10007771 -0.01696099
0.021951184 -0.035584785 0.017039098 -0.0655062 0.0920447 0.056738466 0.1161982 -0.08584531
0.02626285 -0.06274003 0.04064121 0.081500486 0.0058326945 0.072800614 -0.0770704 0.095842734
0.014831732 0.0812472 0.017840305 -0.021503184 -0.047640465 0.018475551 -0.05196268 0.00025063806
00000000: d9c5 b63c 2fb1 4fbd 8dbf 453d f51a 43bd
00000010: 7818 1f3d 7ef4 ce3c 40a0 01bd 7352 abbd
00000020: 2236 8f3d a85a d63c 0d99 b03d 9982 5cbd
00000030: bd52 86bd e835 263d 582e abbd 8df1 acbd
00000040: 1318 d5ba 07bd e43b 5d02 92bd 28db af3d
00000050: 1c16 363c c5ac 843d 0732 32bd a86e 8cbd
00000060: 31fa a1bd 241e 90bd 0056 d93c 4175 dcbc
00000070: 5f47 98bd 0d94 a73d e255 88bd 7b8f 983d
00000080: 4ae5 a5bd 4faf 0e3d 2b64 c03d 46cd 383d
00000090: 0110 0e3d 3448 2cbd 8bf5 ccbd c6f1 8abc
000000a0: f8d2 b33c 5ac1 11bd 9495 8b3c 1d28 86bd
000000b0: ef81 bc3d 9866 683d 52f9 ed3d aacf afbd
000000c0: 3025 d73c d87d 80bd 6677 263d bae9 a63d
000000d0: 3020 bf3b 7d18 953d 16d7 9dbd 3249 c43d
000000e0: cb00 733c ef64 a63d d525 923c 7227 b0bc
000000f0: a622 43bd 0a5a 973c d2d6 54bd 1268 8339

weight f4 [32, 64]
0.030370224 -0.04410313 0.076182045 0.1275015 -0.08735788 -0.0050814743 -0.16653885 -0.103649974
0.04820953 -0.037646532 -0.06889195 -0.11884832 -0.05626733 -0.039067566 0.040751375 -0.07968449
-0.073746674 -0.021325413 -0.033878107 0.035526365 0.014747416 -0.015060197 -0.0045623737 0.024448885
0.061834652 -0.038223833 -0.07298127 -0.09441151 -0.023833651 0.11967361 -0.028500788 0.024012286
0.10028707 -0.047951464 0.106558286 -0.017609494 -0.22042005 -0.012788911 0.018808378 -0.002151828
-0.009063505 0.059380833 0.12211674 0.014130887 -0.092785165 0.19609869 0.093765736 0.06314877
-0.16179292 -0.07889026 -0.1480743 -0.021634623 -0.09979839 -0.12342307 -0.11883769 0.026541522
0.027029438 -0.07578969 0.06568861 0.079756714 0.09581474 0.06575845 0.07245693 -0.0023518961
0.039215554 -0.115928486 -0.09900786 0.14952667 0.12360488 0.038877252 0.024592234 0.1440775
-0.09470223 0.06260615 -0.13242958 0.091565855 0.05682898 -0.07860826 -0.124355264 -0.034660537
0.025374176 -0.014455224 -0.023674771 -0.11861347 -0.03176209 -0.018661253 -0.044490386 0.05633324
0.022460548 -0.0056890855 -0.059616655 -0.01994638 0.072000265 -0.13342106 0.014726282 0.0017382819
0.11299943 0.07576585 -0.08785897 0.08062904 -0.03979565 -0.021052504 0.1634969 0.14923418
0.15557207 0.095501944 0.041983593 0.014987469 -0.014678426 -0.028954891 -0.13082296 -0.07884099
0.09968354 0.059520185 -0.028572233 -0.043710444 -0.14844306 -0.049520213 0.15644594 -0.06461176
0.019185564 0.008356082 -0.13781284 -0.0811308 -0.10187921 -0.026336137 -0.06819915 -0.13998441
6.766126e-05 0.019692432 0.030080114 -0.032876175 -0.06730198 0.07285828 0.10803787 -0.07247435
0.020451121 -0.02329726 0.014422264 0.1212125 0.024183506 0.020588804 -0.003988894 0.02047565
-0.087343335 0.083426796 -0.06147395 0.10435181 -0.023140585 0.034234997 0.092356816 0.042201478
-0.05790648 -0.11200995 -0.13166857 -0.0026230346 0.020181518 -0.035331115 0.07800511 -0.03278935
0.013766805 0.005534534 0.012839362 -0.084682114 0.05577023 0.06938651 -0.08243738 -0.14148638
-0.053226314 0.05202503 -0.014348574 0.032647047 0.05408222 0.14521188 -0.0025874297 -0.06209118
0.0900071 -0.09193096 0.033098377 0.03136865 0.005699163 -0.09191827 -0.13684446 -0.018602943
-0.097281076 -0.0022479019 -0.029184848 0.12153554 -0.10540532 0.084623165 0.033546455 0.045143757
-0.025968311 0.008180665 0.11320738 -0.12135263 -0.12621209 -0.086840026 -0.0047735358 -0.11470597
-0.08841566 -0.0062992377 -0.043886088 0.18439752 0.12655532 -0.12076213 -0.055147212 -0.049200896
-0.0679783 -0.020005006 0.001165085 0.10502729 -0.10454973 0.033353273 0.1289539 -0.062396202
0.13471463 -0.009162876 -0.043765396 0.033236653 0.14498308 0.12156044 0.092251725 -0.088437036
0.072234295 -0.0006246992 -0.04455816 0.04085378 -0.013989686 0.09501392 0.08572742 0.052088253
-0.11973873 0.003171582 -0.002684421 0.17877874 -0.13225383 0.038597893 0.10475792 0.1578367
-0.14873898 0.11220634 0.02795109 0.086272195 0.12704444 -0.08078959 -0.08356162 0.13922848
0.027242241 -0.019210072 -0.08003548 0.08614664 0.025306977 0.12286632 0.06971984 0.16427782
00000000: faca f83c 7ca5 34bd 5505 9c3d c18f 023e
00000010: b0e8 b2bd 7f82 a6bb 2989 2abe 7046 d4bd
00000020: 5b77 453d 4033 1abd 3917 8dbd bf66 f3bd
00000030: 9278 66bd 5005 20bd eaea 263d 9f31 a3bd
00000040: 7f08 97bd a2b2 aebc c5c3 0abd 1884 113d
00000050: 259f 713c 0bbf 76bc f77f 95bb 0749 c83c
00000060: 5546 7d3d 9890 1cbd 3477 95bd d25a c1bd
00000070: ca3e c3bc 7017 f53d 7c7a e9bc 6ab5 c43c
00000080: 4f63 cd3d c168 44bd 3b3b da3d c941 90bc
00000090: cbb5 61be 9588 51bc 0714 9a3c af05 0dbb
000000a0: 187f 14bc 5139 733d 5718 fa3d 3c85 673c
000000b0: 2606 bebd 18ce 483e 4008 c03d 2454 813d
000000c0: 0bad 25be 3791 a1bd caa0 17be 183b b1bc
000000d0: 1963 ccbd 3cc5 fcbd 2d61 f3bd 9b6d d93c
000000e0: d76c dd3c a037 9bbd c087 863d 7d57 a33d
000000f0: 853a c43d 5eac 863d 4d64 943d 4522 1abb
00000100: 7da0 203d ea6b edbd a2c4 cabd 851d 193e
00000110: 8e24 fd3d c13d 1f3d a775 c93c 0d89 133e
00000120: 3ef3 c1bd a737 803d 9f9b 07be e186 bb3d
00000130: 81c5 683d 5efd a0bd f9ad febd 35f8 0dbd
00000140: 81dd cf3c 9bd5 6cbc 98f1 c1bc 9eeb f2bd
00000150: f718 02bd 7cdf 98bc 8d3b 36bd afbd 663d
00000160: 2fff b73c 826b babb 9830 74bd 9766 a3bc
00000170: e074 933d 889f 08be 8146 713c 10d7 e33a
00000180: 3f6c e73d 202b 9b3d 67ef b3bd d720 a53d
00000190: c300 23bd 4d76 acbc bb6b 273e d8d0 183e
000001a0: 494e 1f3e 8696 c33d fdf6 2b3d 008e 753c
000001b0: c87d 70bc cf32 edbc 74f6 05be 6377 a1bd
000001c0: e226 cc3d 70cb 733d 5110 eabc b909 33bd
000001d0: 7501 18be b5d5 4abd 5d33 203e 2c53 84bd
000001e0: 0b2b 9d3c f3e7 083c cf1e 0dbe e827 a6bd
000001f0: 0ca6 d0bd e2be d7bc ffab 8bbd 1358 0fbe
00000200: 5de5 8d38 0652 a13c 926a f63c 2ba9 06bd
00000210: 9fd5 89bd b936 953d f542 dd3d 6f6d 94bd
00000220: 1c89 a73c e5d9 bebc 5c4b 6c3c 423e f83d
00000230: 7d1c c63c daa9 a83c 45b5 82bb 8dbc a73c
00000240: 10e1 b2bd abdb aa3d 1ccc 7bbd 67b6 d53d
00000250: 5391 bdbc ff39 0c3d 9225 bd3d 75db 2c3d
00000260: 582f 6dbd 7965 e5bd 20d4 06be 38e7 2bbb
00000270: b653 a53c 5cb7 10bd 25c1 9f3d 204e 06bd
00000280: 2a8e 613c 095b b53b 305c 523c d16d adbd
00000290: 536f 643d 841a 8e3d eed4 a8bd cee1 10be
000002a0: d603 5abd 3318 553d 4816 6bbc e9b8 053d
000002b0: 5185 5d3d 6cb2 143e de91 29bb 5253 7ebd
000002c0: a455 b83d 4d46 bcbd 2a92 073d 6a7c 003d
000002d0: 0bc0 ba3b a53f bcbd f420 0cbe 3365 98bc
000002e0: 4d3b c7bd 8951 13bb 1015 efbc a0e7 f83d
000002f0: bfde d7bd e94e ad3d 0268 093d a9e8 383d
00000300: 7fbb d4bc 3208 063c 45d9 e73d ba87 f8bd
00000310: be3d 01be 2fd9 b1bd 526b 9cbb f7ea eabd
00000320: 4513 b5bd d669 cebb e6c1 33bd b4d2 3c3e
00000330: b897 013e 2352 f7bd 0be2 61bd e186 49bd
00000340: 3538 8bbd 8ae1 a3bc c4b5 983a 8c18 d73d
00000350: 2b1e d6bd 719d 083d 7e0c 043e 2993 7fbd
00000360: a2f2 093e e31f 16bc 5843 33bd 2823 083d
00000370: 7276 143e aef4 f83d 79ee bc3d 7a1e b5bd
00000380: 93ef 933d dbc2 23ba 9e82 36bd 4b56 273d
00000390: ff34 65bc a896 c23d dc91 af3d 7e5a 553d
000003a0: 9439 f5bd 51da 4f3b 1ced 2fbb c611 373e
000003b0: 8c6d 07be d318 1e3d 528b d63d f29f 213e
000003c0: 084f 18be 70cc e53d aff9 e43c 7aaf b03d
000003d0: f017 023e 0375 a5bd 5b22 abbd e991 0e3e
000003e0: 1f2b df3c 715e 9dbc a4e9 a3bd a66d b03d
000003f0: 9450 cf3c 56a1 fb3d 47c9 8e3d 7238 283e

bias f4 [32]
-0.112427026 0.082618356 0.007862384 -0.053528845 -0.030862646 0.1035472 0.08605128 -0.09775352
0.09061104 -0.059017513 0.08075636 -0.095574066 -0.10680701 0.0041910857 0.07211735 -0.09363557
-0.033763103 0.061141275 -0.007711222 -0.10370812 -0.021649098 -0.07794283 0.03355708 -0.050017383
0.11193079 -0.09223791 0.02181342 -0.09805377 0.034026235 0.14159034 0.10594092 -0.029888125
00000000: 2440 e6bd d033 a93d 3bd1 003c 1041 5bbd
00000010: a9d3 fcbc 8e10 d43d a73b b03d ff32 c8bd
00000020: 4892 b93d 59bc 71bd 9763 a53d 56bc c3bd
00000030: a2bd dabd 6055 893b 43b2 933d 01c4 bfbd
00000040: 2e4b 0abd 466f 7a3d 6bae fcbb ec64 d4bd
00000050: 7359 b1bc 7ea0 9fbd 2673 093d 07df 4cbd
00000060: f83b e53d 3be7 bcbd 0fb2 b23c 6ad0 c8bd
00000070: 185f 0b3d 0ffd 103e 8ef7 d83d f1d7 f4bc
