deploy/networks/go2/mk2/2000.pt (torch, 784904 bytes, 8 tensors)

weight f4 [512, 53]
0.006088634 -0.08556269 -0.167551 -0.26637697 0.018289918 0.06800919 -0.109702915 -0.19813375
0.28065667 -0.11767078 0.033732187 0.09489739 0.26805228 0.17114155 0.102605216 0.5704253
0.015019304 -0.19193959 -0.42314446 0.05216406 -0.008393724 0.17817074 0.4324264 0.17867264
0.049074568 0.38087076 0.049137145 0.024243472 -0.31831387 -0.011057395 -0.039287414 0.031710677
0.03868644 -0.0031851546 -0.10957315 0.06783075 -0.13803646 0.022627573 -0.006657663 0.06568465
0.09569981 -0.03486993 0.02344896 -0.08539061 0.011356624 -0.011367321 0.074781 -0.027297605
-0.12054322 -0.0885888 0.12931977 -0.03482005 0.049761713 -0.3366645 0.16174005 0.2436866
0.31344646 0.7725157 -0.047892023 -0.079914965 0.08903359 -0.35211337 -0.40495592 -0.10429053
-0.08199094 0.28956246 -0.22918977 -0.027550265 0.040720116 0.14407702 -0.13393563 -0.45796975
0.4339402 0.3940229 -0.70325303 0.29420972 0.046213813 -0.20425302 0.004081588 -0.006896769
-0.24474186 -0.1270653 -0.15820217 -0.16369791 0.3297597 0.29865137 0.10406667 -0.07448701
0.052864604 -0.07943462 0.03191392 -0.0024051333 0.01776679 0.06371512 0.02110721 -0.008746937
-0.0011479825 0.0027907486 0.003460054 0.027610129 -0.13521254 0.10200347 0.027217017 -0.21367994
-0.027501486 0.0044558914 -0.1302782 -0.3896424 -0.15783162 0.3187526 0.15784761 0.1805218
-0.018939355 0.06942114 0.3552978 -0.5768131 -0.27665025 -0.021022214 -0.010856434 0.34022406
0.08396807 0.3222817 0.18512179 -0.11850973 -0.37925518 0.22239847 0.33424667 -0.25918546
-0.28546062 -0.07571002 0.2718702 -0.1865497 -0.029346865 0.003033909 0.12077339 0.10968779
0.05085138 0.21261972 0.25298092 0.004807174 0.022663489 -0.06024695 0.0013723152 0.008317616
-0.06196524 -0.036563918 -0.042586267 -0.0027398106 -0.016380979 -0.010163023 0.018060692 -0.0909391
-0.034844223 0.19761114 -0.06112028 -0.083553776 -0.026203275 -0.0118465135 0.07687446 -0.08045876
-0.19589283 -0.0539521 -0.4912815 0.45290557 0.1723323 0.032433562 -0.10571481 0.4534087
-0.17387791 -0.19410546 -0.13454932 0.07549557 -0.10911583 0.20628577 -0.66112936 -0.30255002
-0.27927125 0.09810825 -0.2404552 -0.029174214 -0.13816454 -0.22536302 -0.1982791 0.16950585
0.10751783 0.017269013 -0.77926767 -0.3717999 0.16501126 0.37247586 -0.05792116 -0.14887255
0.0517882 0.022487113 0.020898586 -0.07608123 0.014534813 0.048170198 0.049255516 0.05412518
0.006270204 -0.003325675 -0.053256843 -0.0049310024 -0.09421568 0.009064368 0.06605109 -0.058587123
-0.012561424 -0.031733684 0.14270975 -0.054479115 0.20524769 0.29522413 0.21320541 0.38159874
-0.08444847 0.058261123 -0.05633318 -0.12620702 -0.12794507 0.20611851 -0.0509815 -0.4400856
-0.11751709 -0.04362768 -0.012077407 0.6005842 0.26418698 0.24179773 0.24850099 -0.3104656
-0.027778294 0.2979539 -0.1968263 -0.086936444 -0.11660473 0.6025101 0.30754727 0.3138307
0.27156356 -0.055191547 0.2451457 -0.3612312 0.20023905 -0.034667857 0.05581456 0.12662822
0.006649205 -0.061698075 -0.022591677 -0.13283019 0.029785331 0.0118829375 -0.08415631 0.069427036
00000000: 2a83 c73b 7e3b afbd 7d92 2bbe 9062 88be
00000010: bdd4 953c 6748 8b3d ecab e0bd 93e3 4abe
00000020: 3bb2 8f3e 61fd f0bd c32a 0a3d 9059 c23d
00000030: 263e 893e bb3f 2f3e af22 d23d 6407 123f
00000040: 8713 763c d08b 44be 64a6 d8be fba9 553d
00000050: d585 09bc 6472 363e fe66 dd3e f6f5 363e
00000060: 6a02 493d 7e01 c33e 0844 493d 3f9a c63c
00000070: 09fa a2be 132a 35bc d7eb 20bd 0ee3 013d
00000080: ac75 1e3d 07be 50bb e367 e0bd d9ea 8a3d
00000090: 6e59 0dbe 765d b93c 8628 dabb ac85 863d
000000a0: 43fe c33d c6d3 0ebd 0918 c03c 46e1 aebd
000000b0: 2211 3a3c 003e 3abc c826 993d 3a9f dfbc
000000c0: 5ddf f6bd 0b6e b5bd 676c 043e 789f 0ebd
000000d0: f0d2 4b3d 4a5f acbe 2f9f 253e fb88 793e
000000e0: 0e7c a03e 97c3 453f 6d2a 44bd 75aa a3bd
000000f0: 3e57 b63d 3448 b4be 6256 cfbe 4696 d5bd
00000100: deea a7bd 8841 943e b9b0 6abe 18b1 e1bc
00000110: 23ca 263d ed88 133e 6c26 09be 037b eabe
00000120: 692d de3e 5fbd c93e 6408 34bf a8a2 963e
00000130: b24a 3d3d b427 51be d7be 853b 4bfe e1bb
00000140: 9c9d 7abe 681d 02be c0ff 21be 6da0 27be
00000150: 43d6 a83e d5e8 983e e820 d53d a58c 98bd
00000160: 8e88 583d 9eae a2bd 2cb8 023d 719f 1dbb
00000170: a98b 913c 137d 823d 07e9 ac3c 504f 0fbc
00000180: e777 96ba fee4 363b 13c2 623b a32e e23c
00000190: 2875 0abe 32e7 d03d 39f6 de3c eace 5abe
000001a0: cc4a e1bc ba02 923b a667 05be 357f c7be
000001b0: 9d9e 21be 8a33 a33e cea2 213e b5da 383e
000001c0: b526 9bbc ac2c 8e3d 98e9 b53e 06aa 13bf
000001d0: 1aa5 8dbe c736 acbc 2fdf 31bc d931 ae3e
000001e0: 74f7 ab3d 1b02 a53e 9190 3d3e 3bb5 f2bd
000001f0: bc2d c2be 6dbc 633e 6122 ab3e f5b3 84be
00000200: e527 92be db0d 9bbd 9232 8b3e e206 3fbe
00000210: d668 f0bc 8cd4 463b 0a58 f73d fea3 e03d
00000220: 8949 503d fcb8 593e b786 813e 8085 9d3b
00000230: c8a8 b93c 81c5 76bd 42df b33a 9c46 083c
00000240: 43cf 7dbd 0cc4 15bd f06e 2ebd 658e 33bb
00000250: 6731 86bc cf82 26bc 04f4 933c 473e babd
00000260: d1b8 0ebd 935a 4a3e 4259 7abd 3e1e abbd
00000270: 40a8 d6bc e117 42bc 5b70 9d3d 90c7 a4bd
00000280: 2198 48be e1fc 5cbd 4089 fbbe 3de3 e73e
00000290: e177 303e 0ed9 043d 0281 d8bd 2f25 e83e
000002a0: 0d0d 32be 95c3 46be 4cc7 09be 6c9d 9a3d
000002b0: 1f78 dfbd 943c 533e c63f 29bf d6e7 9abe
000002c0: a4fc 8ebe faec c83d e339 76be c3fe eebc
000002d0: 017b 0dbe 90c5 66be ad09 4bbe f192 2d3e
000002e0: 4f32 dc3d bf77 8d3c 167e 47bf 8e5c bebe
000002f0: b6f8 283e 28b5 be3e bd3e 6dbd 0c72 18be
00000300: dd1f 543d e536 b83c 8333 ab3c 7ad0 9bbd
00000310: 6d23 6e3c 1d4e 453d 27c0 493d 5db2 5d3d
00000320: 4976 cd3b 91f3 59bb d923 5abd 3f94 a1bb
00000330: 27f4 c0bd b782 143c cb45 873d 0df9 6fbd
00000340: 6ece 4dbc 2efb 01bd 8122 123e 7e25 5fbd
00000350: 732c 523e 9e27 973e 8552 5a3e e960 c33e
00000360: 52f3 acbd 37a3 6e3d 9fbd 66bd 6a3c 01be
00000370: 0804 03be bb10 533e fad1 50bd e652 e1be
00000380: cdac f0bd f0b2 32bd 51e0 45bc e3bf 193f
00000390: 8443 873e d399 773e 0b77 7e3e 59f5 9ebe
000003a0: 4e8f e3bc 6a8d 983e d58c 49be bc0b b2bd
000003b0: 76ce eebd 1a3e 1a3f d676 9d3e 6bae a03e
000003c0: 610a 8b3e 8810 62bd 7907 7b3e 4cf3 b8be
000003d0: 770b 4d3e e2ff 0dbd cf9d 643d d4aa 013e
000003e0: 93e1 d93b 1fb7 7cbd 2e12 b9bc a304 08be
000003f0: 5e00 f43c a7b0 423c 255a acbd c32f 8e3d

bias f4 [512]
-0.09221165 -0.20907289 0.093893886 -0.055570196 0.08053639 0.061301943 0.04085972 -0.06738162
0.011477347 -0.11607855 -0.16260296 0.028523969 -0.15133248 -0.13022846 -0.08883629 -0.128171
-0.1456848 0.08066437 0.014494306 -0.061288647 -0.040547747 0.013234478 -0.06572639 -0.14400579
0.053328007 -0.07610043 -0.09141738 -0.019200986 -0.14980203 0.085987486 -0.06969256 0.09757998
-0.0005193768 -0.031801645 0.070530236 0.0067178947 0.13162063 0.08016115 -0.0032735271 -0.08353586
-0.052954778 -0.061695494 0.08237462 -0.07643043 0.06261947 -0.08928145 -0.22407158 0.006120542
-0.098297335 -0.092566855 -0.02490637 -0.1533112 0.12802753 -0.02199481 0.07944637 0.10730822
-0.07711173 -0.070102066 0.11827942 0.13036981 0.15465905 -0.11774127 -0.059899546 0.07763192
0.07009595 -0.073898256 -0.13135654 -0.13658924 0.07271599 0.010554801 -0.20151396 0.015325697
-0.0754041 -0.063350394 -0.05400849 -0.04792872 -0.14615011 0.093961455 -0.21545541 -0.19345526
0.11980674 0.044076968 -0.0315807 -0.08346445 0.0880439 -0.009919035 -0.12555915 -0.04368408
0.08864049 -0.1376418 -0.037563488 -0.1107469 0.090600275 -0.14938082 -0.04159413 0.19555198
0.069255695 0.19675946 0.017674727 -0.09502922 0.0894707 0.10184818 -0.075602815 -0.016129274
0.08685317 -0.087749206 0.01675015 -0.0011943138 0.06844155 -0.07773306 0.11180806 -0.11615486
0.014494407 -0.2078876 -0.011149705 0.12356169 0.10244499 -0.006471863 0.1562403 0.07035108
-0.24956496 0.009609252 0.091951735 0.063959636 -0.0008657942 -0.10758836 -0.075456984 -0.09586902
-0.02636498 0.08477183 -0.0069860215 -0.021448093 -0.060655743 -0.14072473 0.035916127 -0.017422402
-0.16647144 -0.14029834 -0.055098478 -0.12952775 0.118939355 0.100216 0.017637217 -0.15374911
0.056940652 -0.15408213 0.01130689 -0.08801813 -0.15844147 0.10145859 0.06559114 0.078731865
0.080494 -0.07614789 -0.01147725 -0.013558809 -0.072536066 -0.11839143 -0.07443048 0.006185218
0.033754986 0.002276895 -0.032896876 0.122030534 0.08885042 -0.092199594 -0.15835814 -0.060243297
0.090773694 -0.08336501 -0.19187717 -0.076600626 -0.023777034 -0.15999785 -0.08683423 -0.11168358
0.02712586 0.15235382 -0.044311907 0.06292109 -0.12327488 0.05199136 0.07128543 0.030546129
-0.00735701 0.06321946 -0.095068224 0.031249823 0.06772096 -0.02830165 0.056209937 0.05208748
0.008752806 -0.051524002 -0.15690818 -0.18069135 -0.13216756 -0.16248544 0.019687174 0.092783675
-0.081674546 0.061657794 -0.0239363 -0.066088974 0.04697111 -0.073287964 -0.07479163 -0.022664115
-0.14378542 -0.061713908 0.06680296 -0.19431111 -0.13738386 -0.0466821 -0.11286116 -0.11933983
0.101444654 0.0034091054 -0.13944203 -0.09658103 -0.041622266 0.08038035 -0.13694708 0.061217554
-0.08819348 -0.16642973 0.013061347 -0.05282361 0.11526717 -0.069012575 -0.03320996 0.112445846
0.009772912 -0.13309693 0.1439424 -0.09369866 -0.10910883 0.026185757 -0.09213385 -0.22755161
0.074258104 0.107919775 0.09596341 0.10790414 -0.011761764 -0.11800041 -0.060394216 0.14954482
0.025682375 0.06516848 -0.08379086 0.008607517 0.047570582 -0.019249666 -0.09155318 0.020744266
00000000: 76d9 bcbd 3417 56be 704b c03d 939d 63bd
00000010: 43f0 a43d bf17 7b3d 865c 273d 60ff 89bd
00000020: 7c0b 3c3c 97ba edbd 6481 26be 19ab e93c
00000030: e7f6 1abe 9c5a 05be cdef b5bd 423f 03be
00000040: 652e 15be 5c33 a53d 8779 6d3c ce09 7bbd
00000050: 6515 26bd 6dd5 583c 8f9b 86bd 4176 13be
00000060: 786e 5a3d 8bda 9bbd 0939 bbbd 634b 9dbc
00000070: b465 19be 351a b03d f9ba 8ebd 03d8 c73d
00000080: c926 08ba 7142 02bd 2872 903d c921 dc3b
00000090: 8fc7 063e 872b a43d ac88 56bb d914 abbd
000000a0: 1ce7 58bd 6ab4 7cbd 06b4 a83d 8f87 9cbd
000000b0: a33e 803d 31d9 b6bd 0573 65be d48e c83b
000000c0: 1d50 c9bd b193 bdbd 7208 ccbc 9cfd 1cbe
000000d0: a619 033e 762e b4bc c7b4 a23d 69c4 db3d
000000e0: c1ec 9dbd ac91 8fbd 7b3c f23d aa7f 053e
000000f0: f15e 1e3e 5622 f1bd 3a59 75bd 7cfd 9e3d
00000100: 778e 8f3d f857 97bd 5482 06be 0dde 0bbe
00000110: 1fec 943d 0bee 2c3c ad59 4ebe a218 7b3c
00000120: 776d 9abd dabd 81bd 0238 5dbd e850 44bd
00000130: 60a8 15be dd6e c03d 58a0 5cbe 2319 46be
00000140: 3c5d f53d 0d8a 343d c45a 01bd 69ef aabd
00000150: 5c50 b43d 7383 22bc 9492 00be 14ee 32bd
00000160: 2589 b53d f9f1 0cbe 2cdc 19bd 45cf e2bd
00000170: a38c b93d 49f7 18be 9b5e 2abd c73e 483e
00000180: eed5 8d3d 507b 493e 97ca 903c ae9e c2bd
00000190: 6a3c b73d c795 d03d a6d5 9abd 8a21 84bc
000001a0: 13e0 b13d dbb5 b3bd 9c37 893c 858a 9cba
000001b0: 152b 8c3d 8332 9fbd a0fb e43d 99e2 edbd
000001c0: f379 6d3c 7de0 54be 41ad 36bc e90d fd3d
000001d0: aece d13d ec11 d4bb 75fd 1f3e 3a14 903d
000001e0: f58d 7fbe 2070 1d3c 3151 bc3d 45fd 823d
000001f0: 77f6 62ba 4957 dcbd 3189 9abd fa56 c4bd
00000200: 5ffb d7bc da9c ad3d ffea e4bb e9b3 afbc
00000210: 2872 78bd 251a 10be ca1c 133d 6db9 8ebc
00000220: 7d77 2abe 5eaa 0fbe f1ae 61bd eca2 04be
00000230: 7a96 f33d 0c3e cd3d ed7b 903c 6870 1dbe
00000240: 9a3a 693d b5c7 1dbe 8940 393c d942 b4bd
00000250: 7b3e 22be 85c9 cf3d a654 863d 2c3e a13d
00000260: 0ada a43d 6df3 9bbd 130b 3cbc c425 5ebc
00000270: ca8d 94bd 3577 f2bd 026f 98bd 5fad ca3b
00000280: ab42 0a3d f637 153b e0be 06bd 25eb f93d
00000290: 36f7 b53d 24d3 bcbd a328 22be adc1 76bd
000002a0: 8fe7 b93d 46bb aabd 737b 44be cae0 9cbd
000002b0: 0ec8 c2bc 7ad6 23be 25d6 b1bd 5cba e4bd
000002c0: 0d37 de3c a402 1c3e 6780 35bd c6dc 803d
000002d0: 8a77 fcbd e4f4 543d 18fe 913d e03b fa3c
000002e0: 1313 f1bb 3479 813d 21b3 c2bd a1ff ff3c
000002f0: 49b1 8a3d ddd8 e7bc 643c 663d ae59 553d
00000300: ee67 0f3c d50a 53bd 8aac 20be 2707 39be
00000310: ef56 07be 9562 26be ff46 a13c 5e05 be3d
00000320: fc44 a7bd e28c 7c3d 0f16 c4bc a859 87bd
00000330: c764 403d 0018 96bd 5b2c 99bd 18aa b9bc
00000340: 7c3c 13be b9c7 7cbd fecf 883d 7ef9 46be
00000350: 5bae 0cbe bb35 3fbd c023 e7bd 7168 f4bd
00000360: 37c2 cf3d 4c6b 5f3b e4c9 0ebe 46cc c5bd
00000370: 1c7c 2abd 749e a43d db3b 0cbe 42bf 7a3d
00000380: c99e b4bd 8e6c 2abe 43ff 553c 925d 58bd
00000390: 3211 ec3d 7756 8dbd 2b07 08bd 024a e63d
000003a0: 901e 203c 904a 08be a365 133e 15e5 bfbd
000003b0: 7374 dfbd 8383 d63c acb0 bcbd 4a03 69be
000003c0: a214 983d 0b05 dd3d 7788 c43d d9fc dc3d
000003d0: 6ab4 40bc 33aa f1bd ed5f 77bd 4722 193e
000003e0: d863 d23c 0d77 853d 8b9a abbd 8b06 0d3c
000003f0: 5fd9 423d 7ab1 9dbc 3c80 bbbd e1ef a93c

weight f4 [256, 512]
0.037261385 -0.02536847 -0.06900161 0.106443346 0.048485845 0.03793306 -0.030201431 -0.11284844
-0.01013967 0.13280834 0.11736589 -0.20030725 0.20001568 0.06652086 -0.14789514 0.029513542
0.13916078 0.024287587 -0.11028805 -0.04216045 0.03919536 -0.081747755 -0.1508275 -0.05329983
-0.24369518 0.051417522 -0.011612645 -0.1496586 0.1302255 -0.116086 0.14336833 -0.051682025
0.117352374 -0.022418313 -0.10622273 0.040712535 -0.0026124534 0.11514161 0.062389854 -0.02715526
0.062606595 -0.23101334 -0.07434538 0.022633953 -0.014527754 0.11327725 0.09463512 0.09285792
0.079469986 -0.021941204 -0.04967782 0.08469251 -0.098477714 0.03637663 -0.12642252 -0.077767305
0.07240841 -0.19291078 -0.0864362 -0.055204924 -0.21373238 -0.022299951 0.045241263 0.10976514
-0.082013525 0.067162775 -0.14582807 -0.061910324 0.12089792 0.10859895 0.013574006 -0.07853014
0.034253668 0.041044082 0.23603714 -0.062956244 0.186283 -0.19487649 0.0027747203 -0.040452313
0.024907885 0.12486127 0.065893 -0.06813876 -0.051377475 -0.08053894 -0.012686566 -0.10677572
0.020989656 0.24129452 0.23100476 0.065470345 0.010278136 0.110895395 0.15763175 -0.03682697
0.12842803 0.037992373 -0.05968342 0.054836147 -0.099699385 -0.038842123 0.054239713 0.029600821
0.18148862 0.13456517 0.015103325 0.05373185 -0.07229727 0.24450341 -0.03572083 -0.118408844
-0.15561564 0.08763009 0.047662947 -0.08686935 0.012034564 -0.21444957 -0.006115522 -0.08418082
0.13347174 -0.037604585 -0.22776721 -0.1718844 -0.0218563 0.06502733 0.08909072 0.1063945
-0.015581356 0.01162563 -0.025828384 0.057205137 -0.08633888 0.059468266 -0.02820607 0.07865012
0.11731358 0.019152759 0.035172794 0.04116652 -0.1439951 0.1033509 -0.09945601 0.16615096
0.12630436 -0.03490896 -0.077977404 0.20796028 0.060102567 -0.27037248 0.041148495 -0.0826964
-0.1346498 0.09566679 -0.11638479 0.10673069 0.024057185 0.12063713 -0.13563702 -0.09628035
0.0669656 0.06365605 0.10007974 -0.12614456 -0.0005282419 -0.21664208 0.2942945 0.022418637
0.14743048 0.052418515 0.017543858 -0.04217397 -0.09945762 0.05517228 -0.025738608 0.029094761
0.008429582 -0.20843048 -0.10538712 -0.028905023 0.16689783 0.03123691 0.07636749 -0.014552671
0.094183445 -0.09430747 0.054054875 -0.22738059 -0.013171912 0.3081519 -0.011394476 0.065481886
-0.033732124 -0.082406975 -0.0163661 0.11760245 0.009152571 -0.051746167 -0.004267701 0.15707703
-0.1795737 -0.04972696 -0.252086 -0.07290539 -0.0048758485 0.027156759 0.116611935 0.06305944
0.07721384 0.11569896 0.08849156 0.12922014 -0.05491989 -0.047497462 -0.061993785 0.038886104
0.1698418 -0.090453155 0.023067337 0.07849942 0.124431975 0.093195096 0.15437326 -0.06742874
0.042244155 0.13801801 -0.007215131 -0.11241987 -0.21960123 -0.15347911 0.08212633 -0.033066086
-0.14563222 0.023800654 -0.117093146 -0.07908156 0.29184616 -0.0074323616 0.019609652 0.07947816
-0.120109156 -0.06359253 0.045027617 0.18718556 -0.0049832705 0.027649708 0.08113394 0.1805985
0.12265709 -0.08931699 0.01568275 -0.011202594 -0.048147235 0.043791972 0.057258394 -0.1316759
00000000: 659f 183d 8ad1 cfbc b750 8dbd f8fe d93d
00000010: 1899 463d b25f 1b3d fe68 f7bc 151d e7bd
00000020: dc20 26bc e9fe 073e 875d f03d 581d 4dbe
00000030: e9d0 4c3e 173c 883d d371 17be 62c6 f13c
00000040: 2a80 0e3e c3f6 c63c b3de e1bd 70b0 2cbd
00000050: 508b 203d 5e6b a7bd 8672 1abe ec50 5abd
00000060: 3b8b 79be 2e9b 523d f742 3ebc 1b40 19be
00000070: d559 053e 7fbe edbd 26cf 123e 88b0 53bd
00000080: 7156 f03d 9ca6 b7bc 4d8b d9bd 30c2 263d
00000090: b235 2bbb 5dcf eb3d 818c 7f3d b574 debc
000000a0: e337 803d c38e 6cbe 6442 98bd d76a b93c
000000b0: d105 6ebc e7fd e73d 0fd0 c13d 4b2c be3d
000000c0: 29c1 a23d 0abe b3bc f87a 4bbd 4473 ad3d
000000d0: afae c9bd a9ff 143d e874 01be 7744 9fbd
000000e0: dc4a 943d 678a 45be 7605 b1bd 8f1e 62bd
000000f0: a9dc 5abe 63ae b6bc e74e 393d 8ccc e03d
00000100: b5f6 a7bd a38c 893d f453 15be ae95 7dbd
00000110: 5499 f73d 2069 de3d 8265 5e3c 69d4 a0bd
00000120: 934d 0c3d d71d 283d b8b3 713e 34ef 80bd
00000130: f9c0 3e3e b48d 47be 15d8 353b 53b1 25bd
00000140: 9f0b cc3c 44b7 ff3d e9f2 863d 568c 8bbd
00000150: 3071 52bd 9af1 a4bd 51db 4fbc 3bad dabd
00000160: 80f2 ab3c e915 773e 838c 6c3e 5115 863d
00000170: a065 283c 201d e33d 386a 213e e0d7 16bd
00000180: a382 033e e49d 1b3d 9a76 74bd de9b 603d
00000190: 312f ccbd eb18 1fbd 762a 5e3d 6c7d f23c
000001a0: 27d8 393e 74cb 093e f073 773c ee15 5c3d
000001b0: 9710 94bd 1a5f 7a3e 0150 12bd 5680 f2bd
000001c0: b559 1fbe 6877 b33d 393a 433d 8fe8 b1bd
000001d0: 9f2c 453c ab98 5bbe b764 c8bb fe66 acbd
000001e0: d1ac 083e 4407 1abd cf3b 69be 7702 30be
000001f0: fc0b b3bc 0c2d 853d 3275 b63d 5ce5 d93d
00000200: f248 7fbc 6d79 3e3c 0c96 d3bc ef4f 6a3d
00000210: 70d2 b0bd ff94 733d 6b10 e7bc 5013 a13d
00000220: 1a42 f03d 3fe6 9c3c 5911 103d 3a9e 283d
00000230: 7473 13be a3a9 d33d 98af cbbd 7a23 2a3e
00000240: ee55 013e b3fc 0ebd 9eb2 9fbd 8af3 543e
00000250: 1c2e 763d 436e 8abe 538b 283d bb5c a9bd
00000260: a3e1 09be f3ec c33d 265b eebd 9f95 da3d
00000270: 9313 c53c 9a10 f73d 6ee4 0abe a22e c5bd
00000280: 4325 893d 1a5e 823d 9bf6 cc3d 0a2c 01be
00000290: b779 0aba 6cd7 5dbe c5ad 963e 4aa7 b73c
000002a0: 04f8 163e ccb4 563d 23b8 8f3c 9dbe 2cbd
000002b0: 70b0 cbbd 54fc 613d c6d9 d2bc 2358 ee3c
000002c0: 3b1c 0a3c cd6e 55be 34d5 d7bd 3aca ecbc
000002d0: 44e7 2a3e 8ce4 ff3c 8f66 9c3d 546e 6ebc
000002e0: 40e3 c03d 4624 c1bd a568 5d3d 75d6 68be
000002f0: 01cf 57bc 16c6 9d3e e5af 3abc 5e1b 863d
00000300: b22a 0abd fdc4 a8bd 3312 86bc 8ed9 f03d
00000310: aaf4 153c caf3 53bd 12d8 8bbb cdd8 203e
00000320: 2be2 37be 7fae 4bbd 6b11 81be 6c4f 95bd
00000330: 95c5 9fbb da77 de3c 3dd2 ee3d 4f25 813d
00000340: 4a22 9e3d 94f3 ec3d 103b b53d 4952 043e
00000350: aef3 60bd b38c 42bd 32ed 7dbd 0947 1f3d
00000360: 02eb 2d3e 813f b9bd b6f7 bc3c 4ec4 a03d
00000370: 31d6 fe3d 12dd be3d 0614 1e3e 1418 8abd
00000380: 3508 2d3d 9854 0d3e e86c ecbb 643c e6bd
00000390: 25df 60be a129 1dbe d931 a83d 4e70 07bd
000003a0: 9d20 15be 97f9 c23c 88ce efbd 83f5 a1bd
000003b0: dc6c 953e 2b8b f3bb 6ca4 a03c 72c5 a23d
000003c0: cafb f5bd cd3c 82bd e16e 383d 92ad 3f3e
000003d0: b44a a3bb a481 e23c 8d29 a63d d0ee 383e
000003e0: a433 fb3d d3eb b6bd 1c79 803c 168b 37bc
000003f0: 0936 45bd 365f 333d c787 6a3d 0cd6 06be

bias f4 [256]
-0.15516381 0.012281701 -0.16723801 -0.16320044 -0.03668937 -0.011729078 -0.098950334 -0.07081584
-0.14091827 -0.063958354 -0.07046998 0.05557746 -0.039174434 0.029063595 -0.036343355 -0.1224939
-0.08248286 -0.074964546 -0.064310536 0.025373345 -0.056735933 0.06488543 -0.17054816 -0.049877018
-0.13708797 -0.04653376 -0.12671956 -0.087715074 0.06483927 -0.1604848 -0.11513575 -0.20269887
-0.029893681 -0.075254545 -0.053708605 -0.10925759 -0.016135575 -0.035871085 0.0038460759 -0.05469422
-0.09479068 -0.10838826 -0.13948295 -0.25133935 -0.12076897 -0.063795425 0.022499504 -0.19273037
-0.13528195 -0.06456738 -0.10737042 -0.16384807 -0.045477524 -0.18182078 -0.032101043 -0.10051922
-0.108198725 0.035866335 -0.08697717 -0.11337688 -0.14738224 -0.047174897 -0.029055126 -0.059501767
-0.1698431 -0.043152135 -0.1311975 -0.18860926 -0.07822636 -0.11498522 0.040574364 -0.09410177
-0.024132155 -0.07452211 -0.071242906 -0.04843593 -0.025271865 -0.033686638 0.029317882 -0.12976463
-0.17443977 -0.009727533 -0.011082483 0.009492742 0.002831463 -0.17104313 -0.03420481 -0.122391924
-0.05052006 -0.11803194 -0.22392306 -0.20829576 0.016744243 -0.10185809 -0.0038784873 -0.11798804
-0.17514327 0.012006422 -0.09477272 0.014506742 -0.04184408 -0.12980257 -0.02766653 -0.13794251
-0.022881603 -0.031036252 0.01674679 -0.071028374 -0.21794003 -0.03150959 -0.1182132 -0.023506656
0.03437245 -0.17521255 -0.094187655 -0.068479106 -0.023492448 -0.093221985 -0.067288555 -0.17274153
-0.06653548 -0.069974005 -0.13034403 -0.029306598 -0.04755778 -0.054021932 -0.057956982 -0.11485309
-0.09600457 -0.13807683 -0.038257882 -0.06530129 0.017051097 -0.04394408 -0.12360216 0.022337738
-0.1802831 -0.06472114 0.014230958 -0.1093227 0.012318569 -0.06475756 -0.13977328 -0.10481575
-0.20833953 -0.15548031 -0.12974669 -0.08795624 -0.09112613 -0.06967296 -0.055197336 -0.11923497
-0.04478172 -0.061744306 -0.020752184 -0.006681769 -0.23245995 -0.019979633 -0.1620474 -0.045393262
-0.04064979 -0.12338046 -0.096900955 -0.120524876 -0.1272282 -0.039984375 -0.11746346 -0.053623017
0.0265943 -0.12801038 -0.0132251745 -0.03871425 -0.035649233 -0.088226706 -0.14077319 -0.0732366
-0.11444842 -0.08871517 -0.12717026 0.0048230486 -0.12271399 -0.108285286 -0.1503306 -0.16269885
0.013465263 -0.014154078 -0.17115141 -0.106066294 -0.12057862 0.02760391 -0.029052671 -0.099340774
-0.08707333 -0.06557622 -0.0882321 -0.0969139 -0.11957693 -0.11343716 0.06588573 -0.09282414
0.011695807 0.013016156 -0.17126353 -0.08988635 -0.03644207 -0.08894337 -0.121754445 -0.18260725
-0.05488994 0.027536666 -0.07989186 -0.11530184 -0.038656607 -0.07472258 -0.047162212 -0.16272712
-0.17753911 -0.044053406 0.048129834 -0.0829534 -0.048552074 -0.045972694 -0.10266995 0.059750706
-0.017524585 -0.088157706 -0.13875845 -0.17141083 -0.017407212 -0.040400174 -0.19553044 -0.00455625
-0.047776084 -0.06626813 -0.022381611 -0.17674914 -0.12339889 0.006358787 -0.06621218 -0.11933498
-0.034459792 -0.05019442 -0.17187442 -0.10603015 -0.066356294 3.495259e-05 -0.077946246 -0.21704327
-0.1520252 -0.08893672 -0.025884258 -0.14584835 -0.054870665 -0.0022102485 -0.03646414 -0.26285774
00000000: 43e3 1ebe 3039 493c 7140 2bbe 041e 27be
00000010: 9847 16bd 522b 40bc 79a6 cabd e507 91bd
00000020: e14c 10be 99fc 82bd 9152 90bd 31a5 633d
00000030: 5f75 20bd c716 ee3c c5dc 14bd 15de fabd
00000040: c6ec a8bd 0387 99bd 3eb5 83bd c3db cf3c
00000050: f063 68bd a7e2 843d 2da4 2ebe d84b 4cbd
00000060: ca60 0cbe 2f9a 3ebd c6c2 01be f6a3 b3bd
00000070: 74ca 843d 2156 24be 4bcc ebbd 4b90 4fbe
00000080: 98e3 f4bc 0e1f 9abd 8efd 5bbd 71c2 dfbd
00000090: c12e 84bc 8fed 12bd 720e 7c3b 0c07 60bd
000000a0: 9e21 c2bd aafa ddbd 9ed4 0ebe 8daf 80be
000000b0: b955 f7bd 2da7 82bd e150 b83c 1c5b 45be
000000c0: 5a87 0abe e73b 84bd 06e5 dbbd cac7 27be
000000d0: a446 3abd 3a2f 3abe 627c 03bd 05dd cdbd
000000e0: 4b97 ddbd 94e8 123d 1621 b2bd 2332 e8bd
000000f0: 5feb 16be 773a 41bd 0405 eebc 20b8 73bd
00000100: 59eb 2dbe 4bc0 30bd a358 06be c922 41be
00000110: 2435 a0bd 5f7d ebbd 4e31 263d 6eb8 c0bd
00000120: ccb0 c5bc 0c9f 98bd cde7 91bd c164 46bd
00000130: f106 cfbc 00fb 09bd 0e2c f03c 05e1 04be
00000140: 57a0 32be 3b60 1fbc 4e93 35bc 7287 1b3c
00000150: 1190 393b ee25 2fbe 581a 0cbd 9ea8 fabd
00000160: 1fee 4ebd bbba f1bd 164c 65be 7c4b 55be
00000170: 392b 893c f99a d0bd 382e 7ebb b7a3 f1bd
00000180: c258 33be 95b6 443c 3318 c2bd b0ad 6d3c
00000190: b364 2bbd f7ea 04be eba4 e2bc cd40 0dbe
000001a0: 3372 bbbc bd3f febc 9030 893c 5377 91bd
000001b0: ac2b 5fbe 3310 01bd c319 f2bd 0891 c0bc
000001c0: 20ca 0c3d eb6a 33be 75e5 c0bd c63e 8cbd
000001d0: 3c73 c0bc 2beb bebd 95ce 89bd 28e3 30be
000001e0: c143 88bd 884e 8fbd e878 05be 6414 f0bc
000001f0: f2cb 42bd 1a46 5dbd 4d64 6dbd 1938 ebbd
00000200: 0b9e c4bd 0364 0dbe 4cb4 1cbd afbc 85bd
00000210: beae 8b3c b5fe 33bd 2123 fdbd a2fd b63c
00000220: 229c 38be 848c 84bd f728 693c 94e4 dfbd
00000230: d3d3 493c 9d9f 84bd ba20 0fbe a4a9 d6bd
00000240: f556 55be 3b36 1fbe 51dc 04be 6722 b4bd
00000250: 56a0 babd b2b0 8ebd 9a16 62bd 7731 f4bd
00000260: 096d 37bd 99e7 7cbd 7c00 aabc bef2 dabb
00000270: fb09 6ebe 54ac a3bc c1ef 25be 49ee 39bd
00000280: 6580 26bd e5ae fcbd 0274 c6bd bfd5 f6bd
00000290: 1c48 02be a8c6 23bd af90 f0bd cfa3 5bbd
000002a0: 4adc d93c 2715 03be 67ae 58bc d592 1ebd
000002b0: ee04 12bd 34b0 b4bd d926 10be 12fd 95bd
000002c0: ef63 eabd 4db0 b5bd ec38 02be aa0a 9e3b
000002d0: 7951 fbbd adc4 ddbd 44f0 19be 879a 26be
000002e0: 689d 5c3c 82e6 67bc 5142 2fbe 4939 d9bd
000002f0: ecf1 f6bd 9821 e23c deff edbc 2d73 cbbd
00000300: 8153 b2bd d34c 86bd 08b3 b4bd cb7a c6bd
00000310: c0e4 f4bd be51 e8bd 19ef 863d 951a bebd
00000320: c59f 3f3c b741 553c b55f 2fbe 5616 b8bd
00000330: 4844 15bd f127 b6bd 655a f9bd 65fd 3abe
00000340: 46d4 60bd 9394 e13c 589e a3bd 5f23 ecbd
00000350: 6456 1ebd 2708 99bd 2a2d 41bd f0a1 26be
00000360: d0cc 35be 5871 34bd ca23 453d 79e3 a9bd
00000370: 8ade 46bd dd4d 3cbd 9f44 d2bd 28bd 743d
00000380: b88f 8fbc 078c b4bd b216 0ebe 5286 2fbe
00000390: 9299 8ebc a77a 25bd 2239 48be 984c 95bb
000003a0: dbb0 43bd 96b7 87bd a459 b7bc bafd 34be
000003b0: 8fb8 fcbd 5f5d d03b 409a 87bd e665 f4bd
000003c0: b625 0dbd aa98 4dbd d9ff 2fbe 5626 d9bd
000003d0: cfe5 87bd 0f9a 1238 48a2 9fbd 9740 5ebe
000003e0: 7eac 1bbe 7424 b6bd 390b d4bc 4559 15be
000003f0: 10c0 60bd d1d9 10bb 6c5b 15bd 4a95 86be

weight f4 [128, 256]
-0.028175956 0.02249516 -0.054271605 0.014070559 -0.048644826 0.003710726 0.070984915 0.027278043
0.06385547 -0.021687342 0.0011582982 -0.042421173 0.08843851 -0.062959164 0.099708386 -0.04379925
0.053469617 -0.03209333 -0.10286 -0.10488436 -0.045675762 0.07357904 -0.03688674 -0.06427706
0.17257528 -0.10621133 0.08999325 0.06048652 0.0019976015 0.13430566 0.013431797 -0.033889193
0.029989988 0.09972479 0.032101434 -0.026631922 -0.02133987 -0.018939085 0.033278793 -0.013771491
0.036139775 0.040907342 0.07175423 0.0015431836 -0.010905972 -0.03390351 0.012933373 0.030507144
-0.008350989 -0.0138561325 -0.07729597 -0.008484441 -0.09004277 0.010802804 -0.05042879 -0.0380383
-0.09717528 -0.0117502995 0.023741808 -0.048729375 -0.021191029 -0.060757402 -0.14638513 0.008996179
-0.08208472 0.097389884 -0.06508912 -0.017016197 0.07724183 -0.06500772 -0.122629665 -0.0543079
-0.09215623 0.05208959 -0.042226132 -0.060124878 -0.014403004 0.047357462 0.056394298 -0.026954336
-0.07984442 0.12584879 -0.07556931 -0.009303791 0.0029599322 0.017786287 0.011390649 -0.044803675
-0.019677911 0.016470885 0.028163802 0.113600224 -0.020810286 -0.102232575 -0.0028082721 0.12156932
0.090221874 -0.018283855 0.01972287 0.01625392 -0.13284107 0.080107816 -0.0084255645 0.026636709
-0.042648897 -0.035268996 -0.10568061 -0.09163991 0.10123441 0.08195536 0.073798224 0.0459381
-0.04214456 0.037920125 0.010249515 -0.106306255 -0.025648968 -0.031522736 -0.067850135 -0.10008215
0.0036568989 0.049302317 -0.039024383 -0.039171994 -0.01232793 -0.013305922 0.038947564 0.06983991
0.13265996 0.057201803 -0.0846017 -0.0009639177 0.047489256 -0.07989337 0.037103776 0.073683515
0.115807585 0.059050675 -0.0073823277 -0.11054382 -0.010486516 -0.011145469 -0.09384464 0.00593535
-0.11288303 0.09264195 0.019901935 -0.15578857 -0.0245709 0.11941362 -0.013994416 -0.010460485
0.11489414 -0.001076283 0.13003944 0.0043489058 -0.049437564 -0.08464413 0.003690526 -0.12011279
-0.04510643 0.0587628 0.06437783 -0.1523878 -0.107892655 0.066280164 -0.006748333 -0.0076413
-0.106745034 -0.050587997 -0.046800043 0.09734295 0.08303105 -0.027725734 -0.05655423 0.033347946
0.051064983 0.048727043 -0.05793587 0.08553967 -0.09949709 -0.07334799 -0.08054481 0.08271892
-0.05502346 0.10627531 0.095269844 0.00529027 0.052113004 -0.021443266 0.03537833 -0.06039785
-0.040296394 -0.11303721 0.0026683698 -0.06373684 0.0008566901 -0.066570275 -0.12105695 0.033213135
0.058736175 0.004352608 0.040795524 -0.03644208 0.011746402 -0.07156639 -0.16915071 -0.017186971
0.037499245 -0.11301455 0.011055189 -0.027499473 -0.0032042833 0.0023961957 0.14251652 -0.005087928
-0.07084658 -0.011680226 -0.07303665 -0.035216555 0.038534593 -0.14723726 -0.005889272 -0.04802297
-0.13062721 0.030031465 0.025315363 0.0030920715 -0.04861643 0.10339247 0.09284877 -0.1252298
-0.02225858 0.039177295 -0.08712763 0.049906828 -0.020041548 0.14262153 -0.096773796 -0.19742078
0.027341867 -0.008344927 -0.14403169 -0.02297702 -0.13314588 -0.04631827 0.019465322 -0.10637469
-0.1351831 0.010578387 -0.09446534 -0.03660111 -0.07765603 -0.04656947 0.0011715633 -0.08429485
00000000: 43d1 e6bc c547 b83c e74b 5ebd 3488 663c
00000010: cc3f 47bd a72f 733b 8a60 913d 3476 df3c
00000020: a8c6 823d a7a9 b1bc 0ad2 973a d3c1 2dbd
00000030: 401f b53d bcf0 80bd e933 cc3d d866 33bd
00000040: f502 5b3d 4c74 03bd 44a8 d2bd 9dcd d6bd
00000050: 8216 3bbd 9cb0 963d 8d16 17bd b1a3 83bd
00000060: 93b7 303e 5385 d9bd 624e b83d b7c0 773d
00000070: 31ea 023b 6c87 093e 0a11 5c3c 65cf 0abd
00000080: 90ad f53c 833c cc3d cb7c 033d 302b dabc
00000090: f3d0 aebc 2426 9bbc 584f 083d d2a1 61bc
000000a0: 4d07 143d 758e 273d e2f3 923d a644 ca3a
000000b0: f6ae 32bc 68de 0abd 80e6 533c 1eea f93c
000000c0: 96d2 08bc d504 63bc 594d 9ebd 5302 0bbc
000000d0: 5868 b8bd 3efe 303c 6b8e 4ebd 0cce 1bbd
000000e0: d503 c7bd 5484 40bc 2e7e c23c 7498 47bd
000000f0: cf98 adbc c1dc 78bd fce5 15be b664 133c
00000100: 091c a8bd 5974 c73d 724d 85bd 8d65 8bbc
00000110: f730 9e3d c422 85bd 4325 fbbd f671 5ebd
00000120: 68bc bcbd e55b 553d 4ff5 2cbd 8145 76bd
00000130: 94fa 6bbc e6f9 413d b5fd 663d 57cf dcbc
00000140: 7985 a3bd 81de 003e 15c4 9abd ee6e 18bc
00000150: 6cfb 413b 8cb4 913c d89f 3a3c 0f84 37bd
00000160: 9233 a1bc f3ed 863c c6b7 e63c 3ca7 e83d
00000170: 557a aabc 505f d1bd fd0a 38bb 56f9 f83d
00000180: 3fc6 b83d 06c8 95bc db91 a13c f126 853c
00000190: 7d07 08be 910f a43d 610b 0abc 3a35 da3c
000001a0: 9cb0 2ebd 3976 10bd 136f d8bd b5ad bbbd
000001b0: fd53 cf3d 36d8 a73d 8623 973d 9729 3c3d
000001c0: c69f 2cbd 2252 1b3d 95ed 273c 18b7 d9bd
000001d0: c91d d2bc fc1d 01bd 03f5 8abd dff7 ccbd
000001e0: 95a8 6f3b 3af1 493d 08d8 1fbd d072 20bd
000001f0: 16fb 49bc 1501 5abc 7b87 1f3d 3a08 8f3d
00000200: 03d8 073e 704c 6a3d a843 adbd 6caf 7cba
00000210: 1884 423d 239f a3bd 21fa 173d 62e7 963d
00000220: 872c ed3d 1fdf 713d 74e7 f1bb cc64 e2bd
00000230: a3cf 2bbc 7c9b 36bc 9e31 c0bd 537d c23b
00000240: 382f e7bd 10bb bd3d 6209 a33c 0a87 1fbe
00000250: e948 c9bc 218f f43d d648 65bc 7462 2bbc
00000260: 9e4d eb3d 1112 8dba 0f29 053e 4481 8e3b
00000270: 0b7f 4abd e759 adbd c0dc 713b b2fd f5bd
00000280: 85c1 38bd 43b1 703d 86d8 833d 8c0b 1cbe
00000290: d3f6 dcbd e5bd 873d 1f21 ddbb df63 fabb
000002a0: 249d dabd 5c35 4fbd 67b1 3fbd be5b c73d
000002b0: 2f0c aa3d 1421 e3bc 69a5 67bd db97 083d
000002c0: 8429 513d 0296 473d 2a4e 6dbd 6c2f af3d
000002d0: 21c5 cbbd 7937 96bd adf4 a4bd 8a68 a93d
000002e0: 4860 61bd dfa6 d93d d61c c33d 005a ad3b
000002f0: 7274 553d caa9 afbc dee8 103d bc63 77bd
00000300: d50d 25bd 0e80 e7bd d1df 2e3b 7688 82bd
00000310: 8093 603a ff55 88bd b5ec f7bd 7f0a 083d
00000320: 5895 703d 53a0 8e3b 3519 273d 4a44 15bd
00000330: fb73 403c 6691 92bd d835 2dbe b1cb 8cbc
00000340: cf98 193d 2c74 e7bd d320 353c 9346 e1bc
00000350: f4fe 51bb 7e09 1d3b daef 113e a2b8 a6bb
00000360: 0318 91bd 6b5e 3fbc 3d94 95bd 3c3f 10bd
00000370: 73d6 1d3d 5dc5 16be cbfa c0bb bcb3 44bd
00000380: 24c3 05be 8c04 f63c 2a62 cf3c 5aa4 4a3b
00000390: 0622 47bd 6ebf d33d 7f27 be3d 3e3c 00be
000003a0: a057 b6bc 5f78 203d f96f b2bd 1a6b 4c3d
000003b0: 2c2e a4bc 610b 123e 5731 c6bd ac28 4abe
000003c0: 0dfc df3c 29b9 08bc 0b7d 13be 4e3a bcbc
000003d0: 6557 08be 3ab8 3dbd bd75 9f3c f9da d9bd
000003e0: 706d 0abe f950 2d3c 0b77 c1bd 0ceb 15bd
000003f0: 200a 9fbd a1bf 3ebd 248f 993a c7a2 acbd

bias f4 [128]
-0.12245329 -0.058958534 -0.04169867 0.018317161 -0.17917125 -0.072479285 -0.03358823 -0.014495146
-0.08964418 0.014516232 -0.0606967 0.020732563 -0.056998163 -0.08412909 -0.055169858 -0.09185763
-0.14261444 -0.05445686 -0.098645724 -0.05988027 0.006132668 -0.06378545 0.02945543 -0.04372812
-0.13025206 -0.07409067 -0.038122647 -0.14930251 -0.0012929923 -0.1085063 -0.030539053 -0.08091023
-0.10359383 -0.13036238 -0.07888715 -0.2153156 -0.0027070036 -0.083602116 -0.0011983345 -0.20843445
-0.044369444 -0.0054571102 -0.13905112 -0.08869884 -0.0205953 -0.07451972 -0.07676449 -0.07587153
-0.082037255 0.00568454 -0.07266204 -0.06400316 -0.1594532 -0.18362284 -0.07227044 0.02386364
-0.16876905 -0.07842092 0.019249268 -0.05687142 -0.090623505 -0.016918097 -0.054343604 -0.10295185
-0.047268637 -0.05176098 -0.11614335 -0.09519876 0.022574265 -0.099017374 -0.15546162 -0.11708342
-0.103103094 -0.10996842 -0.062396422 -0.01761333 -0.014243114 -0.11821166 -0.122008234 -0.05079936
-0.13685334 -0.059602384 -0.024961142 -0.022706106 -0.16057803 -0.046989433 0.024940277 -0.05616329
-0.059371505 -0.10054486 -0.082895786 -0.060296174 0.012771058 -0.03471879 0.04782475 -0.022624206
-0.106211655 -0.038457494 0.016376186 -0.06780392 0.010681542 -0.2121252 -0.09140164 -0.029099513
-0.02689007 -0.09798219 -0.12842873 -0.066603914 0.013590165 -0.07967141 -0.02896151 -0.09573553
-0.09547484 -0.0076969713 0.0032867019 -0.16350745 -0.0797372 -0.06443246 -0.074668206 -0.20297311
-0.05925724 -0.07746703 -0.059363417 -0.042886097 -0.04957655 -0.08341683 0.011206966 -0.06571893
00000000: cac8 fabd 817e 71bd 39cc 2abd df0d 963c
00000010: ab78 37be 0570 94bd d093 09bd 0d7d 6dbc
00000020: 5e97 b7bd 7dd5 6d3c 1a9d 78bd 56d7 a93c
00000030: e876 69bd df4b acbd caf9 61bd da1f bcbd
00000040: 8509 12be 280e 5fbd c506 cabd 0445 75bd
00000050: 8cf4 c83b f2a1 82bd 844c f13c 421c 33bd
00000060: cc60 05be d9bc 97bd 7e26 1cbd c2e2 18be
00000070: 9f79 a9ba 8d38 debd 092d fabc 43b4 a5bd
00000080: 0029 d4bd b77d 05be 968f a1bd b17b 5cbe
00000090: fc67 31bb 9637 abbd 6f11 9dba d76f 55be
000000a0: bcbc 35bd 8fd1 b2bb 6b63 0ebe bda7 b5bd
000000b0: 79b7 a8bc cc9d 98bd b336 9dbd 8862 9bbd
000000c0: 2603 a8bd 6145 ba3b d6cf 94bd 1714 83bd
000000d0: b347 23be a007 3cbe 8602 94bd ae7d c33c
000000e0: cbd1 2cbe 269b a0bd a4b0 9d3c 02f2 68bd
000000f0: d198 b9bd d297 8abc 6697 5ebd 6bd8 d2bd
00000100: c29c 41bd 5203 54bd 91dc edbd 91f7 c2bd
00000110: aaed b83c 9fc9 cabd 5531 1fbe 6fc9 efbd
00000120: b727 d3bd 1f37 e1bd 6493 7fbd d549 90bc
00000130: f35b 69bc f418 f2bd 74df f9bd fd12 50bd
00000140: 4823 0cbe a121 74bd 4f7b ccbc 2802 babc
00000150: 916e 24be fe77 40bd 8d4f cc3c 7a0b 66bd
00000160: 892f 73bd 77ea cdbd 44c5 a9bd 1ff9 76bd
00000170: b33d 513c 4a35 0ebd e3e3 433d 6656 b9bc
00000180: 7f85 d9bd 9b85 1dbd 5a27 863c c8dc 8abd
00000190: a201 2f3c 5937 59be c830 bbbd 1a62 eebc
000001a0: 9048 dcbc e3aa c8bd d282 03be a267 88bd
000001b0: 49a9 5e3c c42a a3bd b040 edbc fd10 c4bd
000001c0: 5088 c3bd e036 fcbb b565 573b 7f6e 27be
000001d0: 424d a3bd 2af5 83bd a5eb 98bd 2fd8 4fbe
000001e0: b8b7 72bd 09a7 9ebd 0e27 73bd 55a9 2fbd
000001f0: c810 4bbd 71d6 aabd 6c9d 373c a597 86bd

weight f4 [12, 128]
0.018031258 -0.0077250395 -0.003450289 0.040772963 -0.021689665 0.02564906 0.0015431064 -0.053507145
0.037169132 -0.039921537 0.00897801 0.02486943 0.020210473 0.042488866 -0.003801288 0.056783933
-0.0011434066 0.015079149 -0.027748412 -0.022886109 0.04167157 -0.0067970827 -0.02448317 -0.0111041665
-0.010144455 -0.094216615 0.017549178 -0.024376232 -0.033161674 -0.028609166 0.02649508 0.03247898
0.018222477 0.090719365 -0.033922743 0.13278237 -0.014322735 0.016553445 -0.061638337 0.02713808
0.006158441 0.0018582926 0.024030864 0.025047136 -0.04205568 -0.0050847824 0.05664656 0.009054023
-0.088359356 0.008553996 -0.028315 0.021137947 -0.011808555 -0.0076536713 0.05571506 0.0021362382
0.005091222 -0.030880192 0.00465448 -0.0024056246 -0.018630555 0.03892257 0.005503018 0.027732028
-0.0123624075 -0.003991107 -0.015738603 -0.045597352 -0.019350046 -0.030466458 -0.057493534 0.026733594
-0.036675293 0.020073058 -0.022680141 0.007331162 -0.026216958 0.039140075 0.021533098 -0.012064667
0.07744885 -0.046961654 0.008090388 -0.030188594 0.019261234 0.03662482 0.018656854 -0.058114078
-0.05077694 0.034610752 7.680494e-05 -0.022761997 -0.0066841957 -0.003886193 0.02654389 -0.05407846
-0.026437774 -0.021803988 -0.02366582 -0.0024309747 0.06711894 0.054819554 -0.006803481 0.02827555
-0.008478435 -0.041518014 -0.036631368 -0.039903358 0.02583526 0.019033264 0.040903483 0.025590751
0.016725946 0.026785197 0.09736958 -0.046988945 0.0031183197 -0.03729199 -0.06836476 -0.024525668
-0.0030697053 0.020139236 0.08958234 0.0109027065 0.030062392 0.014285148 -0.009724867 0.02562247
0.0025890274 0.06611192 -0.12907596 -0.004053392 0.107593015 -0.033398926 0.014441358 0.0012124397
-0.014487632 -0.10832271 0.04427244 0.004267989 0.03138158 0.0032034146 0.03137864 0.034922387
0.013647903 0.017836701 -0.102763444 0.124564104 -0.04628118 0.06297098 -0.03487289 -0.07241708
0.01255683 0.07014972 0.03695635 0.03383275 0.027440809 0.020352239 -0.04111732 -0.10070724
0.11329037 0.07792932 0.07272931 0.044617333 -0.007205221 -0.037782665 -0.04697924 0.090058
-0.04059703 -0.051684577 0.05182358 0.072969384 -0.042158984 0.034936942 0.017663423 -0.005639537
0.001846022 -0.063995816 0.03610653 -0.003802903 0.00025606973 -0.064029 0.05003596 -0.008336506
-0.04115765 0.020494107 0.016627498 0.101878665 -0.023627339 0.0043256995 -0.018774884 0.026083201
0.031182958 -0.0060770116 -0.014371374 -0.041009877 -0.08186516 0.05050037 -0.010333935 0.0056273276
-5.9284386e-05 -0.008805431 0.03012188 -0.037015267 0.08563415 0.040498007 -0.013061926 -0.068139434
0.0054545887 -0.00674683 -0.06081161 0.0019102534 0.07349333 0.023829611 -0.04966651 -0.049734663
-0.017792936 -0.01066739 -0.070334785 0.009513206 0.08789179 -0.04834493 -0.052764613 -0.00012972018
0.06602333 -0.026107065 -0.0054669776 -0.018584514 -0.031904664 0.0014797831 0.042633228 -0.19826719
0.029167116 -0.039459728 -0.00037013323 0.0748467 -0.06695204 0.02178085 0.0011107486 0.080664985
0.02838865 0.07915043 -0.055196375 -0.024915088 -0.057105985 0.05852382 -0.020705303 0.10460345
-0.0039994214 0.069474794 -0.021168599 0.027298236 -0.0031850107 0.049006127 -0.023142725 0.011626498
00000000: 4ab6 933c 5422 fdbb 3e1e 62bb 8d01 273d
00000010: 86ae b1bc fa1d d23c 0f42 ca3a 4f2a 5bbd
00000020: a93e 183d c484 23bd 8118 133c faba cb3c
00000030: 6f90 a53c ce08 2e3d 081f 79bb 4596 683d
00000040: 5cde 95ba 890e 773c a350 e3bc a67b bbbc
00000050: cfaf 2a3d 10ba debb ee90 c8bc 40ee 35bc
00000060: ee34 26bc a4f4 c0bd 4bc3 8f3c aab0 c7bc
00000070: 89d4 07bd c55d eabc 360c d93c ae08 053d
00000080: 4e47 953c 13cb b93d 93f2 0abd 1af8 073e
00000090: e8a9 6abc 179b 873c 7b78 7cbd ae50 de3c
000000a0: bfcc c93b f491 f33a 60dc c43c a72f cd3c
000000b0: 9442 2cbd 3f9e a6bb 3906 683d 5357 143c
000000c0: c0f5 b4bd 0f26 0c3c dcf4 e7bc 7d29 ad3c
000000d0: ab78 41bc a6cb fabb 7a35 643d 2100 0c3b
000000e0: 44d4 a63b 75f8 fcbc 9c84 983b afa7 1dbb
000000f0: 1b9f 98bc 466d 1f3d a952 b43b 472e e33c
00000100: b28b 4abc d5c7 82bb 3eee 80bc 4ac4 3abd
00000110: fd83 9ebc cb94 f9bc 577e 6bbd 6900 db3c
00000120: d538 16bd 4170 a43c b4cb b9bc 3f3a f03b
00000130: f2c4 d6bc 5851 203d 2e66 b03c e2aa 45bc
00000140: 819d 9e3d dd5a 40bd 8c8d 043c 124e f7bc
00000150: bcc9 9d3c e803 163d 42d6 983c 0709 6ebd
00000160: 7bfb 4fbd 01c4 0d3d 5712 a138 5e77 babc
00000170: 1907 dbbb 80af 7ebb 9272 d93c 6081 5dbd
00000180: 0894 d8bc 479e b2bc d2de c1bc fd50 1fbb
00000190: a875 893d 788a 603d bcef debb 20a2 e73c
000001a0: 22e9 0abc cb0e 2abd c60a 16bd b471 23bd
000001b0: 78a4 d33c a6eb 9b3c 698a 273d b2a3 d13c
000001c0: da04 893c a16c db3c b469 c73d 7b77 40bd
000001d0: b95c 4c3b 7cbf 18bd d302 8cbd 0eea c8bc
000001e0: 1c2d 49bb 0afb a43c f276 b73d 44a1 323c
000001f0: 6845 f63c 410c 6a3c 0c55 1fbc 37e6 d13c
00000200: acac 293b b065 873d 7d2c 04be 51d2 84bb
00000210: ba59 dc3d 50cd 08bd 729b 6c3c baea 9e3a
00000220: 885d 6dbc 4cd8 ddbd 0557 353d 7dda 8b3b
00000230: f989 003d 61f0 513b e486 003d c70a 0f3d
00000240: 749b 5f3c 461e 923c a475 d2bd 771b ff3d
00000250: 5691 3dbd eef6 803d e0d6 0ebd 684f 94bd
00000260: 2abb 4d3c a8aa 8f3d 8b5f 173d 3694 0a3d
00000270: 8ccb e03c bdb9 a63c a36a 28bd 993f cebd
00000280: c804 e83d 6899 9f3d 1bf3 943d aac0 363d
00000290: c619 ecbb ffc1 1abd 4e6d 40bd 5470 b83d
000002a0: 1249 26bd 35b3 53bd f644 543d f970 953d
000002b0: e6ae 2cbd 0a1a 0f3d e2b2 903c ddcb b8bb
000002c0: 38f6 f13a 3d10 83bd 71e4 133d 203a 79bb
000002d0: 1941 8639 a321 83bd 82f2 4c3d d795 08bc
000002e0: ed94 28bd 42e3 a73c 6436 883c c3a5 d03d
000002f0: 1f8e c1bc 99be 8d3b c9cd 99bc 70ac d53c
00000300: 6773 ff3c ab21 c7bb e975 6bbc f9f9 27bd
00000310: eca8 a7bd 7ad9 4e3d aa4f 29bc 7265 b83b
00000320: 20a8 78b8 a844 10bc 29c2 f63c 529d 17bd
00000330: f560 af3d 3de1 253d b001 56bc b08c 8bbd
00000340: 68bc b23b 8314 ddbb 9815 79bd 7861 fa3a
00000350: ac83 963d 5136 c33c 1c6f 4bbd 93b6 4bbd
00000360: 7ec2 91bc 47c6 2ebc af0b 90bd 47dd 1b3c
00000370: 9c00 b43d 5505 46bd b51f 58bd 7f05 08b9
00000380: 3d37 873d 7cde d5bc 5524 b3bb 8d3e 98bc
00000390: 77ae 02bd 48f5 c13a 2ea0 2e3d 8e06 4bbe
000003a0: e0ef ee3c 86a0 21bd 710e c2b9 3a49 993d
000003b0: 271e 89bd c16d b23c 8a96 913a af33 a53d
000003c0: 508f e83c 9f19 a23d 9815 62bd ba1a ccbc
000003d0: f7e7 69bd acb6 6f3d 2b9e a9bc 553a d63d
000003e0: 940d 83bb cd48 8e3d c569 adbc 8da0 df3c
000003f0: 9dbb 50bb a6ba 483d d095 bdbc 117d 3e3c

bias f4 [12]
-0.049388997 0.031022916 -0.08330553 -0.060006734 0.012470768 -0.036252577 -0.099265434 0.16411823
0.14578561 0.06976622 0.041127175 0.046066355
00000000: 1e4c 4abd c523 fe3c 179c aabd 9fc9 75bd
00000010: 3152 4c3c 957d 14bd ad4b cbbd 9c0e 283e
00000020: d348 153e 98e1 8e3d f874 283d 13b0 3c3d
