deploy/networks/go2/go2_adaptation_rough/encoder_40k.pt (torch, 37631 bytes, 8 tensors)

weight f4 [30, 53]
0	0x3da905b4	0.08253041
1	0x3d873db4	0.06603566
2	0x3ef8e323	0.48610792
3	0xbebe3037	-0.3714616
4	0x3e10b89d	0.14132924
5	0x3d84e19f	0.06488346
6	0xbe09a9f8	-0.13443744
7	0x3cf8e768	0.03038378
8	0x3e920f43	0.2852727
9	0xbd6dfef6	-0.058104478
10	0x3e367db4	0.1782139
11	0x3dff758a	0.12473591
12	0x3e44428d	0.19166012
13	0x3e704607	0.23464213
14	0xbdf33300	-0.11874962
15	0xbe75bab6	-0.23997006
16	0xbc53bbfe	-0.012923239
17	0xbdaf6fb7	-0.0856623
18	0xbd8121fe	-0.063053116
19	0x3daac943	0.08339169
20	0x3e293607	0.16524516
21	0xbea15166	-0.31507415
22	0x3db44cb5	0.08803693
23	0xbb232d9d	-0.0024899014
24	0x3c9019e4	0.01759047
25	0x3da70250	0.08154738
26	0x3daa36d6	0.083112404
27	0xbf158ef5	-0.5842126
28	0xbda558a5	-0.08073548
29	0xbdd6dd54	-0.10491434
30	0xbe8c58f6	-0.27411622
31	0xbd95031e	-0.07275985
32	0x3d2f57af	0.04280823
33	0xbd1c8fc9	-0.03822306
34	0xbca454d7	-0.020059986
35	0x3e43ca78	0.19120204
36	0xbd519aea	-0.05117313
37	0xb9294716	-0.00016143578
38	0x3c840518	0.01611571
39	0x3dc0105a	0.09378119
40	0x3cfc0746	0.030765187
41	0x3d970b92	0.07375254
42	0x3c1099a1	0.0088256905
43	0x3d9328fc	0.071855515
44	0xbba1fb64	-0.004943298
45	0x3d765ce4	0.06014718
46	0x3d0444ae	0.03229206
47	0xbe146027	-0.14489804
48	0x3c43d891	0.011953489
49	0x3c17f9b0	0.009275839
50	0x3d57ca61	0.052683238
51	0xbd8d0474	-0.06885615
52	0x3db615d8	0.08890885
53	0xbeb1cb90	-0.34725618
54	0xbdee0f40	-0.116240025
55	0xbe14a59c	-0.145163
56	0x3dd3eb02	0.103475586
57	0xbe683c1c	-0.2267918
58	0x3cf9198a	0.030407686
59	0xbd38cdab	-0.045118015
60	0xbcfa686e	-0.030567374
61	0x3d8c8119	0.06860561
62	0x3e6bb7d0	0.23019338
63	0x3d3b04f9	0.04565904
64	0x3d9fe5bd	0.07807491
65	0xbdb105e3	-0.08643701
66	0xbe719396	-0.23591456
67	0x3e91a192	0.2844358
68	0xbe9cfd75	-0.30662122
69	0xbe4eb3a5	-0.20185716
70	0xbc923e19	-0.017851876
71	0x3e4be1cc	0.19910353
72	0x3db6174c	0.08891162
73	0xbe11b727	-0.14230023
74	0x3e1312ad	0.14362593
75	0xbd16f841	-0.036857847
76	0x3d1b26bd	0.03787874
77	0xbe3e0aa4	-0.18558747
78	0xbded9198	-0.116000354
79	0x3d1ae53f	0.037816282
80	0xbf80b547	-1.0055321
81	0xbe21cc5c	-0.15800613
82	0xbe2a86db	-0.16653006
83	0x3de12525	0.10993413
84	0x3bed78a3	0.007247047
85	0x3b6674c4	0.0035164813
86	0xbdcab1d3	-0.098971985
87	0xbd9ada69	-0.0756119
88	0x3d3bb454	0.04582627
89	0xbe156469	-0.14589085
90	0x3d5364e5	0.051609892
91	0xbdb388f2	-0.087663546
92	0x3d9edc4c	0.07756862
93	0xb9c35347	-0.00037255345
94	0xbe28cbba	-0.16483966
95	0x3d5e761a	0.05431185
96	0xbaa169d9	-0.001231487
97	0x3cc9a469	0.02461453
98	0xbabca2f3	-0.0014391824
99	0xbd342b66	-0.0439867
100	0xbe69cb0b	-0.22831361
101	0x3d30bbf2	0.04314799
102	0x3dd90ccb	0.10598143
103	0xbd160989	-0.036630187
104	0xbe3eadc6	-0.18620977
105	0x3aee7235	0.0018191995
106	0x3e6c1749	0.23055758
107	0xbee84b3a	-0.45369893
108	0x3e81a644	0.25322163
109	0x3f2f2563	0.6841642
110	0xbca3028d	-0.019898677
111	0x3e47a086	0.19494829
112	0xbc6698cb	-0.014074515
113	0x3d5a7b25	0.053340096
114	0x3ed9cccd	0.42539063
115	0xbd60383d	-0.054741133
116	0x3ea368b5	0.31915823
117	0x3eefe261	0.468524
118	0x3e1e0045	0.1542979
119	0x3f2b01e1	0.6679974
120	0x3edeae9f	0.434926
121	0xbefab58d	-0.48966637
122	0xbe6bd24a	-0.23029438
123	0x3db1e7f6	0.08686821
124	0xbd73cbd1	-0.059520546
125	0xbe1cb096	-0.15301737
126	0x3ddb4db5	0.10708181
127	0xbe1da164	-0.15393597
128	0xbe78f968	-0.24313891
129	0xbdae7203	-0.0851784
130	0x3f0060b6	0.5014757
131	0x3d78d51a	0.060750104
132	0x3e7252c5	0.23664387
133	0xbcd3513f	-0.025795577
134	0xbef41712	-0.4767385
135	0xbe8b03b6	-0.2715127
136	0xbcec41ff	-0.028840063
137	0xbef64ff0	-0.48107862
138	0xbddd0052	-0.10791077
139	0x3da52ace	0.08064805
140	0xbd7ac944	-0.061227098
141	0xbda5d268	-0.080967724
142	0x3b6902f8	0.0035554748
143	0xbdf57e19	-0.11986942
144	0x3cdb2641	0.02675164
145	0x3dc9144c	0.098183244
146	0xbd90cde3	-0.0707052
147	0xbe09dcd7	-0.1346315
148	0xbe1d49ed	-0.15360232
149	0xbc9971e6	-0.018731069
150	0xbe1f5553	-0.15559892
151	0x3d2ce9ac	0.042215034
152	0xbc2d3f38	-0.010574155
153	0xbe043b63	-0.12913279
154	0x3d12ca02	0.03583718
155	0x3ba8dd1d	0.005153312
156	0xbdb36461	-0.0875938
157	0x3a9b41d1	0.0011845176
158	0x3ca5e407	0.020250333
159	0xbe202087	-0.15637408
160	0xbec063cd	-0.37576142
161	0xbe891321	-0.26772407
162	0xbce3e682	-0.027819876
163	0xbde4fc22	-0.11180903
164	0x3ee6582a	0.4498914
165	0xbcf6184c	-0.030040883
166	0xbcb07578	-0.021540388
167	0x3eb328e7	0.34992144
168	0x3c8be9da	0.017079283
169	0xbdd886c2	-0.10572578
170	0x3e61f2d0	0.22065282
171	0xbda82c87	-0.08211618
172	0x3e59caa4	0.21268708
173	0xbdd59326	-0.10428457
174	0x3d26f565	0.04076137
175	0xbe96ee17	-0.29478523
176	0x3ea29d83	0.31760797
177	0xbe1d6879	-0.15371884
178	0xbdee38ea	-0.11631949
179	0x3bd8529d	0.006601645
180	0x3e9fc00c	0.31201208
181	0xbe0e1c01	-0.1387787
182	0xb9f2c9f8	-0.00046308315
183	0xbf05b2ad	-0.5222576
184	0x3e6b47da	0.22976628
185	0xbdf2f20c	-0.11862573
186	0x3e5a86e4	0.21340519
187	0xbf079919	-0.52967983
188	0xbe94eff5	-0.29089323
189	0xbddb120a	-0.106968
190	0xbda6a988	-0.08137804
191	0x3d91ea42	0.07124759
192	0xbc24cc4e	-0.010058476
193	0xbbd5e57a	-0.0065276
194	0xbdabdca9	-0.08391697
195	0xbc1e616f	-0.009666785
196	0x3cb1687d	0.02165627
197	0x3dbadaa5	0.091237344
198	0x3ddc3a0a	0.107532576
199	0xbd877850	-0.06614745
200	0xbe2bb39a	-0.16767731
201	0x3d043c28	0.032283932
202	0xbbd386bc	-0.0064552706
203	0xbc7c5c4f	-0.015402867
204	0x3d5989e8	0.053110033
205	0x3da65e97	0.0812351
206	0x3dd02eaf	0.10165154
207	0x3d635c26	0.0555078
208	0x3dc33f76	0.095335886
209	0xbcfb843d	-0.030702705
210	0x3dbb2d2c	0.09139475
211	0x3dbb28f0	0.091386676
212	0xbe7bb668	-0.24581301
213	0x3e72d742	0.23714927
214	0x3e5f7190	0.21820664
215	0x3dfa553f	0.12223291
216	0xbe15bf55	-0.14623769
217	0xbdd60882	-0.104508415
218	0x3dbaf207	0.09128194
219	0x3dc33365	0.09531287
220	0x3ccd6dd2	0.02507678
221	0x3e243dd0	0.16039205
222	0xbebc2fc2	-0.36755186
223	0xbe1fd032	-0.15606764
224	0xbdbb7d7a	-0.09154792
225	0xbe6fd3b8	-0.23420608
226	0x3dc97e7f	0.0983858
227	0xbdaac188	-0.083376944
228	0x3dadc3f1	0.084846385
229	0x3e5977cf	0.2123711
230	0xbd9c2524	-0.076242715
231	0x3d4fcd4a	0.05073289
232	0x3e42ddbc	0.19029897
233	0x3c931035	0.017952064
234	0x3f0b2900	0.54359436
235	0x3e8893e3	0.2667533
236	0xbd46ae74	-0.048506215
237	0x3ee72b0b	0.45150027
238	0x3e61fb8c	0.22068614
239	0xbd03a39c	-0.032138452
240	0x3d2e7fd1	0.042602364
241	0xbbc3d017	-0.005975734
242	0x3e3ab2f6	0.1823233
243	0x3e4964c8	0.19667351
244	0x3e15a28f	0.14612792
245	0x3d2e0e22	0.042493947
246	0x3e40efc4	0.18841463
247	0xbd079f7b	-0.033111077
248	0x3cc76a47	0.02434267
249	0x3e2805a9	0.16408409
250	0x3cc3d214	0.023903884
251	0x3c8888b6	0.016666751
252	0x3d64c319	0.055850122
253	0xbd80f356	-0.06296413
254	0x3cb3ba01	0.02193928
255	0xbe158806	-0.1460267

bias f4 [30]
0	0x3e8a8c1d	0.27060023
1	0xbcf420bc	-0.029800765
2	0xbdf18ba7	-0.11794215
3	0xbebdb126	-0.37049216
4	0x3e9bb9ba	0.30415136
5	0xbda276fe	-0.07932852
6	0xbe60e8fe	-0.2196388
7	0xbd9ca287	-0.07648187
8	0xbd028bec	-0.03187172
9	0xbe04b933	-0.12961273
10	0x3d0442e8	0.03229037
11	0xbdd891be	-0.10574673
12	0xbe926702	-0.28594214
13	0xbd212513	-0.039341997
14	0x3d874815	0.066055454
15	0xbcd75c4b	-0.026289126
16	0xbe18b64c	-0.1491329
17	0xbd867834	-0.06565896
18	0xbdfff579	-0.12497992
19	0x3e8a0278	0.26955009
20	0xbe6bd1b3	-0.23029213
21	0x3da59750	0.08085501
22	0x3efc1b56	0.49239606
23	0xbdd6b7cd	-0.10484276
24	0x3e8dcedc	0.27696884
25	0xbdfeb80b	-0.12437447
26	0xbbb328e3	-0.0054675206
27	0x3e49e3ec	0.19715852
28	0x3d3464ac	0.04404132
29	0x3eab6dc6	0.33482188

weight f4 [20, 30, 4]
0	0xbdb40687	-0.087903075
1	0xbd8c13cb	-0.06839713
2	0xbcd91bf6	-0.02650259
3	0xbddec78e	-0.10877906
4	0xbd0d6a51	-0.03452522
5	0x3d87136b	0.065955006
6	0x3ce0ab8e	0.027425554
7	0x3d8c01c3	0.068362735
8	0x3bccf7f1	0.006255143
9	0x3c29c80a	0.010362634
10	0xbd31d65f	-0.04341733
11	0xbda3b6f0	-0.07993877
12	0xba4c7f3b	-0.0007800941
13	0xbd37fb1c	-0.04491721
14	0x3d038499	0.032108877
15	0xbd26ce9e	-0.04072439
16	0xbd50b34b	-0.050952237
17	0xbd18d6cc	-0.03731422
18	0xbcdea9b6	-0.027180534
19	0xbce1ce4c	-0.02756419
20	0x3cee042a	0.02905472
21	0x3dcf431e	0.101202235
22	0x3c7bd70b	0.015371094
23	0xbd54eb0c	-0.05198197
24	0x3daae481	0.08344365
25	0x3b992243	0.004673274
26	0x3cad4fae	0.021156158
27	0x3d19571f	0.0374366
28	0xbd5f73b1	-0.05455369
29	0x3cf9f13b	0.030510535
30	0xbd9eb023	-0.07748439
31	0xbe1d0dba	-0.15337268
32	0x3d1e3cb5	0.038632113
33	0x3d892532	0.066965476
34	0x3da06046	0.07830863
35	0x3d8e6961	0.06953693
36	0xbd24c6d6	-0.040228687
37	0x3d307981	0.043084625
38	0xbd214d88	-0.03938058
39	0xbdd7047e	-0.10498904
40	0xbe07908f	-0.13238738
41	0xbdee15d5	-0.11625258
42	0xbda1c5e6	-0.07899074
43	0xbe16c8b0	-0.14724994
44	0x3cb106ec	0.021609746
45	0xbb646e8d	-0.0034855932
46	0x3c5e09e5	0.013552164
47	0xbb637d39	-0.003471209
48	0x3ddcf8c4	0.10789636
49	0x3d94bbf4	0.07262412
50	0x3da6a956	0.08137767
51	0x3e0002c1	0.1250105
52	0xbce67414	-0.028131522
53	0xbc7041ba	-0.014664108
54	0xbcd752b5	-0.026284555
55	0xbd67c650	-0.05658561
56	0xbce83212	-0.028344188
57	0x3ba1460b	0.00492168
58	0x3c8750ac	0.01651796
59	0x3ca22e01	0.019797327
60	0xbdcbb07a	-0.099457696
61	0xbdb57fdd	-0.088622786
62	0xbd244b97	-0.04011115
63	0xbdd818a8	-0.10551578
64	0xbd153cb7	-0.036434855
65	0xbd55bfbe	-0.052184813
66	0xbd24174e	-0.040061288
67	0xbcb3bef6	-0.021941643
68	0xbd5a1cd0	-0.053250134
69	0xbcd16ecf	-0.025565533
70	0xbc196a7b	-0.009363766
71	0xbc3a06ae	-0.011354132
72	0x3db7a7f0	0.089675784
73	0x3d65b25d	0.056078304
74	0x3d926417	0.07147997
75	0x3da080ad	0.07837043
76	0xbd8e4e9a	-0.06948586
77	0xbd236760	-0.039893508
78	0xbdac422b	-0.08411058
79	0xbd262a27	-0.040567543
80	0x3e26aed9	0.16277637
81	0x3de7b491	0.11313737
82	0x3d01df35	0.031707007
83	0x3d56e776	0.052466832
84	0x3d321c90	0.04348427
85	0xbc366f13	-0.011134881
86	0xbd613aa0	-0.05498755
87	0xbd69e75c	-0.057105407
88	0xbd6edc6a	-0.058315672
89	0xbd78c062	-0.060730346
90	0xbd343b6a	-0.044001974
91	0x3be68003	0.007034303
92	0xbd5a1111	-0.053238932
93	0xbd8781e5	-0.06616572
94	0xbd616f1a	-0.055037595
95	0xbd46f4f8	-0.048573464
96	0xbd1e36f0	-0.03862661
97	0x3d4afb71	0.0495562
98	0xbd2d7a83	-0.042353164
99	0xbe110ace	-0.14164278
100	0xbd870cda	-0.06594248
101	0x3d7a7c83	0.0611539
102	0x3d60ff8e	0.054931216
103	0xbcac8c0a	-0.02106287
104	0xbc48f59a	-0.012265587
105	0xbcc71a57	-0.024304552
106	0xbda4cf6a	-0.080473736
107	0xbd79aede	-0.060957782
108	0xbd54d55c	-0.051961288
109	0xbe048777	-0.129423
110	0xbdec3ab0	-0.11534631
111	0xbd0271ce	-0.031846814
112	0xbd3d185e	-0.046165816
113	0x3c935464	0.017984577
114	0xbc7173e9	-0.014737108
115	0xbbeb82a1	-0.007187203
116	0xbdbe1761	-0.09281803
117	0xbdd388be	-0.10328816
118	0xbe14fc56	-0.14549384
119	0xbd179c8d	-0.037014533
120	0xbdb555e8	-0.08854276
121	0xbdf17e27	-0.1179164
122	0xbdb62183	-0.088931106
123	0xbe0cc6a4	-0.1374765
124	0xbc51be9c	-0.0128017925
125	0x3d1af1aa	0.037828125
126	0x3db9e9d6	0.09077804
127	0x3de5ff3d	0.112303235
128	0xbcf958cd	-0.030437851
129	0xbc1eab36	-0.009684375
130	0xbc510635	-0.0127578275
131	0x3c8f24d2	0.017473612
132	0x3df5ed1e	0.12008117
133	0x3b49e8d9	0.0030808954
134	0x3d059b35	0.03261872
135	0x3d34bb42	0.044123895
136	0xbc75b9b4	-0.014997888
137	0xbd6f3bf6	-0.058406793
138	0xbddf67e9	-0.10908491
139	0xbdafa915	-0.08577172
140	0x3caa0e28	0.020758703
141	0x3c9b6980	0.018971205
142	0x3d17a7e4	0.037025347
143	0x3cbbab51	0.022908838
144	0xbda98f1e	-0.082792506
145	0xbda883b5	-0.08228246
146	0xbd87ad45	-0.066248454
147	0xbd962533	-0.07331314
148	0x3d5aba02	0.053400047
149	0x3d1adbc6	0.03780725
150	0xbd7f8447	-0.06238201
151	0xbd7d6039	-0.061859343
152	0xbd4248a8	-0.04743257
153	0xbca245e5	-0.019808719
154	0xbd2dc68a	-0.04242567
155	0xbc8c92dd	-0.017159874
156	0x3e1b9232	0.15192488
157	0x3e078b3e	0.1323671
158	0x3d9be4cc	0.07611999
159	0x3d83d04c	0.06436214
160	0xbd370f05	-0.044692058
161	0xbb61879d	-0.0034413107
162	0xbd4bdcb3	-0.049771022
163	0xbd0375a0	-0.032094598
164	0xbd31a7b1	-0.043372814
165	0xbcfebbb4	-0.031095363
166	0xbdd0f05f	-0.10202097
167	0xbd83ffb6	-0.06445257
168	0xbd8cc261	-0.06873012
169	0xba334708	-0.00068388926
170	0xbbcd39f5	-0.0062630125
171	0xbd30cc19	-0.043163393
172	0xbd93386c	-0.07188496
173	0xbd94ded9	-0.07269067
174	0xbd49fe8b	-0.049315017
175	0xbdb94da5	-0.09048013
176	0x3d71c035	0.059021194
177	0x3d39346b	0.045216005
178	0xbca5ead6	-0.02025358
179	0x3a9c9b9e	0.0011948233
180	0xbcc4ecee	-0.024038758
181	0xbd3abf6f	-0.04559272
182	0xbcf01372	-0.029306147
183	0xbd825155	-0.06363169
184	0x3d588b83	0.052867424
185	0x3da65002	0.08120729
186	0x3d9262a6	0.07147722
187	0x3ddf23d3	0.10895505
188	0xbe163867	-0.14669953
189	0xbdb84dac	-0.0899919
190	0xbe03d919	-0.12875785
191	0xbdb444ff	-0.088022225
192	0xbdb77343	-0.08957531
193	0xbdbd93f0	-0.092567325
194	0x3c21c946	0.0098746475
195	0xbd1c17fd	-0.038108815
196	0xbdba38d1	-0.09092868
197	0x3b5056f6	0.0031790114
198	0xbe12d047	-0.14337264
199	0xbddccf36	-0.1078171
200	0xbd86ab76	-0.06575672
201	0xbcfbd403	-0.030740744
202	0x3d52d953	0.051476788
203	0x3cbb6de3	0.022879547
204	0xbd800ccb	-0.0625244
205	0xbdc11a2f	-0.09428822
206	0xbd2c20fe	-0.04202365
207	0xbd439a0d	-0.047754336
208	0xbd3d69b3	-0.04624338
209	0xbd2d6972	-0.04233689
210	0xbdb16f18	-0.086637676
211	0xbd8c0aa4	-0.06837967
212	0xbe0a6ce8	-0.13518107
213	0xbde0b5aa	-0.1097215
214	0xbcf47926	-0.029842924
215	0xbd81c37e	-0.06336115
216	0xbd642a9b	-0.055704694
217	0x3cfb98bf	0.030712483
218	0xbcb1299c	-0.021626286
219	0xbb0041bc	-0.001957043
220	0x3d8dbaf6	0.069204256
221	0x3d7f9699	0.06239948
222	0x3d9ed53b	0.07755514
223	0x3d0a12c4	0.033709303
224	0x3bf3cd2f	0.0074402313
225	0xbc0be70a	-0.008538971
226	0x3d20fd71	0.0393042
227	0xbaad3a30	-0.0013216194
228	0xbd490311	-0.04907519
229	0xbd0bff1b	-0.034178834
230	0xbdacd717	-0.08439463
231	0xbd1d4ebc	-0.038405165
232	0xbdccab2e	-0.099935874
233	0xbd36468a	-0.044500865
234	0xbe0df0be	-0.13861367
235	0xbdbfc114	-0.093629986
236	0xbb8e0ed0	-0.004335262
237	0xbd463eb4	-0.048399642
238	0xbdb13f2a	-0.08654626
239	0xbcd4ea04	-0.025990494
240	0xbe5d7b4b	-0.21629064
241	0xbe91dcd0	-0.2848878
242	0xbe41c37b	-0.18922226
243	0xbe63ec6c	-0.22258157
244	0x3dcc4bd7	0.09975403
245	0x3b3c013c	0.002868726
246	0x3dba4658	0.09095448
247	0xbcf5693d	-0.029957408
248	0xbe7b8687	-0.24563037
249	0xbe10e168	-0.14148486
250	0xbd919804	-0.07109073
251	0xbd7f22d2	-0.062289067
252	0x3e6bf2a6	0.23041782
253	0x3e7c41c2	0.2463446
254	0x3e7d0e0d	0.24712391
255	0x3e86d4e3	0.26334295

bias f4 [20]
0	0xbd5a138f	-0.05324131
1	0xbb7f4e26	-0.0038956492
2	0xbeff76bf	-0.49895284
3	0xbe838a79	-0.25691584
4	0x3d4733be	0.04863333
5	0xbe3b9cc7	-0.18321525
6	0xbb33cff6	-0.0027437187
7	0xbd2313bb	-0.03981374
8	0x3bc60ece	0.0060442453
9	0x3d5427c2	0.05179573
10	0x3c2ee22e	0.010674043
11	0xbcd96820	-0.026538908
12	0xbe213362	-0.15742257
13	0xbe340c3a	-0.17582789
14	0xbe0d1548	-0.1377765
15	0xbdd825c8	-0.10554081
16	0x3d218a31	0.03943843
17	0xbe1fe5b1	-0.15614964
18	0xbdb88a86	-0.09010796
19	0x3a5e5c83	0.0008482413

weight f4 [10, 20, 2]
0	0x3c912a60	0.017720401
1	0x3d36ad9b	0.044599157
2	0xbdb3b2c0	-0.08774328
3	0x3d0a085d	0.033699382
4	0x3dc5efe3	0.096648954
5	0x3d96789c	0.07347223
6	0x3e61cb8c	0.22050303
7	0x3e23ffd4	0.1601556
8	0xbce54296	-0.027985852
9	0xbe07ee7a	-0.13274565
10	0xbca12363	-0.019670194
11	0x3e5fdc58	0.21861398
12	0xbd3f47b0	-0.046699226
13	0xbc313c72	-0.010817634
14	0x3e5f9cbd	0.21837135
15	0x3d8b119b	0.06790467
16	0x3dc00e8e	0.09377776
17	0x3d9d9375	0.07694141
18	0x3d4d8a7e	0.050180905
19	0x3d9802d4	0.074224144
20	0xbccb42ab	-0.024812063
21	0xbd1b9bb2	-0.03799028
22	0xbc27d0c7	-0.0102426475
23	0xbc869658	-0.016429111
24	0x3ce68656	0.028140228
25	0x3e667237	0.22504507
26	0x3e845e9f	0.2585344
27	0x3e86aea5	0.26305118
28	0xbd2869b3	-0.041116428
29	0x3c4b02a3	0.012390765
30	0xbe06c19d	-0.13159795
31	0xbe0a281f	-0.13491867
32	0x3d5d49ee	0.054025583
33	0x3dde8406	0.10865025
34	0x3d911219	0.0708353
35	0x3e2e1881	0.17001535
36	0x3d52c8cb	0.051461022
37	0xbe120055	-0.14257939
38	0xbd72b797	-0.059257116
39	0xbde315a4	-0.11088112
40	0x3dca71bc	0.09884974
41	0x3e07a91e	0.13248107
42	0xbd65268e	-0.05594497
43	0x3d000fc0	0.03126502
44	0xbd6552b5	-0.05598708
45	0x3e106821	0.14102222
46	0x3e24cd56	0.16093954
47	0x3e3413f1	0.17585732
48	0x3d856db3	0.06515064
49	0xbd84f8bf	-0.06492757
50	0xbc92c68f	-0.017916946
51	0xbd9c828f	-0.076420896
52	0xbdb8aa1d	-0.090168215
53	0xbd7e7ea1	-0.06213248
54	0x3de87cb5	0.11351911
55	0x3d381e35	0.044950683
56	0x3d51984f	0.051170643
57	0x3de1c56e	0.11023985
58	0x3d2ce4a5	0.04221024
59	0xbe0e0d79	-0.13872327
60	0xbd0fb122	-0.035081036
61	0xbc363036	-0.011119893
62	0x3b34d075	0.002759007
63	0xbd032643	-0.03201891
64	0x3d4e6497	0.0503889
65	0x3e13f2fe	0.14448163
66	0x3e306f3d	0.17229934
67	0x3e392209	0.1807939
68	0xbd09734e	-0.03355723
69	0xbd914627	-0.070934586
70	0x3d47f83f	0.04882073
71	0x3d649993	0.055810522
72	0x3c1b01fd	0.009460923
73	0x3ddaa94d	0.10676823
74	0x3df8ac1b	0.121422015
75	0x3e625b65	0.22105177
76	0xbda5574d	-0.08073292
77	0xbd5b7a71	-0.053583566
78	0xbdb0726d	-0.08615575
79	0x3d889a47	0.06670051
80	0xbc7cf2b4	-0.015438724
81	0xbce32461	-0.027727308
82	0xbd118ed0	-0.035536587
83	0xbda89287	-0.08231073
84	0x3e1ba288	0.1519872
85	0x3d2dab7f	0.04239988
86	0xbcfc248a	-0.030779142
87	0xbe0c5956	-0.13705954
88	0x3aba6228	0.0014219927
89	0xbdac0308	-0.08399016
90	0x3cca39db	0.02468579
91	0x3e09b41a	0.1344761
92	0x3c6aed32	0.014338778
93	0xbcded61f	-0.02720171
94	0xbc9ae867	-0.018909646
95	0xbb08d498	-0.002087867
96	0xbdab1ad6	-0.08354728
97	0xbd7cb440	-0.061695337
98	0xbdd67852	-0.10472168
99	0xbbc49bb3	-0.006000006
100	0x3a89eff7	0.0010523786
101	0xbd3c7ddd	-0.04601847
102	0xbb919b22	-0.004443542
103	0xbc54d811	-0.012990967
104	0x3dbf048b	0.093270384
105	0x3deb0442	0.114754215
106	0xba0f6e52	-0.0005471456
107	0xbd591992	-0.0530029
108	0x3db2edac	0.087367386
109	0x3e24f5ed	0.16109438
110	0x3d9b8df5	0.075954355
111	0x3d5857e5	0.052818198
112	0x3d9f1f05	0.077695884
113	0xbd8d3350	-0.06894553
114	0x3d11db48	0.035609514
115	0x3d553351	0.052050892
116	0xbc307d5f	-0.010772078
117	0x3e0b4336	0.13599858
118	0x3d73be9f	0.059507962
119	0x3d7775ef	0.060415205
120	0xbd251901	-0.04030705
121	0xbd7fe5cf	-0.062475022
122	0x3d9cde37	0.076595716
123	0x3db9f573	0.09080019
124	0xbd13f333	-0.036120605
125	0xbe5ce58a	-0.21571937
126	0x3e494eaf	0.19658922
127	0x3e493a02	0.19651034
128	0x3d905954	0.07048288
129	0x3e293677	0.16524683
130	0xbe363c70	-0.17796493
131	0xbe6eb4f9	-0.23311223
132	0x3c867b3b	0.016416183
133	0x3b29f61c	0.0025934046
134	0xbd0f59aa	-0.03499762
135	0xbdbb9026	-0.091583535
136	0xbcd6a70d	-0.026202703
137	0x3c24edc6	0.010066455
138	0x3d3dfcc0	0.04638362
139	0xbdbc4b74	-0.09194079
140	0x3d0694cc	0.032856748
141	0x3d7bb7f1	0.061454717
142	0x3c18f22f	0.009335085
143	0x3c29409b	0.010330345
144	0xbe2241a4	-0.15845352
145	0xbe2a74a9	-0.16646065
146	0xbe26b716	-0.16280779
147	0xbc2653a7	-0.01015178
148	0xbd2f726b	-0.042833727
149	0xbd879e8c	-0.06622037
150	0x3d27ea6d	0.04099505
151	0x3cc2203c	0.023697011
152	0x3ccd1a2e	0.025036898
153	0xbd7d9d8e	-0.061917834
154	0x3d4d2aa8	0.05008951
155	0x3d5bb5cf	0.053640183
156	0x3c93ad4e	0.018026974
157	0x3e7204d1	0.2363465
158	0x3c4475e3	0.011990997
159	0x3d0b3a5e	0.03399121
160	0x3c39d2f2	0.011341797
161	0xbd10b1c6	-0.035325788
162	0xbd32abc3	-0.043620836
163	0x3d59c966	0.053170584
164	0xbd6cef70	-0.057845533
165	0xbe67527a	-0.22590056
166	0xbe3a4a91	-0.18192507
167	0xbe4f7c9f	-0.20262383
168	0xbbfea490	-0.007771082
169	0x3deef15c	0.116671294
170	0xbd93394c	-0.07188663
171	0xbdd484bd	-0.1037688
172	0x3cea0b5c	0.02856987
173	0xbc8c5f7d	-0.017135376
174	0xbba54451	-0.0050435443
175	0xbdc31af8	-0.09526628
176	0xbdbf80ba	-0.093507245
177	0xbd06e60a	-0.032934226
178	0xbbe236ea	-0.006903519
179	0xbdce186e	-0.10063253
180	0x3ba102c6	0.0049136607
181	0x3cc95edd	0.024581367
182	0x3c36b916	0.011152526
183	0xbbca9bb0	-0.00618311
184	0xbd187196	-0.0372177
185	0xbd98bf4c	-0.07458362
186	0xbe02d0db	-0.12774985
187	0xbddbdbaa	-0.10735257
188	0xbd5df769	-0.054191027
189	0x3c1f54f6	0.009724846
190	0x3d03009b	0.031983
191	0x3dd5d19a	0.10440369
192	0x3df65639	0.120281644
193	0xbd9cae2c	-0.07650408
194	0x3c04e68f	0.00811161
195	0x3cf3f81c	0.029781394
196	0x3d6b72ae	0.057482414
197	0x3df42ddc	0.119228095
198	0x3d3fba93	0.04680879
199	0x3d98c353	0.0745913
200	0x3d6ff227	0.058580544
201	0x3c05a0e3	0.008156034
202	0xbd950789	-0.07276828
203	0x3d160175	0.036622483
204	0x3e35174f	0.17684673
205	0x3c885855	0.016643682
206	0xbd2b8860	-0.041878104
207	0x3e20639f	0.15663002
208	0x3da86fc0	0.082244396
209	0x3d8348e0	0.06410384
210	0xbd062d1b	-0.03275786
211	0xbdb62ca8	-0.08895236
212	0xbd1c78d0	-0.038201153
213	0xbd868f17	-0.06570261
214	0xbcfff0a7	-0.031242682
215	0xbbc94577	-0.006142314
216	0xbdd73a72	-0.105091944
217	0x3e0d7738	0.1381501
218	0xbd8f096c	-0.06984219
219	0xbda247e7	-0.079238705
220	0xbc35e94b	-0.011102985
221	0x3ad079a9	0.0015905398
222	0x3caa9af6	0.020825844
223	0xbcd6c20f	-0.026215581
224	0x3ddbb941	0.10728694
225	0xbca39a88	-0.019971147
226	0xbdfc41f6	-0.123172686
227	0x3dd6a096	0.10479848
228	0x3d36ca82	0.04462672
229	0xbde38a3b	-0.1111035
230	0x3e004dc6	0.12529668
231	0x3d2c2e07	0.042036083
232	0x3e48e0ec	0.19617051
233	0xbd9632d2	-0.07333912
234	0x3e4457d2	0.19174126
235	0x3e6f83c3	0.23390107
236	0x3dbd19aa	0.09233411
237	0x3e49947f	0.19685553
238	0x3d7550ab	0.059891384
239	0x3d4d1ad9	0.050074432
240	0x3c516a1c	0.012781646
241	0xbd13a1bb	-0.03604291
242	0xbc0fbf78	-0.008773677
243	0x3dc78848	0.097427905
244	0xbc24c45f	-0.010056584
245	0x3de78e5a	0.11306448
246	0x3dbc26cd	0.09187088
247	0x3e937c5f	0.28805825
248	0x3d025682	0.03182078
249	0x3d6060f8	0.054779977
250	0x3d61bfc2	0.055114515
251	0xbe2abdcd	-0.16673966
252	0xbcd80587	-0.026369823
253	0x3cc315c1	0.023814084
254	0xbda27b66	-0.07933693
255	0x3d01cde8	0.031690508

bias f4 [10]
0	0x3e068265	0.13135679
1	0x3d84d722	0.06486346
2	0x3d6ec9e3	0.058298003
3	0xbd7e7d3c	-0.06213115
4	0x3c84df02	0.01621962
5	0xbd85bd2d	-0.06530223
6	0x3d104a8d	0.035227347
7	0x3d8d16b0	0.06889093
8	0xbe0c4565	-0.13698347
9	0x3d972a6c	0.07381138

weight f4 [20, 30]
0	0x3db573cf	0.08859979
1	0x3e01f7fa	0.12692252
2	0xbd82c162	-0.06384541
3	0xbb57830b	-0.0032884504
4	0xbd005681	-0.031332497
5	0x3d20a34b	0.03921823
6	0x3b00cb1a	0.0019652308
7	0x3e05343b	0.13008206
8	0xbd0c6423	-0.034275185
9	0xbae11a3a	-0.0017173954
10	0x3db2afdb	0.08724948
11	0xbce06251	-0.02739063
12	0xbc086ad5	-0.008326252
13	0xbd4688fe	-0.04847049
14	0x3dd2391b	0.10264798
15	0xbd170986	-0.036874317
16	0x3dc09b8f	0.094046704
17	0xbe639fb6	-0.22228894
18	0xbdc63917	-0.09678858
19	0x3cf8e488	0.03038241
20	0xba2e371f	-0.0006645787
21	0xbb479e27	-0.0030459256
22	0x3d0b33e9	0.033985052
23	0x3db86518	0.09003657
24	0xbd1fd05f	-0.039017078
25	0xbdeea106	-0.116518065
26	0x3d710d70	0.058850706
27	0x3dcb463c	0.099255055
28	0x3d0ba848	0.034096032
29	0x3e4c05f3	0.19924144
30	0x3cbeca79	0.023289906
31	0x3de86a45	0.11348394
32	0xbd91a8e3	-0.07112291
33	0xbc9fe1c6	-0.019516837
34	0xbbe4379b	-0.0069646365
35	0xbe33225b	-0.17493574
36	0xbc1b0157	-0.009460769
37	0xbe10902a	-0.14117494
38	0x3df6fb41	0.12059642
39	0x3d40f782	0.04711104
40	0xbd979efa	-0.07403369
41	0x3d37eeba	0.0449054
42	0x3d92241f	0.07135796
43	0x3d1366a9	0.035986576
44	0x3ce70891	0.028202327
45	0xbdb801c2	-0.0898471
46	0xbdae0fb3	-0.08499088
47	0x3b722f05	0.0036954295
48	0x3e019fc1	0.12658598
49	0x3c3f1c97	0.011664531
50	0x3e31165e	0.17293689
51	0x3dc5c432	0.09656562
52	0x3c786f8b	0.015163313
53	0x3daa679f	0.083205454
54	0x3cd2c023	0.025726384
55	0xbc4f5799	-0.012655162
56	0x3c4d5a53	0.012533742
57	0x3c4b26a6	0.012399351
58	0x3c4a462e	0.012345834
59	0x3d134509	0.03595451
60	0x3e364c66	0.17802581
61	0xbb6c6175	-0.003606883
62	0x3dc3b3cd	0.09555779
63	0x3dd9e037	0.10638469
64	0x3d32520b	0.043535274
65	0xbdd8af54	-0.10580316
66	0x3dda8628	0.106701195
67	0xbcee914a	-0.029122014
68	0xbe1a4197	-0.15064083
69	0x3d5ad883	0.053429138
70	0x3d55238d	0.052035857
71	0x3dc9ece3	0.09859636
72	0xbd677c17	-0.056514826
73	0xbd00a43e	-0.031406634
74	0xbe1b07d7	-0.1513971
75	0xbdd78fc4	-0.10525468
76	0xbd65f1d0	-0.056138813
77	0xbe1b45de	-0.15163371
78	0xbd18e0bb	-0.037323695
79	0xbd00aa87	-0.031412628
80	0x3c86ffd1	0.016479405
81	0xbd6e7196	-0.058213793
82	0x3d1a8817	0.03772744
83	0x3e289547	0.16463195
84	0xbe557a0b	-0.20847337
85	0xbd6a1016	-0.057144247
86	0xbd1d7f8a	-0.03845171
87	0xbd866e98	-0.06564063
88	0xbce5e500	-0.028063297
89	0xbd186cbd	-0.037213076
90	0xbde9ad32	-0.114099875
91	0xbdb17ec5	-0.086667575
92	0xbdb0e9d6	-0.08638351
93	0xbdce4ecf	-0.10073625
94	0x3c18a82a	0.009317437
95	0x3d2fe5fd	0.042943943
96	0x3dfb4a24	0.122700006
97	0x3e527c90	0.2055533
98	0xbd397521	-0.04527772
99	0x3e0fb348	0.14033234
100	0x3d76e81a	0.060279943
101	0x3ea20b66	0.3164932
102	0x3d61d107	0.055130985
103	0x3c3656d8	0.011129104
104	0x3dcf6143	0.10125973
105	0x3c5b5591	0.0133871
106	0xbdab4270	-0.08362281
107	0x3dd3355c	0.10312912
108	0x3d9708f4	0.073747545
109	0x3dadb967	0.08482628
110	0x3d27bdd0	0.040952504
111	0xbc8aebc9	-0.016958134
112	0xbd78a0bb	-0.06070016
113	0xbdfbd921	-0.122972734
114	0x3de49359	0.11160917
115	0x3cf296b1	0.02961287
116	0x3e0d04b0	0.1377132
117	0x3d2aaa94	0.041666582
118	0xbe42c9c7	-0.19022284
119	0xbd94da50	-0.07268202
120	0xbc570cf4	-0.013125647
121	0xbd0b4478	-0.034000844
122	0x3e0d4617	0.13796268
123	0x3d15eef5	0.03660484
124	0xbd976b89	-0.073935576
125	0xbdf44596	-0.11927335
126	0x3ddc24dc	0.10749218
127	0xbc07131c	-0.008244302
128	0xbc7b2cd2	-0.01533051
129	0xbe30476d	-0.17214747
130	0xbda318b2	-0.07963695
131	0xbd913e24	-0.070919305
132	0x3e483a5c	0.19553512
133	0x3d3021bc	0.04300092
134	0x3e20aa75	0.15690024
135	0x3dee2024	0.11627224
136	0x3e000848	0.12503159
137	0x3e40c1e2	0.1882396
138	0x3db69590	0.089152455
139	0x3dd37875	0.1032571
140	0xbde8dbc7	-0.11370044
141	0xbd5cb601	-0.05388451
142	0xbbe7a0de	-0.0070687374
143	0x3dc96661	0.0983398
144	0xbdd5d300	-0.10440636
145	0xbce078ef	-0.027401416
146	0xbd020763	-0.031745326
147	0x3dc3325a	0.09531088
148	0x3bc2fb34	0.005950356
149	0xbe03f835	-0.12887652
150	0x3dfad498	0.1224758
151	0xbd502730	-0.050818622
152	0x3e067599	0.13130797
153	0x3d2c2d9d	0.042035688
154	0x3d344d8b	0.044019263
155	0xbd72befa	-0.05926416
156	0xbd9f7de4	-0.077876836
157	0x3df649b3	0.12025776
158	0x3b9af13b	0.004728464
159	0xbd804f65	-0.06265143
160	0xbd4a1b0e	-0.049342208
161	0xbd692836	-0.056923114
162	0x3d497af9	0.04918954
163	0xbc6c09af	-0.014406606
164	0x3d5e596b	0.054284494
165	0x3d8b2937	0.067949705
166	0x3be008dc	0.0068369936
167	0xbabc228b	-0.0014353556
168	0xbe06671a	-0.13125268
169	0x3d672135	0.056428153
170	0xbe6f1f9a	-0.23351899
171	0x3c7e7de4	0.015532944
172	0xbd49cb11	-0.049265925
173	0x3d961167	0.07327538
174	0xbcd97856	-0.026546638
175	0xbc8cc68e	-0.017184522
176	0xbcde9ac0	-0.0271734
177	0x3d83da71	0.06438149
178	0x3dd509bc	0.10402247
179	0x3dabc281	0.08386708
180	0xbcd082c9	-0.025452988
181	0x3d647b10	0.055781424
182	0x3d27e08f	0.04098564
183	0x3cc7d540	0.024393678
184	0x3ce216e0	0.027598798
185	0xbe31b4fb	-0.17354195
186	0xbc7740c3	-0.015091124
187	0xbd6f2e3b	-0.0583937
188	0x3ce4aa0d	0.027913118
189	0xbcbd872f	-0.02313575
190	0x3d01fb95	0.031734068
191	0xbd8381b0	-0.0642122
192	0x3c51747d	0.012784121
193	0xbd828de0	-0.06374717
194	0x3e1a85a0	0.15090036
195	0x3e032a70	0.12809157
196	0x3d7bb88b	0.06145529
197	0xbc7d87f0	-0.015474305
198	0xbe3eef68	-0.18646014
199	0xbe0c7942	-0.13718131
200	0x3cc66c78	0.024221644
201	0xbc4d088d	-0.012514246
202	0xbcd23590	-0.025660306
203	0x3d984028	0.07434112
204	0x3cbcd8eb	0.023052653
205	0x3d45604b	0.048187535
206	0x3d84fcf2	0.06493558
207	0x3d2f921e	0.042863958
208	0x3dfd7dfb	0.123775445
209	0xbb675ae8	-0.0035301987
210	0x3da8f64c	0.082501024
211	0xbd696c30	-0.05698794
212	0xbd486d1d	-0.048932184
213	0x3de01133	0.109407805
214	0xb849fc25	-4.8156962e-05
215	0x3e80a46e	0.2512545
216	0x3dca7df4	0.09887305
217	0x3de88993	0.11354365
218	0xbe2f8740	-0.17141438
219	0xbd3d0c61	-0.046154384
220	0x3dcc8b11	0.09987462
221	0x3c5aa670	0.013345346
222	0xbe05adc8	-0.13054574
223	0xbcb55fbf	-0.022140382
224	0xbe870456	-0.26370496
225	0xbdc550be	-0.09634541
226	0x3d95d029	0.07315094
227	0xbe5179d6	-0.20456633
228	0x3d727d27	0.059201386
229	0x3b50c8e3	0.003185802
230	0x3d8e9e6d	0.06963811
231	0xbe1536cf	-0.14571689
232	0x3d2b705f	0.041855212
233	0x3d691cfa	0.0569124
234	0xbe613a7c	-0.21994966
235	0xbd871892	-0.06596483
236	0xbe82e2c2	-0.25563627
237	0xbe14efd5	-0.14544614
238	0xbd9502e4	-0.07275942
239	0xbdfa6bae	-0.122275695
240	0x3d25724b	0.0403922
241	0xbe517163	-0.2045341
242	0xbe4f78e2	-0.20260957
243	0xbe0d102a	-0.13775697
244	0xbdebe213	-0.115177296
245	0xbe2d31f4	-0.16913587
246	0xbcbeebe9	-0.02330585
247	0x3d1d5a15	0.038415987
248	0x3cb3c28c	0.021943353
249	0x3da8971d	0.082319476
250	0x3b2e99cb	0.002664196
251	0x3d43db37	0.04781648
252	0xbdcd6469	-0.10028917
253	0xbd869fdd	-0.0657346
254	0xbcdc094d	-0.026859904
255	0x3dc3a3a9	0.095527

bias f4 [20]
0	0x3cc0297a	0.023457278
1	0x3df1b450	0.1180197
2	0xbd265dee	-0.040616922
3	0x3d1c2385	0.03811981
4	0xbd936323	-0.07196643
5	0xbc616232	-0.013756322
6	0xbe1d4ffe	-0.15362546
7	0x3dd9bbe5	0.10631541
8	0x3d8fee1b	0.07027837
9	0x3da6d8f3	0.081468485
10	0x3d4c89a9	0.04993597
11	0xbdd98037	-0.10620158
12	0xbb299cbe	-0.002588078
13	0xbd4de1d6	-0.050264202
14	0xbda9510d	-0.08267412
15	0x3dcfa38a	0.101386145
16	0xbd77638d	-0.060397673
17	0xbcf633f0	-0.030054063
18	0x3dad9edd	0.084775664
19	0xbe1594c4	-0.14607531
