deploy/networks/go2/cheetah_v7/encoder.pt (torch, 37391 bytes, 8 tensors)

weight f4 [30, 52]
0	0xbd1f889d	-0.038948644
1	0xbd5797ee	-0.052635126
2	0xb902ce4d	-0.00012474619
3	0x3e4cde52	0.20006683
4	0x3d97abe9	0.07405836
5	0x3c659e20	0.014014751
6	0xbd7de9ba	-0.061990477
7	0xbd2fe6a1	-0.042944554
8	0x3dfe6941	0.12422419
9	0x3d5dcad1	0.0541485
10	0x3afbd65d	0.0019213666
11	0x3d61e3b0	0.05514878
12	0xbd1b83fb	-0.037967663
13	0xbe07c87c	-0.13260072
14	0x3d4fdd54	0.050748184
15	0x3b4e2a15	0.0031458188
16	0xbdd304c1	-0.10303641
17	0xbd594f9d	-0.05305444
18	0xbd1d89f3	-0.038461637
19	0x3b3c0b8c	0.0028693406
20	0x3d5fa823	0.054603707
21	0x3db49659	0.08817739
22	0x3d432b06	0.047648452
23	0x3dfc0701	0.123060234
24	0xbda79d87	-0.08184343
25	0x3cf07e8f	0.029357223
26	0xbd996594	-0.074900776
27	0xbc06c48d	-0.008225572
28	0xbdfb2806	-0.12263493
29	0xbd82f7b4	-0.06394902
30	0xbe133e2d	-0.14379187
31	0xbd945fbe	-0.07244824
32	0xbc77ea2e	-0.015131516
33	0x3cde4e15	0.027136842
34	0xbd4b5b49	-0.049647603
35	0xbd9a0d57	-0.075220756
36	0x3d4ad098	0.049515337
37	0x3d67555a	0.056477882
38	0xbcce69b5	-0.02519689
39	0xbdcb2b15	-0.099203266
40	0x3d96595c	0.07341263
41	0x3d1d0859	0.03833804
42	0x3d343d56	0.044003807
43	0x3d788471	0.06067318
44	0xbdec2069	-0.11529619
45	0x3d01c05f	0.0316776
46	0xbde448c3	-0.11146691
47	0xbc3c6fb9	-0.011501246
48	0x3d76758d	0.0601707
49	0xbdac12c4	-0.08402017
50	0x3deb8798	0.11500472
51	0x3da8494c	0.08217105
52	0xbd52d1d2	-0.05146963
53	0xbc824d5c	-0.015906028
54	0x3de5c8de	0.11219953
55	0x3bbec58d	0.0058218897
56	0x3d1d1095	0.038345892
57	0xbc6f4fb7	-0.014606408
58	0xbce1e489	-0.027574794
59	0xbd54053a	-0.051762797
60	0x3dd2e197	0.10296934
61	0xbdb94be0	-0.09047675
62	0x3e03d9a0	0.12875986
63	0x3df7b3fa	0.12094875
64	0xbd07872c	-0.033087894
65	0xbda9023a	-0.08252378
66	0xbd1af77b	-0.037833672
67	0xbe27ac26	-0.16374263
68	0x3d8cbb33	0.06871643
69	0x3d3b777d	0.04576825
70	0x3e016445	0.12635906
71	0xbd49aae5	-0.049235243
72	0xbd3edd96	-0.04659804
73	0xbd724d4b	-0.059155744
74	0xbc6a58fc	-0.014303442
75	0x3dbf94d0	0.093545556
76	0xbd0a85b4	-0.033818915
77	0xbbdee1df	-0.0068018283
78	0x3d49026d	0.04907458
79	0x3e17e112	0.14831951
80	0xbcbcb24b	-0.023034235
81	0xbde44484	-0.11145881
82	0x3e14b6ad	0.1452281
83	0x3cb40b2e	0.021977987
84	0xbb6a25b2	-0.0035728035
85	0xbca3832b	-0.019960007
86	0x3d22c000	0.039733887
87	0xbd91740f	-0.071022145
88	0x3d82df86	0.0639029
89	0xb89e3166	-7.543228e-05
90	0xbd53c2c6	-0.051699422
91	0x3cded71f	0.027202187
92	0xbd3cb7ea	-0.04607383
93	0x3cc571fb	0.024102202
94	0xbbc68fbb	-0.0060596145
95	0x3d493e0b	0.049131434
96	0x3d20866f	0.039190706
97	0xbd818f81	-0.06326199
98	0x3d150e83	0.036390793
99	0x3d9b94ef	0.07596766
100	0xbe161d9f	-0.14659737
101	0xbdf99cd4	-0.12188116
102	0xbdbdb84d	-0.09263668
103	0x3dcd4b90	0.10024178
104	0xbd4b175b	-0.04958282
105	0x3d00e0c5	0.031464357
106	0xbe348188	-0.17627537
107	0x3e387f32	0.18017271
108	0x3cf82806	0.030292522
109	0x3d766dcb	0.0601633
110	0xbe053957	-0.13010155
111	0x3e59a7ea	0.2125546
112	0x3d006585	0.031346817
113	0x3bfee6af	0.0077789645
114	0xbdbe4d3b	-0.09292074
115	0xbddd2403	-0.10797884
116	0xbc5d0b41	-0.013491453
117	0xbd814385	-0.063117065
118	0xbc5b9cfb	-0.013404126
119	0x3dba62bc	0.09100863
120	0xbdaa4506	-0.083139464
121	0xbd2542b0	-0.0403468
122	0xbe1f76e9	-0.15572704
123	0xbd35972c	-0.04433362
124	0xbe4a6663	-0.1976562
125	0x3dd6302a	0.10458405
126	0xbc8ba455	-0.017046133
127	0xbd5ba154	-0.05362065
128	0xbe148bf5	-0.14506514
129	0xbc5bc2fb	-0.013413186
130	0x3c8c2526	0.017107558
131	0x3bd311c9	0.006441329
132	0x3cca3132	0.024681661
133	0x3cd3255f	0.025774656
134	0xbe1932d9	-0.14960803
135	0x3dbc322a	0.091892555
136	0xbdcb210f	-0.09918415
137	0x3d85b5eb	0.06528839
138	0xbdf2e93f	-0.118608944
139	0x3cba25f0	0.022723168
140	0x3d887f12	0.06664862
141	0x3dfe5a5b	0.12419578
142	0x3ce17c15	0.027524987
143	0x3cfffe26	0.031249117
144	0x3c314405	0.01081944
145	0x3c2cf364	0.010556076
146	0x3cdf618f	0.0272682
147	0xbd064b14	-0.032786444
148	0xbc508ac4	-0.012728397
149	0x3a956404	0.0011397605
150	0xbd054741	-0.032538656
151	0x3dfc42fd	0.123174645
152	0xbd076881	-0.033058647
153	0xbd052199	-0.032502744
154	0xbd9f528e	-0.07779418
155	0x3bb24971	0.005440884
156	0xbbe31454	-0.0069299135
157	0x3da1b819	0.07896442
158	0xbe61400b	-0.21997087
159	0x3d312d73	0.043256234
160	0x3c2c3f74	0.010513175
161	0xbd791a59	-0.060816143
162	0xbdbcb450	-0.092140794
163	0x3da16153	0.07879891
164	0xbc8760ef	-0.016525714
165	0x3dc2f410	0.095192075
166	0xbbc0d162	-0.0058843354
167	0x3d6f414d	0.058411885
168	0x3defebab	0.11714872
169	0xbba5c3c3	-0.005058737
170	0xbe81cddc	-0.2535237
171	0x3e88d0fe	0.26721948
172	0xbe0fe81a	-0.14053383
173	0xbd2f8a7d	-0.042856682
174	0xbe0d296c	-0.13785332
175	0x3e2f9c16	0.17149386
176	0xbdc21ce7	-0.09478169
177	0x3cadf6f5	0.021235922
178	0x3d6aa467	0.057285693
179	0xbc69fdde	-0.014281718
180	0x3c17eb48	0.009272404
181	0x3bc39ec6	0.005969855
182	0xbd2d021b	-0.042238336
183	0x3e3dba51	0.18528105
184	0x3db7f1c8	0.08981663
185	0xbdd72224	-0.10504559
186	0x3e46f1f9	0.19428243
187	0xbd55bf38	-0.052184314
188	0x3ddfcc42	0.10927631
189	0xbdad453d	-0.08460472
190	0xbd6f8307	-0.058474567
191	0xbb9e3315	-0.004827867
192	0xbd3c236e	-0.045932226
193	0x3d29204f	0.041290578
194	0x3d3de613	0.046361994
195	0xbd22bedc	-0.0397328
196	0x3d930f91	0.071807034
197	0x3dcb028e	0.09912597
198	0xbb2dbdb0	-0.0026510768
199	0xbd1a0c19	-0.037609193
200	0x3e16c193	0.1472228
201	0xbcf74670	-0.030184954
202	0x3e1c13ad	0.1524188
203	0x3d32dca2	0.043667443
204	0x3bb0ecf5	0.005399341
205	0xbd2c7315	-0.04210194
206	0x3d166852	0.03672058
207	0xbd13929c	-0.03602849
208	0xbc79a8ce	-0.015238
209	0x3de0b9f1	0.109729655
210	0x3dbd33c1	0.09238387
211	0xbccb01db	-0.024781158
212	0x3dac00a7	0.08398562
213	0x3dacc3ed	0.084358074
214	0x3dd2124e	0.102573976
215	0x3d5e4783	0.054267418
216	0x3da1ffbc	0.079101056
217	0x3d34dc21	0.044155244
218	0x3c4538b1	0.012037442
219	0xbc7a74a8	-0.015286602
220	0x3d91c119	0.071169086
221	0xbc8fcdf0	-0.017554253
222	0x3d87f920	0.06639314
223	0xbe4754ae	-0.19465896
224	0xbd805f7d	-0.06268213
225	0xbd7a6ee2	-0.061140902
226	0x3e178ea2	0.14800504
227	0x3cfca189	0.030838745
228	0xbda29e70	-0.07940376
229	0x3c1e50a3	0.00966278
230	0x3befa86d	0.007313779
231	0xbdfbee5e	-0.12301324
232	0x3b810c05	0.0039382004
233	0xbd709afc	-0.058741555
234	0xbd4b5cec	-0.049649164
235	0xbe45c449	-0.19313158
236	0xbcaf8cea	-0.021429498
237	0xbcf1dee4	-0.029525228
238	0xbe1c3c68	-0.15257418
239	0x3c3c1458	0.01147946
240	0xbca949b8	-0.020665035
241	0x3d135719	0.035971735
242	0x3ce915b1	0.028452726
243	0x3d91ef6d	0.07125745
244	0xbd3094e7	-0.043110754
245	0x3d1bb06f	0.038010057
246	0x3c3027b6	0.010751655
247	0x3d8ec8bb	0.0697188
248	0xbb31fbfc	-0.002715825
249	0x3d5e17c8	0.0542219
250	0xbdc0172e	-0.09379421
251	0xbc9a14bb	-0.018808713
252	0xbd9859dc	-0.07439014
253	0xbdbddb4a	-0.09270342
254	0x3e0739dd	0.13205667
255	0x3de15fe5	0.110046186

bias f4 [30]
0	0x3e5de4e5	0.21669348
1	0x3e159d4a	0.14610782
2	0xbdc52a4f	-0.0962721
3	0xbcb27815	-0.021785775
4	0xbdce55ca	-0.10074957
5	0x3e1c729c	0.15278095
6	0xbd967ed3	-0.073484086
7	0x3c8bbbe7	0.017057372
8	0xbcdd5ba2	-0.027021233
9	0xbd4f6aca	-0.05063895
10	0x3e32c7b2	0.1745899
11	0x3e198588	0.14992344
12	0x3e1cf5df	0.15328167
13	0x3dcf17ed	0.10111985
14	0xbdc70887	-0.09718423
15	0xbe00beba	-0.12572756
16	0xbe1ce348	-0.15321076
17	0x3e205da4	0.15660721
18	0xbe0d6ed7	-0.13811813
19	0x3e6033c1	0.21894743
20	0x3e410bf5	0.18852217
21	0x3d9d9a57	0.076954536
22	0xbe013ff6	-0.12622055
23	0xbe2146b6	-0.1574963
24	0x3d24b1da	0.040208675
25	0x3d12d522	0.03584779
26	0xbe1fddc5	-0.15611942
27	0xbe003d89	-0.12523474
28	0xbd98b57a	-0.07456489
29	0x3dc90d56	0.09816997

weight f4 [20, 30, 4]
0	0xbdf824fe	-0.12116431
1	0xbe12a1c9	-0.14319529
2	0x3b990efb	0.0046709753
3	0xbdf08600	-0.117443085
4	0xbc176f69	-0.009242871
5	0x3d8bbf3d	0.06823585
6	0x3d4e9a97	0.050440397
7	0x3d05f291	0.032702032
8	0xbd69e24b	-0.057100575
9	0x3d305cb1	0.043057147
10	0xbd03154c	-0.032002732
11	0xbd16a179	-0.036775086
12	0xbdf31071	-0.1186837
13	0xbd98a37a	-0.07453056
14	0xbdb3449b	-0.0875332
15	0xbcbcfcdc	-0.023069791
16	0xbd4365a4	-0.047704354
17	0xbc6ba784	-0.014383201
18	0xbc864c28	-0.016393736
19	0xbcf2b720	-0.029628336
20	0xbd14ef3c	-0.036360964
21	0xbdcf37f3	-0.10118093
22	0xbd8c68b9	-0.06855912
23	0xbdda186a	-0.10649188
24	0x3d04de84	0.03243877
25	0xbbcec4cd	-0.0063100816
26	0xbd708dc7	-0.05872896
27	0x3cd153eb	0.02555271
28	0xbd9e4557	-0.07728069
29	0xbd2a96da	-0.04164777
30	0xbdb49b4a	-0.088186815
31	0xbdc23f5a	-0.094847396
32	0x3d2884b9	0.0411422
33	0x3d2f8ea5	0.042860646
34	0x3e21f43d	0.15815826
35	0x3dff693c	0.12471244
36	0xbd475242	-0.04866243
37	0xbceb42ea	-0.02871843
38	0x3ce88162	0.028382007
39	0x3d34cff0	0.044143617
40	0x3cf9a1a2	0.03047258
41	0xbcb9618d	-0.022629524
42	0x3b815f1d	0.003948106
43	0xbc9425f1	-0.018084498
44	0xbc60b350	-0.013714626
45	0x3c7ff760	0.015622944
46	0xbcad1b5e	-0.021131214
47	0xbccc31ab	-0.024926027
48	0xbca45e7f	-0.02006459
49	0x3d195f95	0.03744467
50	0x3cf3532f	0.029702751
51	0x3d52a96c	0.051431105
52	0x3b3b9470	0.0028622411
53	0x3d6cf351	0.057849232
54	0xbdbdfcb8	-0.09276718
55	0x3d0e3c96	0.034725748
56	0x3dcb3fb4	0.0992426
57	0xbc79f571	-0.015256272
58	0x3aaf14d5	0.0013357649
59	0xbd765bb5	-0.060146052
60	0x3d567b39	0.052363608
61	0xbcdd99f3	-0.027050948
62	0xbcb3a77b	-0.021930447
63	0x3d5ec1f3	0.054384183
64	0x3d8bc14f	0.0682398
65	0x3c17e164	0.009270046
66	0x3db77ed4	0.089597374
67	0x3cc2e344	0.02379001
68	0x3b2a17d3	0.0025954142
69	0x3c7b4743	0.015336814
70	0x3d286178	0.04110858
71	0xbd77d2e3	-0.06050385
72	0x3d85768d	0.065167524
73	0x3dcebe72	0.10094918
74	0xbc9be9fa	-0.019032467
75	0x3c7ec4f1	0.015549884
76	0xbd13ed9f	-0.036115285
77	0xbd103800	-0.035209656
78	0xbd5f549b	-0.054524045
79	0xbc314e49	-0.010821887
80	0x3c3a7900	0.011381388
81	0xbc998d1b	-0.018744042
82	0xbcbe45df	-0.023226677
83	0x3d261915	0.040551264
84	0xbd8a9fed	-0.06768785
85	0xbcb4edc3	-0.02208603
86	0xbc9b62d8	-0.01896803
87	0x3cae5e54	0.021285214
88	0x3ca2f630	0.019892782
89	0x3cf0a4f6	0.029375535
90	0xbcbf5166	-0.023354243
91	0x3d9e9d4c	0.07744846
92	0x3ca79353	0.020455992
93	0x3db938b1	0.09044016
94	0xbd97fb0d	-0.07420931
95	0x3dc61069	0.09671099
96	0x3b342217	0.002748614
97	0x3cbff60f	0.02343276
98	0xbb97a75e	-0.004628106
99	0xbd0c54b9	-0.034260485
100	0xbbe66310	-0.007030852
101	0x3d2acafe	0.041697495
102	0xbd516e25	-0.051130433
103	0x3d5e0f40	0.054213762
104	0x3d3df66c	0.046377584
105	0xbcb07181	-0.021538498
106	0x3d044dd8	0.0323008
107	0x3bf4d319	0.007471454
108	0x3d165e24	0.036710873
109	0xbd3267bd	-0.043555964
110	0x3dedd212	0.11612333
111	0x3cfc0d0d	0.030767942
112	0xbb9aecfa	-0.004727957
113	0xbca723a9	-0.020402746
114	0x3b16cfb9	0.0023011996
115	0xbca66bf7	-0.020315154
116	0xbd66d3af	-0.05635422
117	0x3d3e66f5	0.046484906
118	0xbd250a83	-0.040293228
119	0x3b9164b7	0.004437055
120	0xbceab7e0	-0.028652132
121	0xbb7d48bf	-0.0038648096
122	0x3d0de139	0.034638617
123	0x3cf1fa88	0.029538408
124	0xbd99c308	-0.075079024
125	0xbc29b3ca	-0.010357806
126	0xbd84ee01	-0.06490708
127	0x3d7dd7bd	0.061973322
128	0x3cedfa2f	0.02904996
129	0x3dea9ed6	0.11456077
130	0x3d118beb	0.035533827
131	0x3d6c9235	0.05775662
132	0x3dbe66d2	0.09296955
133	0x3d8f9ff8	0.070129335
134	0x3d2af955	0.041741688
135	0xbcdb5fb1	-0.026779028
136	0xbd9de5a9	-0.0770982
137	0xbdb60a83	-0.08888724
138	0x3d869c3d	0.06572769
139	0x3cf4d68b	0.029887458
140	0x3d1b5426	0.037922047
141	0xbd291514	-0.041279867
142	0xbc551c4c	-0.013007235
143	0xbde58f1f	-0.11208939
144	0x3d8cc6c6	0.068738505
145	0x3d6a3eb9	0.057188723
146	0x3dbfe371	0.09369553
147	0xbcb3ada1	-0.021933379
148	0xbd269f01	-0.04067898
149	0xbd9f22c9	-0.077703066
150	0xbdf216b5	-0.11820737
151	0xbdb1aff6	-0.0867614
152	0xbca76916	-0.020435851
153	0xbd91619f	-0.07098698
154	0xbd2216ae	-0.03957241
155	0x3d1eb789	0.03874925
156	0x3dc57cc8	0.09642941
157	0x3dc98b39	0.09841008
158	0xbc59f49d	-0.013302949
159	0x3c2479fb	0.010038848
160	0x3d9b6d56	0.075892136
161	0x3d3de3f8	0.046359986
162	0x3d78e621	0.060766343
163	0xbb2185aa	-0.002464632
164	0xbd04a9c0	-0.03238845
165	0xbd774959	-0.060372684
166	0x3ac769f7	0.0015214075
167	0xbcc64a13	-0.024205243
168	0xbccd484d	-0.02505889
169	0xbde3f664	-0.1113098
170	0x3d043475	0.03227659
171	0xbb8cbe7c	-0.0042951684
172	0xbb6d592b	-0.0036216478
173	0x3c39d00b	0.011341105
174	0xbdca3011	-0.09872449
175	0xbd8a283a	-0.06745954
176	0x3d7c3c03	0.06158067
177	0x3d7be7e1	0.061500434
178	0x3c2a50c4	0.010395233
179	0x3d6e981d	0.058250535
180	0xbc07bcad	-0.00828473
181	0x3d20fca0	0.039303422
182	0xbcf512f4	-0.029916264
183	0xbb993c08	-0.0046763457
184	0x3d13f193	0.036119055
185	0x3ce7267c	0.028216593
186	0xbd0998e5	-0.033593077
187	0x3d0f1cff	0.034939762
188	0xbc89bd62	-0.016813938
189	0xbd2491ae	-0.040177993
190	0xbd82dd98	-0.06389922
191	0x3c207630	0.009793803
192	0xbceb180a	-0.028697986
193	0x3bd85615	0.0066020587
194	0x3cf8a095	0.030350009
195	0xbd5cb6e1	-0.053885344
196	0x3d9ae152	0.07562508
197	0x3ce40fc5	0.02783955
198	0xbd0a8a32	-0.0338232
199	0xbcbee324	-0.023301668
200	0x3daa86ab	0.08326467
201	0x3d7c0515	0.061528284
202	0x3cd77bfc	0.026304238
203	0x3d3fbabe	0.04680895
204	0xbc7bea7f	-0.015375732
205	0x3c7fca46	0.015612191
206	0xbd5a0ca6	-0.05323472
207	0xbd0bddaf	-0.03414696
208	0x3dc38ca3	0.09548309
209	0x3dd1c352	0.102423325
210	0x38da3cc4	0.000104063685
211	0x3dabecc8	0.08394772
212	0xbd8c1e5f	-0.0684173
213	0x3cb202cd	0.021729851
214	0xbcc60bb2	-0.024175499
215	0xbd228857	-0.039680805
216	0xbd7bf430	-0.061512172
217	0xbe024d0d	-0.12724705
218	0x3cd60e49	0.026129859
219	0xbcf066ff	-0.029345987
220	0xbd48917d	-0.048966873
221	0xbcd9c7c6	-0.026584517
222	0x3d415728	0.04720226
223	0x3d3aef14	0.04563816
224	0xbd9ec1ac	-0.07751784
225	0xba5790bd	-0.0008223167
226	0xb9cc473a	-0.0003896298
227	0xbcb7efb5	-0.022453168
228	0xbc8402bd	-0.016114587
229	0xbc96a3f1	-0.01838872
230	0xbdb3ee2a	-0.087856606
231	0xbd1504da	-0.03638158
232	0x3d332245	0.043733854
233	0xbd44205b	-0.04788242
234	0x3d75fd2b	0.060055893
235	0x3df9ac05	0.12191013
236	0xbd1680ae	-0.036743812
237	0x3d8e21f3	0.06940069
238	0x3cd784d0	0.026308447
239	0xbd456aba	-0.048197486
240	0x3c675654	0.014119703
241	0xbd24e457	-0.040256824
242	0xbd8d2a8f	-0.06892883
243	0x3cc70095	0.02429227
244	0xbd5debdd	-0.054180015
245	0xbd02fad3	-0.031977486
246	0xbc984552	-0.018587742
247	0xbbad8b5c	-0.005296154
248	0xbca9247b	-0.020647278
249	0x3c2141ec	0.009842377
250	0x3d194bc1	0.03742576
251	0xbd1f4711	-0.038886134
252	0x3dc13c3d	0.09435318
253	0x3cb5801a	0.02215581
254	0x3d5dfe74	0.054197744
255	0x3df771fd	0.120822884

bias f4 [20]
0	0xbdbd1174	-0.092318445
1	0x3dce9e2f	0.10088765
2	0xbdb5002e	-0.08837925
3	0xbdaae52d	-0.08344493
4	0x3cb782dd	0.022401268
5	0xbe0e23b8	-0.13880813
6	0x3dcf11d7	0.101108246
7	0xbc0ee3b6	-0.008721283
8	0x3de32ff4	0.11093131
9	0x3d7b948e	0.06142097
10	0xbdd7b63c	-0.10532805
11	0x3beb47ff	0.0071802135
12	0xbc969626	-0.018382143
13	0x3d3b449c	0.045719728
14	0xbd000595	-0.031255323
15	0x3dafd52d	0.08585582
16	0x3cf75a71	0.030194493
17	0xbd618716	-0.05506047
18	0x3decaf72	0.11556901
19	0xbd8de648	-0.06928688

weight f4 [10, 20, 2]
0	0x3d1d0775	0.03833719
1	0x3c7efbd6	0.015562972
2	0x3d748951	0.059701268
3	0x3cf51399	0.029916571
4	0x3cee6ff7	0.029106123
5	0xbc990ecd	-0.018683815
6	0x3d543262	0.05180586
7	0x3dc3553d	0.09537742
8	0x3dbf7cb7	0.09349959
9	0x3d1cdb74	0.038295224
10	0x3d9fa330	0.077947974
11	0x3d969cbd	0.07354114
12	0x3d4303e7	0.047611143
13	0x3d453b48	0.048152238
14	0x3d42950d	0.047505427
15	0x3b45ccda	0.0030181915
16	0x3e019662	0.12655023
17	0xbcb0ff90	-0.021606237
18	0xbcb4b90f	-0.022060899
19	0x3d9c98f7	0.07646363
20	0xbbe479f9	-0.006972548
21	0xbba066e8	-0.00489508
22	0x3d49dab8	0.049280852
23	0x3df67313	0.120336674
24	0x3d0b2355	0.033969242
25	0x3dde0ab3	0.108418845
26	0x3dbd7519	0.0925085
27	0x3dbb0c8e	0.09133254
28	0xbddffe52	-0.109371796
29	0xbdfac687	-0.12244897
30	0x3d8a60b0	0.06756723
31	0xbdce4178	-0.10071081
32	0xbd3c2a38	-0.0459387
33	0xbddff519	-0.109354205
34	0x3de8073a	0.11329503
35	0xbd813afa	-0.06310077
36	0xbdfa6d35	-0.12227861
37	0x3bce1f92	0.0062903846
38	0xbd2cec68	-0.042217642
39	0x3cf75648	0.03019251
40	0xbdcce0ab	-0.100037895
41	0xbe5b554f	-0.21419261
42	0xbce6b0dc	-0.028160505
43	0xbe5ecfc1	-0.2175894
44	0x3e22beab	0.15893047
45	0x3e537d96	0.20653376
46	0x3daf94d3	0.08573308
47	0x3e10e068	0.14148104
48	0xbdc30698	-0.09522742
49	0xbd00f7ca	-0.03148631
50	0x3c8ed237	0.017434223
51	0x3dafc288	0.08582026
52	0x3ae8f2a5	0.0017772509
53	0xbd720feb	-0.05909721
54	0x3d9aa13b	0.075502835
55	0x3d407156	0.046983086
56	0x3d8fdf8d	0.07025061
57	0x3d24dcc0	0.040249586
58	0xbe094a74	-0.13407308
59	0x3d935c3c	0.07195327
60	0x3dcc137c	0.09964654
61	0x3c8df709	0.01732971
62	0x3d350db6	0.04420253
63	0xbcc0176a	-0.023448665
64	0xbd9c9f7a	-0.07647605
65	0x3e195902	0.1497536
66	0x3c0d4607	0.008622653
67	0xbd9b59d1	-0.075854905
68	0x3e0e2a10	0.13883233
69	0x3e423f50	0.18969464
70	0x3d350d8c	0.044202372
71	0x3df0bbe8	0.1175459
72	0xbb2ce49c	-0.002638138
73	0x3de262fa	0.110540345
74	0xbe119688	-0.1421758
75	0xbe1014b1	-0.14070393
76	0xbdc99f11	-0.09844793
77	0x3d174093	0.036926817
78	0xbe01193f	-0.12607287
79	0xbe2727bc	-0.16323751
80	0xbe2444bf	-0.1604185
81	0xbe151e68	-0.1456238
82	0xbb1289f6	-0.0022360063
83	0xbc9c3d97	-0.019072337
84	0x3e5991c3	0.2124701
85	0x3e1e1a13	0.15439634
86	0xbde843d5	-0.11341063
87	0x3d8cea91	0.068806775
88	0x3be21f3a	0.006900695
89	0x3d9a4c7c	0.075341195
90	0xbce247a7	-0.027622057
91	0x3ca00c0a	0.01953699
92	0x3d785cfc	0.06063555
93	0x3d07bf47	0.0331414
94	0x3dfbc33c	0.122930974
95	0x3dc54cdf	0.096338026
96	0x3ca4e06b	0.020126542
97	0x3dfc2889	0.12312419
98	0x3d5f17fa	0.054466225
99	0x3c8c2a7a	0.017110098
100	0xbda32943	-0.079668544
101	0x3dd0528e	0.10171996
102	0x3d811661	0.063030966
103	0x3caef0b4	0.02135501
104	0x3dab1495	0.08353535
105	0x3deead67	0.116541676
106	0xbd950e7e	-0.07278155
107	0x3e11169c	0.14168781
108	0x3dde8792	0.10865702
109	0x3ba43bef	0.0050120275
110	0xbe0e3e1c	-0.1389088
111	0xbce678dd	-0.028133804
112	0xbe1a0116	-0.15039477
113	0x3cfb47af	0.03067383
114	0xbd578246	-0.052614473
115	0x3d402ccf	0.046917733
116	0x3de34871	0.110978015
117	0xbd011bb6	-0.031520568
118	0xbe12019b	-0.14258425
119	0xbe04bf11	-0.12963511
120	0x3dccc53b	0.09998556
121	0x3dc8bc0a	0.098014906
122	0xbcb1dd00	-0.021711826
123	0xbd350131	-0.04419059
124	0x3e1cf42d	0.1532752
125	0xbd2c4f62	-0.042067893
126	0xbde71ea6	-0.112851426
127	0x3e209d86	0.1568509
128	0xbdbf5b8d	-0.09343634
129	0xbdddcb63	-0.108298086
130	0x3def6c37	0.11690562
131	0x3e0d3330	0.13789058
132	0x3da9eb84	0.08296874
133	0xbd8c71db	-0.06857654
134	0xbd01bfdf	-0.031677123
135	0x3b6de163	0.003629767
136	0xbdb6881d	-0.0891268
137	0xbde92440	-0.11383867
138	0xbe083d56	-0.13304648
139	0xbe1f4056	-0.15551886
140	0xbbd5baab	-0.0065224967
141	0x3d63724a	0.055528916
142	0x3c5710e4	0.013126586
143	0xbcb85877	-0.02250312
144	0xbdddfd7c	-0.10839364
145	0xbc88b5f2	-0.01668832
146	0xbe2e8c48	-0.170457
147	0x3c90b41a	0.017664004
148	0x3e18e5f3	0.14931469
149	0x3df70ce4	0.120630056
150	0xbd80a048	-0.06280571
151	0x3d8af564	0.06785086
152	0xbc57f42a	-0.013180772
153	0xbc84ce8e	-0.016211774
154	0xbd8600d5	-0.065431274
155	0xbd27b393	-0.04094274
156	0x3da26da0	0.079310656
157	0xbe4164ea	-0.18886152
158	0xbbb7b873	-0.005606705
159	0x3d7615a3	0.060079228
160	0x3d96d70f	0.07365238
161	0x3de65381	0.11246396
162	0xbd32fb96	-0.043696962
163	0xbd11707e	-0.03550767
164	0x3d00804e	0.03137236
165	0xbd3eb5f0	-0.046560228
166	0xbd8b5bc5	-0.06804613
167	0x3e3308eb	0.1748387
168	0xbde0c029	-0.10974152
169	0xbdbe58da	-0.09294291
170	0xbcd72b50	-0.02626577
171	0x3d30ad4b	0.043134015
172	0xbc3c8da7	-0.011508382
173	0xbc937553	-0.01800028
174	0x3c07318d	0.00825156
175	0xbcb4efe7	-0.02208705
176	0xbdc6c991	-0.097064145
177	0xbdaff376	-0.08591358
178	0xbd5d3749	-0.054007802
179	0xbe116af1	-0.14200951
180	0xbd90deea	-0.070737675
181	0xbda3ae28	-0.07992202
182	0xbd6a9b72	-0.05727715
183	0xbce78ff9	-0.028266894
184	0xbd2969e2	-0.041360743
185	0xbd410344	-0.047122255
186	0xbd353abc	-0.044245467
187	0xbe45a314	-0.1930049
188	0x3d984a6e	0.07436071
189	0x3dd10d61	0.1020763
190	0xbd8d1d7b	-0.068903886
191	0x3d32e934	0.04367943
192	0x3cb52b4c	0.022115372
193	0xbdaef364	-0.08542517
194	0x3ac16077	0.001475348
195	0x3d26c2e5	0.04071321
196	0xbe01c8c3	-0.12674241
197	0xbadf2022	-0.0017023126
198	0x3d5f95ae	0.054586105
199	0x3dec42e6	0.11536197
200	0xbcc032da	-0.023461748
201	0x3cc95b40	0.024579644
202	0x3cb4e150	0.022080094
203	0x3da01625	0.07816724
204	0x3d0a6c0c	0.033794448
205	0xbd1c0180	-0.038087368
206	0xbd9a26c7	-0.075269274
207	0xbe03db5d	-0.12876649
208	0x3db8460b	0.08997735
209	0xbcdac388	-0.026704565
210	0x3e432e59	0.19060649
211	0x3e19deca	0.15026394
212	0xbc73405d	-0.014846888
213	0x3d344ccc	0.04401855
214	0x3cc9a6c6	0.024615657
215	0xbc871da3	-0.016493624
216	0x3d8dfb51	0.069327004
217	0xbd730473	-0.059330415
218	0xbc4f4eab	-0.012653033
219	0xbdad676c	-0.08466992
220	0xbcb12f5d	-0.02162903
221	0x3d9baa1d	0.07600806
222	0xbe0eef67	-0.13958512
223	0xbd0b344c	-0.03398542
224	0x3ccf3031	0.025291534
225	0xbcd561c1	-0.02604759
226	0xbd3e48f2	-0.046456285
227	0x3d34277e	0.043982975
228	0x3d95d1c4	0.073154
229	0x3d751933	0.059838485
230	0xbd66fc15	-0.056392748
231	0xbdfc4a1f	-0.12318825
232	0xbd0239dc	-0.03179346
233	0x3cacaa6d	0.02107736
234	0x3e03d3bb	0.12873738
235	0x3dd7ea6d	0.1054276
236	0xbdf645b7	-0.12025016
237	0xbd129af0	-0.03579229
238	0xbd3b2d0c	-0.045697257
239	0x3db8ac22	0.09017207
240	0x3cd387f0	0.025821656
241	0xbc1c1b5a	-0.0095280055
242	0xbc92061a	-0.017825175
243	0x3c3adf96	0.011405846
244	0xbc1c0569	-0.009522774
245	0x3d386bb9	0.045024607
246	0xbd75f6e5	-0.06004991
247	0xbdc6d2c3	-0.09708168
248	0x3c93982a	0.018016893
249	0x3b993498	0.004675459
250	0x3d12877a	0.03577373
251	0xbdf785ce	-0.12086068
252	0xbc82ad5f	-0.01595181
253	0x3e05e568	0.13075793
254	0x3db949c7	0.09047275
255	0x3d2a715c	0.041612014

bias f4 [10]
0	0x3dd8b86c	0.10582051
1	0x3c425497	0.011860988
2	0xbd88bca9	-0.06676609
3	0xbe0dc3e3	-0.13844256
4	0xbcd9a26c	-0.026566707
5	0xbd7d41d2	-0.06183035
6	0x3c9872f1	0.018609496
7	0xbd61e808	-0.055152923
8	0xbdaef6a0	-0.08543134
9	0x3e3e92d2	0.18610695

weight f4 [20, 30]
0	0x3e050bff	0.12992857
1	0xbddbcdb3	-0.107325934
2	0xbcf80362	-0.03027505
3	0xbd769200	-0.06019783
4	0xbd8b22b7	-0.06793731
5	0x3d02a7c6	0.031898282
6	0x3d2c0ba3	0.042003285
7	0x3e070a96	0.13187632
8	0x3c3db359	0.011578404
9	0x3df5c252	0.11999954
10	0xbe1eed79	-0.15520276
11	0xbdb23152	-0.08700813
12	0x3cee549d	0.029093081
13	0xbde91fd2	-0.11383022
14	0xbd910a39	-0.07082028
15	0x3be11a3d	0.006869583
16	0x3d8a098f	0.067401044
17	0xbdc9f113	-0.098604344
18	0x3e30478c	0.17214793
19	0x3e2044e6	0.15651283
20	0x3c84015d	0.016113931
21	0x3bf82655	0.007572929
22	0xbe15d06c	-0.14630288
23	0x3dd66434	0.10468331
24	0xbdb95a70	-0.09050453
25	0x3e0a6b10	0.13517404
26	0x3dbe00b5	0.092774786
27	0xbc7bf705	-0.015378718
28	0x3d7cc6ec	0.061713144
29	0x3da07955	0.07835642
30	0x3d98abc7	0.07454639
31	0x3e063a51	0.13108183
32	0x3d8e044b	0.069344126
33	0xbd9d5fd5	-0.07684294
34	0x3d66e9af	0.0563752
35	0xbcab503f	-0.020912288
36	0x3d06febd	0.03295778
37	0xbd6005c8	-0.054693013
38	0x3dccd9b1	0.10002459
39	0xbdae8243	-0.08520939
40	0x3e01b3c4	0.12666231
41	0x3e146f18	0.14495504
42	0xbdf53191	-0.11972345
43	0x3cb32840	0.021869779
44	0x3e015b98	0.12632596
45	0xbc3c0113	-0.0114748655
46	0x3c31bbb6	0.010847976
47	0x3d60fd97	0.054929342
48	0x3c1bd17b	0.009510393
49	0xbcf6861a	-0.030093241
50	0x3d95d801	0.0731659
51	0xbe341a40	-0.17588139
52	0x3e2093a4	0.1568132
53	0xbe00c858	-0.12576425
54	0xbd745f8e	-0.05966144
55	0x3db3a7c0	0.0877223
56	0x3e027b54	0.12742358
57	0x3c0f924a	0.008762905
58	0x3d209e1e	0.039213292
59	0xbdf8ba0e	-0.12144862
60	0xbe1270a1	-0.14300777
61	0xbe08524b	-0.13312642
62	0xbd921bdf	-0.07134222
63	0x3d700221	0.05859578
64	0x3d269d54	0.040677384
65	0xbd9b1006	-0.075714156
66	0xbca84940	-0.02054274
67	0xbb9427e9	-0.004521359
68	0x3ded6d9f	0.11593174
69	0x3bb57e31	0.005538725
70	0xbcd690a3	-0.026192015
71	0x3ccd8372	0.025087092
72	0x3d3edb3e	0.046595804
73	0x3dcc4709	0.099744864
74	0xbd557d71	-0.052121583
75	0x3e17adf3	0.1481245
76	0xbdecb04a	-0.11557062
77	0x3da77172	0.08175935
78	0x3d3a643c	0.045505747
79	0xbcc6766b	-0.024226388
80	0xbe19c80c	-0.15017718
81	0x3de8de90	0.113705754
82	0x3db37540	0.08762598
83	0xbe28249f	-0.1642022
84	0x3e1d9c6e	0.15391704
85	0x3dddc084	0.10827735
86	0x3e0fbca4	0.14036804
87	0xbe3c069c	-0.18361896
88	0xbde8533f	-0.11344003
89	0xbdbb12b5	-0.091344275
90	0xbddbb82d	-0.10728488
91	0x3dcebf06	0.100950286
92	0x3e151207	0.14557658
93	0xbc9fb3ae	-0.019494858
94	0xbce69da7	-0.028151346
95	0xbdbbc54f	-0.09168493
96	0x3ce81224	0.028328963
97	0x3bc1819a	0.0059053423
98	0x3d21e359	0.039523456
99	0x3dcc865f	0.09986567
100	0x3da4a67d	0.080395676
101	0x3e070c6d	0.13188334
102	0x3d1ed690	0.03877884
103	0xbe2a4b8b	-0.1663038
104	0xbdc07d61	-0.09398914
105	0x3d082e68	0.03324738
106	0xbd70f248	-0.058824807
107	0xbde1187d	-0.10990999
108	0x3d172bb3	0.03690691
109	0x3db0ee00	0.08639145
110	0x3d9e9e5e	0.0774505
111	0xbda3f90e	-0.08006488
112	0x3d003c02	0.031307228
113	0xbe08c4b7	-0.13356291
114	0x3e042535	0.12904818
115	0xbc030bc8	-0.007998414
116	0xbd0de319	-0.034640405
117	0xbdd72f9b	-0.10507127
118	0x3db54759	0.08851499
119	0x3dba344e	0.090920076
120	0xbda2dc4c	-0.079521745
121	0x3df4fbee	0.11962114
122	0xbc5e42d2	-0.013565736
123	0xbd5415ef	-0.05177873
124	0x3d8808ef	0.06642329
125	0x3dc49d14	0.09600273
126	0x3c5266b9	0.012841874
127	0xbdb64b72	-0.08901109
128	0xbdc6aad7	-0.09700554
129	0x3d96d3b5	0.07364599
130	0xbc921ae5	-0.01783509
131	0xbb4b68b9	-0.0031037761
132	0x3dabdcfb	0.08391758
133	0x3bec949d	0.0072198645
134	0x3db25944	0.08708432
135	0xbe20cc3e	-0.15702912
136	0x3d4a8e91	0.04945237
137	0x38ae092f	8.298677e-05
138	0xbde54a80	-0.1119585
139	0x3e02ba54	0.12766391
140	0x3dfea230	0.124332786
141	0xbd1744f5	-0.036930997
142	0x3e13ae32	0.14421919
143	0x3d816b0b	0.06319245
144	0xbe187787	-0.14889346
145	0xbb4ea445	-0.0031531018
146	0x3daee107	0.08539014
147	0xbbb61da0	-0.005557731
148	0x3d62d31c	0.05537711
149	0xbdc74db0	-0.097316146
150	0x3de19a28	0.11015731
151	0xbdc0aa39	-0.094074674
152	0x3c81e30e	0.015855338
153	0x3c264172	0.010147439
154	0xbc63833e	-0.013886271
155	0xbd79a15f	-0.06094491
156	0xbd5f1261	-0.054460887
157	0x3da8a038	0.08233684
158	0x3d92443c	0.07141921
159	0x3c5629c6	0.013071483
160	0xbdf18456	-0.11792819
161	0xbe0ce20a	-0.13758102
162	0xbcb1f431	-0.021722885
163	0x3c42ce94	0.011890072
164	0xbe18b5bb	-0.14913075
165	0xbe099ce1	-0.13438751
166	0x3e0ecd7a	0.1394557
167	0x3d815846	0.06315665
168	0x3e2ce118	0.16882741
169	0x3d7727a8	0.060340554
170	0xbc6fb04d	-0.014629436
171	0x3dc6b008	0.09701544
172	0xbe1e3ddd	-0.15453286
173	0xbd13a10d	-0.036042262
174	0x3dce1764	0.10063055
175	0xbd54687d	-0.05185746
176	0x3d021b5e	0.03176438
177	0x3bdb1df9	0.0066869226
178	0x3d35c07d	0.044373024
179	0x3d3ad39a	0.045611955
180	0x3d1396a5	0.036032338
181	0xbd1e7058	-0.038681358
182	0xbdef4cc0	-0.11684561
183	0x3dec6a52	0.115437165
184	0x3da045e5	0.07825831
185	0xbd6d95c3	-0.058004152
186	0xbe7d928a	-0.24762931
187	0xbd9b2eca	-0.07577284
188	0x3bc35a78	0.0059617124
189	0x3d665dae	0.056241684
190	0x3dfbe8dc	0.12300274
191	0x3c6cc3d0	0.014450982
192	0x3d557a4e	0.052118592
193	0xbdbc17e4	-0.09184244
194	0x3e45d08d	0.19317837
195	0xbcdbbeed	-0.026824439
196	0x3da5c82c	0.080948204
197	0xbda92eba	-0.082608655
198	0x3e15c6bf	0.14626597
199	0xbd06a832	-0.032875247
200	0xbc8ea010	-0.017410308
201	0x3e16bc5c	0.14720291
202	0x3dcae078	0.09906095
203	0xbe2ac0db	-0.16675131
204	0xbdbbaadb	-0.091634475
205	0x3d463988	0.04839471
206	0xbe066fc4	-0.13128573
207	0xbd656de4	-0.056013003
208	0x3cac3911	0.021023305
209	0xbe11a375	-0.1422251
210	0xbda1d841	-0.07902575
211	0x3e0f83cd	0.14015122
212	0xbcfeefc5	-0.03112019
213	0x3c15c300	0.00914073
214	0xbd41d6c3	-0.047323953
215	0xbd5798d7	-0.052635994
216	0x3d81e4fb	0.06342503
217	0x3d32ad11	0.04362208
218	0x3d7b7098	0.061386675
219	0xbe3452cf	-0.17609714
220	0xbdc3aa9d	-0.09554026
221	0xbe1e6784	-0.15469176
222	0x3def024d	0.11670361
223	0x3d621b08	0.05520156
224	0x3d877239	0.06613583
225	0x3d5c7180	0.05381918
226	0x3cdaec19	0.026723908
227	0xbde86f6b	-0.11349376
228	0x3df74dc8	0.120753825
229	0xbd6e0eb2	-0.058119483
230	0x3debce1a	0.1151392
231	0xbe13c23b	-0.14429562
232	0xbd55fbbe	-0.052242033
233	0xbdd074d0	-0.1017853
234	0xbc961170	-0.018318862
235	0x3b957b57	0.0045618224
236	0xbda17d50	-0.078852296
237	0x3da61bcf	0.08110773
238	0xbdb6267e	-0.088940606
239	0x3e1d88aa	0.15384164
240	0x3da2c9d6	0.079486534
241	0x3b43fcca	0.0029905313
242	0xbc2483fa	-0.010041231
243	0xbc2c100b	-0.010501872
244	0xbabf3a68	-0.001458955
245	0xbc80e270	-0.015732974
246	0x3c11f674	0.008908857
247	0xbd5dc042	-0.05413843
248	0x3dd16f05	0.102262534
249	0xbddf2d2e	-0.10897289
250	0xbd4ee4c9	-0.050511155
251	0xbd887b22	-0.06664111
252	0x3da10be3	0.07863595
253	0xbe03cb77	-0.12870584
254	0x3e1131eb	0.14179198
255	0xbd07628d	-0.03305297

bias f4 [20]
0	0xbe068209	-0.13135542
1	0x3e2a6a45	0.16642101
2	0x3e1c4748	0.15261567
3	0x3e47c752	0.19509628
4	0xbd66335a	-0.056201316
5	0x3bc79aae	0.0060914373
6	0xbd98608d	-0.074402906
7	0xbc8ceb42	-0.017202023
8	0x3dff31db	0.12460681
9	0x3dedcbf7	0.11611169
10	0xbd8fa0f9	-0.07013125
11	0x3e184364	0.14869457
12	0xbe25168e	-0.16121885
13	0x3dd5f06f	0.1044625
14	0x3d0c6a38	0.034280986
15	0x3e1836a9	0.14864601
16	0x3d5915ad	0.052999187
17	0xbd08dc40	-0.03341317
18	0xbdbb5e64	-0.09148863
19	0xbe15ccb1	-0.14628865
