deploy/networks/go2/cheetah_v7/estimator.pt (torch, 338209 bytes, 6 tensors)

weight f4 [128, 572]
0.032351844 0.040220473 0.018060924 -0.034309324 -0.02333443 0.039031543 0.008149708 -0.006717309
-0.005384837 0.0084377015 -0.0010426199 -0.009510422 -0.0010851766 -0.023764811 0.025370425 -0.009133372
-0.0009577856 -0.037878424 -0.009234815 0.0136717 -0.031436507 0.025691563 -0.007546512 0.005245453
0.03261878 0.033130884 0.00016379704 -0.024331812 -0.037903227 0.023791991 -0.00034322016 0.002319885
0.020264573 0.0042234687 0.022270681 -0.03914573 0.020586949 0.005857736 -0.030116277 0.031193469
0.034503955 -0.019992247 0.023937834 -0.003864438 -0.036376435 0.004112441 0.023273112 -0.007931048
0.029558279 -0.030879436 0.021286383 -0.031129887 -0.008962802 -0.018954167 0.0014519879 0.0127632255
-0.026199661 0.02798029 0.028601136 0.0069510965 -0.021398563 -0.029615201 0.0033489524 0.0070597464
-0.035246305 -0.030901538 0.040432684 0.017345281 0.040225342 0.011702996 -0.01112667 0.026378896
-0.040585622 0.001513919 0.035005286 -0.006149412 0.023239592 -0.0176558 0.0077036 0.012082941
0.025477564 -0.008157364 -0.01902827 0.039946556 0.026751518 0.041172225 -0.03583754 -0.030341476
0.029486623 0.0015011888 0.017576655 -0.014238849 0.008894371 -0.026736904 0.028211473 0.002194373
0.008557118 -0.039153237 0.040883876 -0.009251702 -0.011504173 0.035120253 0.008423571 -0.03573161
-0.019219173 0.015368087 -0.03924657 0.021015562 0.014239731 -0.039650522 -0.03308926 0.036054794
-0.016314274 0.0015241669 0.009650807 -0.02683076 0.015685353 0.03745797 0.037992943 -0.038989764
-0.020004513 -0.030533625 0.0267124 0.0078065027 0.014147679 0.029564595 0.018166972 -0.0070064585
0.026663728 -0.011386482 0.032698568 -0.03610169 -0.016685875 -0.03487659 0.006851359 -0.0060458863
-0.036094423 0.029397452 -0.037128083 0.036660466 0.03772627 0.011437298 0.0066873375 -0.0026352424
0.0228637 0.005082289 0.004593978 -0.023351032 0.0318687 -0.0167753 -0.0069636023 -0.005790571
0.023478882 -0.031054888 0.040221483 0.017040227 -0.005177137 -0.002318624 0.02463044 0.02037275
-2.1567459e-05 0.0024302194 -0.023876563 -0.018406952 -0.008477038 0.02869753 0.035656173 -0.018621095
0.035783924 0.027170403 0.021936154 0.0074849995 -0.008664266 -0.012586863 -0.030291907 0.002924337
-0.011843007 0.03582184 0.024178775 0.016294481 0.008121491 -0.040716715 0.019411456 0.030875005
0.025355136 -0.031203875 -0.0030544596 0.03311941 -0.006479683 0.020596055 0.035187088 -0.033242658
-0.022142094 -0.030873895 0.024211463 0.008220183 -0.010081349 0.03878052 -0.041265447 0.01413963
-0.02588405 0.026007473 -0.008133504 -0.03880758 -0.027120164 -0.032147255 -0.0032450077 0.010650387
-0.03494037 -0.015727822 0.040812835 0.040520433 -0.036596656 -0.021536103 -0.010773472 -0.031105693
0.0030540607 0.018096833 0.0028621766 -0.03219587 0.033140507 -0.017898941 0.03986117 0.016690347
0.038669586 0.024891634 -0.04126589 -0.017309353 -0.034039743 -0.02630856 0.030561427 -0.012816259
-0.03672088 -0.028436866 0.040596645 0.020396326 -0.018745108 -0.01060161 0.024892306 -0.015414911
0.008631315 -0.0040054615 -0.0359239 0.0035365399 0.032564897 -0.0414313 0.014874195 -0.0012687617
0.006881739 0.016549429 0.02999179 0.012976373 0.0034729738 -0.025740081 -0.032781683 0.012979453
00000000: 5e83 043d 39be 243d 81f4 933c ef87 0cbd
00000010: d927 bfbc 8adf 1f3d 5a86 053c df1c dcbb
00000020: 4973 b0bb 493e 0a3c 85a8 88ba 9ad1 1bbc
00000030: 7c3c 8eba 6cae c2bc a3d5 cf3c 24a4 15bc
00000040: e713 7bba 6826 1bbd 9f4d 17bc 44ff 5f3c
00000050: 91c3 00bd 1d77 d23c bb48 f7bb 0de2 ab3b
00000060: 459b 053d 40b4 073d efc0 2b39 8253 c7bc
00000070: 6a40 1bbd 6ce7 c23c 3bf2 b3b9 3609 183b
00000080: e401 a63c 0665 8a3b 0171 b63c 4657 20bd
00000090: f6a5 a83c 40f2 bf3b 69b6 f6bc 7289 ff3c
000000a0: 0554 0d3d c8c6 a3bc 4719 c43c 8342 7dbb
000000b0: 75ff 14bd a8c1 863b 41a7 be3c 3af1 01bc
000000c0: 3424 f23c dff6 fcbc c860 ae3c 1b04 ffbc
000000d0: b7d8 12bc c545 9bbc a150 be3a d91c 513c
000000e0: aca0 d6bc ec36 e53c ee4c ea3c 06c6 e33b
000000f0: 0a4c afbc 949b f2bc 197a 5b3b 7255 e73b
00000100: 6e5e 10bd 3925 fdbc be9c 253d b117 8e3c
00000110: 54c3 243d ecbd 3f3c a34c 36bc 8e18 d83c
00000120: 1c3d 26bd b16e c63a b461 0f3d 0281 c9bb
00000130: f560 be3c e5a2 90bc 7b6e fc3b 87f7 453c
00000140: 53b6 d03c 77a6 05bc 2de1 9bbc 009f 233d
00000150: 0026 db3c 35a4 283d 62ca 12bd b08e f8bc
00000160: ee8d f13c 8ac3 c43a ebfc 8f3c 104a 69bc
00000170: b2b9 113c 5a07 dbbc bf1b e73c 78cf 0f3b
00000180: 2733 0c3c 255f 20bd da75 273d 7394 17bc
00000190: 007c 3cbc 41da 0f3d 0403 0a3c 4f5b 12bd
000001a0: 8771 9dbc 6eca 7b3c 03c1 20bd d428 ac3c
000001b0: c34d 693c 9668 22bd 9b88 07bd 31ae 133d
000001c0: 83a5 85bc 8ec6 c73a 6b1e 1e3c 2fcc dbbc
000001d0: 927e 803c 876d 193d 7d9e 1b3d bbb3 1fbd
000001e0: 81e0 a3bc a721 fabc f7d3 da3c b1cd ff3b
000001f0: abcb 673c 7331 f23c e7d2 943c 6f96 e5bb
00000200: e46d da3c 5e8e 3abc efee 053d 5edf 13bd
00000210: d1b0 88bc c1da 0ebd 5d81 e03b 921c c6bb
00000220: bfd7 13bd edd2 f03c 9e13 18bd 4929 163d
00000230: dc86 1a3d 8163 3b3c 7421 db3b 08b4 2cbb
00000240: a74c bb3c 5589 a63b 1589 963b aa4a bfbc
00000250: c188 023d 5b6c 89bc ee2e e4bb d5be bdbb
00000260: c956 c03c d266 febc 48bf 243d f297 8b3c
00000270: f9a4 a9bb 0ef4 17bb c7c5 c93c c1e4 a63c
00000280: c4eb b4b7 5144 1f3b c898 c3bc 2dca 96bc
00000290: 46e3 0abc 1517 eb3c 350c 123d 448b 98bc
000002a0: 2a92 123d 7794 de3c 73b3 b33c ba44 f53b
000002b0: 91f4 0dbc 2139 4ebc bc26 f8bc 3ca6 3f3b
000002c0: 2c09 42bc ecb9 123d 9112 c63c 017c 853c
000002d0: 0110 053c 92c6 26bd c604 9f3c 94ed fc3c
000002e0: 93b5 cf3c 459f ffbc 542d 48bb 38a8 073d
000002f0: 8553 d4bb 0fb9 a83c 5620 103d 7429 08bd
00000300: 5663 b5bc 40eb fcbc 1e57 c63c f2ad 063c
00000310: 3e2c 25bc 53d8 1e3d f505 29bd e8a9 673c
00000320: ca0a d4bc a00d d53c 6342 05bc b2f4 1ebd
00000330: 1b2b debc d7ac 03bd 32aa 54bb f67e 2e3c
00000340: a21d 0fbd a2d7 80bc 5c2b 273d c1f8 253d
00000350: 60e6 15bd 7b6c b0bc 3783 30bc 5ed1 febc
00000360: a326 483b cf3f 943c 5b93 3b3b d1df 03bd
00000370: 57be 073d cda0 92bc 7745 233d 32ba 883c
00000380: 0064 1e3d 8ae9 cb3c 6c06 29bd 58cc 8dbc
00000390: 426d 0bbd 0d85 d7bc f55b fa3c 49fb 51bc
000003a0: a268 16bd 6ef4 e8bc ab48 263d 3216 a73c
000003b0: 578f 99bc 60b2 2dbc f3ea cb3c d38e 7cbc
000003c0: 5c6a 0d3c 3f40 83bb f024 13bd 4bc5 673b
000003d0: c562 053d deb3 29bd e5b2 733c 944c a6ba
000003e0: 3680 e13b ab92 873c 58b1 f53c da9a 543c
000003f0: d59a 633b dddc d2bc 1646 06bd c6a7 543c

bias f4 [128]
-0.0064508584 0.02898497 0.0070327558 0.020483479 -0.016908733 -0.016228532 0.035693202 0.006109183
-0.031158926 0.027619425 -0.011260496 -0.02157654 0.028067822 -0.040158544 0.031370983 0.005593937
-0.034998402 -0.0040893285 -0.0063868887 -0.013503367 0.010897966 -0.032823164 -0.007833219 0.01844091
-0.013918752 0.025380671 -0.025677368 -0.014259689 -0.039531387 -0.041128192 0.0035328413 0.016695859
-0.007575511 -0.015166628 0.011696246 0.035205036 0.0034739359 0.00972493 -0.033252146 0.017809637
-0.018771445 0.03555829 -0.007403375 0.0120964935 -0.02569943 0.028843343 0.0012231396 -0.031630695
0.028316364 0.02583148 -0.021686615 0.014629381 -0.017505834 -0.021938626 0.040390864 0.016707523
-0.0060391575 -0.018718963 0.035494443 0.017441643 0.02073356 -0.015917737 0.031262808 -0.037012894
-0.030858891 -0.035435714 0.0013361057 0.041003373 -0.018985195 0.014521105 0.03181465 0.027374413
-0.008072998 0.011122518 -0.039977465 0.017208016 0.020282373 0.038594097 0.010307286 -0.03971746
-0.0016338783 -0.015130452 0.035522506 0.006616624 0.02989977 -0.023338264 -0.013500307 0.032795288
-0.016660256 0.018780641 0.035543047 0.034348078 0.01191719 0.025628032 0.025339615 0.016526047
0.011932692 -0.039511465 -0.020460824 -0.025165934 0.039794214 0.0013983459 0.007491868 0.03932574
-0.031283446 -0.029748214 0.028995955 0.024929306 -0.024546629 0.023996985 -0.032538794 0.020113118
0.02091118 0.03283257 0.030719936 -0.023110112 0.014508694 -0.022078354 -0.037592962 0.033344436
-0.02886184 -0.016693402 -0.016348317 0.015532183 0.0099756 -0.010301006 -0.012928727 0.016220883
00000000: b961 d3bb e371 ed3c 0873 e63b f8cc a73c
00000010: 2f84 8abc b3f1 84bc 0933 123d 8b2f c83b
00000020: 0141 ffbc 2242 e23c f27d 38bc 49c1 b0bc
00000030: 7dee e53c 497d 24bd dc7e 003d 584d b73b
00000040: 7c5a 0fbd c6ff 85bb 1b49 d1bb 3a3d 5dbc
00000050: 628d 323c 9571 06bd e756 00bc 6411 973c
00000060: 7a0b 64bc 20eb cf3c 5859 d2bc 78a1 69bc
00000070: aaeb 21bd 0976 28bd 3e87 673b c1c5 883c
00000080: fe3b f8bb 737d 78bc 9da1 3f3c 2833 103d
00000090: f9aa 633b 5055 1f3c 6733 08bd 84e5 913c
000000a0: 93c6 99bc 92a5 113d 0398 f2bb 5f30 463c
000000b0: 9c87 d2bc e048 ec3c c151 a03a 308f 01bd
000000c0: b8f7 e73c 8a9c d33c 21a8 b1bc 12b0 6f3c
000000d0: 6568 8fbc a2b8 b3bc e470 253d 37de 883c
000000e0: 20e4 c5bb 8358 99bc 9f62 113d c7e1 8e3c
000000f0: 6dd9 a93c ea65 82bc 6e0d 003d d59a 17bd
00000100: c9cb fcbc 0a25 11bd 4520 af3a 27f3 273d
00000110: d786 9bbc eee9 6d3c 1450 023d 4e40 e03c
00000120: 9c44 04bc 393b 363c 69bf 23bd d3f7 8c3c
00000130: 3827 a63c d814 1e3d e4df 283c c6ae 22bd
00000140: dc27 d6ba b7e5 77bc 0c80 113d 44d0 d83b
00000150: 5df0 f43c e32f bfbc 6430 5dbc 5a54 063d
00000160: 177b 88bc dcd9 993c 9695 113d 92b0 0c3d
00000170: 5140 433c e1f1 d13c 0695 cf3c a261 873c
00000180: 5681 433c c6d6 21bd 759d a7bc ca28 cebc
00000190: 42ff 223d b448 b73a 587e f53b 0714 213d
000001a0: 1223 00bd 87b2 f3bc ed88 ed3c 8b38 cc3c
000001b0: 0316 c9bc 5395 c43c 6647 05bd 44c4 a43c
000001c0: ec4d ab3c 727b 063d 60a8 fb3c 6b51 bdbc
000001d0: e0b5 6d3c aadd b4bc 14fb 19bd 2d94 083d
000001e0: aa6f ecbc 9ac0 88bc e8ec 85bc b37a 7e3c
000001f0: b370 233c 8dc5 28bc 03d3 53bc a8e1 843c

weight f4 [64, 128]
-0.042946424 0.019909538 0.04579218 0.06839338 -0.08742231 -0.08719898 0.07415005 0.036669254
-0.082372256 0.08312995 -0.016853303 -0.023293657 0.006550284 -0.01629788 -0.03685039 0.052450553
-0.005377611 0.07136748 0.037269626 -0.0122467885 -0.08355915 -0.05518132 0.04617774 0.04669875
-0.075011276 -0.01657626 0.068325564 -0.0065767523 -0.006464357 0.015142172 -0.008676055 0.025996387
0.05820913 -0.02791763 0.04010708 0.0020058106 -0.078662865 0.059398733 0.023488322 0.034976088
0.02500386 4.8784977e-06 0.009566502 -0.04417762 -0.06463443 0.07462356 0.07098918 -0.002096363
-0.020486655 -0.032297045 -0.058707558 -0.064184055 -0.030737232 0.07684854 0.015054232 -0.053771634
0.051068407 -0.0053605204 0.078974016 -0.011282089 -0.025574118 0.02668142 0.008473223 0.00826663
-0.04530544 -0.06002672 -0.050716523 -0.08193178 -0.06881955 -0.0042464426 0.046700742 -0.060942613
-0.051864352 0.047273263 -0.03540629 0.05136016 0.01991112 0.057820544 -0.0016003369 -0.023601487
-0.017324673 -0.073331 -0.002346768 -0.01909836 0.026382599 -0.032071 0.040467232 0.07081438
0.06631407 -0.050787814 0.07712171 -0.08362512 -0.02681278 0.047559567 -0.053173337 0.024375081
0.08675864 0.07793938 -0.009702752 -0.08289684 -0.087135 0.087621324 -0.07776281 -0.011581501
0.08454153 0.005856789 -0.018138675 0.026807113 0.06307445 -0.06280105 0.05357939 -0.023502737
0.061999436 0.08511177 0.0750222 -0.061950322 -0.06902249 -0.054917112 -0.028707251 0.06810706
-0.067662716 0.005178657 0.08038271 -0.045258887 0.008121234 -0.08208822 -0.05589102 -0.002885995
0.056571186 0.07179952 0.059572853 0.084891826 0.075410955 0.042551786 -0.024136446 0.023350786
0.048278835 0.049370047 -0.013395079 0.026213547 -0.042186867 0.057089318 0.0515557 -0.050635204
-0.061994787 -0.03757965 -0.072763644 0.063455306 0.01147293 0.01308118 0.08481108 -0.075221576
-0.008068624 -0.007147431 0.062355712 0.06840107 -0.020499784 -0.058895532 -0.024815537 -0.07515219
0.08645967 0.07912594 0.0167969 0.06452807 0.014450763 -0.083658785 -0.084317446 -0.020222701
0.019730298 -0.059301667 0.0014992476 0.0569537 -0.015209923 -0.057100613 0.0639265 0.023672167
0.06383741 0.08128938 -0.051543634 -0.042149346 0.031063996 0.031416755 0.054047886 -0.088066354
-0.044343226 0.060605355 0.011841937 -0.0490821 -0.0055805272 0.07129798 -0.061801966 0.02826513
0.029873107 0.048589014 0.00034160021 0.0036197188 -0.06810942 0.007056141 -0.0862144 -0.05164778
0.023069046 -0.0440779 0.01637425 -0.017650668 -0.011440993 0.010917161 0.015219754 -0.082054265
-0.006578712 0.015505067 -0.015894787 -0.050117437 -0.044136897 -0.05587789 -0.07184691 0.066988625
-0.03073837 0.06147908 -0.03291086 0.06688915 0.054181617 0.01843756 0.07937798 0.056466017
0.081281506 0.0551827 0.014604409 -0.029574685 0.016580138 -0.010206207 0.030614175 0.018353308
-0.026686447 0.038089402 0.054724246 -0.03780646 -0.034213673 -0.028514197 -0.036701348 0.04262566
-0.018017082 0.06356166 0.044642963 0.056120634 0.073185675 0.07767221 0.063039765 -0.004738138
0.034185097 0.05008879 -0.05098288 0.061600305 0.06100716 0.017139237 -0.042325813 -0.023407705
00000000: 97e8 2fbd 5419 a33c 9590 3b3d d411 8c3d
00000010: 780a b3bd 6195 b2bd fbdb 973d 8032 163d
00000020: c9b2 a8bd 0940 aa3d f00f 8abc 57d2 bebc
00000030: c4a3 d63b 2283 85bc 6ff0 16bd 64d6 563d
00000040: ac36 b0bb 1d29 923d 09a8 183d c1a6 48bc
00000050: 0f21 abbd cf05 62bd df24 3d3d 3047 3f3d
00000060: 839f 99bd f0ca 87bc 46ee 8b3d cc81 d7bb
00000070: f5d2 d3bb df16 783c 0326 0ebc 60f6 d43c
00000080: b26c 6e3d 83b3 e4bc 5247 243d eb73 033b
00000090: ff19 a1bd 164c 733d 956a c03c 1643 0f3d
000000a0: e5d4 cc3c fab1 a336 d1bc 1c3c 98f3 34bd
000000b0: 0e5f 84bd 3dd4 983d c662 913d 2363 09bb
000000c0: a1d3 a7bc e849 04bd 5677 70bd ee72 83bd
000000d0: a6cc fbbc c462 9d3d 07a6 763c a53f 5cbd
000000e0: 1b2d 513d 4ea7 afbb 21bd a13d 83d8 38bc
000000f0: d080 d1bc fe92 da3c 46d3 0a3c c270 073c
00000100: 3292 39bd 94de 75bd 21bc 4fbd d9cb a7bd
00000110: 44f1 8cbd be25 8bbb 4749 3f3d f69e 79bd
00000120: b76f 54bd 9ca1 413d 3006 11bd 085f 523d
00000130: a51c a33c 3cd5 6c3d 65c2 d1ba e857 c1bc
00000140: 79ec 8dbc 902e 96bd 3ccc 19bb 2a74 9cbc
00000150: 5220 d83c e25c 03bd f8c0 253d 2107 913d
00000160: accf 873d e206 50bd fdf1 9d3d a643 abbd
00000170: 7aa6 dbbc d2cd 423d 49cc 59bd 40ae c73c
00000180: 84ae b13d af9e 9f3d 4bf8 1ebc d2c5 a9bd
00000190: d673 b2bd cf72 b33d 1c42 9fbd 56c0 3dbc
000001a0: 1c24 ad3d 4fea bf3b 8f97 94bc 979a db3c
000001b0: 2d2d 813d d69d 80bd 1076 5b3d d088 c0bc
000001c0: 1ff3 7d3d 144f ae3d 3da5 993d 9fbf 7dbd
000001d0: aa5b 8dbd c4f0 60bd 782b ebbc b77b 8b3d
000001e0: c092 8abd b9b1 a93b b19f a43d 6261 39bd
000001f0: ed0e 053c de1d a8bd fbed 64bd f622 3dbb
00000200: 30b7 673d a00b 933d aa02 743d c4db ad3d
00000210: 0f71 9a3d c84a 2e3d ccb9 c5bc 264a bf3c
00000220: 07c0 453d 3f38 4a3d 0977 5bbc cbbd d63c
00000230: 23cc 2cbd 7dd6 693d 122c 533d dc66 4fbd
00000240: 3fee 7dbd 1eed 19bd 1b05 95bd dbf4 813d
00000250: f5f8 3b3c 7252 563c 6eb1 ad3d c50d 9abd
00000260: 4332 04bc ff34 eabb b468 7f3d dc15 8c3d
00000270: 2aef a7bc 713c 71bd f449 cbbc 64e9 99bd
00000280: c411 b13d c80c a23d a799 893c 4b27 843d
00000290: e5c2 6c3c 4c55 abbd a0ae acbd 14aa a5bc
000002a0: 6fa1 a13c 4ee6 72bd 6782 c43a 4848 693d
000002b0: 0a33 79bc 55e2 69bd e6eb 823d 22ec c13c
000002c0: 30bd 823d 0c7b a63d 6b1f 53bd cba4 2cbd
000002d0: ec79 fe3c dbae 003d 5161 5d3d 225c b4bd
000002e0: 3ea1 35bd 523d 783d af04 423c 500a 49bd
000002f0: dbdc b6bb ad04 923d 0f24 7dbd 468c e73c
00000300: 72b8 f43c 4605 473d ce18 b339 ce38 6d3b
00000310: f47c 8bbd 3337 e73b 2d91 b0bd 9f8c 53bd
00000320: 4cfb bc3c 078b 34bd 4b23 863c 2298 90bc
00000330: 0173 3bbc e4dd 323c 465c 793c 110c a8bd
00000340: 3c92 d7bb f708 7e3c c935 82bc f147 4dbd
00000350: e4c8 34bd 37e0 64bd 7924 93bd 5531 893d
00000360: 09cf fbbc 7dd1 7b3d 8acd 06bd 2efd 883d
00000370: 8bed 5d3d 5e0a 973c ec90 a23d e948 673d
00000380: eb76 a63d 4107 623d 5547 6f3c 9c46 f2bc
00000390: 12d3 873c ef37 27bc 94ca fa3c ad59 963c
000003a0: 899d dabc a203 1c3d 8826 603d f2da 1abd
000003b0: a323 0cbd 9b96 e9bc 2754 16bd 3e98 2e3d
000003c0: 8f98 93bc 9e2c 823d 8adb 363d c0de 653d
000003d0: 5fe2 953d 9c12 9f3d fe1a 813d 6242 9bbb
000003e0: ac05 0c3d e729 4d3d 6dd3 50bd 9a50 7c3d
000003f0: a5e2 793d 9667 8c3c d55d 2dbd 84c1 bfbc

bias f4 [64]
0.02167878 -0.019995287 0.017410737 -0.06436266 -0.03098791 0.086727485 0.081945345 0.06989962
-0.044396866 -0.06050024 0.056126125 -0.069618456 0.034692913 -0.01307763 0.059441637 -0.04363008
0.026241966 0.011849786 -0.077197745 0.072113186 0.046390373 0.06777995 0.08529891 -0.027168363
-0.067960545 0.08402661 0.023741351 0.027922876 -0.048708376 -0.009621694 -0.06887879 -0.087467894
0.07290354 0.0788139 0.074095346 0.07672831 -0.018921796 0.07894825 -0.08797071 0.080988765
-0.064533524 0.020359203 -0.023941897 -0.0011895947 0.067183256 0.009857104 -0.0685291 -0.008845917
-0.06385585 0.07127571 0.031374577 -0.023139715 -0.06946017 -0.025533888 0.059284598 0.002458394
-0.009860603 0.011519303 -0.023685811 -0.083240785 -0.008296829 0.06621628 -0.06446344 -0.053939957
00000000: b297 b13c 28cd a3bc f6a0 8e3c 92d0 83bd
00000010: 5cda fdbc 2e9e b13d f6d2 a73d 8827 8f3d
00000020: 7dd9 35bd 1acf 77bd 82e4 653d 1f94 8ebd
00000030: 281a 0e3d 8e43 56bc 1379 733d 74b5 32bd
00000040: 64f9 d63c 9b25 423c da19 9ebd 14b0 933d
00000050: d503 3e3d 37d0 8a3d 32b1 ae3d 3090 debc
00000060: e62e 8bbd 2516 ac3d 397d c23c 84be e43c
00000070: 6f82 47bd 4fa4 1dbc 5310 8dbd 5e22 b3bd
00000080: 744e 953d 2f69 a13d 4dbf 973d bb23 9d3d
00000090: e201 9bbc 9faf a13d fd29 b4bd 70dd a53d
000000a0: 272a 84bd 58c8 a63c cc21 c4bc 2dec 9bba
000000b0: 6097 893d b17f 213c fc58 8cbd 77ee 10bc
000000c0: dbc6 82bd 00f9 913d a182 003d 808f bdbc
000000d0: 2241 8ebd 722c d1bc 68d4 723d 021d 213b
000000e0: 5e8e 21bc 75bb 3c3c bf08 c2bc 257a aabd
000000f0: 6cef 07bc 679c 873d 6805 84bd 25f0 5cbd

weight f4 [3, 64]
0.08931297 -0.09777106 -0.116178796 0.124907464 0.09179732 -0.014104351 0.09675062 -0.097972274
-0.06431426 -0.06316842 -0.035183266 -0.057671085 0.04827933 0.05175656 0.04934582 -0.028026298
-0.035649225 0.019630864 0.0061187297 0.035253793 -0.002974704 -0.038876623 -0.051413253 0.09706442
-0.018620819 -0.08776271 0.08988413 0.059231013 -0.0019183457 0.08229734 0.102747366 0.061412588
0.03252411 -0.040435076 0.007692173 -0.021520257 -0.054478496 0.06720631 0.1239177 0.07589877
0.029268399 -0.0805496 -0.041938245 -0.0074652135 0.122097895 0.10119435 -0.042396188 0.037816048
-0.032306835 0.08622767 0.013315797 0.010008529 -0.060301095 0.09500021 0.08610225 -0.1064613
-0.10360436 0.040475518 0.101055786 -0.10065535 0.055569068 -0.121353164 -0.09496291 0.062229365
-0.07661618 -0.041819677 -0.019811884 0.11428617 -0.11848797 0.005041063 0.013706118 0.024348438
0.060791224 -0.04452412 -0.118039414 0.023401484 -0.07591587 -0.0043176264 0.07070196 -0.03194946
-0.046548277 0.05344318 -0.11389771 0.10509004 0.045644313 -0.05452311 0.0056464076 -0.12068722
0.060130253 -0.0260237 -0.024142504 -0.10310139 -0.09108947 0.024913698 -0.11135925 -0.09173252
-0.038653582 0.060390472 -0.026893333 0.093903854 0.097905025 0.11210914 -0.065552965 0.09505008
-0.10726577 0.06302519 -0.12383632 0.023558393 -0.070698634 0.055642635 -0.08466019 0.06272088
-0.05309622 -0.007825002 0.07497896 0.052287936 -0.024506569 -0.02885513 -0.11373563 0.0962629
0.10173249 -0.033641905 0.11330812 -0.121108696 0.07952298 0.11790533 -0.0841015 -0.08360313
-0.023266882 0.039199427 0.046234876 0.11251257 -0.043246746 -0.032166794 0.022377715 -0.101181135
-0.11863458 -0.10249595 0.107112095 0.095436215 0.076996684 -0.027162388 0.060975775 0.022747204
-0.120165646 0.0988117 0.025180385 0.035378456 -0.11776674 0.027994841 0.12249735 -0.09882456
0.015847579 0.06479736 0.116643265 0.0806739 0.08593714 0.11345099 0.037992492 0.064192995
0.08436687 -0.11696398 -0.0763465 0.11665706 0.09119102 0.0085529685 -0.11619477 -0.044809192
0.09500438 0.03480406 0.09679231 -0.08965239 -0.0072315335 -0.09418154 0.07965097 -0.105005726
0.006830111 0.03858508 0.12010169 0.06459662 -0.093667686 -0.03939542 0.023037374 0.07625833
0.11972518 0.085252345 -0.119268596 0.09842901 0.063521504 0.030827045 -0.10279095 0.0045214593
00000000: b8e9 b63d 323c c8bd 26ef edbd 7ccf ff3d
00000010: 3c00 bc3d f015 67bc 3025 c63d b0a5 c8bd
00000020: 32b7 83bd 725e 81bd 541c 10bd 8438 6cbd
00000030: 8cc0 453d b0fe 533d d81e 4a3d 6897 e5bc
00000040: ec04 12bd e8d0 a03c a07f c83b 4866 103d
00000050: 40f3 42bb 183d 1fbd b496 52bd b6c9 c63d
00000060: b08a 98bc f0bc b3bd 2c15 b83d 389c 723d
00000070: 0071 fbba 828b a83d 366d d23d c48b 7b3d
00000080: 0038 053d 409f 25bd a00e fc3b 404b b0bc
00000090: d824 5fbd 76a3 893d 90c8 fd3d d070 9b3d
000000a0: 48c4 ef3c 30f7 a4bd 70c7 2bbd c09e f4bb
000000b0: 760e fa3d fc3e cf3d a0a7 2dbd 00e5 1a3d
000000c0: 2c54 04bd 2298 b03d 802a 5a3c d0fa 233c
000000d0: 48fe 76bd 788f c23d 6056 b03d 6208 dabd
000000e0: 862e d4bd a8c9 253d 56f6 ce3d 6424 cebd
000000f0: 649c 633d 0288 f8bd ea7b c2bd 38e4 7e3d
00000100: f2e8 9cbd 1c4b 2bbd 884c a2bc de0e ea3d
00000110: d2a9 f2bd 802f a53b a08f 603c 6076 c73c
00000120: 3800 793d ec5e 36bd a6be f1bd 78b4 bf3c
00000130: c879 9bbd e07a 8dbb 30cc 903d 70dd 02bd
00000140: 68a9 3ebd 3ce7 5a3d 3443 e9bd 7239 d73d
00000150: 88f5 3a3d a053 5fbd 8005 b93b dc2a f7bd
00000160: 244b 763d a82f d5bc 80c6 c5bc d226 d3bd
00000170: 1e8d babd d017 cc3c 5210 e4bd 42de bbbd
00000180: 3853 1ebd 005c 773d 684f dcbc aa50 c03d
00000190: 6e82 c83d 7a99 e53d a240 86bd 9ea9 c23d
000001a0: 28ae dbbd 5a13 813d e69d fdbd 88fd c03c
000001b0: 72ca 90bd 88e9 633d 5262 adbd ce73 803d
000001c0: 6c7b 59bd 7034 00bc 928e 993d e02b 563d
000001d0: 00c2 c8bc 9861 ecbc 3aee e8bd 7c25 c53d
000001e0: 2059 d03d 18cc 09bd 160e e83d d607 f8bd
000001f0: f2dc a23d 5a78 f13d 683d acbd 1e38 abbd
00000200: 309a bebc 948f 203d c860 3d3d fe6c e63d
00000210: 8023 31bd 54c1 03bd 7851 b73c 0e38 cfbd
00000220: b0f6 f2bd 66e9 d1bd 965d db3d 1074 c33d
00000230: 70b0 9d3d a883 debc bcc1 793d 5858 ba3c
00000240: 6819 f6bd ca5d ca3d 1847 ce3c 00e9 103d
00000250: b02f f1bd 7055 e53c e4df fa3d 8864 cabd
00000260: c8d2 813c 7ab4 843d aae2 ee3d 5c38 a53d
00000270: d0ff af3d fe58 e83d 049e 1b3d 9e77 833d
00000280: 8ac8 ac3d d08a efbd 8e5b 9cbd e6e9 ee3d
00000290: 5cc2 ba3d c021 0c3c 86f7 edbd d889 37bd
000002a0: a891 c23d b48e 0e3d 0c3b c63d ac9b b7bd
000002b0: 80f6 ecbb 40e2 c0bd 0c20 a33d 3e0d d7bd
000002c0: 20cf df3b 640b 1e3d e0f7 f53d 3c4b 843d
000002d0: d8d4 bfbd 185d 21bd e0b8 bc3c 542d 9c3d
000002e0: 7a32 f53d c898 ae3d 1843 f4bd 2695 c93d
000002f0: 9017 823d 0089 fc3c 1084 d2bd c028 943b

bias f4 [3]
-0.10796417 -0.09281109 -0.003906429
00000000: 521c ddbd be13 bebd 8001 80bb
