deploy/networks/go2/adaptation_stairs_v5/encoder.pt (torch, 37631 bytes, 8 tensors)

weight f4 [30, 53]
0.061688818 0.07112936 0.5232661 -0.3468442 0.056321397 0.055665363 -0.104472354 0.020139737
0.30857638 0.028016238 0.22580418 0.09460212 0.16021726 0.23122242 -0.10628761 -0.2384352
-0.0041314457 -0.09437373 -0.07388837 0.07831303 0.15731849 -0.32955402 0.009135954 -0.008526931
0.07173368 0.060594685 0.093564935 -0.6449693 -0.11195298 -0.12913163 -0.27268118 -0.1750737
0.034490764 -0.008853401 -0.024114292 0.12640114 -0.0027476924 -0.011110345 0.018633269 0.071130894
0.020444421 0.06367126 0.00062451913 0.045528546 0.0013113939 0.05606014 0.022768736 -0.14081089
-0.007809578 0.0051888316 0.043159876 -0.064769246 0.069145836 -0.41207787 -0.16337575 -0.1174753
0.11333598 -0.21303456 0.024148379 -0.03837666 -0.040241536 0.03835769 0.21058826 0.06715014
0.047333162 -0.014336416 -0.2009342 0.3093269 -0.37324286 -0.21250235 -0.011950382 0.19753662
0.10091211 -0.15130517 0.09564581 -0.04372439 0.020932244 -0.05617328 -0.114552476 -0.031264283
-1.2517718 -0.24945086 -0.08209775 0.088849165 0.026512727 0.010857489 -0.10602092 -0.06956226
0.051509358 -0.1008527 0.049668662 -0.08405812 0.09309833 0.0019769904 -0.16539964 0.07461732
0.007036549 0.046288908 -0.018455425 -0.044003148 -0.2112973 0.03424454 0.088965096 -0.03664669
-0.16919346 -0.0070842477 0.26808584 -0.5767782 0.32748792 0.6970236 0.09495179 0.18159874
-0.008894625 0.075054556 0.42819506 -0.23090453 0.37619853 0.43671054 0.11481374 0.7173391
0.3701948 -0.6578498 -0.2544097 0.12745747 -0.026165042 -0.18273325 0.14333211 -0.16383827
-0.15450305 -0.04396004 0.5596973 0.1417786 0.254906 -0.12474224 -0.5498837 -0.2308943
-0.015054243 -0.39040363 -0.08638046 0.07396805 -0.05854593 -0.071129344 -0.0019514727 -0.09502131
0.01024707 0.14103355 -0.050063893 -0.11535624 -0.13008636 -0.047331423 -0.13197023 0.019741422
0.004397675 -0.10665926 0.02632589 -0.017320296 -0.072622225 0.023658134 0.01073907 -0.27381578
-0.4247223 -0.38686392 0.034907624 -0.13045202 0.44499487 -0.037963234 -0.013211713 0.35887444
-0.020216417 -0.0961961 0.22694153 -0.10894123 0.2214382 -0.17505085 0.029858422 -0.26999044
0.3804534 -0.21210384 -0.07739725 0.0013312803 0.3277129 -0.15306169 0.07743397 -0.7611504
0.299249 -0.092289254 0.30399057 -0.7008091 -0.27779 -0.14349183 0.017382618 0.0786816
-0.018591166 -0.0012888393 -0.05612597 -0.02588921 0.023042342 0.12375941 0.14333373 -0.047492087
-0.15626036 0.0037141307 0.017513936 -0.0052366583 0.07320625 0.10611196 0.08155539 0.02189345
0.11543207 -0.0058259224 0.0712986 0.05777221 -0.23109272 0.1586669 0.19124041 0.15006906
-0.19714722 -0.11065111 0.09006387 0.101562224 -0.016211167 0.12555602 -0.35582307 -0.13173586
-0.11518775 -0.17728135 0.09456458 -0.09487949 0.09509339 0.23208778 -0.07714375 0.076437145
0.1297076 -0.069357224 0.6725169 0.25285688 -0.15857854 0.466972 0.18069756 -0.0154075585
-0.07609991 -0.00093811966 0.22264302 0.20294818 0.0912618 0.0015812137 0.20715617 -0.0014113885
0.025067309 0.15967748 0.02457196 0.018231181 0.04540007 -0.05147291 0.027441503 -0.12880893
00000000: 6aad 7c3d 45ac 913d c4f4 053f 9095 b1be
00000010: 44b1 663d 5d01 643d 9af5 d5bd 17fc a43c
00000020: b9fd 9d3e 4f82 e53c 3639 673e c2be c13d
00000030: fe0f 243e 92c5 6c3e 52ad d9bd 5b28 74be
00000040: 1461 87bb 0447 c1bd c952 97bd 9562 a03d
00000050: 1918 213e 4ebb a8be f8ae 153c 8ab4 0bbc
00000060: 1ce9 923d 2232 783d f99e bf3d b51c 25bf
00000070: 9b47 e5bd 153b 04be de9c 8bbe 8546 33be
00000080: 3046 0d3d db0d 11bc 568b c5bc 4d6f 013e
00000090: a112 34bb 2a08 36bc cca4 983c 13ad 913d
000000a0: 0f7b a73c 1466 823d c5b6 233a 247c 3a3d
000000b0: 14e3 ab3a 519f 653d 8085 ba3c bb30 10be
000000c0: 7de7 ffbb 1307 aa3b 69c8 303d bda5 84bd
000000d0: 559c 8d3d dffb d2be f94b 27be e496 f0bd
000000e0: b21c e83d bb25 5abe d2d2 c53c d830 1dbd
000000f0: 4fd4 24bd f41c 1d3d 73a4 573e 0386 893d
00000100: 6be0 413d 49e3 6abc b2c1 4dbe 1860 9e3e
00000110: b019 bfbe 379a 59be 89cb 43bc 0a47 4a3e
00000120: 02ab ce3d beef 1abe f3e1 c33d 5918 33bd
00000130: 197a ab3c f415 66bd 7d9a eabd fa0e 00bd
00000140: 0f3a a0bf 0c70 7fbe dd22 a8bd 8df6 b53d
00000150: 3831 d93c 9ce3 313c 7f21 d9bd a876 8ebd
00000160: 7afb 523d dc8b cebd 5e71 4b3d aa26 acbd
00000170: 56aa be3d 6590 013b 865e 29be f7d0 983d
00000180: da92 e63b 7099 3d3d d52f 97bc a53c 34bd
00000190: 525e 58be 0144 0c3d 5533 b63d d71a 16bd
000001a0: 0d41 2dbe fa22 e8bb 8c42 893e bca7 13bf
000001b0: 7fac a73e 2370 323f 1676 c23d 05f5 393e
000001c0: c3ba 11bc 34b6 993d 623c db3e 3d72 6cbe
000001d0: 189d c03e 8698 df3e 7723 eb3d 89a3 373f
000001e0: 2c8a bd3e d868 28bf fd41 82be 3684 023e
000001f0: 1258 d6bc 6d1e 3bbe a7c5 123e 38c5 27be
00000200: 0c36 1ebe 710f 34bd 5248 0f3f 692e 113e
00000210: 0a83 823e dc78 ffbd 2ec5 0cbf 8e6f 6cbe
00000220: 12a6 76bc fce2 c7be 3de8 b0bd 907c 973d
00000230: dbcd 6fbd 43ac 91bd 8fc8 ffba 889a c2bd
00000240: 54e3 273c 196b 103e cc0f 4dbd e43f ecbd
00000250: 5c35 05be 98de 41bd 3423 07be c3b8 a13c
00000260: 5f1a 903b 2c70 dabd 65a9 d73c 4be3 8dbc
00000270: f6ba 94bd b4ce c13c edf2 2f3c 9531 8cbe
00000280: 3475 d9be 0713 c6be 4cfb 0e3d 3795 05be
00000290: 5ed6 e33e 567f 1bbd f175 58bc 64be b73e
000002a0: e69c a5bc 7602 c5bd 5c63 683e 941c dfbd
000002b0: b2c0 623e 8840 33be a699 f43c 303c 8abe
000002c0: caca c23e c031 59be 7382 9ebd 5b7e ae3a
000002d0: fcc9 a73e 34bc 1cbe b495 9e3d c1da 42bf
000002e0: 2a37 993e 2602 bdbd a7a4 9b3e 3a68 33bf
000002f0: 7e3a 8ebe 86ef 12be fe65 8e3c d223 a13d
00000300: 804c 98bc 45ee a8ba 58e4 65bd 9c15 d4bc
00000310: 4bc3 bc3c 9375 fd3d 14c6 123e 1087 42bd
00000320: b702 20be c668 733b 6379 8f3c 4698 abbb
00000330: 29ed 953d 3a51 d93d 8306 a73d e459 b33c
00000340: a667 ec3d 61e7 bebb 0005 923d 8ea2 6c3d
00000350: 92a3 6cbe 9379 223e 87d4 433e b4ab 193e
00000360: f6e0 49be 0d9d e2bd 6873 b83d dbff cf3d
00000370: 48cd 84bc c291 003e 712e b6be c4e5 06be
00000380: 8ee7 ebbd 3e89 35be 13ab c13d 2e50 c2bd
00000390: 53c0 c23d 6ba8 6d3e 8bfd 9dbd 148b 9c3d
000003a0: 12d2 043e 290b 8ebd 112a 2c3f 7576 813e
000003b0: 6a62 22be f416 ef3e c808 393e fc6f 7cbc
000003c0: 45da 9bbd 25ec 75ba 88fc 633e a6d1 4f3e
000003d0: 77e7 ba3d ba40 cf3a bf20 543e 57fe b8ba
000003e0: f559 cd3c 7e82 233e 234b c93c 8f59 953c
000003f0: 6cf5 393d 42d5 52bd 01cd e03c 7de6 03be

bias f4 [30]
0.28574485 -0.030487511 -0.11763134 -0.37009144 0.3078634 -0.08652769 -0.21300295 -0.07725896
-0.026304865 -0.13243997 0.03529848 -0.100888796 -0.2937251 -0.028931659 0.07194612 -0.014660994
-0.14693983 -0.057479683 -0.112422824 0.27644143 -0.23755187 0.08675773 0.49429548 -0.09936228
0.27984315 -0.1254451 -0.010400782 0.20216472 0.0495906 0.33771792
00000000: 264d 923e f2c0 f9bc b3e8 f0bd a07c bdbe
00000010: 46a0 9d3e 6e35 b1bd 721d 5abe f239 9ebd
00000020: 4d7d d7bc 589e 07be 2495 103d c99e cebd
00000030: 2363 96be 1602 edbc 7d58 933d aa34 70bc
00000040: 6577 16be d16f 6bbd f03d e6bd bb89 8d3e
00000050: cc40 73be 09ae b13d 4c14 fd3e 737e cbbd
00000060: 9a47 8f3e ae74 00be 0b68 2abc 4504 4f3e
00000070: 831f 4b3d 5de9 ac3e

weight f4 [20, 30, 4]
-0.08042685 -0.07527699 -0.039185837 -0.121023774 -0.027924532 0.07207873 0.049788974 0.06931501
-0.00086626445 0.004789771 -0.048912548 -0.073143415 -0.006756859 -0.04703006 0.016255938 -0.045660894
-0.042593252 -0.031570025 -0.024971811 -0.014277867 0.021078762 0.10197504 0.012533654 -0.043433495
0.073013596 -0.0059115365 0.022391034 0.034614753 -0.0651287 0.02293588 -0.08362982 -0.15697138
0.02542229 0.057369396 0.06590206 0.067299336 -0.033698604 0.039482336 -0.017520927 -0.06978004
-0.13033222 -0.11028341 -0.082506515 -0.13578619 0.019461997 -0.00015115786 5.7196597e-05 -0.0389088
0.11484406 0.08120712 0.09224014 0.14412463 -0.044760976 -0.015893541 -0.033729967 -0.062136963
-0.044470325 -0.0055470387 0.020241652 0.04054951 -0.1277525 -0.10853057 -0.06279811 -0.113782704
-0.042405598 -0.05750913 -0.03729168 -0.022408368 -0.040657915 -0.023853542 -0.029901206 -0.036953393
0.08063686 0.06572824 0.060807854 0.07926676 -0.05040169 -0.020389454 -0.071817234 -0.040361483
0.16097929 0.12272501 0.034017473 0.057152934 0.049091548 -0.0033716804 -0.06033221 -0.055091217
-0.055516973 -0.05801999 -0.03816171 0.017665794 -0.04795717 -0.076322995 -0.061008707 -0.05136265
-0.031530775 0.051442612 -0.037031606 -0.13597563 -0.063036025 0.049760424 0.041199856 -0.041159827
-0.009795451 0.016145008 -0.0637289 -0.056779467 -0.04806572 -0.11789493 -0.10065308 -0.025647398
-0.04546508 0.014524544 -0.016223282 -0.011816702 -0.09069697 -0.10622062 -0.14725287 -0.037734196
-0.08703762 -0.12216436 -0.08561905 -0.13950144 -0.012746325 0.02679736 0.09186413 0.112340406
-0.027278552 -0.008310632 -0.018763326 0.009522351 0.12137934 0.008316714 0.038923446 0.046125367
-0.019409664 -0.059975892 -0.11126615 -0.0942822 0.038601268 0.04568455 0.05365925 0.033777025
-0.073890656 -0.07479729 -0.06106493 -0.07449005 0.060428806 0.055518303 -0.03680064 -0.041973386
-0.04588329 -0.0222674 -0.038559813 -0.015256376 0.16875264 0.1454682 0.079531476 0.052785665
-0.038125053 -0.0010799221 -0.04257182 -0.03394207 -0.051999275 -0.042888895 -0.11089909 -0.0692082
-0.07855177 -0.009828902 -0.017212577 -0.05597015 -0.06965779 -0.06560035 -0.051337156 -0.07999324
0.067993656 0.054675486 -0.008149596 0.0019311764 -0.043553878 -0.052927297 -0.033821013 -0.0604196
0.03777004 0.06880958 0.06773044 0.10010034 -0.1428311 -0.098142676 -0.1316206 -0.08750486
-0.08410656 -0.07965217 0.019060118 -0.02879118 -0.08699256 0.005288565 -0.13507035 -0.09576495
-0.072605014 -0.03434802 0.04453658 0.019215666 -0.091760434 -0.112724125 -0.058760222 -0.05660547
-0.036546975 -0.03370535 -0.08225178 -0.06435241 -0.14244215 -0.12056575 -0.03355154 -0.07065334
-0.062251795 0.021992845 -0.026645683 -0.0098648835 0.08417774 0.0742743 0.0903158 0.048608396
0.019358026 0.0057535716 0.04620416 0.022917088 -0.05659542 -0.034841433 -0.08721716 -0.040921554
-0.09303023 -0.03710161 -0.12553632 -0.073449954 0.00817255 -0.030709824 -0.07353172 -0.015933918
-0.19109783 -0.2690489 -0.19729158 -0.23801552 0.043169312 -0.04747456 0.042096883 -0.09417356
-0.30517438 -0.19082923 -0.10361381 -0.089928575 0.19554037 0.22078258 0.22278097 0.24196242
00000000: d5b6 a4bd d32a 9abd 5481 20bd 50db f7bd
00000010: fdc1 e4bc 039e 933d 86ef 4b3d 07f5 8d3d
00000020: 0616 63ba 83f3 9c3b 8658 48bd 37cc 95bd
00000030: a468 ddbb 98a2 40bd 2c2b 853c eb06 3bbd
00000040: 4376 2ebd 924f 01bd af91 ccbc b7ed 69bc
00000050: 5ead ac3c 4ad8 d03d f559 4d3c 52e7 31bd
00000060: 2788 953d 90b5 c1bb 676d b73c 33c8 0d3d
00000070: 3262 85bd 07e4 bb3c 1c46 abbd 1bbd 20be
00000080: 6842 d03c 2cfc 6a3d a9f7 863d 3cd4 893d
00000090: 8c07 0abd 3bb8 213d 0c88 8fbc d6e8 8ebd
000000a0: cf75 05be 45dc e1bd 2df9 a8bd 890b 0bbe
000000b0: c46e 9f3c 2180 1eb9 61e6 6f38 d55e 1fbd
000000c0: 5d33 eb3d eb4f a63d 66e8 bc3d 6895 133e
000000d0: 4957 37bd 2c33 82bc 6f28 0abd 5483 7ebd
000000e0: 8426 36bd efc3 b5bb d2d1 a53c 3e17 263d
000000f0: 8dd1 02be 4745 debd 4c9c 80bd e806 e9bd
00000100: 7eb1 2dbd b28e 6bbd 29bf 18bd c191 b7bc
00000110: ea88 26bd 8168 c3bc 60f3 f4bc 715c 17bd
00000120: f024 a53d 879c 863d a811 793d 9c56 a23d
00000130: 0172 4ebd c907 a7bc ea14 93bd 1552 25bd
00000140: c1d7 243e 4057 fb3d e855 0b3d 3219 6a3d
00000150: 3814 493d 69f7 5cbb e81e 77bd 54a7 61bd
00000160: c465 63bd 5ea6 6dbd 744f 1cbd dbb7 903c
00000170: bd6e 44bd 3b4f 9cbd 44e4 79bd a461 52bd
00000180: 6a26 01bd 7db5 523d 74ae 17bd 323d 0bbe
00000190: 0819 81bd 96d1 4b3d 2ec1 283d 3597 28bd
000001a0: 197d 20bc 8942 843c 4c84 82bd 9691 68bd
000001b0: 8fe0 44bd e672 f1bd 3423 cebd 7e1a d2bc
000001c0: 9739 3abd 5af8 6d3c b0e6 84bc d79a 41bc
000001d0: 55bf b9bd 328a d9bd 75c9 16be 2c8f 1abd
000001e0: c840 b2bd 4f31 fabd 0a59 afbd 77d9 0ebe
000001f0: f6d5 50bc 2386 db3c 4323 bc3d ba12 e63d
00000200: 4577 dfbc 5129 08bc 8cb5 99bc a303 1c3c
00000210: bb95 f83d d442 083c 316e 1f3d f4ed 3c3d
00000220: 0401 9fbc 48a9 75bd 82df e3bd 0717 c1bd
00000230: 5d1c 1e3d b91f 3b3d cdc9 5b3d c759 0a3d
00000240: fc53 97bd 522f 99bd 381f 7abd 3d8e 98bd
00000250: 3284 773d 2967 633d 45bc 16bd 49ec 2bbd
00000260: 1ef0 3bbd 1f6a b6bc e5f0 1dbd e1f5 79bc
00000270: 7ecd 2c3e 9ef5 143e 66e1 a23d c835 583d
00000280: 0429 1cbd 2c8c 8dba ca5f 2ebd d706 0bbd
00000290: 31fd 54bd 44ac 2fbd 101f e3bd 07bd 8dbd
000002a0: c0df a0bd 6709 21bc 6401 8dbc f540 65bd
000002b0: bea8 8ebd 7a59 86bd e946 52bd 7fd3 a3bd
000002c0: 4240 8b3d 67f3 5f3d e285 05bc 871f fd3a
000002d0: 8d65 32bd 4bca 58bd e787 0abd 8b7a 77bd
000002e0: c2b4 1a3d 09ec 8c3d 42b6 8a3d 6801 cd3d
000002f0: 5142 12be 07ff c8bd 8dc7 06be bf35 b3bd
00000300: 0f40 acbd ad20 a3bd f723 9c3c 7bdb ebbc
00000310: 2829 b2bd b34b ad3b e24f 0abe 6a20 c4bd
00000320: f0b1 94bd 82b0 0cbd fd6b 363d 2c6a 9d3c
00000330: e5ec bbbd e8db e6bd 8fae 70bd 23db 67bd
00000340: 48b2 15bd 9f0e 0abd 9f73 a8bd 32cb 83bd
00000350: 5bdc 11be 2deb f6bd 576d 09bd b3b2 90bd
00000360: bdfb 7ebd 572a b43c 0c48 dabc 52a0 21bc
00000370: 6165 ac3d 201d 983d 7df7 b83d 9919 473d
00000380: b994 9e3c 7588 bc3b 9340 3d3d 9ebc bb3c
00000390: 99d0 67bd e4b5 0ebd e99e b2bd 5c9d 27bd
000003a0: a286 bebd dcf7 17bd 988c 00be ee6c 96bd
000003b0: 29e6 053c 2b93 fbbc cc97 96bd d987 82bc
000003c0: 26af 43be c7c0 89be ce06 4abe 57ba 73be
000003d0: 4ed2 303d af74 42bd c86d 2c3d 11de c0bd
000003e0: d13f 9cbe bd68 43be 7a33 d4bd 792c b8bd
000003f0: bc3b 483e d414 623e b220 643e ffc4 773e

bias f4 [20]
-0.046787646 -0.0069238096 -0.4913973 -0.2711757 0.049047723 -0.18177482 -0.002537571 -0.040044274
0.0015551443 0.04857235 0.0084310975 -0.0243046 -0.15600474 -0.17666571 -0.1364649 -0.10193426
0.040912036 -0.14599983 -0.09056381 0.0015499906
00000000: 67a4 3fbd 20e1 e2bb 6d98 fbbe 8bd7 8abe
00000010: 44e6 483d 2e23 3abe 604d 26bb 7705 24bd
00000020: fcd5 cb3a cdf3 463d 9622 0a3c 711a c7bc
00000030: b5bf 1fbe dbe7 34be 74bd 0bbe e9c2 d0bd
00000040: 6193 273d fb80 15be 8579 b9bd 0e29 cb3a

weight f4 [10, 20, 2]
0.017808344 0.04390592 -0.082841 0.029491983 0.09830093 0.07511338 0.22212231 0.16165121
-0.034446023 -0.13904296 -0.018428005 0.21826719 -0.06032002 -0.012573194 0.21832018 0.06817186
0.096571274 0.08017322 0.059744492 0.08665884 -0.023880916 -0.034985848 -0.0060427175 -0.011735573
0.031157201 0.2240033 0.25896865 0.26212832 -0.039922822 0.013774774 -0.12759438 -0.13231172
0.054839753 0.10770741 0.07216594 0.1712106 0.053655285 -0.1413678 -0.05621138 -0.1105181
0.09981388 0.13523635 -0.054670602 0.03499168 -0.05661265 0.14034918 0.15988456 0.17508468
0.0654103 -0.059677366 -0.017600745 -0.0780162 -0.0864283 -0.060387716 0.11336252 0.043542575
0.05240413 0.111347765 0.04829139 -0.13705204 -0.040710695 -0.021986466 0.0020361168 -0.032863002
0.05054456 0.14147611 0.17179267 0.1798495 -0.035171848 -0.0723966 0.04461065 0.057744943
0.0077730357 0.10577505 0.11973717 0.21965979 -0.08473705 -0.055697985 -0.08187864 0.06069884
-0.01335375 -0.022689331 -0.03286576 -0.08197087 0.15186465 0.042388644 -0.030899232 -0.13711904
-0.00077831384 -0.08898866 0.025222586 0.1360815 0.011805137 -0.030663034 -0.020879978 -0.0016798306
-0.08438736 -0.05871889 -0.11692187 -0.017202346 -0.0045943754 -0.043649435 -0.0092526 -0.015121931
0.0897712 0.11133957 -0.0012870113 -0.05259366 0.08702802 0.16249949 0.077941865 0.05488551
0.07837916 -0.0677113 0.035948996 0.053644873 -0.010012668 0.13524063 0.0660334 0.061845023
-0.042619146 -0.06477083 0.07746602 0.09056989 -0.03596885 -0.21555239 0.19695768 0.19672509
0.070614 0.17136459 -0.1772861 -0.23366714 0.018250033 -0.001993624 -0.034661073 -0.093362086
-0.025201498 0.009018874 0.045201816 -0.106254116 0.039742187 0.06410243 0.014312828 0.012642882
-0.16056211 -0.16606617 -0.16338874 -0.011707448 -0.04272743 -0.06654959 0.03853447 0.023131777
0.024213167 -0.06283287 0.049546447 0.053149365 0.018598286 0.23706748 0.010407334 0.03519224
0.01209303 -0.03453417 -0.04190307 0.05089564 -0.057866286 -0.22591601 -0.18169658 -0.20260601
-0.0058612195 0.11397728 -0.07188135 -0.10426357 0.027954673 -0.018651059 -0.004567441 -0.094787836
-0.0925011 -0.03317259 -0.017474877 -0.12217909 0.005671209 0.025097381 0.008426625 -0.0091314
-0.034300383 -0.07263681 -0.12851556 -0.10695365 -0.05309572 0.010484239 0.034407567 0.10635157
0.12025302 -0.07682537 0.009444418 0.0308529 0.05926001 0.1205859 0.049439944 0.081103414
0.058711432 0.008739325 -0.07326877 0.040650282 0.1757573 0.01547637 -0.043056577 0.15545203
0.08085072 0.055518325 -0.033945728 -0.09011708 -0.03690469 -0.06664741 -0.034357518 -0.008023119
-0.10434462 0.13543272 -0.08577805 -0.08949453 -0.012103404 0.0024067902 0.015658818 -0.027010093
0.102605246 -0.021967318 -0.122550994 0.10439967 0.04504623 -0.112270385 0.1233699 0.04610223
0.19627811 -0.07291671 0.19200791 0.23401308 0.09156989 0.19577907 0.05831476 0.048317604
0.01166379 -0.035405394 -0.0056338357 0.096054755 -0.010758496 0.11242249 0.091408856 0.28749314
0.035686865 0.05395423 0.05213247 -0.16614349 -0.02629079 0.027882619 -0.07948088 0.030676303
00000000: cee2 913c b2d6 333d 8ba8 a9bd 2c99 f13c
00000010: ff51 c93d 0bd5 993d 0874 633e e587 253e
00000020: 4617 0dbd 4761 0ebe 54f6 96bc 6f81 5f3e
00000030: 2012 77bd ccff 4dbc 538f 5f3e b09d 8b3d
00000040: 29c7 c53d db31 a43d a4b6 743d 317a b13d
00000050: e9a1 c3bc 524d 0fbd fd01 c6bb 9046 40bc
00000060: 633d ff3c 1f61 653e 8a97 843e af35 863e
00000070: 1d86 23bd 97af 613c 1aa8 02be b97c 07be
00000080: a69f 603d b495 dc3d bdcb 933d d551 2f3e
00000090: a5c5 5b3d b8c2 10be e73d 66bd 5057 e2bd
000000a0: 386b cc3d 667b 0a3e 48ee 5fbd 7053 0f3d
000000b0: abe2 67bd b2b7 0f3e c7b8 233e 6649 333e
000000c0: d6f5 853d 4170 74bd 702f 90bc f5c6 9fbd
000000d0: 5201 b1bd 1c59 77bd 9c2a e83d b359 323d
000000e0: b7a5 563d 4c0a e43d 31cd 453d 5f57 0cbe
000000f0: 42c0 26bd f61c b4bc 5f70 053b 5b9b 06bd
00000100: d007 4f3d 1ddf 103e 6bea 2f3e 782a 383e
00000110: 5b10 10bd ab44 94bd a8b9 363d f685 6c3d
00000120: f3b4 fe3b 97a0 d83d c338 f53d 7fee 603e
00000130: 9e8a adbd 9223 64bd fdaf a7bd 599f 783d
00000140: b0c9 5abc fade b9bc 3f9e 06bd 58e0 a7bd
00000150: 6882 1b3e b79f 2d3d 6320 fdbc ef68 0cbe
00000160: c207 4cba b03f b6bd 999f ce3c f358 0b3e
00000170: 556a 413c 0b31 fbbc 7d0c abbc c32d dcba
00000180: 48d3 acbd 3883 70bd bc74 efbd efeb 8cbc
00000190: 6a8c 96bb c0c9 32bd 3898 17bc fac1 77bc
000001a0: f7d9 b73d 0006 e43d efb0 a8ba 736c 57bd
000001b0: bf3b b23d 4466 263e fc9f 9f3d a1cf 603d
000001c0: 4185 a03d 39ac 8abd 413f 133d baba 5b3d
000001d0: 2c0c 24bc 857c 0a3e 853c 873d 3551 7d3d
000001e0: 6a91 2ebd 92a6 84bd 81a6 9e3d b57c b93d
000001f0: 1354 13bd c4b9 5cbe 46af 493e 4d72 493e
00000200: 139e 903d 337a 2f3e 7d8a 35be 7046 6fbe
00000210: 1881 953c 76a7 02bb c5f8 0dbd 9f34 bfbd
00000220: 5f73 cebc e6c3 133c 8a25 393d c29b d9bd
00000230: b4c8 223d 2348 833d 5a80 6a3c 1724 4f3c
00000240: 656a 24be 400d 2abe 614f 27be 99d0 3fbc
00000250: f502 2fbd 274b 88bd 52d6 1d3d da7e bd3c
00000260: b15a c63c 85ae 80bd 37f1 4a3d 26b3 593d
00000270: 6f5b 983c d1c1 723e 8683 2a3c bd25 103d
00000280: d821 463c b473 0dbd 8ea2 2bbd f277 503d
00000290: 3305 6dbd 8756 67be ab0e 3abe f377 4fbe
000002a0: 790f c0bb ec6c e93d 8736 93bd 2388 d5bd
000002b0: 3301 e53c 1bca 98bc 79aa 95bb 2020 c2bd
000002c0: 3771 bdbd fbdf 07bd 7927 8fbc 0839 fabd
000002d0: 8dd5 b93b 0699 cd3c d40f 0a3c de9b 15bc
000002e0: 8f7e 0cbd 9cc2 94bd 9599 03be 840a dbbd
000002f0: e67a 59bd 16c6 2b3c f3ee 0c3d dace d93d
00000300: 3747 f63d 9f56 9dbd c3bc 1a3c 39bf fc3c
00000310: a0ba 723d bef5 f63d 8a81 4a3d 8c19 a63d
00000320: 667b 703d 632f 0f3c f00d 96bd e980 263d
00000330: b9f9 333e 9a90 7d3c 185c 30bd d12e 1f3e
00000340: 1095 a53d 2f67 633d ad0a 0bbd 4e8f b8bd
00000350: 5f29 17bd 707e 88bd 78ba 0cbd 6673 03bc
00000360: a2b2 d5bd e0ae 0a3e 67ac afbd e848 b7bd
00000370: 5b4d 46bc 3dbb 1d3b ec46 803c 4544 ddbc
00000380: b322 d23d cef4 b3bc 04fc fabd 7fcf d53d
00000390: 6582 383d 04ee e5bd 5ca9 fc3d b1d5 3c3d
000003a0: 21fd 483e 5b55 95bd b99d 443e 20a1 6f3e
000003b0: ff88 bb3d 4f7a 483e 75db 6e3d aee8 453d
000003c0: 7b19 3f3c 3f05 11bd 0a9c b8bb 5bb8 c43d
000003d0: 6744 30bc c33d e63d 9134 bb3d 4d32 933e
000003e0: 642c 123d 1cff 5c3d db88 553d 8521 2abe
000003f0: c85f d7bc 176a e43c dfc6 a2bd df4c fb3c

bias f4 [10]
0.12971668 0.06555955 0.058416195 -0.062426396 0.016333332 -0.06409298 0.035928138 0.07004402
-0.13829866 0.073693335
00000000: 73d4 043e 1644 863d d245 6f3d d2b2 7fbd
00000010: 7bcd 853c 2e43 83bd 6229 133d 3d73 8f3d
00000020: 2a9e 0dbe 88ec 963d

weight f4 [20, 30]
0.087844074 0.12625012 -0.06390134 -0.0025147253 -0.031812 0.040310383 0.0011525537 0.12896028
-0.03293133 -0.0005167856 0.08481368 -0.021222996 -0.0071699717 -0.04846558 0.1040879 -0.03650257
0.09339795 -0.22124587 -0.0968351 0.030367963 -0.0017881037 -6.89894e-05 0.030376408 0.092550136
-0.038877342 -0.11692892 0.05879119 0.09744733 0.03456737 0.19695914 0.023456702 0.11325213
-0.07088359 -0.019456059 -0.0062732506 -0.17426708 -0.009670162 -0.13962755 0.12104817 0.04424923
-0.07028044 0.043878034 0.07103086 0.037164614 0.028471885 -0.089809485 -0.08404389 0.004449242
0.1261004 0.010020265 0.17134416 0.09440699 0.020293955 0.08565723 0.025509216 -0.013133393
0.012518837 0.013110395 0.011871951 0.03574829 0.17798 -0.003450393 0.09545976 0.1054362
0.04356937 -0.105946615 0.10835589 -0.027767334 -0.14968394 0.055598132 0.050328963 0.100940414
-0.056421988 -0.03183264 -0.15030429 -0.1043152 -0.056040186 -0.15108946 -0.035575636 -0.031843867
0.016005969 -0.062356077 0.039951317 0.15732296 -0.20609021 -0.0574155 -0.03764923 -0.06560988
-0.027934037 -0.03837482 -0.11508026 -0.08696595 -0.08849298 -0.10348126 0.009435839 0.04273798
0.12814845 0.20741062 -0.03976911 0.14973551 0.06723285 0.34297314 0.056036454 0.012682013
0.10808485 0.013297579 -0.08353786 0.105266534 0.07214421 0.08231554 0.038854558 -0.01287426
-0.061205823 -0.1263707 0.11165997 0.030658562 0.13945962 0.041707523 -0.1925004 -0.0767869
-0.013545801 -0.03534881 0.13652012 0.037657175 -0.07400559 -0.11846455 0.109939 -0.004230453
-0.007876481 -0.17864387 -0.07662394 -0.06899189 0.19652256 0.046367176 0.16089593 0.11604873
0.12548517 0.18939006 0.084422216 0.09783244 -0.12110405 -0.039106533 -0.00063423824 0.11759296
-0.1045985 -0.027564313 -0.03245367 0.0923382 0.0034736393 -0.132024 0.121922426 -0.05105347
0.13098182 0.040000945 0.044435754 -0.060367197 -0.07508503 0.12420478 0.00699372 -0.06442647
-0.043636475 -0.05482866 0.04961456 -0.01189765 0.054890253 0.06764402 0.0071852324 -0.0011892257
-0.13132915 0.051135227 -0.23288299 0.014334613 -0.037725057 0.07196938 -0.025994727 -0.016802106
-0.02507568 0.06409505 0.10129054 0.08270024 -0.025296973 0.05558879 0.04189411 0.023312794
0.027243875 -0.17410417 -0.013332089 -0.05632633 0.027611615 -0.024410255 0.03280108 -0.06587791
0.011969601 -0.06288065 0.14886661 0.12762882 0.061495025 -0.01569097 -0.1856913 -0.13864057
0.025676548 -0.014076197 -0.024114104 0.06652463 0.023732059 0.04848265 0.06601571 0.042677116
0.12173846 -0.0030405624 0.08227815 -0.056174975 -0.04808457 0.10898522 -0.0007504203 0.25174785
0.10352505 0.11450361 -0.16943443 -0.039459407 0.095787674 0.018779147 -0.12910554 -0.023737818
-0.26273903 -0.09464951 0.07296909 -0.20361926 0.058421 0.00432327 0.06853669 -0.14401373
0.037733406 0.052447632 -0.21783617 -0.06528093 -0.25401387 -0.14719826 -0.072594695 -0.12412835
0.040900182 -0.20387974 -0.20160745 -0.13647889 -0.11335973 -0.16819488 -0.023886353 0.038959958
0.025000237 0.08114819 0.0067454893 0.044904552 -0.10019696 -0.06517694 -0.02707092 0.0959403
00000000: 98e7 b33d b647 013e b5de 82bd 17ce 24bb
00000010: 4d4d 02bd 801c 253d 4911 973a 2a0e 043e
00000020: 01e3 06bd e578 07ba cbb2 ad3d d9db adbc
00000030: 15f2 eabb d883 46bd 092c d53d b883 15bd
00000040: 6d47 bf3d 478e 62be 7b51 c6bd 3cc6 f83c
00000050: ce5e eaba 67ae 90b8 f2d7 f83c ed8a bd3d
00000060: d93d 1fbd 6e78 efbd 08cf 703d 7792 c73d
00000070: 8496 0d3d a8af 493e 4528 c03c bcf0 e73d
00000080: 6a2b 91bd 5062 9fbc d78f cdbb 1273 32be
00000090: 996f 1ebc 86fa 0ebe 1ae8 f73d ae3e 353d
000000a0: 31ef 8fbd 74b9 333d a178 913d ec39 183d
000000b0: df3d e93c 09ee b7bd 341f acbd f2ca 913b
000000c0: 7720 013e 0a2c 243c d874 2f3e 7458 c13d
000000d0: 823f a63c 0f6d af3d b4f8 d03c 712d 57bc
000000e0: cf1b 4d3c fbcc 563c 9282 423c cd6c 123d
000000f0: 6440 363e fd1f 62bb 6880 c33d efee d73d
00000100: cc75 323d 8afa d8bd b1e9 dd3d 5278 e3bc
00000110: bf46 19be deba 633d be25 4e3d d9b9 ce3d
00000120: be1a 67bd f162 02bd 5ee9 19be 35a3 d5bd
00000130: 658a 65bd 32b7 1abe c2b7 11bd b76e 02bd
00000140: f31e 833c 1669 7fbd fea3 233d 4519 213e
00000150: 5009 53be 842c 6bbd 1436 1abd 795e 86bd
00000160: ecd5 e4bc ea2e 1dbd 33af ebbd 341b b2bd
00000170: cf3b b5bd fced d3bd c798 1a3c 050e 2f3d
00000180: 5939 033e 7363 543e efe4 22bd 4454 193e
00000190: 60b1 893d 2d9a af3e 7b86 653d 38c8 4f3c
000001a0: 975b dd3d 17de 593c e615 abbd fb95 d73d
000001b0: 58c0 933d 0d95 a83d f525 1f3d 8fee 52bc
000001c0: f5b2 7abd 5267 01be fbad e43d aa27 fb3c
000001d0: 81ce 0e3e 82d5 2a3d d31e 45be 7342 9dbd
000001e0: 35ef 5dbc eac9 10bd eecb 0b3e 693e 1a3d
000001f0: 3e90 97bd 8b9d f2bd b327 e13d 9d9f 8abb
00000200: 5b0c 01bc 6bee 36be 03ed 9cbd 9f4b 8dbd
00000210: 363d 493e 82eb 3d3d e7c1 243e f5aa ed3d
00000220: 2f7f 003e 78ef 413e 8ee5 ac3d 605c c83d
00000230: 6605 f8bd 2c2e 20bd 0243 26ba 94d4 f03d
00000240: bd37 d6bd 8ece e1bc 24ee 04bd cf1b bd3d
00000250: ffa5 633b 4d31 07be 77b2 f93d 711d 51bd
00000260: 1920 063e 08d8 233d 4402 363d 9843 77bd
00000270: 2ec6 99bd 135f fe3d 932b e53b 06f2 83bd
00000280: 29bc 32bd 0494 60bd a338 4b3d 5cee 42bc
00000290: 9ad4 603d f388 8a3d 1972 eb3b cbdf 9bba
000002a0: 267b 06be 2c73 513d e178 6ebe badb 6a3c
000002b0: 9785 1abd af64 933d e5f2 d4bc 92a4 89bc
000002c0: 836b cdbc 4444 833d 6a71 cf3d be5e a93d
000002d0: 993b cfbc 12b1 633d 2999 2b3d 79fa be3c
000002e0: 8c2e df3c 5d48 32be d66e 5abc 70b6 66bd
000002f0: c131 e23c 04f8 c7bc 6d5a 063d ffea 86bd
00000300: 251c 443c 92c7 80bd 7d70 183e 21b1 023e
00000310: 35e2 7b3d 598a 80bc dc25 3ebe cbf7 0dbe
00000320: a057 d23c d99f 66bc f18a c5bc 113e 883d
00000330: bc69 c23c be95 463d 3f33 873d 33ce 2e3d
00000340: 0452 f93d 2c44 47bb 7281 a83d bb17 66bd
00000350: 53f4 44bd a533 df3d dbb7 44ba 18e5 803e
00000360: f104 d43d de80 ea3d 3880 2dbe 30a0 21bd
00000370: 542c c43d bad6 993c 3e34 04be d075 c2bc
00000380: bb85 86be 9ad7 c1bd d170 953d 9181 50be
00000390: dc4a 6f3d 38aa 8d3b f75c 8c3d 5678 13be
000003a0: 588e 1a3d 54d3 563d 7210 5fbe 02b2 85bd
000003b0: 1b0e 82be 24bb 16be 87ac 94bd 0137 febd
000003c0: f386 273d dac5 50be 2f72 4ebe 1fc1 0bbe
000003d0: 2529 e8bd 473b 2cbe 50ad c3bc 7a94 1f3d
000003e0: 4ccd cc3c 0631 a63d 4409 dd3b d6ed 373d
000003f0: 1034 cdbd 7d7b 85bd d6c3 ddbc 597c c43d

bias f4 [20]
0.023612091 0.11855159 -0.04143942 0.037209213 -0.0714525 -0.014526955 -0.15473823 0.104886636
0.069711074 0.08198232 0.051261127 -0.10720291 -0.0019237803 -0.050339237 -0.08233389 0.10161797
-0.060947653 -0.030059902 0.08458497 -0.14628781
00000000: 256e c13c 2dcb f23d 62bc 29bd b068 183d
00000010: b055 92bd 7702 6ebc b373 1ebe cece d63d
00000020: aec4 8e3d 59e6 a73d 30f7 513d 338d dbbd
00000030: 5b27 fcba 8430 4ebd ac9e a8bd 151d d03d
00000040: 3fa4 79bd 2f40 f6bc e23a ad3d 79cc 15be
