deploy/networks/go2/parkour_v12_ft_i/estimator.pt (torch, 731295 bytes, 6 tensors)

weight f4 [256, 572]
00000000: e689 13bd 9b5b 003d eafd 263d a1c7 013d
00000010: 3c5d 24bd 0ec0 a2bc 4112 b1bb af66 233c
00000020: 135e 203d 5d38 b7bc 32b0 bbbc 036a b6bb
00000030: f551 1f3d 1f14 1dbd 50aa 693c 6f99 7abc
00000040: 205f 673c 614f 8bbc a468 1a3d 19c5 223d
00000050: bdd7 62bb 42fc d33c 979d cebc 208f b7bc
00000060: c9c9 0c3d ee43 6abb a17a 0a3d e7a8 b1bc
00000070: 9ce7 e33c 5828 993c 09e8 153d 3f4e 073d
00000080: c711 ff3c 9e11 10ba 28a9 80bc 3c24 2bbd
00000090: 6181 c6bc 1d11 833c 9678 dc3c 6d10 143d
000000a0: 1fb4 8a3c 981d 6d3c 33cc 1d3d 9137 93bc
000000b0: abb0 7c3b a474 1f3d 1032 593b 434e 52ba
000000c0: 2011 16bd af7e e53c 92c3 8a3c 2c01 083d
000000d0: c270 ce3c e2b4 e53c 662c 063d f42f 84bc
000000e0: 0214 d83c 21cc 20bd dae2 e9bc faa0 0bbc
000000f0: 88fc 2a3d 4086 023d 2026 613c f48f bcbc
00000100: 5afa 153d b403 283d dea6 363c c4fe 05bd
00000110: 7eee cbbc 7c89 95ba f60a 143d a4d1 1e3d
00000120: e00f 97bc 207e d4bb 5f3a e7bc 9284 d33c
00000130: ecac ae3c 8db2 8a3c 0e4d 3e3c 72fd f1bc
00000140: 6568 073d a05f 1a3d 14b1 1fbd 906b bdbc
00000150: 5708 91bc fdf9 a5bc c2d7 d33b b95a a2bc
00000160: 2495 e03a 6d27 123d 1653 26bd 3f93 083d
00000170: 5070 6e39 f6c0 153d cf64 0fbc 78e6 283d
00000180: b41a 20bd 1e65 883b d08e 6bbc 08b1 b03c
00000190: 9746 04bd 22dd 0a3d 1165 9d3b c36b 983b
000001a0: 28d6 5dbc 5b66 a8bc 6a24 e83b c100 1ebc
000001b0: 836a db3c e2ac 0d3c da53 683c ec37 fd3c
000001c0: 04b6 b0b9 a15f 263d 81af 7fbc 9ff1 213d
000001d0: 34b8 183d 9d83 d23b 73d4 a93c 58eb f2bb
000001e0: 0f85 33bc 3733 f43c 37f3 553c a6ff 053a
000001f0: 6712 dbbc 1bc4 d33b 5f09 533c 8159 eabc
00000200: 6859 bd3c f710 8bbc dfca a83c affd a03a
00000210: a5c5 aabb 5f7d 0f3c b131 013d 8d9f 1f3b
00000220: 38d7 ce3b bb26 613c 2793 a13c 9d71 a4bc
00000230: 8a7c 183d 3e57 e93c 0e4a d93c 90d3 2f3b
00000240: 7cc7 113d eb2b d1bb 70f2 f1ba 9edb d23c
00000250: 55f7 5dbc a52e df3c da1c 143d d536 a3ba
00000260: b64a 1b3d f55e c83c 8aa9 243d 09a8 e53c
00000270: 0bb2 d33b 42ff 043b 328d 173b 1dd6 23bc
00000280: cf51 50bc 104a 923c ea2e d83c 0f6e c13c
00000290: acdc 2cbc 5ca9 0bbb 7d57 04bd 1386 07bd
000002a0: 5aa1 7b3c a372 bfbb 4fe9 b2bc 8199 963c
000002b0: 1f2a ba3c 954e 4d3c eebe 46bc 5759 f7bc
000002c0: bce6 a3bc fcc2 fc3b d7df 6fbc 18e4 123d
000002d0: 8f22 f7bb 9aa0 efbc 97f9 14bc 3016 b0bc
000002e0: f363 ffbb 97e6 f03c e843 f8bc 0a64 ca3c
000002f0: 4ece 183d 0745 baba c6c5 ed3c 7fde 593c
00000300: 6dec bfbc 9a29 c33c 0ea9 113c 4a90 d53b
00000310: 5b81 0bbd b138 08bc 4945 ad3b 6dfb a83b
00000320: dcb1 09bb dbff b2bc 0432 0d3d 982e d13c
00000330: 7047 d83c ee6d ba3c f0eb d23c 3ecf 773c
00000340: b22a 06bd f180 dd3c 92cc f0bc 7b2f 133d
00000350: 2298 0e3d 19c8 27bd 240f ee3c a5fd 003d
00000360: ac72 ca3c 127a b33c c8ae 003d d42b f1bb
00000370: 8fe1 093d ba4a 00bd 1d96 b0bb 56f2 c23b
00000380: 5f7e dd3c 62a8 0abc 5896 e4bc 5da1 09bc
00000390: f551 1b3d 9ae3 003c 1505 063d e4d4 143d
000003a0: 6ee0 a53c db59 543c cae4 10bd 0308 083d
000003b0: 2f25 163d bf9c af3c e3fb 4e3b 4e63 cabc
000003c0: 31ab 2bbc 329b edbc 78ea 193d bdfa 08bd
000003d0: e947 a3bc 0f3f 1fbd b9d3 9f3c f899 6c3c
000003e0: ecf4 1fbd 8f65 1a3d 4c70 c5bc 93c4 22bd
000003f0: 59e0 253d f314 f5bc e77d 1c3d c060 04bc
-0.036020182 0.03133736 0.040769495 0.03168452 -0.040127978 -0.01986697 -0.0054037874 0.009973212
0.039152216 -0.022365743 -0.022911165 -0.005566837 0.03889652 -0.038349267 0.014261797 -0.0152953705
0.014121801 -0.017005624 0.03769745 0.03973875 -0.0034613453 0.025877122 -0.025221629 -0.022407115
0.034372125 -0.0035746056 0.033808354 -0.021686984 0.0278204 0.018695995 0.03659824 0.033033606
0.031136407 -0.0005495789 -0.01570566 -0.041782603 -0.024231615 0.015999371 0.026912969 0.036148477
0.016931592 0.014472388 0.038524818 -0.017970832 0.003855745 0.038929597 0.0033141412 -0.0008022526
-0.036637425 0.028014509 0.016938958 0.033204243 0.025200251 0.028040353 0.032757185 -0.016136147
0.026376728 -0.039257172 -0.028550554 -0.0085222665 0.04174474 0.031866312 0.013742 -0.023017861
0.036615707 0.041019157 0.011148183 -0.032713667 -0.024893995 -0.0011408771 0.036143266 0.038774148
-0.018440187 -0.006484762 -0.028226076 0.02582005 0.02132269 0.016930843 0.011615051 -0.029539797
0.033058543 0.03768885 -0.038987234 -0.023122579 -0.017704172 -0.020260805 0.0064649293 -0.01981865
0.0017134291 0.03568213 -0.04060658 0.03334355 0.00022739288 0.036560975 -0.008752062 0.041235417
-0.039087966 0.0041624447 -0.014377311 0.02156879 -0.032293882 0.033902295 0.004803308 0.004651518
-0.013539828 -0.02055662 0.007084419 -0.009643734 0.026784187 0.0086471755 0.014180148 0.030910455
-0.00033704948 0.040618543 -0.015605808 0.03953707 0.037285045 0.006424381 0.020731186 -0.007413309
-0.010957017 0.029809577 0.013058475 0.0005111642 -0.026742173 0.0064625866 0.012880652 -0.028607132
0.023113921 -0.016975863 0.020604549 0.0012282635 -0.0052115493 0.008757918 0.03154153 0.0024356574
0.006312277 0.013742144 0.019723488 -0.020073706 0.037228145 0.028483983 0.02652457 0.0026828982
0.035590634 -0.0063834093 -0.0018459093 0.025739487 -0.013547738 0.027243922 0.036160327 -0.0012452254
0.037913047 0.024459342 0.040200748 0.028034227 0.0064604334 0.0020293747 0.002312493 -0.009999779
-0.012714817 0.017857581 0.026389558 0.02361205 -0.010550659 -0.0021310663 -0.032309998 -0.033086848
0.015358293 -0.005842523 -0.021839766 0.018383743 0.022725163 0.012530942 -0.012130482 -0.030193968
-0.020007484 0.0077136736 -0.01464077 0.03586206 -0.0075419615 -0.029251385 -0.00909271 -0.021494955
-0.0077938973 0.029406829 -0.030305818 0.024705905 0.037306122 -0.0014211246 0.02902497 0.013297676
-0.023428166 0.023823548 0.008890403 0.0065174447 -0.03405891 -0.008314298 0.0052878004 0.0051569254
-0.0021010553 -0.021850517 0.034471527 0.025534913 0.026401252 0.022757497 0.02574727 0.015125094
-0.03275556 0.027039023 -0.029394422 0.035933953 0.034813054 -0.040962312 0.029059954 0.031491894
0.024712883 0.021908794 0.031416684 -0.007359961 0.033662375 -0.031321265 -0.0053889886 0.005949299
0.027037797 -0.008462997 -0.02790372 -0.008400288 0.037919957 0.007866764 0.03271969 0.03633584
0.020248618 0.012960876 -0.03537444 0.033210766 0.036656555 0.021437047 0.0031583242 -0.024705555
-0.010477827 -0.029004667 0.037577122 -0.033442248 -0.01993175 -0.038878497 0.019510137 0.014441006
-0.039051935 0.03769451 -0.024101399 -0.03973825 0.040497158 -0.029917216 0.038206007 -0.008079708

bias f4 [256]
00000000: de06 bfbc 6379 883c fcbc e3bc 7d04 843c
00000010: 4a73 2b3c a0e4 aa3b 64e2 263c 8ced 1b3d
00000020: 1a2e fabc 84f1 15ba f16e 593c ddf4 023d
00000030: aaa0 edbc 324e 11bd 4f7f 873c 8e40 1fbd
00000040: eb26 24bc 8d0b 05bd da30 ab3b b280 0f3d
00000050: c410 733a c869 36bc 7e5b 19bc a09d 3e3c
00000060: 2047 90bc 66e7 d63b d01d 0cbd 906d 263d
00000070: 8fd4 72bc c835 edbc be9c d8bc 37db 8a3c
00000080: 410c c83b 632a 5abc 7d79 96bc 1bf1 cdbc
00000090: c0ed 1fbd c28f 283d 0bb1 893c 24fb 013d
000000a0: f73a aabc cb4a 20bc 62cd 943c e86f 553c
000000b0: 439f 04bd 8a59 223c 0ac6 ecbc e0b8 dfbc
000000c0: c134 e03c 928d 3abc 930e c63c 6f2c cd3c
000000d0: 35a5 153c a95a 22bd fca8 9c3c 3087 bbbc
000000e0: 62fb a8bb 2cdd cdbc 79d7 0fbd ce9c 2cbc
000000f0: aa65 26bb d928 29bd bddc 9c3c 008e ea3c
00000100: f111 96bc f334 21bd d3a7 1a3d 7ea9 ffbc
00000110: 2ef0 08bd 106c 583c 76a3 93bc 0b25 e2bc
00000120: 6329 143c 36bb e8bc 3f20 233d 1820 8e3c
00000130: a3e4 43bc 9867 6e3c 9067 5dbb b4a3 563b
00000140: 41ad 273d 0c71 53bc 2f06 6cbc f657 acba
00000150: e501 af3c 1c7d 27bd 7620 783c beab c9bb
00000160: 701d 1e3d da1c b9bc 8a6b debc adba 883c
00000170: 6102 e8bc 18c1 ee3b af76 f33c 05c7 243d
00000180: 08e2 dd3c 9934 22bb 4e6e 253c 0d42 163d
00000190: 089c 03bd 4038 02bd e2b1 08bd ee55 8cbc
000001a0: 881f c2bc b97f 803c c99d aa3c 8b7c 0abc
000001b0: 84b5 8dbb 7b07 d73c a940 fbbc bcd3 143d
000001c0: 07c1 31bb 9177 38bc 0c1f 94bc 049b eebc
000001d0: d801 0dbd 10a9 a53c 888b 843c 26e3 14bd
000001e0: 3a9e 85bc f4a8 02bd 4738 e63c 8039 a63c
000001f0: 230b a93c 67ba 1fbd 6057 79bc 3485 203c
00000200: 2c17 02bb e2f8 ecbc 3c26 17bd fffb 803c
00000210: 3f26 663c ca38 17bd fcfb 3c3c a116 f9bc
00000220: 3a07 0bbd 7913 20bd 1ddb 603c f3db 683c
00000230: 56bc f43c cf9f 5fbc e63b edbc 3faf b3bb
00000240: 6377 1c3c b332 673c 6d53 05bd e170 cb3c
00000250: de2e 843a 1ea3 f9bc 261b 463b 743c adbc
00000260: 14cf e7bc f3de 62bc c61c d53c 4be7 3bbc
00000270: edb7 8a3c adc7 edbc e3ba b8bc 2876 babc
00000280: b7df 833c 8d08 033d 82d3 cc3c 0e1a 97bc
00000290: 64fc 103d 0bfc 05bd 5afd a039 26ea 313c
000002a0: 5817 61bb 07f5 d83c 7604 1bbd d749 81bc
000002b0: 4ede 01bb 9e0a ba3b 48f7 ddbc 84c5 a3bc
000002c0: ddda d1b7 c581 38bc 8dc0 b43c 95c4 d4bb
000002d0: 894d c63c 018b 263d 8721 78bb 0790 1abd
000002e0: 2ff2 dcbc 95ac dbbc ef1f c33c 12d3 44bc
000002f0: 55f8 edbc 8d46 46bb ffca 873b 2f6c 0c3d
00000300: 8ada 93bc 4743 1a3c 96ea 0b3d 7f8c 383b
00000310: 3b9b ccbb 089f b03c 55b0 c3bc a5e5 1dbd
00000320: b9f7 993b ba87 a5ba cebd f13c adf5 093c
00000330: 2f8e b1bb 9686 5dbc ad64 943b 6e1a 763c
00000340: bba5 343c da88 0b3d 6b53 0cbd 80df c63b
00000350: fe2e 97bc 25a8 2e3c 0004 16bd 8777 97bc
00000360: af38 02bc 64c8 b6bc 8800 cf3c 095d fcbc
00000370: a07b cb3c 44de afbc c034 14bd 277d ea3c
00000380: ba8e b9ba f0ef e43b cc65 eebc b4f2 923c
00000390: 180c e2bc 4840 a5bc 1e1e 90bb 3db6 87bc
000003a0: d0ab d3bc 788b b8bc 050a 803c 7794 efbc
000003b0: fb64 533c 3061 3e3a d98c 06bc 725c 133c
000003c0: 8623 f2bc facc 14bc 11a3 1e3d 0bcd 17bd
000003d0: 4f41 453a 500e 04bd ead0 07bd ad4d 0dbc
000003e0: 2b9e 963c 590d 28bd 06bb 24bd 00c1 b43c
000003f0: b881 1abd 07e1 9fbb 010e 9b3c 8d81 f0bc
-0.023318704 0.016659444 -0.027800076 0.016115421 0.010464499 0.0052152425 0.010185812 0.03806834
-0.030539561 -0.00057198876 0.013271079 0.0319718 -0.029007275 -0.035474963 0.016540198 -0.038879924
-0.010019044 -0.03248172 0.0052243294 0.035034843 0.00092722126 -0.011133619 -0.009360192 0.01163426
-0.01761204 0.0065583466 -0.03420812 0.04063183 -0.014821186 -0.028956309 -0.026441928 0.016950233
0.0061049764 -0.01331577 -0.018368477 -0.025139382 -0.039045095 0.041152723 0.016808053 0.031733647
-0.02078007 -0.009783457 0.01816434 0.013027169 -0.032378446 0.009909043 -0.028903026 -0.027309835
0.027368905 -0.011386292 0.024176871 0.025045602 0.009133627 -0.03963724 0.019123547 -0.02289161
-0.0051569203 -0.025129877 -0.0351176 -0.010535432 -0.0025390186 -0.04129872 0.019148225 0.028632164
-0.018319102 -0.039357137 0.037757706 -0.03120875 -0.03343218 0.013209358 -0.01802228 -0.027605554
0.0090430705 -0.028409582 0.039825674 0.017349288 -0.011956367 0.014551066 -0.0033783652 0.0032751383
0.040936712 -0.01290537 -0.014405771 -0.0013148773 0.021363208 -0.040890798 0.015144458 -0.0061545065
0.038602293 -0.022596765 -0.027150888 0.016690576 -0.028321447 0.007286202 0.029719679 0.040228862
0.02708532 -0.002475059 0.0100970995 0.036684085 -0.032131225 -0.031791925 -0.033372767 -0.017130818
-0.023696676 0.015685903 0.020827191 -0.008452545 -0.004324617 0.026248684 -0.03067048 0.036334738
-0.002712311 -0.011258976 -0.01808121 -0.029126652 -0.034425586 0.020222217 0.016179815 -0.036349438
-0.0163108 -0.031899408 0.028103007 0.02029109 0.020635193 -0.038996127 -0.015218586 0.009797383
-0.0019850237 -0.02892727 -0.036901698 0.015745161 0.0140472045 -0.036919393 0.011534687 -0.030406298
-0.03394244 -0.03908107 0.013724116 0.014212596 0.029874962 -0.013648941 -0.028959226 -0.0054835374
0.009549948 0.014111209 -0.032550264 0.024834098 0.0010084768 -0.030473288 0.0030228584 -0.02114699
-0.028296985 -0.013847101 0.026014697 -0.011468719 0.016933406 -0.029025877 -0.022550052 -0.02276142
0.016097886 0.031990577 0.025003199 -0.018445041 0.03539695 -0.03271107 0.0003070634 0.010859048
-0.003434619 0.026484026 -0.03784605 -0.01578228 -0.0019816342 0.005677535 -0.027095452 -0.019991644
-2.5016658e-05 -0.011261408 0.022064472 -0.006493161 0.024206894 0.04065991 -0.003786178 -0.03773501
-0.02697095 -0.026815692 0.023818938 -0.012013214 -0.029049078 -0.0030254454 0.004144072 0.03428286
-0.018048543 0.009415454 0.034159265 0.0028159914 -0.006244091 0.021560207 -0.023887793 -0.038549084
0.0046987203 -0.0012628951 0.029509451 0.00842039 -0.005418561 -0.013520857 0.004528603 0.01502095
0.011025841 0.03406606 -0.03425924 0.0060691237 -0.018455025 0.010660206 -0.03662491 -0.018489612
-0.007948085 -0.02231235 0.025268808 -0.030806081 0.024839222 -0.02146829 -0.03618312 0.02862413
-0.0014156916 0.0069866106 -0.029101275 0.017937995 -0.027593657 -0.020172253 -0.0043981215 -0.01656639
-0.025838763 -0.022527441 0.015629778 -0.029245598 0.012902494 0.0007262407 -0.008212292 0.008994209
-0.029557955 -0.009082073 0.03872973 -0.03706078 0.00075246854 -0.032240212 -0.03315822 -0.008624476
0.018385967 -0.041028354 -0.040217422 0.022064686 -0.037721366 -0.0048791203 0.018927576 -0.02935865

weight f4 [128, 256]
00000000: 4455 853c 30bc 8d3b 1e62 4dbd c6d9 12bd
00000010: b224 5b3d 988d 913c a4a4 cfbc 18b8 253c
00000020: 0475 d23c 3ef7 38bd c4e5 b1bc bcea a13c
00000030: 1034 313d 38f6 303c b6de 74bd 36fd 003d
00000040: c268 0e3d e01a f2bb 6cb4 debc a88e 383c
00000050: 000c 9fbb e6ab 723d 581d 24bc dca4 113d
00000060: 6abc 533d 8005 243c ee58 65bd c003 b5ba
00000070: c019 673c 5419 6dbd 484c 753d e8c3 5f3c
00000080: 6025 773d d836 dfbc 24fb 4bbd 0417 93bc
00000090: 548b c3bc 243e 413d 6038 03bc c06f f93a
000000a0: 365a 6fbd d029 083d 1039 c83c f2e5 16bd
000000b0: fc87 fbbc 3cae fabc 80e7 92bc cc95 4bbd
000000c0: 6846 32bc 784e 643d bc6c 523d 40f8 17bc
000000d0: 1605 293d cef1 2a3d f616 633d 56c6 50bd
000000e0: 6259 33bd c0cb 4ebd f2bf 03bd 38ae 503c
000000f0: 9646 493d 1a60 1e3d 70a9 89bb 08ef c33c
00000100: f040 d43c 00c7 1fbb 8034 883b a20f 2fbd
00000110: eca1 29bd f02b 2dbd 503c 423d 908d a4bb
00000120: 7205 4fbd 50d1 cabc 1655 223d 00c2 993c
00000130: 509c 86bb c0db d03b 58a7 f83c a6b4 1dbd
00000140: 80fd a63b 5418 9dbc 54aa bb3c ba55 2abd
00000150: ca66 363d 78b9 953c d0c1 6cbd 94c0 b3bc
00000160: fcbd a6bc 3415 dcbc a2ea 39bd 9045 a4bc
00000170: 3c97 433d b4cb 363d 0038 20bd 7c87 173d
00000180: 781a 0d3d 04d6 d83c 30d6 023c 0411 b9bc
00000190: 7470 aebc 127b 17bd 8064 7eba a090 55bd
000001a0: 4656 6b3d 821a 7dbd a654 16bd 8484 593d
000001b0: 482b 60bc 5431 0cbd f0bc f43b f8b7 0c3c
000001c0: c06c 6b3c 2037 f6bc 109d cb3c 32c6 733d
000001d0: e69c 6ebd a87b 73bc 40f6 8a3a 1ac3 4dbd
000001e0: 70c5 a63b a079 a43b 7818 27bd 0060 c0b8
000001f0: c071 e3ba 7abf 74bd c6cc 293d 78a0 8bbc
00000200: 4041 403c 5ca3 69bd 9c5e f33c 36a4 64bd
00000210: a455 53bd 32a9 62bd 2047 133b 40c1 b2bb
00000220: 2227 64bd 5c3c f03c c023 c9bc da3b 50bd
00000230: 2014 b63b 7c7a 6ebd 0050 a6ba 6a06 1cbd
00000240: 0e6c 7fbd 4a47 61bd 08d7 51bc 1471 8bbc
00000250: 809e bebc b8e9 f63c cc5e dabc 80aa 2b3c
00000260: e0c4 19bb 00f1 a039 fa31 383d 200f d4bc
00000270: 9cbe 083d e00d 973b d877 303d baa6 63bd
00000280: 1263 27bd 56e6 7f3d 6895 69bd 98e4 e0bc
00000290: 22f2 62bd 78aa 2dbd 227e 3cbd eee1 663d
000002a0: 10e2 6f3c 800f 4cbc 40f4 91bb 5007 bbbb
000002b0: a44a 1ebd d8cb 32bc 00cc 7c39 d0f0 01bd
000002c0: 08b8 0e3c b8bc 3e3d 20d4 f93c 0ef5 703d
000002d0: 741e 82bc f8ce b9bc 264a 133d 50ac 0d3d
000002e0: a8c1 7abc 9069 b03b d83d c53c f0ce f7bb
000002f0: e025 7cbc 80dd 2cbb 4c83 6abd 4063 19bb
00000300: e81e 313d baa4 243d 32ef 6fbd 9819 ca3c
00000310: 60a3 2ebc f0c7 9e3c e88e c13c beb6 69bd
00000320: 68f7 d13c 9ac4 17bd c099 d53b 24e6 cb3c
00000330: 7e01 7fbd 7e37 1a3d ea7d 043d c844 503d
00000340: 80e3 8b3c 72fe 7abd 586a 9bbc 00fc 0639
00000350: acec 033d 6073 9f3b be54 6dbd cc17 873c
00000360: e064 56bb 40db a8bc f871 d7bc 5093 b83c
00000370: 80ad c4bc 8011 1e3d 28ad ae3c cc0f 96bc
00000380: fa3b 0cbd 2082 cdbb 9a24 083d 52a8 2bbd
00000390: fcbe 233d 6096 11bc 7cd2 51bd 80f5 05bd
000003a0: c096 eabc c833 ca3c cc81 283d a062 213c
000003b0: b86e bebc 6c94 92bc f090 263d b8eb 4ebd
000003c0: 626e 333d e0ae 44bd 74fc 2bbd 163c 2f3d
000003d0: c043 2bbb e448 40bd 087f 973c c05f dc3c
000003e0: 1a75 7bbd 209a 11bc a453 49bd 4c4a 5a3d
000003f0: 764f 003d 3e58 53bd 485c 90bc b84a 243c
0.01627601 0.004325412 -0.0501424 -0.035852216 0.053501792 0.017767712 -0.025347061 0.010114692
0.025690563 -0.045157664 -0.021716006 0.01976525 0.04326254 0.010800891 -0.059782706 0.03149148
0.034767874 -0.0073884577 -0.027185641 0.011264481 -0.0048537254 0.059245966 -0.010016762 0.035557613
0.051693358 0.010011077 -0.055993013 -0.0013810322 0.01410526 -0.057885483 0.0598872 0.0136575475
0.060338378 -0.027247831 -0.049800053 -0.01795531 -0.023870148 0.047178403 -0.008009046 0.0019030496
-0.05843564 0.033243 0.024441272 -0.036840387 -0.03070449 -0.03060066 -0.017932653 -0.049703404
-0.010881044 0.055738896 0.05137323 -0.009275496 0.041264616 0.04173451 0.05544182 -0.050970398
-0.043786414 -0.05048728 -0.032165475 0.0127368495 0.04913958 0.03866587 -0.0042011067 0.02391769
0.02590987 -0.0024380088 0.004156649 -0.042739518 -0.041414186 -0.04227823 0.0474208 -0.0050217584
-0.050542302 -0.024758011 0.039631926 0.018769264 -0.0041079894 0.0063738525 0.030353233 -0.038502358
0.0050961375 -0.01917664 0.022908367 -0.04158566 0.04453162 0.018276915 -0.05780202 -0.021942414
-0.020354263 -0.02686558 -0.04538978 -0.020052701 0.04775165 0.04462786 -0.039115906 0.036994442
0.03444907 0.026469238 0.007985637 -0.022591121 -0.021293856 -0.036982603 -0.0009704307 -0.05213988
0.057455324 -0.061792858 -0.03670182 0.053104892 -0.013682194 -0.03422673 0.007468812 0.008588783
0.01436919 -0.030055583 0.024855167 0.059515186 -0.0582551 -0.014861025 0.0010601953 -0.05023489
0.0050894544 0.0050193816 -0.04079482 -9.173155e-05 -0.0017352626 -0.05975292 0.041455053 -0.01704429
0.011734307 -0.057040557 0.0297082 -0.055820666 -0.051595345 -0.05533714 0.0022472814 -0.005455166
-0.055701382 0.029325657 -0.02455318 -0.05083833 0.0055565983 -0.05822228 -0.0012688637 -0.038092054
-0.06235891 -0.054999627 -0.012807615 -0.017021693 -0.023268938 0.030140743 -0.02665653 0.010477662
-0.0023463294 0.00030697137 0.044969536 -0.025886118 0.033384904 0.0046098083 0.043083042 -0.055578925
-0.040865965 0.062475525 -0.05702725 -0.027452752 -0.055406697 -0.0423989 -0.046018727 0.056367807
0.0146413 -0.012454867 -0.0044541657 -0.005707659 -0.0386454 -0.010912858 0.00024108589 -0.031723797
0.008710869 0.046566695 0.030496657 0.058827452 -0.015883662 -0.022681698 0.035959385 0.034588158
-0.01530496 0.005383678 0.024077341 -0.0075625107 -0.0153898895 -0.0026377141 -0.05725412 -0.0023405105
0.043242365 0.040196158 -0.058577724 0.024670407 -0.010659069 0.019382447 0.023627713 -0.057059042
0.025630668 -0.03705273 0.0065185726 0.024890013 -0.062257282 0.037650578 0.032346644 0.050846845
0.017076254 -0.061277814 -0.018971607 0.00012873113 0.03220813 0.0048660487 -0.057942145 0.01649084
-0.0032713935 -0.020612359 -0.026299462 0.022531182 -0.024008512 0.038590908 0.021322802 -0.01831808
-0.034236886 -0.0062716156 0.03323803 -0.04190857 0.03997706 -0.00888595 -0.051226124 -0.03270483
-0.028636336 0.024682894 0.04113941 0.009850174 -0.023246154 -0.017893039 0.040665567 -0.050517768
0.04380644 -0.048018336 -0.041988805 0.04278191 -0.0026132911 -0.046944514 0.01849319 0.026901126
-0.061390974 -0.008886844 -0.04915203 0.05329351 0.03132578 -0.051597826 -0.017622128 0.01002758

bias f4 [128]
00000000: f065 99bb ee12 503d a8fd f33c 2899 533c
00000010: 0618 443d 18c6 383c 527c 51bd 9c30 b53c
00000020: a06b 57bb 40fc 37bb ccfc e03c e84b 353d
00000030: 54d4 bebc 002a 3d3a 0ac1 7d3d 7a35 483d
00000040: 50bb 48bd 56aa 7dbd a6f2 7d3d fc76 253d
00000050: 70c2 3a3c 4078 2fbd 8099 893c cc54 c03c
00000060: c043 713b b457 bbbc 341b 473d 505d c23b
00000070: 4cd4 7cbd 0c52 9dbc d440 dcbc 60ee bb3c
00000080: 463d 443d 3000 e63c 5020 bbbc 20cf 79bd
00000090: e06f 44bc 00a8 07bd b02a 4e3c 48cb b4bc
000000a0: 32e5 7a3d 64cb 463d 804e f3bc bc14 3cbd
000000b0: 0099 cd39 f869 bbbc 6e06 4ebd 0048 7b3b
000000c0: 76d6 36bd c63b 123d 78ed 1e3d 7cab d53c
000000d0: 5881 b6bc c85f c4bc a20d 273d d05a 473d
000000e0: e834 4cbc e414 20bd 0680 6fbd 60de 42bb
000000f0: f063 a73b 20d9 88bb 2ec1 4d3d d81e 4c3c
00000100: b01a a33c 5887 833c 8e54 053d 7866 3abc
00000110: 0288 59bd e027 a33c e029 043d da63 0a3d
00000120: 3ca7 bcbc 4074 cfbc 2c73 d6bc 921e 55bd
00000130: e8ee 45bc 403c b6bb 0036 493a 18eb 2ebc
00000140: ecfb a13c c04c 9dbb 50e3 f23c 6aee 31bd
00000150: 76b3 543d f0f5 673c 988c 303c d427 e83c
00000160: b6cf 17bd 8a24 693d 304c 3ebd 9426 b3bc
00000170: 086e 273d e88c 523c e054 153d d420 d0bc
00000180: 6413 05bd 0635 14bd 18cd f33c 4431 e1bc
00000190: 9a78 04bd c048 fa3b 50dc a9bb 44ad 703d
000001a0: f07d efbb 802a 3d3d 94bc d3bc 529d 7ebd
000001b0: 108e 53bd 28c3 c6bc 742e 03bd 7c04 28bd
000001c0: 0806 2dbd c064 883b fcf9 eb3c e860 adbc
000001d0: 069b 7ebd 7ce9 523d 3652 163d 080b e3bc
000001e0: f6b0 243d 2aa4 08bd 263d 683d 6a0f 03bd
000001f0: a083 d9bc 1207 58bd f836 0c3c 0234 56bd
-0.0046813414 0.050799303 0.029784039 0.012914933 0.047874473 0.011277698 -0.05114395 0.022117905
-0.0032870546 -0.0028073937 0.027464293 0.044261843 -0.023294605 0.00072160363 0.061951675 0.048879124
-0.04900676 -0.061930023 0.061998986 0.040396675 0.011398897 -0.04283929 0.016796827 0.023477934
0.0036814064 -0.022868969 0.048609927 0.005931534 -0.0617259 -0.019204162 -0.026886381 0.022940814
0.047909997 0.028076261 -0.022842556 -0.060988545 -0.011989564 -0.0331192 0.01258342 -0.022069588
0.061253734 0.048533812 -0.029700518 -0.04591821 0.0003921464 -0.022877678 -0.0502991 0.0038342476
-0.04463812 0.035701536 0.038800687 0.026082747 -0.022278473 -0.023971453 0.040784486 0.04867059
-0.012463786 -0.039082423 -0.058471702 -0.0029734597 0.005108349 -0.004176274 0.05023306 0.012458526
0.019910187 0.016055748 0.03255134 -0.0113769695 -0.053108223 0.019916475 0.032266498 0.033786632
-0.023028962 -0.025323987 -0.026177965 -0.052031107 -0.0120808855 -0.0055613816 0.0007675588 -0.010676168
0.019773446 -0.004800409 0.029649407 -0.04344026 0.05192896 0.014157757 0.010775708 0.028339304
-0.037063323 0.056919612 -0.046459377 -0.021868981 0.04087642 0.0128509775 0.036457896 -0.025406279
-0.032489195 -0.03618338 0.029760882 -0.027489312 -0.032341577 0.007638067 -0.005183734 0.05875899
-0.007308714 0.04618311 -0.025846757 -0.06216175 -0.051649153 -0.02426298 -0.032026723 -0.0410199
-0.04224208 0.004162401 0.028805725 -0.021164373 -0.06215956 0.0514922 0.036699496 -0.027715221
0.040207826 -0.033359684 0.05669894 -0.031997122 -0.026552022 -0.052741118 0.008558027 -0.052295692

weight f4 [3, 128]
00000000: 874a 1fbd a9b7 0bbd 7554 19bd 0382 36bd
00000010: d1cc 35bd 210c 443d 150d b5bc 8781 c73b
00000020: 0c65 913d 9c9e ab3d 5c48 283d 84db c1bc
00000030: cebc d5bc 9b47 c43c df97 943b 2962 c53c
00000040: 606f 8d3d 4363 acbc 19bf 8f3d 5316 ab3d
00000050: 9e28 52bc a232 463d be35 563d 762a a33d
00000060: d006 163c 83b3 4fbd 0b77 0abd 8713 433d
00000070: d575 72bb 1df5 a23c d42b b4bd dd78 aaba
00000080: e1c6 efbc 040b 503c 8a82 963d 37c9 55bd
00000090: 9631 5f3b 1353 09bd 8e36 87bc c244 963d
000000a0: 6fe1 8fbd bfe8 66bd e09d 6d3c 56ed 913c
000000b0: 27ef 83bd a461 30bd 125d 463d efa9 a4bd
000000c0: 780c 7b3d 6be2 a23d 38d5 733d 0494 8fbd
000000d0: 2455 b5bc 2699 8c3a 8461 76bd 0e61 0abd
000000e0: 7486 04bb e702 923b a332 7cbd 4b03 a83d
000000f0: aaa7 993d 2ba0 81bd 3813 32bd 4723 a63d
00000100: 273d 61bc 1df1 023d 6c8a 4d3d 87a8 17bd
00000110: 4ae3 8fbd 13cd 933d 31df 923d 8c9f 9d3d
00000120: a9ca 443c cc17 a0bd 2444 b23b 21db d4bc
00000130: 7142 e03b 8314 8d3d 23d1 553a 1250 a7bd
00000140: a29c 0bbd 3fbd a5bd 98da 09bd 4221 d6bc
00000150: 6e61 863c dbec 16bd 4a96 ab3d 26ac aa3d
00000160: 2881 6abd 6773 b7bc 395d fdbc 6d58 9b3d
00000170: 7a79 973d d654 a4bd 9034 06bd 8b8e 3c3d
00000180: 91f0 25bd c841 533d 2e6b 8a3d 8401 04bb
00000190: fe48 66bd 8197 923c a1ab 41bd e956 783d
000001a0: b61f 173d 8407 58bd 4eb2 1fbd 652d 03bd
000001b0: 0e8c 7c3d 19c1 65bc ff0a 173d eed8 633c
000001c0: aad9 2fbd e014 04bc 98ec e3bc 68ef 9fbc
000001d0: f4b3 0a3d 056f eb3c 2013 37bc 7357 a63d
000001e0: e4e2 79bc a371 a63c 00e1 85bc efb1 adbd
000001f0: 0e48 babc 902b 843d fea4 8cbc 0564 a63d
00000200: 246a 1abd 642f 0a3d 3c62 2a3b 70e8 163d
00000210: bd12 74bd d60b d4bc 622b 92bc 0766 9fbd
00000220: 6b79 9ebd b38d 7cbd be2d 4ebd e37c 71bd
00000230: 5ae1 9f3c 978f b4bd 7b1e 533d 133f a2bc
00000240: 32b5 dfbb fc35 95bd 2cfb 8ebd 5001 d93b
00000250: 8ee1 183d e005 82bd f6fb 8c3d 54c4 25bd
00000260: 51fe ad3d c150 463d 5c4c 7abd 80fb 93bd
00000270: c9ac 1abd a40b a73d 2d3f c6ba a1b9 3bbc
00000280: 2f80 ab3d 0f83 b43d ae75 2a3b 2472 c03c
00000290: 2a69 0ebd 8d35 443d 3eea 13bd 9738 5d3d
000002a0: 3a26 203b 8c7c 9abd 102e 983d ebb0 963c
000002b0: d248 b7bc 982c 7e3d d29d a93d 562d aebd
000002c0: 180c b4bc bbd9 59bc ea42 43bd af3a 5a3d
000002d0: c775 3b3d 3f39 213d 054f df3b f30d a43d
000002e0: e143 943c 3c14 5abd 341d 37bc df4a b4bc
000002f0: 53d1 a1bd 548f 0ebc 853c a83d e7d5 82bc
00000300: bada 46bd 93f1 0bbd ceb1 b3bc 2535 ce3b
00000310: cd69 a53d e15a b23d 5725 90bb cf5a 17bd
00000320: c2c2 c7bb 87be 81bd c57b c13a 9087 53bc
00000330: 836a 063d 0af1 1d3d f66b a03d c3b7 52bb
00000340: 9f74 c73b f72d 3fbd b40d 9bbd c995 b33d
00000350: ab51 dbbc bb58 8abd 9677 383d c4fc 46bc
00000360: 9c85 a03d 32a5 963d ca36 f63a f1a0 2b3d
00000370: da92 dc3c a50b a43c 4ab8 a5bd 80ca b0bd
00000380: ffae 853b 8fee 2dbd 672a b0bd f207 4ebd
00000390: c41b bb3b 97cb 55bd 3a27 21bd 1c9c b33d
000003a0: 5cbf 8d3d 441a 9ebd 327b 23bd 8761 56bd
000003b0: ea6d 9fbc 1b26 6c3d 3206 913d eec1 1fbd
000003c0: 896f 893c 25ad 9dbc 5daf 113d bac1 e33c
000003d0: 3a0d 913d 5447 90bd 2d5a 013d 3df2 8b3d
000003e0: e0d9 823d 8d04 a03c b1a4 613d 00d8 613d
000003f0: f146 6e3d 8171 413d 151f 17bd 1ab8 503d
-0.038889434 -0.0341107 -0.03743406 -0.044557583 -0.04438478 0.04786313 -0.022100965 0.006088439
0.07099351 0.08379862 0.041084632 -0.023664244 -0.026091006 0.023959925 0.004534706 0.024094658
0.06906009 -0.021043425 0.07018871 0.083538674 -0.012827067 0.04838813 0.052297346 0.07967083
0.009156898 -0.050708305 -0.033804934 0.047626045 -0.0036996503 0.01989227 -0.08797422 -0.0013005991
-0.029269638 0.012697939 0.07349117 -0.052193847 0.0034056655 -0.03352649 -0.016505506 0.07337333
-0.0702542 -0.056374308 0.014502972 0.017813366 -0.06442099 -0.043061867 0.048428603 -0.08040225
0.061291188 0.07953342 0.059529513 -0.070106536 -0.022135325 0.0010726794 -0.060151592 -0.033783965
-0.0020221742 0.0044559124 -0.06157173 0.08203753 0.075026825 -0.06329378 -0.04347536 0.08112197
-0.01374749 0.031968225 0.050180838 -0.037025955 -0.07025774 0.07216849 0.07171477 0.07696447
0.012011209 -0.07817039 0.005440252 -0.025983395 0.006843858 0.06888678 0.0008156469 -0.08169569
-0.034084924 -0.080927365 -0.033655733 -0.026138905 0.01640388 -0.036846977 0.08378275 0.08333616
-0.05725208 -0.022393895 -0.030928241 0.07585225 0.07396217 -0.08023994 -0.03276497 0.046034377
-0.040512625 0.051576406 0.06758724 -0.0020142505 -0.056221955 0.017894508 -0.04728282 0.06062976
0.036895476 -0.052741542 -0.038988404 -0.032025713 0.061657004 -0.014023089 0.03687572 0.013906701
-0.04293219 -0.008061618 -0.027822778 -0.019523337 0.033863023 0.028739462 -0.011173993 0.08122148
-0.015251849 0.020317858 -0.01634264 -0.08481204 -0.022739436 0.064536214 -0.017168518 0.08124546
-0.03769888 0.0337366 0.0025998494 0.036842763 -0.059588183 -0.02588455 -0.017842952 -0.07783132
-0.077380024 -0.061658572 -0.050336592 -0.058956992 0.019516636 -0.0881645 0.05154274 -0.019805467
-0.00682702 -0.07285687 -0.06981501 0.006622471 0.03732448 -0.06348777 0.06883995 -0.040470436
0.08495773 0.048416857 -0.06110798 -0.07225704 -0.037762437 0.08156517 -0.0015125029 -0.011457832
0.083740585 0.0881406 0.0026010084 0.023491926 -0.03476826 0.047902633 -0.036112063 0.054009046
0.0024436847 -0.07543287 0.07430661 0.018394908 -0.02237359 0.062054247 0.08282055 -0.08504741
-0.021978423 -0.01329654 -0.047671236 0.05327862 0.045766618 0.039361235 0.00681484 0.08010473
0.018098773 -0.053241953 -0.011176396 -0.022008358 -0.079012536 -0.008701164 0.08214668 -0.015971137
-0.048548438 -0.03416593 -0.02193537 0.0062929564 0.080768205 0.0870874 -0.0043989825 -0.036951836
-0.006096215 -0.06335168 0.0014761618 -0.012910739 0.03281642 0.03855995 0.07833092 -0.0032152988
0.0060869004 -0.046674695 -0.07570973 0.087688036 -0.02677234 -0.06755205 0.04503592 -0.012145225
0.07837984 0.07355727 0.0018784639 0.041901533 0.026925493 0.020025084 -0.08091791 -0.08632374
0.004079699 -0.042463835 -0.086018376 -0.050300546 0.005710097 -0.05219611 -0.03934405 0.0877001
0.069212645 -0.077198535 -0.03991241 -0.052339103 -0.01946159 0.057653528 0.0708126 -0.039003305
0.016776817 -0.0192476 0.03556763 0.027802337 0.07082601 -0.07044855 0.03158014 0.06833313
0.063892126 0.01953342 0.055088703 0.055137634 0.058173124 0.047227386 -0.036894877 0.050956823

bias f4 [3]
00000000: bfe0 68bd 10e3 e03c d6e5 de3c
-0.05685496 0.027452022 0.027209204
