deploy/networks/go2/cheetah_v6/encoder.pt (torch, 37519 bytes, 8 tensors)

weight f4 [30, 52]
-0.0107781375 -0.07032814 0.05651128 0.08132098 0.066531025 -0.0012276218 -0.061990477 0.035988003
0.05543416 0.017892929 -0.018122887 0.06864681 -0.025804307 -0.06952103 0.051990185 -0.07731611
-0.07409259 -0.02115815 0.07301967 -0.045877896 0.079899505 0.03421597 0.014221707 0.13340582
-0.079758875 -0.041567445 -0.023685645 -0.015638214 -0.10552715 -0.057735592 -0.08689031 -0.036746725
-0.050610043 0.0017867474 -0.029759336 -0.054321185 0.06476421 0.037547216 -0.022086995 -0.106144406
0.057226002 0.018773943 0.044324376 0.08205899 -0.1104497 0.047821686 -0.10662026 0.004642862
0.055323664 -0.09001138 0.11015826 0.07617969 0.021051664 0.006476246 0.05699968 0.02377264
0.040019736 0.0077706142 -0.027574794 -0.060519513 0.15117517 -0.12902382 0.15134045 0.12614912
-0.049730413 -0.08442346 -0.013062888 -0.07025679 0.019220509 0.09063714 0.026041852 0.027911203
0.019266626 -0.029729234 0.012251639 0.07538743 -0.08903589 -0.046310212 -0.012357005 0.059223298
-0.060780466 -0.03435665 0.039351415 -0.012801596 -0.030743876 -0.013398028 0.028761541 -0.062722854
0.095935725 0.02541467 -0.059479203 -0.0034271514 -0.027012002 0.05854987 -0.007340279 0.009013968
-0.010279844 -0.078479715 -0.0130797485 0.06074967 -0.097126424 -0.090794645 -0.04316607 0.13132799
0.04348947 0.053228494 -0.09302031 0.11756335 0.07762843 0.047869366 -0.13010155 0.13099727
0.03596537 0.032139577 -0.11447987 -0.057572845 0.020911086 -0.08647803 0.078146115 -0.012917375
0.054624364 0.04236937 -0.13628402 -0.09128903 0.024886066 0.12107183 0.03729421 -0.09630841
-0.17765066 -0.034431674 -0.0028215155 -0.12883277 -0.040088244 0.066588975 -0.14762494 0.005367371
-0.11026835 0.050875224 -0.0540075 0.029715326 0.038414836 0.10630419 0.024381997 0.03769409
-0.043409165 -0.014068021 0.022442976 -0.04123681 -0.04942035 -0.010992321 -0.06923073 0.11104229
0.0036334742 -0.045340236 -0.04110248 -0.007396327 0.006441249 0.086341664 -0.18813862 -0.07495622
0.10009861 -0.027132047 -0.092140794 0.08293739 -0.052504096 0.15039983 -0.1183681 -0.039041355
0.11241031 0.037681624 -0.16460761 0.22706403 -0.022658248 -0.0531551 -0.18400273 0.13857214
-0.072030276 0.030354166 0.044174474 -0.01897397 0.0038233234 -0.034073234 -0.003961143 0.13800305
0.045296848 -0.02923713 0.14264739 -0.010937045 0.05411327 -0.030574532 -0.06475678 0.0017518502
-0.06976343 0.043109857 0.090627864 -0.026922505 0.048652932 0.07294061 -0.030938754 -0.01876031
0.08402509 -0.06201737 0.08922113 0.011834998 0.06859734 -0.019536285 0.099918485 -0.013462848
0.033300668 0.027985904 -0.00083701254 -0.032220557 0.11384879 0.053566467 0.102573976 0.019941412
0.089440174 0.03973298 0.042569287 -0.005137079 0.050893016 0.0038589821 0.035401154 -0.08129337
-0.04940181 -0.048732866 0.06691404 0.06818166 -0.068268046 -0.031938743 -0.03741843 -0.12135289
-0.016435804 -0.059903882 -0.0653347 -0.10709901 0.0075510936 -0.01805965 0.034503613 -0.010161323
0.02357968 0.050906297 0.038466472 0.047398273 -0.018171463 0.039249074 0.032576274 0.07377023
-0.03982225 0.05589868 -0.08484607 -0.051954 -0.07399791 -0.12057291 0.13244902 0.08217669
00000000: c996 30bc 3308 90bd 5f78 673d 9d8b a63d
00000010: 6b41 883d 27e8 a0ba bae9 7dbd 2868 133d
00000020: ee0e 633d 3194 923c 7376 94bc b396 8c3d
00000030: 8e63 d3bc 0b61 8ebd a9f3 543d e957 9ebd
00000040: dbbd 97bd db53 adbc 568b 953d 76ea 3bbd
00000050: 5aa2 a33d 0c26 0c3d 2a02 693c 899b 083e
00000060: 9f58 a3bd a042 2abd 6608 c2bc b61b 80bc
00000070: 9e1e d8bd 287c 6cbd 8cf3 b1bd bc83 16bd
00000080: 7a4c 4fbd 4b31 ea3a dac9 f3bc e47f 5ebd
00000090: 19a3 843d 1ccb 193d c9ef b4bc 3d62 d9bd
000000a0: d065 6a3d d0cb 993c 7a8d 353d 8b0e a83d
000000b0: 7433 e2bd ace0 433d b95b dabd 2623 983b
000000c0: 119b 623d e357 b8bd a79a e13d 1904 9c3d
000000d0: 8a74 ac3c b036 d43b 7f78 693d d7be c23c
000000e0: bceb 233d a3a0 fe3b 89e4 e1bc 4fe3 77bd
000000f0: aacd 1a3e d21e 04be fef8 1a3e 3c2d 013e
00000100: 1eb2 4bbd 35e6 acbd b905 56bc cbe2 8fbd
00000110: 5474 9d3c f79f b93d b955 d53c 09a6 e43c
00000120: 0bd5 9d3c b98a f3bc 19bb 483c ba64 9a3d
00000130: 7358 b6bd c7af 3dbd 0975 4abc 2194 723d
00000140: f0f4 78bd 8fb9 0cbd f32e 213d c9bd 51bc
00000150: 95da fbbc 6783 5bbc 539d eb3c d774 80bd
00000160: f379 c43d 6d32 d03c 77a0 73bd 0f9a 60bb
00000170: 4648 ddbc fdd1 6f3d b986 f0bb 52af 133c
00000180: ca6c 28bc f9b9 a0bd 714c 56bc a5d4 783d
00000190: 38ea c6bd 8bf2 b9bd e8ce 30bd d87a 063e
000001a0: 0422 323d 1f06 5a3d 6f81 bebd 0ec5 f03d
000001b0: a8fb 9e3d ab12 443d 5739 05be 2624 063e
000001c0: 6c50 133d caa4 033d 6c74 eabd 81d1 6bbd
000001d0: ba4d ab3c 651b b1bd 120b a03d 66a3 53bc
000001e0: ccbd 5f3d 818b 2d3d 0a8e 0bbe bef5 babd
000001f0: dddd cb3c 82f4 f73d d0c1 183d 583d c5bd
00000200: 0eea 35be 3a08 0dbd 2de9 38bb bdec 03be
00000210: 9233 24bd cd5f 883d fe2a 17be c5e0 af3b
00000220: 5fd4 e1bd 8a62 503d f836 5dbd 8e6d f33c
00000230: e058 1d3d 03b6 d93d c1bc c73c 1e65 1a3d
00000240: cfcd 31bd 8f7d 66bc 55da b73c eee7 28bd
00000250: fe6c 4abd 2319 34bc d7c8 8dbd 246a e33d
00000260: 951f 6e3b afb6 39bd 135b 28bd e35c f2bb
00000270: 1d11 d33b e6d3 b03d 69a7 40be a682 99bd
00000280: 8000 cd3d 0744 debc 50b4 bcbd 14db a93d
00000290: 890e 57bd 6a02 1a3e f96a f2bd d4e9 1fbd
000002a0: 6037 e63d 0c58 1a3d e68e 28be 7983 683e
000002b0: ca9d b9bc 2ab9 59bd 366b 3cbe dbe5 0d3e
000002c0: 9c84 93bd 4da9 f83c 4bf0 343d 4d6f 9bbc
000002d0: b990 7a3b 6090 0bbd 7acc 81bb ac50 0d3e
000002e0: 3089 393d b582 efbc 2812 123e 4b31 33bc
000002f0: e0a5 5d3d 7177 fabc 349f 84bd 579e e53a
00000300: 21e0 8ebd f693 303d 1a9b b93d 968c dcbc
00000310: 4c48 473d e361 953d 4573 fdbc 39af 99bc
00000320: 5915 ac3d ed05 7ebd 91b9 b63d 94e7 413c
00000330: c37c 8c3d 8f0a a0bc 10a2 cc3d 4793 5cbc
00000340: 4866 083d b242 e53c f66a 5bba b4f9 03bd
00000350: 8e29 e93d 8368 5b3d 4e12 d23d 2c5c a33c
00000360: 692c b73d 0dbf 223d 225d 2e3d f154 a8bb
00000370: 3275 503d fae6 7c3b cd00 113d 237d a6bd
00000380: 8d59 4abd 1d9c 47bd 3a0a 893d d3a2 8b3d
00000390: 1ed0 8bbd 33d2 02bd 1144 19bd dd87 f8bd
000003a0: 61a4 86bc c65d 75bd 33ce 85bd ba56 dbbd
000003b0: 2a6f f73b d5f1 93bc a953 0d3d ad7b 26bc
000003c0: 2c2a c13c 1f83 503d 058f 1d3d b124 423d
000003d0: 52dc 94bc a3c3 203d b36e 053d d914 973d
000003e0: a81c 23bd 04f6 643d c7c3 adbd b8cd 54bd
000003f0: 378c 97bd eeee f6bd b7a0 073e 414c a83d

bias f4 [30]
0.192233 0.163104 -0.07393319 0.02028767 -0.10979856 0.12621912 -0.05420205 0.051042076
-0.06385139 -0.04746645 0.16638277 0.13519032 0.13387819 0.1060333 -0.11702161 -0.16236073
-0.17230937 0.14930725 -0.14986248 0.18230967 0.1984982 0.042733897 -0.12990959 -0.13129449
0.06001407 0.018888958 -0.17260163 -0.09408447 -0.08029132 0.11655259
00000000: bad8 443e bc04 273e 496a 97bd 5432 a63c
00000010: 11de e0bd 963f 013e f802 5ebd 7f11 513d
00000020: 84c4 82bd 2e6c 42bd 3f60 2a3e 556f 0a3e
00000030: 5d17 093e fd27 d93d 07a9 efbd e441 26be
00000040: de71 30be 00e4 183e 8d75 19be 63af 3a3e
00000050: 1d43 4b3e bd09 2f3d 0507 05be 1072 06be
00000060: 50d1 753d 04bd 9a3c 7bbe 30be 5caf c0bd
00000070: c76f a4bd 20b3 ee3d

weight f4 [20, 30, 4]
-0.09897999 -0.10638393 0.009073054 -0.08269291 -0.034296524 0.00028276752 0.008132632 -0.04518347
-0.051902615 0.08590316 -0.078665055 -0.06812749 -0.060418118 -0.060493883 -0.04542875 -0.012296511
-0.010356456 0.02090152 0.03190539 -0.010547378 0.015755469 -0.068239555 -0.022667563 -0.057389487
0.047881626 0.01681477 -0.037611008 0.053755347 -0.05186372 -0.016171256 -0.056595385 -0.08112675
0.010622877 -0.013563208 0.080231465 0.03140873 -0.0261759 -0.0111933965 0.051208276 0.030264033
0.00667001 -0.023714771 0.028230766 0.006833242 -0.016180357 0.029779455 0.0065557878 -0.0029515473
0.00822768 0.042890847 0.02546551 0.01645937 0.016512612 0.068994254 -0.060215008 0.08406407
0.10695895 -0.02354729 0.008748651 -0.020467104 0.06487526 -0.037144784 -0.052038535 0.0140251955
0.040674064 -0.011166367 0.039885357 -0.009312556 0.006674264 0.011793579 0.022284418 -0.05772061
0.050764166 0.10547945 -0.047404356 0.019055624 -6.820302e-05 -0.021349061 -0.007449454 0.06937903
0.029815389 0.0132279685 -0.019460099 -0.012926576 -0.08182762 -0.044980593 -0.00023738573 0.029330976
0.039797015 0.05376691 -0.018076817 0.037161615 -0.013353221 0.03918434 -0.07589499 0.04773294
0.0029532644 0.034062862 -0.0072970493 -0.017744988 -0.028161557 0.04759426 -0.05646662 0.053278133
0.03997129 -0.053251527 -0.009947094 -0.036321215 -0.0029367504 -0.06779306 0.019874472 -0.034937534
0.0033003658 -0.029667076 -0.005243356 -0.058868945 -0.06654484 0.11261699 -0.08245612 -0.005221057
-0.0137453545 0.012918909 0.04273266 0.06089745 -0.0024995534 0.047976583 -0.018609364 0.059040528
-0.0037336824 0.054184772 -0.0080782585 0.009464903 0.055421773 0.01665466 0.033770923 -0.026302755
-0.033980105 -0.04035809 0.06434527 0.044209495 0.054648627 0.024304444 0.0737103 0.005524851
0.049918786 0.026851432 0.08074009 -0.011151603 0.01309892 -0.05356126 -0.092987545 -0.061403945
0.048429206 0.009508367 -0.010887647 0.047660142 0.0041143596 0.052126747 0.02388686 0.021902952
0.07493709 0.035716306 0.03805816 -0.015203675 0.017645821 -0.029112697 0.021178761 0.017492468
-0.016615441 -0.040780354 0.036443926 -0.019296203 0.008431648 0.047736492 -0.06370075 -0.040343475
0.041303962 0.03055613 -0.008665271 0.058946162 -0.043063205 0.03128285 -0.03315918 -0.040830247
0.029473227 0.0268214 -0.046983335 0.028304823 0.03881236 -0.015048268 -0.029916052 0.03477331
-0.05298437 -0.007853361 0.018576194 -0.027529933 0.08387806 0.013198348 -0.03508436 0.014369169
0.046724267 0.02810766 0.010245678 0.051717736 -0.037071407 0.011604849 -0.03446386 -0.0034541383
0.014765117 0.06493283 -0.015099948 0.037129506 -0.062258016 0.017741635 -0.043928005 -0.0406998
-0.0051877606 -0.06860135 0.048619885 -0.01975359 0.014644394 0.041938093 0.05455205 0.0019495188
-0.051724292 0.028331174 0.00028010082 -0.04683362 -0.03934832 -0.0183747 -0.057345442 -0.066036105
0.019210745 -0.04778907 0.03470402 0.06497263 -0.015212321 0.09795037 0.04637204 -0.045181595
0.04018567 -0.008008176 -0.051285252 0.04434603 -0.039434034 -0.04744111 -0.044488203 0.0007116731
-0.05575521 -0.007912162 0.03820272 -0.03896455 0.0455963 -0.043838274 0.008726457 0.075979084
00000000: 05b6 cabd d1df d9bd 26a7 143c e75a a9bd
00000010: 837a 0cbd 6a40 9439 bb3e 053c 4d12 39bd
00000020: d697 54bd ffed af3d 251b a1bd 6d86 8bbd
00000030: fd78 77bd 6fc8 77bd 7f13 3abd 4e77 49bc
00000040: 20ae 29bc aa39 ab3c 3aaf 023d e9ce 2cbc
00000050: 9d11 813c 2ec1 8bbd 53b1 b9bc 3d11 6bbd
00000060: 861f 443d 21bf 893c 000e 1abd 912e 5c3d
00000070: 0d6f 54bd 9579 84bc 90d0 67bd c825 a6bd
00000080: 930b 2e3c 3838 5ebc 6550 a43d 71a6 003d
00000090: d76e d6bc 8264 37bc c5bf 513d 47ec f73c
000000a0: 1990 da3b 7b45 c2bc 3544 e73c 63e9 df3b
000000b0: ab8c 84bc 0bf4 f33c efd1 d63b bf6e 41bb
000000c0: 64cd 063c 50ae 2f3d 0c9d d03c cdd5 863c
000000d0: 7545 873c dc4c 8d3d 03a4 76bd c829 ac3d
000000e0: 4b0d db3d 3fe6 c0bc 8056 0f3c a1aa a7bc
000000f0: 52dd 843d 2125 18bd 5c26 55bd efc9 653c
00000100: d999 263d 23f3 36bc d45e 233d b193 18bc
00000110: c9b3 da3b db39 413c d08d b63c 726c 6cbd
00000120: 16ee 4f3d 9c05 d83d 122b 42bd 8a1a 9c3c
00000130: 3808 8fb8 3ae4 aebc 8d1a f4bb 9816 8e3d
00000140: 673f f43c 1fba 583c c96a 9fbc fdc9 53bc
00000150: 3d95 a7bd 923d 38bd bfea 78b9 8447 f03c
00000160: 3202 233d b13a 5c3d d515 94bc c736 183d
00000170: 78c7 5abc c27f 203d d56e 9bbd 9e83 433d
00000180: 8e8b 413b 8085 0b3d 161c efbb f05d 91bc
00000190: 11b3 e6bc 33f2 423d 8b49 67bd 2c3a 5a3d
000001a0: efb8 233d 461e 5abd 23f9 22bc 8ec5 14bd
000001b0: 7f76 40bb 16d7 8abd cacf a23c a91a 0fbd
000001c0: f34a 583b 5e08 f3bc 75d0 abbb 9020 71bd
000001d0: a948 88bd bda3 e63d c1de a8bd 6715 abbb
000001e0: 3234 61bc d5a9 533c 7108 2f3d 9b6f 793d
000001f0: 8ccf 23bb 1883 443d aa72 98bc 7bd4 713d
00000200: ccb0 74bb daf0 5d3d ac5a 04bc ae12 1b3c
00000210: f101 633d 5b6f 883c 6153 0a3d e078 d7bc
00000220: b92e 0bbd 864e 25bd 74c7 833d 0415 353d
00000230: 3dd7 5f3d 1d1a c73c 6df5 963d cf09 b53b
00000240: a477 4c3d 89f7 db3c 0f5b a53d 37b5 36bc
00000250: da9c 563c 0d63 5bbd 4170 bebd b482 7bbd
00000260: b45d 463d fbc8 1b3c 1a62 32bc 4837 433d
00000270: c0d1 863b db82 553d 60ae c33c d26d b33c
00000280: 9e78 993d 434b 123d e0e2 1b3d d618 79bc
00000290: f88d 903c c07d eebc 157f ad3c 5d4c 8f3c
000002a0: 1b1d 88bc 4d09 27bd 3a46 153d 1213 9ebc
000002b0: e524 0a3c 5787 433d 8a75 82bd 333f 25bd
000002c0: 582e 293d d950 fa3c c8f8 0dbc 8871 713d
000002d0: 0b63 30bd 7222 003d ecd1 07bd 9e3d 27bd
000002e0: d671 f13c 8db8 db3c 9971 40bd 84df e73c
000002f0: b6f9 1e3d 038d 76bc 8212 f5bc 756e 0e3d
00000300: 2406 59bd 62ab 00bc 1a2d 983c 7486 e1bc
00000310: 43c8 ab3d e23d 583c 9eb4 0fbd aa6c 6b3c
00000320: f261 3f3d 0942 e63c 7ddd 273c fad5 533d
00000330: 30d8 17bd 4422 3e3c fa29 0dbd d35e 62bb
00000340: 64e9 713c 81fb 843d c665 77bc 1c15 183d
00000350: 4302 7fbd e856 913c daed 33bd d5b4 26bd
00000360: 17fe a9bb dd7e 8cbd a525 473d 48d2 a1bc
00000370: 0aef 6f3c 47c7 2b3d f871 5f3d ff86 ff3a
00000380: dadc 53bd c716 e83c 7fda 9239 9cd4 3fbd
00000390: b42b 21bd 8a86 96bc 0ee3 6abd f03d 87bd
000003a0: da5f 9d3c 79be 43bd cd25 0e3d 5f10 853d
000003b0: 193d 79bc 349a c83d 9cf0 3d3d 5610 39bd
000003c0: bb99 243d ba34 03bc 7c10 52bd 2fa4 353d
000003d0: 9585 21bd 9c51 42bd 4339 36bd 938f 3a3a
000003e0: 935f 64bd 03a2 01bc 757a 1c3d 4b99 1fbd
000003f0: 30c3 3a3d c38f 33bd 6af9 0e3c ec9a 9b3d

bias f4 [20]
-0.11641218 0.12045895 -0.053821534 -0.06673229 0.016098585 -0.10321716 0.08769764 -0.0051882905
0.12230157 0.0805384 -0.059972145 0.0045203925 -0.01115579 0.03809724 -0.019531231 0.06923799
0.049533594 -0.042909376 0.10337014 -0.115160555
00000000: 8269 eebd 2fb3 f63d f873 5cbd f0aa 88bd
00000010: 2ee1 833c 8563 d3bd d29a b33d 8902 aabb
00000020: 3f79 fa3d 51f1 a43d 5aa5 75bd cd1f 943b
00000030: c6c6 36bc da0b 1c3d f6ff 9fbc a6cc 8d3d
00000040: bde3 4a3d bec1 2fbd b9b3 d33d 4cd9 ebbd

weight f4 [10, 20, 2]
0.06241559 0.017857527 0.083063535 0.10703165 -0.03268013 0.0059485845 0.04928748 0.08208408
0.08115907 0.004866956 0.13565876 0.07306509 0.06596918 0.057211485 0.0011697495 -0.024281323
0.1312478 -0.03455851 -0.05824492 0.08492247 0.03984683 0.033125296 0.053689677 0.13899764
-0.008702752 0.082718484 0.11102979 0.12309083 -0.12810461 -0.11090161 0.10221034 -0.094632514
0.008431395 -0.072160356 0.05926019 -0.13886473 -0.11034099 0.020010618 -0.0463838 0.041304663
0.013996082 -0.084344104 0.013715644 -0.121833034 0.004950812 0.088695824 0.11914968 0.16135821
-0.11239381 -0.052275173 -0.03808013 0.05128089 -0.023752552 -0.06714742 0.039432775 -0.048042
0.024050985 -0.009362152 -0.12039432 0.053338274 -0.023343619 -0.037659455 -0.007884762 -0.04626851
-0.14275701 0.048538793 -0.057814006 -0.108365014 0.1338484 0.1535163 -0.02376034 0.06403515
-0.04573816 0.050567444 -0.016725162 0.0035252809 -0.14425077 0.020909078 -0.06635211 -0.066019386
-0.11737998 -0.088005826 0.1043447 0.11402495 0.097886845 0.08376933 -0.13269387 0.049498573
0.012117548 0.09983649 -0.07864207 -0.026116502 0.067505926 0.0450887 0.058009412 0.06503116
0.020762322 0.10893688 0.07788805 0.022823334 -0.09051125 0.05739165 0.08016037 0.044523228
0.050712984 0.09055335 -0.075798646 0.15350404 0.06367864 -0.028337875 -0.14870368 -0.041186396
-0.071494505 0.056495816 -0.07033198 0.04859749 0.11076759 -0.015413411 -0.12598176 -0.12109117
0.13946088 0.10879286 0.028204178 -0.013253998 0.16202754 -0.04341728 -0.12602918 0.1528088
-0.07347887 -0.08668036 0.09118452 0.106487 0.09527281 -0.08790472 -0.03908596 -0.016773935
-0.10369168 -0.10280165 -0.12093653 -0.11340699 -0.04912826 0.08100074 0.06757747 -0.0071689165
-0.10197265 0.025465075 -0.15660462 0.015988072 0.15790538 0.16931073 -0.0505022 0.0750651
0.028785355 0.008344311 0.06459633 0.015292632 0.12030833 -0.14918585 0.017796237 0.07696297
0.06959069 0.17854175 -0.09855178 -0.07675059 0.015715117 -0.026004324 -0.102326415 0.16832435
-0.12843822 -0.11589772 -0.015312043 0.081029505 -0.0022013185 -0.039434828 -0.00583076 -0.07055616
-0.089441665 -0.11981636 -0.067614704 -0.10905 -0.04243287 -0.05336974 -0.068319164 -0.0022767503
-0.07268007 -0.0984772 -0.029287405 -0.17970079 0.07523017 0.10070128 -0.036576353 0.076702505
0.008367506 -0.04206691 -0.045584932 0.02750976 -0.12649114 0.030695755 0.10650563 0.18123674
-0.063543566 0.017946545 0.021048674 0.0059091747 -0.040442035 0.0048513096 -0.08963844 -0.089064695
0.08025821 -0.01944964 0.116208404 0.086153604 -0.049367063 -0.0011202197 0.059632927 0.022447057
0.08582298 -0.039402317 -0.03824216 -0.056741852 -0.029931314 0.06532055 -0.13696185 -0.043751143
0.015217383 0.0031545758 -0.057563975 0.037275463 0.086024426 0.103654265 -0.05355266 -0.13386448
-0.07997174 -0.001927889 0.058073603 -0.0011483886 -0.12813751 -0.041979037 -0.100396946 0.12798117
0.02547295 0.022675242 -0.045930445 -0.008004886 -0.008275841 0.10157653 -0.0720987 -0.08884187
0.0031642753 0.020573374 0.06320364 -0.10036375 0.002979043 0.12850113 0.086217046 0.022740724
00000000: 7da7 7f3d f349 923c 371d aa3d 6933 db3d
00000010: 9adb 05bd 58ec c23b abe1 493d b31b a83d
00000020: ba36 a63d fc7a 9f3b 21ea 0a3e 26a3 953d
00000030: d91a 873d 9756 6a3d 4852 993a a0e9 c6bc
00000040: d365 063e 398d 0dbd 3a92 6ebd d5eb ad3d
00000050: 6e36 233d 64ae 073d b5e9 5b3d 6655 0e3e
00000060: fd95 0ebc 4f68 a93d 9663 e33d 0c17 fc3d
00000070: db2d 03be 6220 e3bd a853 d13d b1ce c1bd
00000080: d523 0a3c cfc8 93bd d0ba 723d 8e32 0ebe
00000090: 75fa e1bd 4fed a33c f1fc 3dbd 142f 293d
000000a0: d34f 653c 9abc acbd 95b7 603c 9983 f9bd
000000b0: 6c3a a23b 28a6 b53d bf04 f43d 163b 253e
000000c0: ba2e e6bd 7e1e 56bd e9f9 1bbd e90b 523d
000000d0: b694 c2bc 9684 89bd 4384 213d b0c7 44bd
000000e0: 9206 c53c b663 19bc 4c91 f6bd 3c79 5a3d
000000f0: 1e3b bfbc cd40 1abd 172f 01bc 0d84 3dbd
00000100: e52e 12be 9dd0 463d 61ce 6cbd 7aee ddbd
00000110: 8e0f 093e 6033 1d3e 0ba5 c2bc dc24 833d
00000120: f057 3bbd cf1f 4f3d 3503 89bc 6608 673b
00000130: 79b6 13be 8449 ab3c 9de3 87bd 2c35 87bd
00000140: ea64 f0bd 663c b4bd adb2 d53d ea85 e93d
00000150: e678 c83d 418f ab3d e7e0 07be 04bf 4a3d
00000160: ae88 463c 1377 cc3d 180f a1bd 46f2 d5bc
00000170: 8c40 8a3d eeae 383d 479b 6d3d 0f2f 853d
00000180: bf15 aa3c 4d1a df3d c583 9f3d 00f8 ba3c
00000190: f65d b9bd 8213 6b3d 1f2b a43d fd5d 363d
000001a0: 6bb8 4f3d 0974 b93d 523c 9bbd 2a30 1d3e
000001b0: f269 823d d524 e8bc c745 18be 11b3 28bd
000001c0: b66b 92bd 2868 673d 370a 90bd 290e 473d
000001d0: 1eda e23d 8888 7cbc 5d01 01be a6fe f7bd
000001e0: d5ce 0e3e cace de3d 730c e73c 4c27 59bc
000001f0: 8cea 253e 51d6 31bd cb0d 01be e979 1c3e
00000200: 177c 96bd 7985 b1bd f3be ba3d db15 da3d
00000210: 641e c33d 6407 b4bd 9918 20bd 7e69 89bc
00000220: 4e5c d4bd ac89 d2bd 92ad f7bd ed41 e8bd
00000230: b73a 49bd b7e3 a53d 0e66 8a3d 3be9 eabb
00000240: 09d7 d0bd 229c d03c f65c 20be 6bf9 823c
00000250: f3b1 213e cb5f 2d3e 65db 4ebd bbbb 993d
00000260: 44cf eb3c 94b6 083c 154b 843d f38d 7a3c
00000270: 3764 f63d 2dc4 18be 6ac9 913c c39e 9d3d
00000280: 9085 8e3d a6d3 363e 84d5 c9bd 6a2f 9dbd
00000290: fdbc 803c 0507 d5bc 8390 d1bd 385d 2c3e
000002a0: 4f85 03be c95b edbd 5ddf 7abc ccf2 a53d
000002b0: ff43 10bb 6a86 21bd f60f bfbb bf7f 90bd
000002c0: 312d b7bd 4862 f5bd 9479 8abd 9b55 dfbd
000002d0: 17ce 2dbd 3a9a 5abd ebea 8bbd 8835 15bb
000002e0: 4ad9 94bd 6aae c9bd 24ec efbc 7c03 38be
000002f0: 4612 9a3d 793c ce3d 16d1 15bd 3416 9d3d
00000300: dd17 093c 5a4e 2cbd 44b7 3abd 265c e13c
00000310: e586 01be aa75 fb3c a01f da3d 2096 393e
00000320: 2123 82bd a204 933c 456e ac3c c0a1 c13b
00000330: 8ca6 25bd bcf7 9e3b 5c94 b7bd 8d67 b6bd
00000340: 6b5e a43d da54 9fbc acfe ed3d 4d71 b03d
00000350: 1e35 4abd 56d4 92ba a841 743d e4e2 b73c
00000360: f5c3 af3d 5364 21bd d0a3 1cbd 256a 68bd
00000370: 8432 f5bc c8c6 853d ba3f 0cbe 6634 33bd
00000380: 5552 793c 00bd 4e3b 34c8 6bbd 28ae 183d
00000390: 932d b03d b048 d43d 095a 5bbd c513 09be
000003a0: 39c8 a3bd 38b1 fcba 96de 6d3d 8785 96ba
000003b0: 7b36 03be 36f2 2bbd ea9c cdbd 7f0d 033e
000003c0: a6ac d03c 6ec1 b93c 9021 3cbd ed26 03bc
000003d0: 6597 07bc 5b07 d03d 7ca8 93bd baf2 b5bd
000003e0: bb5f 4f3b 7e89 a83c e970 813d 828b cdbd
000003f0: 0c3c 433b cd95 033e 9092 b03d c14a ba3c

bias f4 [10]
0.10746812 0.016062742 -0.05761034 -0.12956566 -0.023823623 -0.04839731 0.015430769 -0.042794853
-0.08498264 0.17209151
00000000: 3f18 dc3d 0396 833c d2f8 6bbd dcac 04be
00000010: c229 c3bc 423c 46bd 56d1 7c3c a849 2fbd
00000020: 610b aebd c238 303e

weight f4 [20, 30]
0.051927432 -0.15027563 -0.08887167 0.028535534 -0.0042378884 0.20624618 0.045585807 0.21229531
0.13413344 0.17033471 -0.14724052 -0.09268642 0.03502928 -0.11288623 -0.07841148 0.031353153
0.057980176 -0.06680331 0.20349774 0.15791282 0.0027372888 -0.13106832 -0.14345992 0.06897191
-0.16664584 0.1198672 0.071121946 -0.013942168 0.12313652 0.13646826 0.06557865 0.13322213
0.07239528 -0.06970496 -0.014019542 0.024608493 0.14558181 -0.024377787 0.13936348 -0.07706089
0.13952309 0.1435936 -0.10185697 0.059328 0.14276667 -0.033096645 -0.029671144 0.05909102
0.01317905 -0.04416436 0.05331179 -0.17862022 0.13816516 -0.1413592 -0.068168916 0.14331217
0.15768403 0.014265127 0.060692944 -0.1448608 -0.15639423 -0.16767065 -0.055583213 0.04994016
-0.006062169 -0.08942742 -0.007665774 -0.071174905 0.1470014 0.00878054 -0.019511316 0.017757365
0.042832606 0.090853125 -0.06586528 0.1412163 -0.13448775 0.020736493 0.059619747 -0.013620762
-0.14492781 0.06595463 0.049489055 -0.102673255 0.13289864 0.11951099 0.17019074 -0.20198593
-0.123892926 -0.090055615 -0.07756575 0.10427412 0.19280533 -0.14107743 -0.084693976 -0.048528433
0.09310413 -0.06808554 0.04106473 0.11066546 0.11016732 0.13891537 0.05526556 -0.16682653
-0.10454287 0.07792441 -0.00832492 -0.08426705 0.004613317 0.061343003 0.040136587 -0.0656556
-0.04038476 -0.10825621 0.1082243 -0.043867 0.0054168743 -0.2269898 -0.050552808 0.012814842
-0.1278368 0.10505349 -0.05156837 -0.008596829 0.10437648 0.1347766 -0.047411792 -0.14172393
-0.19110739 0.09921395 -0.00044454858 0.01608188 0.10560372 0.035738446 0.11237021 -0.14414912
0.08480829 0.039247688 -0.13579345 0.10879953 0.12142985 -0.035898477 0.15146299 0.018384416
-0.14069338 0.034375526 0.10640588 -0.046472877 0.10007635 -0.12098489 0.11072655 -0.0837641
0.027670236 -0.023289885 -0.015870832 -0.035348404 -0.06797513 0.119198196 0.10930239 0.015722487
-0.11432693 -0.15345246 -0.017418923 0.007168481 -0.16675864 -0.13173123 0.13112888 0.0036992761
0.17889231 0.072638534 -0.016214445 0.07836531 -0.1701788 0.043892678 0.112587795 -0.05094595
0.07597439 -0.008500954 0.032428388 0.04361151 0.11163063 -0.014665796 -0.04581468 0.12054176
0.039715532 0.023957131 -0.17756297 -0.1563881 0.0676217 0.017669603 0.08891552 -0.057268832
0.040753677 -0.113161266 0.1442864 -0.0723439 -0.0017836845 -0.18981612 0.16730016 -0.016329315
-0.017803025 0.16496646 0.07726876 -0.05153549 -0.054638736 0.105341 -0.09245264 -0.05622896
-0.014172465 -0.21871008 -0.0870498 0.16994278 -0.033846334 -0.023624124 0.040608693 -0.08658005
0.034013674 0.1415962 0.12247921 -0.19810623 -0.10201868 -0.15609391 0.08644585 0.015246982
0.03856656 0.044898704 0.042645648 -0.063752465 0.13765192 -0.036563206 0.12944068 -0.12542966
-0.042785857 -0.13081534 0.019636624 -0.03977023 -0.16104457 0.07052951 -0.13707776 0.123373345
0.14953199 0.057732232 0.077034846 -0.008536914 0.08608288 -0.008448433 0.008546057 -0.11469737
0.11598224 -0.10202802 -0.064163774 -0.070596285 0.077837154 -0.15903626 0.13625926 0.027924042
00000000: dcb1 543d dbe1 19be 5a02 b6bd 5ac3 e93c
00000010: fcdd 8abb 3332 533e 2fb8 3a3d f163 593e
00000020: 475a 093e 396c 2e3e 38c6 16be 61d2 bdbd
00000030: dd7a 0f3d e530 e7bd 3396 a0bd 2a6c 003d
00000040: 9f7c 6d3d 2cd0 88bd b661 503e e6b3 213e
00000050: 1664 333b c636 06be 28e7 12be 2541 8d3d
00000060: 35a5 2abe ef7c f53d 62a8 913d b16d 64bc
00000070: 002f fc3d 56be 0b3e 194e 863d 626b 083e
00000080: fa43 943d 79c1 8ebd 39b2 65bc c097 c93c
00000090: 6613 153e edb3 c7bc 4db5 0e3e 1ad2 9dbd
000000a0: 24df 0e3e 330a 133e 639a d0bd eb01 733d
000000b0: 6d31 123e 5990 07bd e610 f3bc 6d09 723d
000000c0: f1ec 573c b0e5 34bd 775d 5a3d 38e8 36be
000000d0: 2b7b 0d3e 77c0 10be 259c 8bbd 6dc0 123e
000000e0: ec77 213e 47b8 693c 2a99 783d 6456 14be
000000f0: cf25 20be dbb1 2bbe 39ab 63bd 0e8e 4c3d
00000100: 29a5 c6bb b925 b7bd 2c31 fbbb 26c4 91bd
00000110: 8987 163e 41dc 0f3c 32d6 9fbc e577 913c
00000120: 3e71 2f3d 3411 ba3d 60e4 86bd 019b 103e
00000130: 28b7 09be 94df a93c d633 743d 9e29 5fbc
00000140: f567 14be 3913 873d 09b5 4a3d 5b46 d2bd
00000150: 9516 083e 2ec2 f43d 7b46 2e3e 66d5 4ebe
00000160: 93bb fdbd 146f b8bd cbda 9ebd ab8d d53d
00000170: c36e 453e 9a76 10be 0974 adbd c0c5 46bd
00000180: 61ad be3d 6e70 8bbd 7e33 283d 93a4 e23d
00000190: 679f e13d d53f 0e3e 245e 623d 93d4 2abe
000001a0: 921a d6bd d596 9f3d 3f65 08bc 3494 acbd
000001b0: 4f2b 973b cd42 7b3d 4366 243d 7176 86bd
000001c0: 7d6a 25bd 6fb5 ddbd b4a4 dd3d e2ad 33bd
000001d0: 0980 b13b 0470 68be 7610 4fbd 58f5 513c
000001e0: a6e7 02be 4926 d73d 5b39 53bd b7d9 0cbc
000001f0: 56c3 d53d e102 0a3e de32 42bd 1420 11be
00000200: a8b1 43be af30 cb3d 4d12 e9b9 26be 833c
00000210: c346 d83d 7a62 123d 5a22 e63d d49b 13be
00000220: f8af ad3d 2fc2 203d 700d 0bbe 4ad2 de3d
00000230: 37b0 f83d 480a 13bd 1d19 1b3e ea9a 963c
00000240: ed11 10be 5acd 0c3d 53eb d93d 585a 3ebd
00000250: d4f4 cc3d edc6 f7bd 9ac4 e23d 838c abbd
00000260: b1ac e23c 6eca bebc 8c03 82bc 7dc9 10bd
00000270: 8c36 8bbd 2f1e f43d eed9 df3d 72cc 803c
00000280: 3d24 eabd a422 1dbe 21b2 8ebc 94e5 ea3b
00000290: c7c2 2abe 8de4 06be a646 063e 8e6f 723b
000002a0: 8c2f 373e 83c3 943d 28d4 84bc fe7d a03d
000002b0: 5a43 2ebe cfc8 333d 6e94 e63d b3ac 50bd
000002c0: 7698 9b3d 9647 0bbc a1d3 043d fca1 323d
000002d0: 9a9e e43d cf48 70bc 2da8 3bbd 99de f63d
000002e0: c1ac 223d bf41 c43c 11d3 35be 3424 20be
000002f0: 3f7d 8a3d d8bf 903c 5719 b63d b992 6abd
00000300: 54ed 263d 18c1 e7bd d0bf 133e 0a29 94bd
00000310: 85ca e9ba 285f 42be bc50 2b3e 0ec5 85bc
00000320: a6d7 91bc f8ec 283e 153f 9e3d e116 53bd
00000330: decc 5fbd 06bd d73d cf57 bdbd 5750 66bd
00000340: a033 68bc 89f5 5fbe 2a47 b2bd 7b05 2e3e
00000350: 74a2 0abd 6187 c1bc 4d55 263d e250 b1bd
00000360: ec51 0b3d 98fe 103e 61d6 fa3d 5cdc 4abe
00000370: 2bef d0bd 15d7 1fbe 860a b13d 7ace 793c
00000380: f8f7 1d3d b4e7 373d 34ad 2e3d a790 82bd
00000390: a0f4 0c3e 4dc3 15bd 198c 043e a270 00be
000003a0: 3940 2fbd 75f4 05be fcdc a03c 1ce6 22bd
000003b0: dee8 24be c771 903d 1d5e 0cbe 2aab fc3d
000003c0: ea1e 193e a278 6c3d 72c4 9d3d 6ade 0bbc
000003d0: 394c b03d 4c6b 0abc c304 0c3c 74e6 eabd
000003e0: 1988 ed3d 11f4 d0bd 4c68 83bd c994 90bd
000003f0: 1669 9f3d 67da 22be 8c87 0b3e f6c0 e43c

bias f4 [20]
-0.12954722 0.15918905 0.1546094 0.17714499 -0.073322035 0.0019379501 -0.05231547 -0.01846273
0.11847891 0.078826606 -0.06348371 0.14107683 -0.14923775 0.10017085 0.043039124 0.13947754
0.055967942 -0.03707178 -0.09850709 -0.11865883
00000000: 07a8 04be 7402 233e ed51 1e3e 7f65 353e
00000010: dd29 96bd d102 fe3a bf48 56bd 273f 97bc
00000020: 12a5 f23d d86f a13d bf03 82bd 7276 103e
00000030: c8d1 18be 6026 cd3d cb49 303d 33d3 0e3e
00000040: a43e 653d 94d8 17bd 16be c9bd 6703 f3bd
