deploy/networks/go2/parkour_beta/scan_encoder.pt (torch, 120750 bytes, 6 tensors)

weight f4 [128, 132]
0	0x3e65fbc8	0.22459328
1	0x3d23c6d3	0.039984535
2	0x3d58a27e	0.05288934
3	0xbe70f3b4	-0.23530465
4	0xbe52be4f	-0.2058041
5	0xbe822d3c	-0.25425136
6	0xbe98deba	-0.29857427
7	0xbe00a305	-0.12562187
8	0xbe2eb711	-0.17062022
9	0xbde17ab0	-0.11009729
10	0xbe883424	-0.2660228
11	0x3e26d25a	0.1629118
12	0x3d063e43	0.03277422
13	0xbd5b583e	-0.05355095
14	0xbea9d72e	-0.33171982
15	0xbe9a9b6c	-0.30196702
16	0xbedd576b	-0.43230757
17	0xbed5937d	-0.41714087
18	0xbea69539	-0.32535723
19	0xbe20031c	-0.15626186
20	0xbe7fc770	-0.24978423
21	0xbe9eba63	-0.31001577
22	0xbdf87c8e	-0.12133132
23	0xbdf6e7a9	-0.120559044
24	0xbe08122e	-0.13288185
25	0xbddd14ca	-0.10794981
26	0xbe1c3bde	-0.15257213
27	0xbe2ae28d	-0.16687985
28	0xbe8435d0	-0.25822306
29	0xbe6a91bf	-0.2290716
30	0xbe20a64e	-0.1568844
31	0xbe5605ee	-0.209007
32	0xbead871d	-0.33892146
33	0x3da3c7d1	0.07997096
34	0x3d4dacc6	0.050213598
35	0x3d9c14b4	0.07621136
36	0xbd703735	-0.0586464
37	0x3dc08132	0.09399642
38	0x3ccb1826	0.024791788
39	0x3c870985	0.016484031
40	0xbd28d0ba	-0.041214682
41	0x3d2a4c5e	0.041576736
42	0x3d652750	0.055945694
43	0xbde717a4	-0.11283806
44	0x3dd1c393	0.10242381
45	0x3d260888	0.04053548
46	0x3dab7cbd	0.08373401
47	0xbd8cb022	-0.06869532
48	0x3d398060	0.045288444
49	0x3dd5feff	0.10449027
50	0xbd3cde54	-0.046110466
51	0x3bddcbf9	0.0067687
52	0x3cc376e8	0.02386041
53	0xbd805aef	-0.06267344
54	0xbd4dae38	-0.050214976
55	0x3d917068	0.07101518
56	0xbc92bf3f	-0.017913459
57	0xbd012989	-0.03153375
58	0x3d86d2da	0.065831855
59	0x3d2c825d	0.04211651
60	0x3ccb8a9e	0.024846371
61	0x3c3a07e0	0.011354417
62	0x3c175722	0.009237083
63	0x3dbe509a	0.09292717
64	0xbc9753bb	-0.018472543
65	0x3d92e3fa	0.07172389
66	0xbd9e6dd9	-0.077357955
67	0x3cf94928	0.030430391
68	0xbd4b406f	-0.049621996
69	0xbd09fb0f	-0.033686694
70	0xbdafd054	-0.08584657
71	0xbcd552df	-0.026040493
72	0xbdce0844	-0.1006017
73	0x3d990425	0.07471494
74	0x3e07b02a	0.13250795
75	0x3dd4b414	0.1038591
76	0xbb532ed3	-0.0032223954
77	0xbdccbbff	-0.09996795
78	0xbe2400a5	-0.16015871
79	0xbdafd829	-0.08586151
80	0xbd07a40e	-0.03311544
81	0xbc521731	-0.012822912
82	0x3d2be287	0.04196408
83	0x3c05452d	0.008134169
84	0xbd2ba0df	-0.041901466
85	0x3dc6b36e	0.09702192
86	0x3d30e4c9	0.043186937
87	0x3da2fac8	0.07957989
88	0xbc44acf8	-0.01200413
89	0xbda7f31b	-0.082006656
90	0xbdaa0939	-0.0830254
91	0xbde2cac7	-0.11073833
92	0xbdbd7b8c	-0.0925208
93	0xbc2eb876	-0.010664096
94	0xbdbc73bb	-0.09201761
95	0xbd0be37f	-0.034152504
96	0x3be7f5c0	0.007078856
97	0xbb2a2f2c	-0.0025968058
98	0xbcb7ba7c	-0.02242779
99	0xbd72d9a1	-0.05928958
100	0xbd162649	-0.036657605
101	0x3d8c7f0c	0.0686017
102	0x3d891aa8	0.066945374
103	0xbc4cee6a	-0.012508014
104	0x3d3ccb7b	0.04609249
105	0xbd00face	-0.031489186
106	0xbd6b8e20	-0.057508588
107	0xbc9db7d6	-0.019252699
108	0x3d81471e	0.06312393
109	0xbd6d8e71	-0.05799717
110	0x3de859e3	0.113452695
111	0x3d393d48	0.045224458
112	0xbccc0de7	-0.024908973
113	0xbd17efec	-0.03709404
114	0x3d1f9ccc	0.038967893
115	0xbd160cc4	-0.036633268
116	0x3da63367	0.08115273
117	0x3d75e751	0.060035054
118	0x3d51bfc3	0.05120827
119	0x3d96c74a	0.0736223
120	0xbd30956b	-0.043111246
121	0x3d8af9ce	0.06785928
122	0xbd9610be	-0.07327412
123	0xbd83b6b9	-0.06431336
124	0xbd8f37e6	-0.06993084
125	0x3b2cbb52	0.0026356769
126	0x3d193db6	0.037412368
127	0x3de8d641	0.11368991
128	0x3ddebc88	0.10875803
129	0x3e1f1ac8	0.1553756
130	0x3e07227b	0.13196747
131	0xbd12d003	-0.035842907
132	0xbd28350d	-0.04106622
133	0xbceb79b8	-0.028744563
134	0xbe0aedfe	-0.1356735
135	0xbd2f365a	-0.042776443
136	0xbda83655	-0.08213488
137	0x3a28ad11	0.00064344803
138	0xbe1c85bf	-0.15285395
139	0xbdc56fa4	-0.096404344
140	0xbdd5660f	-0.10419857
141	0xbe09ac8c	-0.13444728
142	0xbe0daaea	-0.1383473
143	0x3cfb1aa2	0.030652348
144	0xbdc06302	-0.09393884
145	0xbd8fe0c1	-0.0702529
146	0xbd8c1ae2	-0.06841065
147	0xb9fd29c7	-0.00048287047
148	0x3d37a0ae	0.04483097
149	0x3de8938a	0.11356266
150	0x3db39218	0.087680995
151	0x3d8377a9	0.06419308
152	0xbda48bf2	-0.08034505
153	0x3c9861ba	0.018601287
154	0x3da86769	0.08222849
155	0x3cf134e9	0.029444175
156	0x3dd8bde0	0.10583091
157	0x3d9ef209	0.07761008
158	0xbc8cf2f8	-0.0172057
159	0x3b0533fd	0.0020325177
160	0xbd457580	-0.04820776
161	0x3cff02d4	0.031129278
162	0xbdbc0da5	-0.0918229
163	0xbd0866c7	-0.03330114
164	0x3d12a5c9	0.035802636
165	0x3e3918cf	0.1807587
166	0x3de64488	0.1124354
167	0x3e6314e2	0.22175935
168	0x3e01f857	0.1269239
169	0x3e47dd2c	0.19517964
170	0x3e8e5669	0.278003
171	0x3df498cd	0.11943207
172	0x3d3d4430	0.046207607
173	0x3af09805	0.0018355852
174	0xbd86a86b	-0.06575092
175	0xbc39527d	-0.011311171
176	0x3e121e59	0.14269389
177	0x3c5f974e	0.013646914
178	0xbdbf0a38	-0.09328121
179	0xbe1639b7	-0.14670454
180	0xbe15b249	-0.14618792
181	0xbd83704d	-0.06417904
182	0xbe2506b0	-0.16115832
183	0xbe2e8cb4	-0.17045861
184	0xbdb37b04	-0.08763698
185	0xbd3fab64	-0.04679431
186	0x3d6e2030	0.058136165
187	0x3cb4dbde	0.022077497
188	0xbc93fcd2	-0.01806489
189	0xbd23e570	-0.04001373
190	0xbc055472	-0.008137809
191	0xbd6edbc1	-0.058315042
192	0xbc2430b9	-0.010021382
193	0x3d2af0a9	0.041733418
194	0xbc30e407	-0.010796553
195	0xbdce1d34	-0.10064164
196	0x3d54939d	0.051898587
197	0xbde2fa9f	-0.110829584
198	0x3dc485e0	0.09595847
199	0x3cb0f1ef	0.021599738
200	0x3e0c0944	0.1367541
201	0x3e3e2611	0.18569209
202	0x3e752b16	0.23942217
203	0x3e5dd4ff	0.21663283
204	0x3e73ec16	0.23820528
205	0x3e0e34b9	0.138873
206	0xbbb0b96d	-0.005393198
207	0xbae8acb7	-0.0017751668
208	0xbd77d549	-0.06050614
209	0xbd5b603f	-0.053558584
210	0x3cb40a75	0.021977643
211	0xbe0a8308	-0.13526547
212	0xbe18b53c	-0.14912885
213	0xbd053dbc	-0.032529578
214	0xbdc9b65e	-0.09849237
215	0xbe29f75c	-0.16598266
216	0xbd1ecb63	-0.038768183
217	0xbd8f2b5d	-0.06990693
218	0x3c573b40	0.013136685
219	0xbd070fd6	-0.032974087
220	0xbdbe9d1e	-0.093073115
221	0x3c606209	0.013695248
222	0xbe07b1f2	-0.13251474
223	0xbde8e5c8	-0.11371952
224	0xbd89628a	-0.06708248
225	0xbd52aef4	-0.05143638
226	0x3cdcadc8	0.026938334
227	0x3c9934d8	0.018701956
228	0xbc84847e	-0.016176458
229	0x3cb32fdc	0.021873407
230	0x3d907a45	0.07054571
231	0x3d7eb272	0.062181897
232	0xbcd3fbe0	-0.02587694
233	0xbd3e29b5	-0.046426494
234	0xbd7db961	-0.06194437
235	0xbd2d18bf	-0.042259928
236	0x3c8689e0	0.016423166
237	0xbc6d3085	-0.0144769
238	0xbdbca6cc	-0.092115015
239	0x3ccee699	0.025256442
240	0xbd172fce	-0.036910824
241	0x3d81e242	0.063419834
242	0xbd17aa38	-0.037027568
243	0x3d3302c0	0.043703794
244	0xbaecaafa	-0.0018056326
245	0xbd338e51	-0.043836895
246	0xbdd2ea01	-0.10298539
247	0x3c90a6e1	0.017657699
248	0x3c0858f7	0.008321992
249	0xbe09d562	-0.13460305
250	0xbccc9feb	-0.024978599
251	0x3ab204dd	0.0013581772
252	0xbc2ef034	-0.010677386
253	0x3cc22dad	0.02370342
254	0xbc5b3661	-0.013379664
255	0xbcd9c946	-0.026585232

bias f4 [128]
0	0xbe5f1d8f	-0.2178862
1	0x3de8539b	0.113440715
2	0xbdfa6953	-0.1222712
3	0xbde90827	-0.11378508
4	0xbe555fea	-0.2083737
5	0xbd8a7593	-0.06760707
6	0xbe77081c	-0.24124187
7	0x3d4e50a2	0.050369866
8	0xbdf7c035	-0.120972075
9	0x3e52d500	0.20589066
10	0x3ddc7b89	0.1076575
11	0xbd0ccfe5	-0.03437795
12	0xbcebd383	-0.02878738
13	0xbdccd08a	-0.10000713
14	0xbe570b80	-0.2100048
15	0xbe38fcf1	-0.1806524
16	0x3d2b8a58	0.04187998
17	0xbe2fafdc	-0.17156929
18	0xbdb7cadb	-0.089742385
19	0xbe341e17	-0.17589603
20	0xbe1fdca2	-0.15611508
21	0xbe49e3a7	-0.19715749
22	0xbe3dfe7f	-0.18554114
23	0xbe30d98f	-0.17270492
24	0x3db6b1c1	0.089206226
25	0xbdaaa164	-0.08331564
26	0xbe77a211	-0.24182917
27	0xbe8189b8	-0.25300384
28	0xbd770d18	-0.06031522
29	0xbd80851a	-0.06275387
30	0xbdd51908	-0.10405165
31	0xbdcf87cf	-0.10133325
32	0xbe19731c	-0.14985317
33	0xbe29a9f7	-0.16568743
34	0x3c9f1bcb	0.019422432
35	0x3d080482	0.033207424
36	0x3d665aab	0.05623881
37	0x3e8a4f64	0.27013695
38	0xbe4adf30	-0.19811702
39	0x3caa2637	0.020770175
40	0xbe561bdf	-0.2090907
41	0xbe2753aa	-0.16340509
42	0x3e183015	0.14862092
43	0xbe529e9a	-0.20568314
44	0xbe13c704	-0.14431387
45	0xbd4e5ed7	-0.050383415
46	0x3e001247	0.12506972
47	0xbe3a1302	-0.18171313
48	0xbdd01f8a	-0.101622656
49	0x3ded6a08	0.115924895
50	0xbdad6c0d	-0.08467875
51	0xbd0308d5	-0.031990845
52	0xbd8e5941	-0.069506176
53	0x3e5e76bc	0.21724981
54	0xbc6e0a04	-0.014528755
55	0x3d888f44	0.06667951
56	0x3e1f132d	0.15534659
57	0x3d5af1a3	0.0534531
58	0x3e273e19	0.16332282
59	0xbe2bdcbd	-0.16783424
60	0x3d77a089	0.060455833
61	0x3e8ae66e	0.2712893
62	0x3e0912a2	0.13386014
63	0x3e378174	0.17920476
64	0xbd0b28e9	-0.03397456
65	0x3e5df38e	0.2167494
66	0xbc3b258c	-0.011422526
67	0xbe8cb712	-0.27483422
68	0x3de1cd93	0.11025538
69	0x3d8fcd9a	0.07021637
70	0xbe02a057	-0.12756477
71	0xbe07f3e3	-0.13276629
72	0x3e2e2336	0.1700562
73	0xbcffab36	-0.03120957
74	0xbb54aff7	-0.0032453516
75	0xbe68b721	-0.22726108
76	0xbd67d637	-0.056600776
77	0xbe80a374	-0.25124705
78	0x3e176590	0.14784837
79	0x3e3545b0	0.17702365
80	0x3d14e9fc	0.036355957
81	0xbe0551a3	-0.13019423
82	0x3de9c513	0.11414542
83	0xbcdfefc0	-0.027336001
84	0x3db58079	0.08862395
85	0x3de7e825	0.11323575
86	0xbd96c703	-0.07362177
87	0xbe0326b7	-0.12807737
88	0xbe370737	-0.17873846
89	0xbe319c55	-0.17344792
90	0xbdaee3ab	-0.08539518
91	0x3ca9c045	0.020721564
92	0xbd908b39	-0.070578046
93	0xbe34e8a9	-0.17666878
94	0x3db4452a	0.088022545
95	0xbd5d1890	-0.053978503
96	0xbc5d624d	-0.013512206
97	0xbdc56eaf	-0.09640252
98	0xbe51ac72	-0.20475939
99	0xbc8e2f28	-0.01735647
100	0xbdbdb19e	-0.092623934
101	0x3cf2dfc3	0.029647714
102	0x3e39b407	0.18135081
103	0x3b8f0560	0.0043646544
104	0xbe1dd583	-0.1541348
105	0x3e2df416	0.16987643
106	0xbe4499a7	-0.19199239
107	0xbe0d5a97	-0.13804089
108	0xbd4b67e7	-0.049659636
109	0xbde87aaf	-0.11351525
110	0xbc358635	-0.011079361
111	0x3e8851de	0.2662496
112	0x3d8d3c25	0.06896237
113	0xbd0420f0	-0.032257974
114	0x3e80159e	0.25016493
115	0x3e9e7488	0.3094828
116	0xbe66642c	-0.2249915
117	0x3e7639d6	0.240455
118	0x3e4d60ca	0.20056453
119	0xbc9d70ad	-0.019218767
120	0xbe29c745	-0.16579922
121	0xbe43d485	-0.19124039
122	0xbe2f9a10	-0.17148614
123	0xbdd4a579	-0.10383124
124	0xbd2ed414	-0.042682722
125	0xbe0adf8e	-0.13561842
126	0xbd6ca4ef	-0.05777448
127	0x3e19ac75	0.15007193

weight f4 [64, 128]
0	0xbd5da350	-0.054110825
1	0xbe0fb577	-0.14034067
2	0xbd3be119	-0.045868967
3	0xbe136fc1	-0.143981
4	0xbe175e1f	-0.14781998
5	0xbe0546fb	-0.13015358
6	0x3cf99f08	0.03047134
7	0x3d6295fc	0.055318817
8	0x3dddd659	0.10831899
9	0x3db439bf	0.08800077
10	0xbdc53b12	-0.096304074
11	0xbe40fbd9	-0.18846072
12	0xbe32bef2	-0.17455652
13	0x3e31fac6	0.17380819
14	0x3d06f631	0.03294963
15	0x3d32f7e9	0.043693457
16	0x3dcd7742	0.10032512
17	0xbe0616ff	-0.1309471
18	0xbcff0881	-0.031131985
19	0xbddc8f3d	-0.10769508
20	0xbe481e59	-0.19542827
21	0x3e42561a	0.18978158
22	0x3e263bae	0.16233703
23	0xbdc78e83	-0.09743979
24	0xbe347619	-0.17623176
25	0xbe52ad92	-0.20574024
26	0xbd6701c8	-0.056398183
27	0xbb6a74cb	-0.003577518
28	0x3da8ec6b	0.08248218
29	0x3cbeff11	0.023314985
30	0xbe1eeb60	-0.15519476
31	0xbd83bca4	-0.06432465
32	0x3d11cd1c	0.035596
33	0xbd40d273	-0.0470757
34	0x3df9d3bc	0.12198588
35	0xbe6707b5	-0.22561534
36	0x3d053fc2	0.032531507
37	0x3e2fb6f6	0.17159638
38	0xbe319c8d	-0.17344876
39	0xbdaa3571	-0.083109744
40	0xbdb39333	-0.087683104
41	0xbe8eef58	-0.2791698
42	0xbe491bf9	-0.19639577
43	0xbe8989aa	-0.26862842
44	0xbe1466fa	-0.14492407
45	0xbdb8aa32	-0.09016837
46	0xbda4e691	-0.080517896
47	0xbe42a12b	-0.19006793
48	0xbd1339b1	-0.03594369
49	0x3e1324ed	0.14369555
50	0x3e200ea3	0.15630583
51	0x3d3629ab	0.04447333
52	0xba3ebf0d	-0.00072763936
53	0xbd7c735a	-0.061633445
54	0xbdf6cbfc	-0.12050626
55	0xbe3f23bf	-0.1866598
56	0x3c004275	0.007828345
57	0xbc2cb8b2	-0.010542082
58	0xbd874167	-0.066042714
59	0x3dae0254	0.08496538
60	0xbdf476de	-0.119367346
61	0x3dd96337	0.10614627
62	0x3d0565c3	0.03256775
63	0x3e9b6b41	0.30355266
64	0x3ce6cff2	0.028175328
65	0xbd5679e2	-0.05236233
66	0xbe123bcb	-0.14280622
67	0x3d9918d9	0.074754424
68	0x3e3863f0	0.18006873
69	0x3d10d1e0	0.035356402
70	0x3da6d13a	0.081453755
71	0xbdd37712	-0.10325445
72	0x3e6bfa5a	0.2304472
73	0x3db7c3a4	0.08972862
74	0xbcebdd92	-0.028792176
75	0xbcb0083e	-0.021488305
76	0x3d69941e	0.05702602
77	0xbd542fc1	-0.051803354
78	0x3d675647	0.056478765
79	0x3da22e8f	0.079190366
80	0x3e91cfcc	0.2847885
81	0x3dd1d94f	0.102465264
82	0x3a90acd9	0.0011037841
83	0xbe1b4702	-0.15163806
84	0x3de5d32d	0.11221919
85	0x3d7f0ec8	0.062269956
86	0xbdf8d24a	-0.121494845
87	0x3d78022c	0.060548946
88	0xbe691bc4	-0.22764498
89	0x3d1c4606	0.038152717
90	0xbdf5681e	-0.119827494
91	0xbd6cd0fa	-0.057816483
92	0xbe6f48b1	-0.23367573
93	0xbd8350f6	-0.064119264
94	0x3cf495d5	0.029856602
95	0xbccdc4b1	-0.025118204
96	0x3cef33e9	0.029199557
97	0x3de071ec	0.10959229
98	0x3d8d9923	0.06913974
99	0xbd2f8b62	-0.042857535
100	0xbae10394	-0.0017167204
101	0xbb5cd703	-0.0033697493
102	0xbd33b1aa	-0.043870606
103	0x3ccef797	0.025264544
104	0x3d81ff35	0.06347505
105	0xbd112224	-0.03543295
106	0xbd39b4ae	-0.045338325
107	0x3ae15a94	0.0017193132
108	0xbeb0d339	-0.3453615
109	0x3d85dbef	0.0653609
110	0x3e4d03dc	0.20021003
111	0xbdd5207c	-0.104065865
112	0x3d90bb55	0.07066981
113	0xbd827cb5	-0.06371442
114	0x3c62ffca	0.01385493
115	0x3d1d218b	0.038362067
116	0xbea138b0	-0.31488562
117	0x3e89e065	0.26929012
118	0xbde657c9	-0.112472124
119	0x3e0f749b	0.14009325
120	0x3d43ac82	0.04777194
121	0x3dd4501d	0.10366843
122	0x3dde4804	0.1085358
123	0xbe88a42e	-0.2668776
124	0x3cb77d04	0.02239848
125	0xbe46d26d	-0.19416209
126	0x3c961389	0.018319862
127	0x3e08c20a	0.1335527
128	0xbe9e148e	-0.30875057
129	0xbe360bbd	-0.17777915
130	0x3c3f7aab	0.011686961
131	0x3e114538	0.14186561
132	0xbd19cb07	-0.037547138
133	0x3dea4e74	0.11440745
134	0x3df5a080	0.119935036
135	0xbd2b8234	-0.04187222
136	0xbbaf6c33	-0.0053534745
137	0xbda11688	-0.078656256
138	0x3daef35e	0.08542512
139	0xbeea515a	-0.4576519
140	0xbec1eecc	-0.378775
141	0x3cff8707	0.031192316
142	0xbd3434ed	-0.043995786
143	0x3d12ba47	0.03582218
144	0x3d706140	0.058686495
145	0x3ce4a21a	0.027909327
146	0x3d0215ed	0.03175919
147	0xbe1dca95	-0.1540931
148	0xbe28d882	-0.16488841
149	0xbdbec639	-0.09315152
150	0x3cf5088a	0.029911298
151	0x3de55423	0.111976884
152	0x3d6d45d4	0.05792792
153	0xbda74c3d	-0.08168838
154	0xbd62cfbc	-0.055373892
155	0x3da12b85	0.07869629
156	0xbd88b0c8	-0.06674343
157	0x3da3023d	0.07959411
158	0xbd0ec04f	-0.03485137
159	0x3a5cab8c	0.00084178965
160	0xbd7707dc	-0.06031023
161	0x3d1c4262	0.038149245
162	0xbd2a1d74	-0.041531995
163	0xbdc22164	-0.09479025
164	0xbd9dc839	-0.07704205
165	0xbea202ba	-0.31642705
166	0x3deb3778	0.11485189
167	0xbe5ecc7b	-0.2175769
168	0xbd2e28be	-0.042519324
169	0xbd34fdb8	-0.044187278
170	0xbd033033	-0.03202839
171	0x3e16de90	0.14733338
172	0x3e1a06b7	0.15041624
173	0x3c13cfb7	0.009021691
174	0xbe66efea	-0.22552457
175	0x3e17f700	0.14840317
176	0x3d9b3a4c	0.075794786
177	0x3c9cd2fd	0.019143576
178	0x3da394b4	0.07987347
179	0xbe54f094	-0.20794898
180	0x3eb7d233	0.35902557
181	0x3df7b276	0.120945856
182	0xbe8b0a54	-0.27156317
183	0xbd5aae99	-0.053389166
184	0xbd5db258	-0.05412516
185	0x3d38f67e	0.04515695
186	0xbc977736	-0.018489461
187	0x3db41870	0.087937236
188	0x3cc664b2	0.024217937
189	0xbd4fa121	-0.050690774
190	0xbd92c7ae	-0.07166992
191	0x3d834f01	0.06411553
192	0x3e73b50c	0.23799533
193	0xbbfa6a2b	-0.0076420507
194	0xbe1c6b59	-0.15275325
195	0xbe331ade	-0.17490718
196	0xbdf6edd9	-0.120570846
197	0x3c9d69ec	0.019215547
198	0xbd854fe0	-0.065093756
199	0xbcc04870	-0.02347204
200	0x3a22e5de	0.00062140625
201	0x3e459ed1	0.19298865
202	0xbcc39a8b	-0.023877403
203	0xbc34e908	-0.011041887
204	0xbe150fee	-0.14556858
205	0xbca9961c	-0.02070146
206	0xbe1d59c8	-0.1536628
207	0xbe0da4a5	-0.13832338
208	0x3d020ca3	0.031750333
209	0xbda8c009	-0.08239753
210	0xbd2c8167	-0.042115595
211	0x3de6920a	0.112583235
212	0xbd871733	-0.06596222
213	0xbe1d2252	-0.15345123
214	0xbce9d09f	-0.028541861
215	0xbc5ec2ae	-0.01359622
216	0x3d8b586b	0.06803974
217	0x3d9da7b1	0.07698
218	0x3d5be1d3	0.05368216
219	0xbddf66a4	-0.10908249
220	0x3e267204	0.16254431
221	0x3e32f1b8	0.17475021
222	0xbd840c44	-0.06447652
223	0x3d0c9ae6	0.03432741
224	0x3e5ed0dc	0.21759361
225	0xbdb227ae	-0.086989745
226	0x3da68be3	0.0813215
227	0x3bf8ca5f	0.007592484
228	0xbdc98d5b	-0.098414145
229	0x3e303c82	0.17210582
230	0xbd85c5ca	-0.06531866
231	0x3cf421c3	0.029801255
232	0x3e04af06	0.12957391
233	0xbd5def19	-0.0541831
234	0x3b4a37f8	0.0030856114
235	0xbe22875c	-0.15871948
236	0xbd8170ac	-0.063203186
237	0xbe080b80	-0.13285637
238	0x3e0d36b1	0.13790394
239	0x3d4ef130	0.050522983
240	0xbe2bf9c6	-0.167945
241	0xbc0131cb	-0.007885407
242	0x3dc3eec6	0.09567027
243	0xbdbde22b	-0.09271654
244	0x3e3548e2	0.17703584
245	0xbd6028ec	-0.054726526
246	0x3d565f88	0.0523372
247	0x3e53f7ae	0.20699951
248	0xbd2010b1	-0.03907842
249	0xbd04a4a3	-0.032383572
250	0x3d15c4c6	0.03656461
251	0x3e36d15a	0.17853299
252	0x3cf49095	0.029854098
253	0x3e14f914	0.14548141
254	0x3df344b8	0.118783414
255	0x3d43acbc	0.047772154

bias f4 [64]
0	0x3e2af374	0.16694432
1	0xbd4b2664	-0.04959716
2	0x3deca232	0.11554374
3	0xbe3ea11c	-0.18616146
4	0xbdbb0e28	-0.091335595
5	0xbddfd36a	-0.10928996
6	0xbd823273	-0.06357279
7	0xbe57623b	-0.21033566
8	0x3caa170f	0.020762948
9	0xbdba3865	-0.09092788
10	0x3e36e659	0.17861308
11	0xbe4951b9	-0.19660081
12	0xbe0f68d0	-0.14004827
13	0x3e27590b	0.16342561
14	0xbe3df4ca	-0.18550411
15	0xbe34a4d9	-0.1764101
16	0xbe1c351b	-0.15254633
17	0xbe4d7f06	-0.20067987
18	0xbe673c52	-0.22581604
19	0x3d031e4e	0.032011323
20	0x3c61099f	0.013735204
21	0x3e233c38	0.1594094
22	0xbd0d0752	-0.03443081
23	0xbe3a44b2	-0.18190268
24	0xbe0fda15	-0.14048035
25	0xbdd9acff	-0.106286995
26	0x3dc87144	0.09787229
27	0xbda407e5	-0.08009318
28	0xbc78a34e	-0.015175654
29	0xbd37440d	-0.044742633
30	0xbe504d8c	-0.20342082
31	0x3d8a13f8	0.0674209
32	0xbe53477e	-0.20632741
33	0xbb9710b6	-0.0046101464
34	0x3e9391e0	0.2882223
35	0xbd9a32a5	-0.07529191
36	0x3cc63b13	0.02419809
37	0xbe22be2f	-0.15892862
38	0xbe4c8471	-0.19972397
39	0xbcc3384e	-0.02383056
40	0x3c9c022d	0.019044006
41	0xbcf05618	-0.029337928
42	0xbdbed919	-0.09318752
43	0xbd8f921f	-0.07010292
44	0x3e2710b8	0.16314971
45	0xba6a8874	-0.00089467247
46	0x3e351fff	0.17687987
47	0xbd4e589c	-0.050377473
48	0x3dfb0cfd	0.12258337
49	0xbdfbd496	-0.12296407
50	0xbe2816f8	-0.16415012
51	0x3e3c38eb	0.18381087
52	0xbe25aaf2	-0.16178492
53	0x3d56bb73	0.05242486
54	0xbde5b724	-0.11216572
55	0x3e492aa2	0.1964517
56	0xbe12348b	-0.14277856
57	0xbd1366f4	-0.035986856
58	0xbd0652b1	-0.032793704
59	0xbe267b9f	-0.16258095
60	0xbdac8683	-0.084240936
61	0x3d83583d	0.064133145
62	0xbc96d533	-0.018412208
63	0xbd70490a	-0.058663405

weight f4 [32, 64]
0	0xbaf024c5	-0.0018321505
1	0x3c8d29b2	0.017231796
2	0x3d5fde7f	0.05465555
3	0x3e13e1ed	0.14441653
4	0xbd9d9df1	-0.076961406
5	0x3becc4d4	0.007225612
6	0xbe0e6681	-0.1390629
7	0xbe0df082	-0.13861278
8	0x3dd7e4a2	0.10541655
9	0xba125261	-0.00055817334
10	0xbd98afc1	-0.074553974
11	0xbe0244a1	-0.12721492
12	0xbd9a779b	-0.07542344
13	0xbd786e52	-0.060652085
14	0x3d5ef195	0.05442961
15	0xbddb6ebc	-0.1071448
16	0xbd6a43ec	-0.05719368
17	0xbbc66c62	-0.0060554007
18	0xbd6c4429	-0.05768219
19	0x3d16581b	0.036705118
20	0xbcd479b3	-0.025936937
21	0xbce5a2a5	-0.028031657
22	0xbb988f58	-0.00465576
23	0xbd3e694d	-0.04648714
24	0x3d284e02	0.04109002
25	0xbe1138fe	-0.14181897
26	0xbd8d3a37	-0.06895869
27	0x3d9b913b	0.0759606
28	0xbdbd17e5	-0.09233073
29	0x3df85fe4	0.12127665
30	0xbc127817	-0.008939764
31	0x3da52cd6	0.080651924
32	0x3e165910	0.14682412
33	0x3d970a2e	0.073749885
34	0x3df4b639	0.11948819
35	0x3d0b3de0	0.033994555
36	0xbe598e6e	-0.21245739
37	0xbc0de2d4	-0.008660037
38	0x3d5eddb7	0.054410663
39	0x3d909de0	0.07061362
40	0xbc9288aa	-0.017887432
41	0x3d225653	0.039633106
42	0x3e028fd8	0.12750185
43	0xbd5dc049	-0.054138456
44	0xbd87189a	-0.06596489
45	0x3dfbb008	0.12289435
46	0x3db152fc	0.08658406
47	0x3d61498d	0.055001784
48	0xbde8fffb	-0.113769494
49	0xbdeac7b0	-0.114638686
50	0xbdc2c1b1	-0.095096
51	0x3e05ae07	0.13054667
52	0xbdb5a029	-0.08868439
53	0xbe5d6b1f	-0.21622895
54	0xbde88b9b	-0.11354753
55	0x3e1e2ce6	0.15446815
56	0x3daa910a	0.08328445
57	0xbe1f3da2	-0.15550855
58	0x3dda99eb	0.10673889
59	0x3ce247c0	0.027622104
60	0x3dac352f	0.084085815
61	0x3a4fd5a0	0.0007928256
62	0x3e39aa09	0.1813127
63	0xbc854623	-0.016268795
64	0x3dc4d3b2	0.0961069
65	0xbd3dfb08	-0.04638198
66	0xbd1c2052	-0.03811676
67	0x3e381bcd	0.17979355
68	0x3e209846	0.15683088
69	0x3e075390	0.1321547
70	0x3d819a78	0.06328291
71	0x3e0c1f74	0.13683873
72	0xbd84ecf9	-0.064905114
73	0x3d254183	0.04034568
74	0xbdc49b69	-0.09599955
75	0x3dfe47a7	0.1241601
76	0x3c915fe9	0.017745929
77	0xbe8abc0c	-0.27096593
78	0xbe2a63c1	-0.16639616
79	0xbd3031d4	-0.04301627
80	0xbbbbf89a	-0.0057364227
81	0xbd6eae3d	-0.058271635
82	0x3cb234c6	0.02175368
83	0xbdc36015	-0.095398106
84	0x3d667088	0.056259662
85	0xbca5112a	-0.020149786
86	0x3da37172	0.07980622
87	0x3de6e908	0.11274916
88	0x3c4b960a	0.012425909
89	0xbde4bda7	-0.11168986
90	0xbdc72e5a	-0.09725638
91	0xbcfdcb80	-0.030980825
92	0x3be33fe9	0.006935109
93	0xbdef74a5	-0.1169217
94	0x3dc9d787	0.09855562
95	0x3d8c2ae1	0.06844116
96	0x3de5b8de	0.11216901
97	0x3e44207e	0.1915302
98	0xbe300126	-0.17187938
99	0x3e0a5b61	0.13511421
100	0xbd18413c	-0.037171587
101	0x3ce6adce	0.028159048
102	0x3e8aa6e4	0.27080452
103	0x3e2ab811	0.16671778
104	0x3e2ddac2	0.1697798
105	0x3e0d3504	0.13789755
106	0x3d5f1fb6	0.0544736
107	0xbcc20321	-0.023683133
108	0xbd4a8375	-0.049441773
109	0xbc0b63a1	-0.00850764
110	0xbe097f2a	-0.13427415
111	0x3c075bf9	0.008261674
112	0x3e1f75a6	0.15572223
113	0x3d3c9a1c	0.046045408
114	0xbd900f56	-0.07034175
115	0x3da91704	0.08256343
116	0xbdf99d02	-0.1218815
117	0xbe692a9e	-0.22770163
118	0x3dcf693f	0.10127496
119	0x3caca4f6	0.021074753
120	0xbbb9039c	-0.005646182
121	0x3b3e24bc	0.0029013595
122	0xbdd14780	-0.10218716
123	0xbe49d886	-0.19711503
124	0xbdf4e700	-0.11958122
125	0xbd92012d	-0.071291305
126	0x3d2aaa8c	0.041666552
127	0xbe0bbd47	-0.13646422
128	0x3e33f979	0.17575635
129	0xbd750ac1	-0.05982471
130	0x3e3c929e	0.18415305
131	0xbcc003bb	-0.023439279
132	0xbdac940f	-0.084266774
133	0x3e0ad8ed	0.13559313
134	0x3e783431	0.2423866
135	0xbdc75859	-0.09733648
136	0xbc86e416	-0.016466182
137	0x3cf50d39	0.029913532
138	0x3dc103bf	0.09424543
139	0x3e105767	0.14095841
140	0x3c3490c5	0.011020844
141	0x3d8e0232	0.069340125
142	0xbbc24256	-0.005928318
143	0xbd285674	-0.041098073
144	0xbd1cbf19	-0.038268182
145	0x3d98ff36	0.074705526
146	0xbd994ff9	-0.07485957
147	0x3e6ded8c	0.23235148
148	0x3d784380	0.060611248
149	0x3d9bab4d	0.076010324
150	0x3daec310	0.08533299
151	0x3dc36387	0.09540468
152	0xbd4de89c	-0.05027066
153	0xbda73636	-0.08164637
154	0xbe4fcc96	-0.20292887
155	0x3ddd362d	0.10801349
156	0xbdef2afc	-0.116781205
157	0x3d0fd42d	0.035114456
158	0x3e3e450a	0.18581024
159	0xbd36ade7	-0.04459944
160	0x3c50a5a5	0.012734805
161	0x3d98e94e	0.07466374
162	0x3d9018db	0.07035991
163	0xbd2b72c8	-0.04185751
164	0x3dd840e4	0.10559252
165	0x3d9c1445	0.076210536
166	0x3c2c1273	0.0105024455
167	0xbdda1940	-0.10649347
168	0x3d5356f9	0.051596615
169	0x3e09b4c9	0.1344787
170	0xbaac0a8a	-0.00131257
171	0x3d341aef	0.043971
172	0x3e19d111	0.15021159
173	0x3dc2e144	0.09515622
174	0xbd613079	-0.054977868
175	0xbba55667	-0.0050457004
176	0x3ea8b131	0.32947686
177	0xbd12bb6f	-0.03582328
178	0x3dd0eb02	0.10201074
179	0xbb36f71b	-0.0027918282
180	0x3d64f45d	0.055897105
181	0xbd397fc4	-0.045287862
182	0xbdc6459e	-0.09681247
183	0x3d0029f4	0.03129001
184	0xbd70001d	-0.058593858
185	0x3d1d5486	0.038410686
186	0x3c8a2b7e	0.016866442
187	0x3e1fe5f7	0.15615068
188	0xbd1c29fa	-0.03812597
189	0x3d875a29	0.066089936
190	0xbc85e753	-0.016345656
191	0xbd66e700	-0.056372643
192	0xbd706794	-0.05869253
193	0xbd7aacd4	-0.061199978
194	0x3db12e22	0.08651377
195	0xbe185b47	-0.1487857
196	0xbe0497f7	-0.12948595
197	0xbde3df54	-0.11126581
198	0x3d085e75	0.033293206
199	0xbded5218	-0.11587924
200	0xbdfdf022	-0.12399317
201	0x3d88a148	0.06671387
202	0xbd5d5c44	-0.05404307
203	0x3e407489	0.18794455
204	0x3dac73e7	0.08420544
205	0xbd7abf9e	-0.061217897
206	0xbd962b3b	-0.07332464
207	0xbd1c47a4	-0.03815426
208	0xbdda6fda	-0.10665865
209	0x3d914feb	0.07095321
210	0x3ce37229	0.027764397
211	0x3c86bceb	0.016447505
212	0xbdff93c5	-0.12479357
213	0x3d0e43ee	0.03473275
214	0x3e4840b1	0.19555928
215	0xbdec057b	-0.11524483
216	0x3df9b899	0.12193412
217	0x3d0f4002	0.034973152
218	0xbdab6829	-0.08369476
219	0x3d7a7964	0.061150923
220	0x3dfb009c	0.122559756
221	0x3d49b642	0.04924608
222	0x3da862bb	0.08221956
223	0xbd5e4494	-0.05426462
224	0x3dec5dc9	0.115413256
225	0xbc61106f	-0.013736828
226	0xbdd01b91	-0.10161508
227	0x3d892565	0.066965856
228	0xbcba86bf	-0.02276933
229	0x3db76740	0.0895524
230	0x3d4e6304	0.050387397
231	0x3de8590c	0.11345109
232	0xbd044265	-0.03228988
233	0x3c80b7eb	0.015712699
234	0xbd16828d	-0.036745597
235	0x3da3dbb2	0.08000888
236	0xbdbc4939	-0.091936536
237	0x3cb7579f	0.022380648
238	0x3daf865a	0.085705474
239	0x3e3b0a0b	0.1826555
240	0xbdaa8a35	-0.08327142
241	0x3e2ac521	0.16676761
242	0x3dbe9acc	0.09306869
243	0x3e2c1ca9	0.16807808
244	0x3e205526	0.15657482
245	0xbd3e641d	-0.046482194
246	0xbdd7ba29	-0.10533554
247	0x3e242f23	0.16033606
248	0x3d438067	0.047729876
249	0xbd2a2832	-0.04154224
250	0xbd4018e8	-0.046898752
251	0xbcdf0644	-0.027224667
252	0x3d8fc1db	0.07019397
253	0x3df23976	0.11827366
254	0x3ddbf97e	0.10740946
255	0x3dee82c8	0.11646038

bias f4 [32]
0	0xbd2a1dd5	-0.041532356
1	0x3d5f3890	0.0544973
2	0x3c042787	0.008066065
3	0xbca10c36	-0.019659143
4	0xbdc23acc	-0.09483871
5	0x3d81a3a3	0.06330039
6	0x3e1f88c9	0.15579523
7	0xbe146e27	-0.14495145
8	0x3e16f4b2	0.14741781
9	0xbe280827	-0.1640936
10	0x3df71afe	0.12065695
11	0xbe1aecb9	-0.15129365
12	0xbe5624cc	-0.20912474
13	0x3d615ba5	0.05501904
14	0x3da950c3	0.08267357
15	0xbe49d314	-0.19709426
16	0xbe118afd	-0.14213176
17	0x3e67cd65	0.22636946
18	0xbd4871f9	-0.048936818
19	0xbc7a7857	-0.01528748
20	0x3dce9df3	0.1008872
21	0xbe22e0f9	-0.15906133
22	0xbd595ee8	-0.053069025
23	0xbe21c64a	-0.15798298
24	0x3e9d139b	0.3067902
25	0xbd592c55	-0.053020794
26	0x3c953a3d	0.018216247
27	0xbe24e608	-0.16103375
28	0x3db4255d	0.08796189
29	0x3e5daccc	0.21647948
30	0x3dfecc3f	0.124413006
31	0xbd150e35	-0.036390502
