deploy/networks/go2/cheetah_v1/estimator.pt (torch, 343761 bytes, 6 tensors)

weight f4 [128, 583]
0	0xbd0e129d	-0.03468572
1	0xba8df52e	-0.0010830516
2	0x3b860375	0.0040897676
3	0x3d04478b	0.03229479
4	0xbcf1a35f	-0.029496847
5	0xbd0dac0c	-0.034587905
6	0x3cf2404e	0.029571678
7	0x3c541168	0.012943603
8	0xbbfc3f4d	-0.0076979757
9	0xbd0a523d	-0.033769835
10	0x3d2950d8	0.041336864
11	0xbb41b2c5	-0.0029556018
12	0x3c725745	0.0147913145
13	0xbc34c95b	-0.011034335
14	0xbcd66120	-0.02616936
15	0x3cadad3f	0.021200774
16	0x3cf39a40	0.029736638
17	0xbc89137a	-0.01673292
18	0xbc1b9f08	-0.009498365
19	0x3d195058	0.037430137
20	0xbc8be6a1	-0.017077746
21	0x3ceb8fe6	0.02875514
22	0x3cb140b6	0.021637302
23	0x3c01e94c	0.0079291575
24	0x3c7c9be3	0.015418026
25	0xbd0ff24c	-0.03514318
26	0x3be9f225	0.0071394616
27	0x3b214b31	0.0024611468
28	0x3b784972	0.0037885574
29	0xbc15f358	-0.009152256
30	0x3ab2d977	0.0013645132
31	0xbd025717	-0.031821337
32	0xbba316b3	-0.004977071
33	0x3c9d7a76	0.019223433
34	0xbaf369ac	-0.0018570921
35	0xbc10e1ea	-0.008842925
36	0x3cd3b7f0	0.025844544
37	0x3ce98863	0.028507417
38	0x3ccda614	0.025103606
39	0x3ce69a22	0.028149668
40	0x3d1305c5	0.035894174
41	0x3ce4206e	0.027847495
42	0xbc922baa	-0.017843086
43	0x3cfee75f	0.031116186
44	0xbccbe868	-0.024891093
45	0xbc870e17	-0.01648621
46	0xbc0cb3ab	-0.008587758
47	0xbc044776	-0.008073678
48	0xbce5e315	-0.028062383
49	0x3c341dd5	0.010993441
50	0xbc98987c	-0.018627398
51	0xbb87f842	-0.0041494677
52	0xbc815315	-0.015786687
53	0xbd168e40	-0.036756754
54	0x3cbf7be4	0.023374505
55	0x3c3fd52a	0.011708537
56	0xbc8b12a2	-0.016976658
57	0xbcde3c5b	-0.02712839
58	0xbcd7639c	-0.026292615
59	0x3d16af3a	0.036788203
60	0x3c21d8d0	0.009878352
61	0x3cd2d5c4	0.025736697
62	0xbc8c6dcf	-0.017142205
63	0xbc22104a	-0.009891579
64	0x3bc5ea85	0.00603992
65	0xbc8c7304	-0.017144687
66	0xbd107602	-0.03526879
67	0xbb93b78a	-0.0045079635
68	0x3d1456b6	0.036215506
69	0x3c4395e2	0.01193759
70	0x3cbef784	0.023311384
71	0xbd0459b0	-0.032312095
72	0xbd1e9d6b	-0.038724344
73	0x3d112126	0.035432003
74	0xbced0dfd	-0.028937334
75	0x3cb2b4bb	0.021814695
76	0xbc886403	-0.016649252
77	0x3cedad4b	0.029013297
78	0xbcc67ff8	-0.024230942
79	0xbcc36078	-0.02384971
80	0xbc49b327	-0.01231078
81	0xbd143a90	-0.036188662
82	0x3bde1318	0.0067771785
83	0x3c5f44de	0.013627259
84	0x3c37ca72	0.0112177
85	0x3d12ca62	0.03583754
86	0x3c5a1514	0.0133106895
87	0xbcfb4ceb	-0.030676326
88	0x3c13fd63	0.00903258
89	0x3b4e3b2b	0.0031468372
90	0x3cfd83b9	0.0309466
91	0xbcd5182e	-0.026012506
92	0xbc6e1d48	-0.014533348
93	0xbcdf0a54	-0.027226605
94	0x3c04e477	0.008111111
95	0xbc167e01	-0.009185315
96	0xbc2cd41d	-0.010548619
97	0x3c07c950	0.008287743
98	0xbcaf1e73	-0.021376824
99	0xbc14d046	-0.009082859
100	0xbc097666	-0.008390045
101	0xbd033064	-0.03202857
102	0x3d046577	0.032323327
103	0xbbdc5a6f	-0.0067246477
104	0xb8046d4b	-3.157304e-05
105	0x3cc84ce5	0.024450729
106	0x3ab4d5e2	0.0013796652
107	0x3ceac93a	0.028660405
108	0x3b9bc2db	0.004753453
109	0xbd20307b	-0.039108735
110	0xbc902fde	-0.01760095
111	0x3cd58aaa	0.026067097
112	0x3cff7166	0.031182002
113	0xbb90dbae	-0.004420719
114	0x3cbee47a	0.023302305
115	0x3ca02ced	0.019552672
116	0xbd0074db	-0.031361442
117	0xbd0e9ad7	-0.034815636
118	0x3cc48153	0.023987448
119	0xbd091663	-0.033468615
120	0x3cfbd4bd	0.03074109
121	0x3c7dadda	0.015483344
122	0xbcd8f7d4	-0.026485361
123	0xbb00dbe9	-0.0019662327
124	0x3c9c32a8	0.019067124
125	0xbd0efc12	-0.03490836
126	0xbc604a9e	-0.013689665
127	0xbcba42c1	-0.022736909
128	0x3b67e4de	0.0035384218
129	0x3c8e3a70	0.01736185
130	0x3d1ff0e3	0.039048087
131	0xbce761e1	-0.028244914
132	0x3ac366cb	0.0014907954
133	0x3cabc426	0.020967554
134	0x3cd4101f	0.025886593
135	0x3d0549d6	0.03254112
136	0xba83b5e7	-0.0010048718
137	0x3932cd5f	0.0001705191
138	0xbd0c3b12	-0.03423602
139	0x3b6bc8c0	0.003597781
140	0xbcf8c1ea	-0.030365903
141	0xbd24f458	-0.040272087
142	0xbb520fcf	-0.003205288
143	0x3cb5c80b	0.022190114
144	0xbd09e3cf	-0.03366452
145	0x3d00c085	0.0314336
146	0xbb698f9e	-0.003563858
147	0xbbf8e3a3	-0.007595496
148	0x3d174fb8	0.03694126
149	0x3b5bd6a6	0.0033544688
150	0x3cd5d15c	0.026100807
151	0x3cdb961c	0.026804976
152	0x3c5334b9	0.012890988
153	0xbc6f8c4a	-0.01462085
154	0x3cd9fe30	0.026610464
155	0x3c549900	0.012975931
156	0xba19d1c8	-0.00058677467
157	0x3c108a0d	0.008821976
158	0x3d219cd2	0.039456196
159	0xbcef2298	-0.0291913
160	0xbbd91ab8	-0.0066254996
161	0x3b026374	0.0019895704
162	0xbcceb486	-0.025232565
163	0xb8c94d25	-9.598796e-05
164	0x3d1eab99	0.038737867
165	0x3cb92f91	0.02260569
166	0xbd100529	-0.03516117
167	0xbb96c563	-0.004601167
168	0x3c599575	0.013280262
169	0x3c4bb8a4	0.0124341585
170	0xbcf9daf3	-0.030499911
171	0xbcf9a1f6	-0.030472737
172	0x3cfec566	0.031099986
173	0x3ceee7a9	0.029163199
174	0xbc8c5ab2	-0.01713309
175	0xbbd5af3b	-0.0065211332
176	0x3c6ff0b4	0.01464479
177	0x3cd2fc06	0.02575494
178	0xbbaf402c	-0.005348226
179	0xbbe4d568	-0.006983448
180	0xbd167e42	-0.036741503
181	0xbba19c1e	-0.0049319407
182	0x3d121c3d	0.03567146
183	0x3cd64da1	0.026160063
184	0xbac315f4	-0.0014883862
185	0x3c6428d9	0.013925754
186	0x3cccba10	0.024991065
187	0x3aadb3c8	0.0013252432
188	0xbd0beec4	-0.03416325
189	0x3d0f1d69	0.034940157
190	0x3d031c95	0.03200968
191	0xba24ff1d	-0.00062941184
192	0xbc92073e	-0.017825719
193	0x3c86aece	0.016440775
194	0x3ca98fc4	0.020698436
195	0x3c9b88ed	0.01898619
196	0xbbb3ef3d	-0.005491166
197	0xbc68ad97	-0.014201543
198	0xbc10c867	-0.008836842
199	0x3d1b6bcb	0.037944596
200	0x3bc99614	0.006151924
201	0x3b9a2779	0.0047044125
202	0xbc262ccf	-0.010142519
203	0xbca5aac1	-0.020223023
204	0x3d20cab4	0.039255813
205	0xbcc6fda0	-0.02429086
206	0x3c148cc4	0.009066764
207	0xbc9b68b7	-0.01897083
208	0xbb2f61ed	-0.002676125
209	0x3cd92558	0.026507065
210	0x3d0fffbf	0.035156008
211	0x3be88bbb	0.0070967353
212	0x3c9110a1	0.017708125
213	0x3cab68c4	0.02092398
214	0x3a34ded5	0.00068996596
215	0xbd16a578	-0.036778897
216	0xbd09c7a0	-0.033637643
217	0x3cd1a2a6	0.025590252
218	0x3ba60cfb	0.0050674654
219	0xbc878d0b	-0.016546747
220	0x3d16b274	0.03679128
221	0x3b27d789	0.0025610647
222	0xbd0fe373	-0.03512902
223	0x3cfe5cd3	0.031050121
224	0xbc958563	-0.01825208
225	0x3cbd9039	0.02314006
226	0xbc93a6d9	-0.018023895
227	0x3c7cc5fd	0.015428063
228	0x3cca41f9	0.024689661
229	0xbc9585c8	-0.018252268
230	0xbd1630ce	-0.036667638
231	0x3ca117b3	0.019664621
232	0x3d19a128	0.037507206
233	0x3d1c566d	0.03816836
234	0xbd081fcf	-0.03323346
235	0x3d0731d9	0.033006523
236	0x3d006391	0.031344954
237	0x3cb81c53	0.022474444
238	0x3cdc4fd2	0.02689353
239	0x3cfcb435	0.030847648
240	0x3cf4695a	0.029835392
241	0x3d1825cb	0.037145417
242	0xbd22a487	-0.039707687
243	0x3cf8e6d8	0.030383512
244	0x3b7f0d0a	0.0038917684
245	0x3c74da85	0.014944677
246	0x3cc64994	0.024205007
247	0x3d094ff6	0.033523522
248	0x3d13f546	0.036122583
249	0xbcb345f4	-0.021883942
250	0x3ccfe9e9	0.025380092
251	0x3ce6663f	0.028124927
252	0xbd28abea	-0.041179575
253	0xbcd8a054	-0.026443638
254	0x3ba69c28	0.0050845332
255	0x3c99123f	0.018685458

bias f4 [128]
0	0x3ce79fde	0.028274473
1	0xbd21ccd1	-0.03950197
2	0xbcb2f1fe	-0.021843906
3	0x3d037d0f	0.032101687
4	0xbcaf6491	-0.021410258
5	0x3c49b57e	0.0123113375
6	0xbc834292	-0.016022954
7	0xbc26b068	-0.010173894
8	0x3d0abfff	0.033874508
9	0xbd238bb5	-0.039928157
10	0x3c984392	0.018586908
11	0x3d11e194	0.03561552
12	0x3c24fa65	0.010069464
13	0xbc670948	-0.014101334
14	0xbc9042b9	-0.01760994
15	0xbc92428a	-0.017853994
16	0x3c35c4f5	0.0110943215
17	0x3d17c383	0.03705169
18	0x3980d8d8	0.00024575624
19	0x3ce0e04b	0.027450701
20	0xbd0874c6	-0.03331449
21	0x3cb3f4d2	0.021967325
22	0xbba23452	-0.0049500847
23	0xbb971779	-0.0046109525
24	0xbbaf1096	-0.0053425534
25	0x3c94b962	0.018154804
26	0xbce3ef6a	-0.027824122
27	0xbd1bd822	-0.038047917
28	0xbd12279a	-0.0356823
29	0x3bee3494	0.0072694514
30	0x3bf10561	0.0073553775
31	0xbbb09329	-0.0053886366
32	0xbc97de1d	-0.018538529
33	0xbc9db88b	-0.019253036
34	0xbd03def4	-0.032195047
35	0x3c44b31d	0.012005595
36	0xbce5520e	-0.027993228
37	0xbb8960c8	-0.0041924454
38	0x3cbf81f0	0.023377389
39	0x3cdaecd8	0.026724264
40	0x3c46cca1	0.012133748
41	0xbd1de6a9	-0.038550053
42	0x3c3317c1	0.010930956
43	0x3c7540e1	0.014969082
44	0x3ca8201e	0.020523127
45	0xbbb77b08	-0.0055993833
46	0xbce74183	-0.02822948
47	0xbcfb5026	-0.030677866
48	0xbd06ae17	-0.03288087
49	0xbd14be2c	-0.036314175
50	0xbcd660bb	-0.026169172
51	0xbc806216	-0.015671771
52	0x3c840355	0.01611487
53	0xbd08b301	-0.033373836
54	0x3b905dfc	0.004405735
55	0xbc9cda0a	-0.019146938
56	0xbceb8430	-0.028749555
57	0xbced6a3b	-0.028981319
58	0x3c9a8fc2	0.018867377
59	0xbcf98bd0	-0.030462176
60	0xbd1c7502	-0.038197525
61	0xbcafbafd	-0.021451468
62	0xbcf1a4e2	-0.029497568
63	0x3ca26b20	0.019826472
64	0x3c13adf3	0.009013641
65	0xbc3b936e	-0.011448724
66	0xba530a60	-0.0008050557
67	0x3ca8b192	0.020592485
68	0x3c1db1f0	0.009624943
69	0xbc4864b3	-0.01223104
70	0xbd198e89	-0.037489448
71	0x3d19abdb	0.03751741
72	0xbd1a0b39	-0.03760836
73	0x3cfd8e1b	0.03095155
74	0x3cc9bf2a	0.024627287
75	0xbad1b546	-0.0015999458
76	0xbc2ae395	-0.010430236
77	0xbc352ce6	-0.011058068
78	0xbd1e3289	-0.038622413
79	0x3c94e899	0.018177317
80	0x3b09d47f	0.0021031199
81	0xbca6d796	-0.020366471
82	0xbccc2051	-0.024917753
83	0xbd107e99	-0.035276983
84	0xbcc97911	-0.024593862
85	0xbd1f3799	-0.03887138
86	0x3c54ab04	0.012980226
87	0x3cfdecf0	0.03099677
88	0xbab3fa62	-0.0013731236
89	0xbd1ca1fe	-0.038240425
90	0x3c8508f7	0.016239626
91	0xbd05fe36	-0.032713138
92	0x3d1dbbf1	0.038509313
93	0x3cc15d44	0.023604043
94	0x3cb8c6b6	0.02255569
95	0x3ca651f8	0.020302758
96	0xbd0300a7	-0.031983044
97	0x3c9f91d8	0.019478723
98	0xba5ab6cf	-0.00083432806
99	0xbd11010c	-0.03540139
100	0x3caf09b6	0.021366935
101	0x3c215c86	0.009848719
102	0x3a275282	0.0006382839
103	0xbcf581ac	-0.029969059
104	0xbb8d2cef	-0.004308335
105	0x3d1ba48b	0.037998717
106	0x3bbbd67c	0.0057323556
107	0xbd068fca	-0.03285197
108	0x3d01d70b	0.03169922
109	0x3cdb9359	0.02680366
110	0xbccb091a	-0.024784613
111	0x3cb4c8d1	0.022068413
112	0x3cc6a632	0.02424917
113	0x3c8036ae	0.015651073
114	0x3c40f2df	0.011776655
115	0x3d239a1a	0.039941885
116	0xba768a52	-0.00094047666
117	0x3a210898	0.0006142943
118	0x3d1df01b	0.03855906
119	0xbba558a8	-0.005045969
120	0xbd1b9a34	-0.037988856
121	0xbad86394	-0.0016509169
122	0x3c7e458a	0.015519509
123	0xbc5bf580	-0.013425231
124	0x3d11cf06	0.035597824
125	0xbcbd9648	-0.023142949
126	0xbd1c81e8	-0.038209826
127	0xbcc99705	-0.024608145

weight f4 [64, 128]
0	0x3d90be09	0.07067496
1	0x3bc2d17a	0.0059453817
2	0xbcb1f24b	-0.02172198
3	0x3dae38e9	0.085069485
4	0xbd88a3b0	-0.06671846
5	0xbd2eaa5c	-0.042642936
6	0x3d1305f2	0.03589434
7	0x3d537c67	0.05163231
8	0x3d253edf	0.04034316
9	0xbc3394fd	-0.010960815
10	0x3d84d484	0.06485847
11	0xbd265866	-0.040611647
12	0x3d207d36	0.03918191
13	0x3d92af63	0.071623586
14	0xbd7b37fe	-0.061332695
15	0xbb3b31b0	-0.0028563552
16	0x3d4476e7	0.047964957
17	0xba7ad513	-0.00095684937
18	0x3db269b7	0.0871157
19	0xbbc0c840	-0.0058832467
20	0x3d339cc4	0.043850675
21	0xbd74a645	-0.05972888
22	0xbd4ddb96	-0.05025824
23	0xbd738b02	-0.05945874
24	0x3d71691f	0.058938142
25	0x3da9e8ef	0.08296382
26	0xbcae15fb	-0.021250715
27	0x3d5190c1	0.05116344
28	0xbbc7f27d	-0.006101905
29	0xbb7610c9	-0.0037546626
30	0x3cadbb12	0.021207366
31	0xbdacbfb6	-0.084350035
32	0xbbbae91f	-0.0057040597
33	0x3cee056c	0.02905532
34	0xbd1c482e	-0.038154773
35	0x3ca0e6df	0.019641338
36	0x3d96990d	0.07353411
37	0xbdae27fe	-0.08503722
38	0xbd91e7fb	-0.07124325
39	0x3d2639e8	0.040582567
40	0xbd1d2b42	-0.038371332
41	0x3d8b7230	0.06808889
42	0xbc933503	-0.017969614
43	0x3db11f44	0.086485416
44	0x3cf53fb9	0.029937612
45	0x3cb60f2d	0.022224033
46	0xbbaa38f5	-0.005194778
47	0xbd9ad820	-0.07560754
48	0xbd23ff67	-0.040038493
49	0x3da6b976	0.081408426
50	0xbd2ff8d5	-0.042961914
51	0xbd77fd16	-0.060544096
52	0xbd88ec70	-0.06685722
53	0x3b10c34a	0.0022089058
54	0x3bc5bb09	0.006034259
55	0x3d91d029	0.071197815
56	0xbd116622	-0.035497792
57	0x3caa3c07	0.020780576
58	0x3d85905d	0.06521676
59	0x3ca00c3e	0.019537088
60	0x3d479b31	0.048731986
61	0x3daa8ff0	0.08328235
62	0xbdb4249c	-0.08796045
63	0x3d148d0b	0.03626732
64	0xbd24e202	-0.0402546
65	0x3d23b3aa	0.039966263
66	0x3d572c3a	0.052532412
67	0x3d76db94	0.060268
68	0xbc895eda	-0.016768862
69	0x3cb5673d	0.022143954
70	0x3d183f6a	0.03716985
71	0x3cfedf15	0.031112233
72	0xbd8eba96	-0.06969182
73	0xbaf4c718	-0.0018675057
74	0xbdae56d8	-0.08512658
75	0x3b9c6096	0.004772256
76	0xbcd9d1fa	-0.026589382
77	0x3d92d02b	0.07168611
78	0xba43d52a	-0.00074704236
79	0xbd0eb8d6	-0.034844242
80	0x3c37e3f1	0.011223779
81	0x3dadd794	0.08488384
82	0x3d9a5b30	0.07536924
83	0xbd893c4c	-0.06700954
84	0xbcb89480	-0.022531748
85	0x3d3dc9a6	0.046334885
86	0x3da01060	0.07815623
87	0xbd4a6d37	-0.04942056
88	0xbc84cd4c	-0.016211174
89	0x3d9473c2	0.072486416
90	0xbd58df9d	-0.05294763
91	0xbd502a3d	-0.05082153
92	0xbd89aff7	-0.06723016
93	0xbdb18226	-0.08667402
94	0x3c237a4a	0.009977886
95	0xbc4a6507	-0.012353188
96	0x3db32cfe	0.08748816
97	0xbd443eb8	-0.047911376
98	0x3d542915	0.05179699
99	0xbd4f4c87	-0.05061009
100	0x3db15c8a	0.086602286
101	0xbd891c77	-0.06694882
102	0x3c444e41	0.011981548
103	0xbdac1f1e	-0.08404373
104	0x3da6aeae	0.08138786
105	0xbd0e21f5	-0.034700353
106	0xba93f1b3	-0.0011287242
107	0xbd1ec2aa	-0.038759865
108	0xbd332b3b	-0.0437424
109	0xbcee1aa3	-0.029065436
110	0x3cdfadba	0.027304519
111	0x3b7f09a5	0.003891566
112	0xbd399824	-0.04531111
113	0x3da3400c	0.079712
114	0xbd74e0a9	-0.059784565
115	0xbd0f0ab2	-0.03492231
116	0xbc470a9a	-0.012148524
117	0xbd813929	-0.063097306
118	0xbd2edfd9	-0.042693947
119	0x3d79730e	0.06090074
120	0xbcdf8f1f	-0.027289925
121	0x3d4dfd3d	0.050290335
122	0xbd0bcb45	-0.0341294
123	0x3d531237	0.051531043
124	0x3cd4ea7c	0.025990717
125	0xbd541b8c	-0.051784083
126	0xbd57a636	-0.052648745
127	0xbb083b09	-0.002078714
128	0x3da6ce8f	0.08144867
129	0x3d380de2	0.044935115
130	0xbc3329c6	-0.0109352525
131	0x3d548f91	0.051894728
132	0xbda47b20	-0.08031297
133	0x3cc016d6	0.023448389
134	0xbd14ea1b	-0.036356073
135	0x3d684858	0.056709617
136	0xbcc2bdbf	-0.023772119
137	0x3d8b532f	0.068029754
138	0xbd5b8cbc	-0.05360101
139	0xbcb12262	-0.02162284
140	0x3da38fc1	0.07986403
141	0x3a8f4984	0.0010931944
142	0x3d21c35e	0.039492957
143	0xbc8d10d9	-0.017219948
144	0xbd1ea551	-0.038731877
145	0x3daa1d19	0.08306331
146	0x3d8be50d	0.06830797
147	0xbd5f12bd	-0.05446123
148	0xbd0c9acc	-0.034327313
149	0xbd049487	-0.03236821
150	0xbc9b050b	-0.018923303
151	0xbd6f3857	-0.05840334
152	0xbc9725c4	-0.018450625
153	0x3c9ead73	0.019369816
154	0xbd8ddf84	-0.06927398
155	0x3d50df0d	0.050993968
156	0x3c9f424c	0.019440793
157	0x3d4a0f45	0.04933097
158	0xbd7e4f5d	-0.062087405
159	0x3db3fb53	0.08788171
160	0xbd9abfb3	-0.07556095
161	0x3d2581ce	0.040406995
162	0x3d097802	0.033561714
163	0xbcd24ec7	-0.02567233
164	0x3db0dd55	0.08635966
165	0x3cdec15b	0.027191808
166	0xba5ee3fb	-0.00085025997
167	0xbdb01d1f	-0.085993044
168	0xbc53d0b4	-0.012928177
169	0x3d8b960b	0.06815728
170	0x3d51e223	0.05124105
171	0x3d936339	0.071966596
172	0xbc91442e	-0.017732706
173	0xbd517886	-0.05114033
174	0xbd49fb01	-0.04931164
175	0xbcd47011	-0.025932344
176	0xbd9c1ab1	-0.076222785
177	0xbd88a40c	-0.066719145
178	0xbc79e91f	-0.015253334
179	0xbcdd494e	-0.027012493
180	0xbd119a4b	-0.035547536
181	0xbd2b12b4	-0.041765884
182	0xbc6c2a83	-0.014414432
183	0x3aa5c6c8	0.0012647742
184	0xbd2e08e3	-0.042488944
185	0xbb5e5bdd	-0.0033929267
186	0x3d94b860	0.07261729
187	0xbdaa3db0	-0.08312547
188	0xbd9a3c17	-0.075309925
189	0xbcf53f7b	-0.029937496
190	0xbd974e0b	-0.073879324
191	0x3dab1e4b	0.08355387
192	0x3d78fcac	0.06078784
193	0x3cf0c1b4	0.02938924
194	0xbd938b2b	-0.072042786
195	0xbca44601	-0.020052912
196	0xbd1bfd53	-0.038083386
197	0xbd0bd312	-0.03413684
198	0xbc723eae	-0.014785452
199	0xbce3abeb	-0.027791938
200	0xbdb10e8d	-0.086453535
201	0x3d8a7b36	0.06761782
202	0x3aada335	0.0013247492
203	0xbd817d85	-0.06322769
204	0xbc58cb65	-0.013232087
205	0x3d8092a0	0.062779665
206	0xbd27c410	-0.040958464
207	0xbc85d79c	-0.016338162
208	0x3b616b29	0.0034396148
209	0x3c97db62	0.018537227
210	0xbd9ab55d	-0.075541236
211	0x3d3f6b43	0.046733152
212	0xbd96cbd3	-0.07363095
213	0xbb53ab5c	-0.0032298183
214	0x3d2665d9	0.040624473
215	0xbcff2768	-0.03114672
216	0x3d170368	0.036868483
217	0xbc82f10a	-0.015984077
218	0x3d9a9ba1	0.07549215
219	0x3bbd1f9a	0.0057715895
220	0xbd41dd92	-0.047330447
221	0xbd52b7f9	-0.05144498
222	0x3d89a602	0.067211166
223	0x3d5c490c	0.0537806
224	0xbd65db37	-0.056117263
225	0x3da65068	0.08120805
226	0x3da95502	0.08268167
227	0xbd1b3fb8	-0.037902564
228	0xbda06378	-0.07831472
229	0x3d6b2164	0.05740489
230	0x3c39303d	0.011303005
231	0x3cb2e71b	0.021838715
232	0x3d919247	0.07107978
233	0xbd5f6014	-0.054534987
234	0x3d8a026d	0.06738744
235	0x3d9813b8	0.07425636
236	0x3db35a44	0.08757451
237	0xbc8728d5	-0.016498962
238	0xbd1b93f7	-0.037982907
239	0x3c5425f4	0.012948502
240	0xbd6af4f7	-0.057362523
241	0xbc8983ff	-0.016786573
242	0xbdadacb0	-0.08480203
243	0x3da4d03b	0.08047529
244	0x3d5005fb	0.050786953
245	0xbc95c1df	-0.018280922
246	0x3cbd36ea	0.023097474
247	0x3d93d87d	0.07219026
248	0x3d24987b	0.04018448
249	0x3cc266cb	0.023730656
250	0xbd2b49fd	-0.041818608
251	0x3ce231bf	0.027611611
252	0xbda32544	-0.07966092
253	0x38c55f05	9.411391e-05
254	0xbd889eb2	-0.06670894
255	0x3d8cace4	0.06868914

bias f4 [64]
0	0xbc4a76e2	-0.012357445
1	0xbd0b9407	-0.034076717
2	0xbd0a8b9d	-0.03382455
3	0xbc3649c7	-0.011125988
4	0xbd5550c0	-0.052078962
5	0x3d3d090d	0.04615121
6	0xbc3f0d40	-0.011660874
7	0x3c505757	0.012716136
8	0xbd39244e	-0.04520064
9	0x3d1ec967	0.03876629
10	0xbca381f0	-0.01995942
11	0xbd0a9764	-0.033835784
12	0xbc40b37b	-0.0117615415
13	0xbc1ecf75	-0.009693016
14	0x3d74a0b3	0.059723567
15	0x3d91ad30	0.07113111
16	0xbd17701f	-0.03697216
17	0x3d7ae959	0.061257694
18	0xbbd9adc2	-0.006643028
19	0x3b9b424b	0.0047381273
20	0x3d4565c3	0.04819275
21	0xbb6f66b6	-0.0036529726
22	0x3c8ffc2c	0.0175763
23	0x3d8d5ef8	0.069028795
24	0x3d864c4b	0.065575205
25	0xbd89e7e3	-0.06733682
26	0x3d64facf	0.055903252
27	0x3d9e7290	0.07736695
28	0xbc9d0e8e	-0.01917198
29	0xbd4331de	-0.04765498
30	0x3d062537	0.032750335
31	0x3b6657c1	0.003514752
32	0xbd382379	-0.044955704
33	0x3cac8f64	0.021064468
34	0xbd48d0c6	-0.049027227
35	0xbda263da	-0.079292014
36	0x3d9f9bac	0.07793364
37	0x3d47c60a	0.04877285
38	0xbc144ff7	-0.009052268
39	0x3ce6f341	0.028192164
40	0xbd359ed0	-0.04434091
41	0x3d0741b7	0.033021655
42	0xbc31fb88	-0.010863192
43	0x3b8c56c5	0.0042828047
44	0xbd91c898	-0.07118338
45	0x3d910066	0.07080154
46	0xbd2cc741	-0.04218221
47	0x3d962d02	0.07332803
48	0x3d0eab83	0.034831535
49	0x3d3fb0a5	0.04679932
50	0x3d0af8f0	0.03392881
51	0xbd287940	-0.041131258
52	0xbd0480f9	-0.03234956
53	0xbd0bde19	-0.034147356
54	0x3da98821	0.08277918
55	0xbb77d7a1	-0.0037817734
56	0xbce1c67d	-0.027560467
57	0x3dabbb87	0.083853774
58	0xbc023d52	-0.00794919
59	0xbb9230c6	-0.0044613807
60	0x3d124dc1	0.035718683
61	0xba5f376b	-0.0008515033
62	0x3b37ff09	0.0028075597
63	0xbcf24e9c	-0.0295785

weight f4 [3, 64]
0	0xbbcc8ee0	-0.006242618
1	0x3d91fb44	0.07128003
2	0x3dd75254	0.1051375
3	0x3da8a624	0.08234814
4	0xbd557434	-0.052112773
5	0xbde0b85a	-0.10972662
6	0x3d8b0568	0.067881405
7	0x3dd4c8b6	0.10389845
8	0x3c8e2788	0.017352834
9	0x3ca36e18	0.019949958
10	0xbc824480	-0.015901804
11	0xbd8996f2	-0.06718244
12	0x3cf807c0	0.030277133
13	0xbcb81250	-0.02246967
14	0x3da6f680	0.08152485
15	0x3d641ba8	0.055690438
16	0xbcf20720	-0.029544413
17	0x3db8c9e2	0.09022881
18	0xbdf801ce	-0.12109719
19	0xbd919304	-0.07108119
20	0xbda60fb8	-0.08108467
21	0xbdc8d97e	-0.09807108
22	0xbc8819e8	-0.016613916
23	0x3cce3190	0.025170118
24	0xbda1f482	-0.07907964
25	0xbdbe8e2a	-0.093044594
26	0x3cada508	0.021196857
27	0xbde301fa	-0.110843614
28	0x3ddb87b6	0.10719244
29	0x3d8da70c	0.06916627
30	0x3d32ba44	0.043634668
31	0x3de98370	0.11402023
32	0xbd58c390	-0.052920878
33	0x3d559cb0	0.052151382
34	0xbd42da84	-0.047571674
35	0xbdafefa2	-0.08590628
36	0x3d4fddc8	0.050748616
37	0xbdc1e692	-0.09467806
38	0x3c4f9880	0.012670636
39	0xbc4921b0	-0.012276098
40	0xbcc47388	-0.02398087
41	0xbde05ec6	-0.109555766
42	0xbdcb4e1a	-0.09927006
43	0x3d61d620	0.055135846
44	0x3dc161bc	0.094424695
45	0x3cbfc748	0.023410454
46	0xbcf161b8	-0.029465541
47	0x3b8d5020	0.00431253
48	0xbcab2900	-0.020893574
49	0xbcd26d60	-0.02568692
50	0x3b7a5100	0.0038195252
51	0x3cb8f080	0.022575617
52	0xbd503bd8	-0.05083832
53	0x3cb7ac80	0.022421122
54	0xbd633050	-0.055465996
55	0xbd01180c	-0.031517074
56	0xbd2d45f8	-0.042303056
57	0xbd89621a	-0.067081645
58	0xbd7166a4	-0.058935776
59	0x3d42f108	0.047593147
60	0x3d5ce3d0	0.053928196
61	0xbdf7bfa2	-0.12097098
62	0xbd502d2c	-0.05082433
63	0xbdf809be	-0.12111233
64	0xbc617ce0	-0.013762683
65	0xbddc6da2	-0.10763098
66	0x3d29b608	0.041433364
67	0xbde74690	-0.112927556
68	0x3b667500	0.0035164952
69	0xbcd6b868	-0.026210979
70	0x3df22506	0.11823468
71	0xbd5bafac	-0.05363433
72	0x3d08e45c	0.033420905
73	0xbdc30092	-0.09521593
74	0x3b898060	0.0041962117
75	0x3c7ed560	0.015553802
76	0x3b9340a0	0.004493788
77	0xbddaa60a	-0.10676201
78	0x3de35fb4	0.11102238
79	0x3df65b6c	0.12029156
80	0x3d503358	0.050830215
81	0xbddf7bbc	-0.10912272
82	0xbdd05ad4	-0.10173574
83	0xbcea48a8	-0.028599098
84	0x3b70ab40	0.0036723167
85	0xbd513540	-0.051076174
86	0x3dc751d4	0.09732404
87	0x3d87c7d4	0.06629911
88	0xbd8496a6	-0.064740464
89	0x3d4154c8	0.047199994
90	0x3d9e3a48	0.0772596
91	0xbd8bb152	-0.068209305
92	0x3d1456b4	0.0362155
93	0xbded3fb2	-0.115844145
94	0x3ceffd90	0.029295713
95	0x3d912856	0.070877716
96	0xbd96d330	-0.073644996
97	0xbd52035c	-0.051272735
98	0xbdb0707a	-0.08615203
99	0x3d6b85f8	0.05750081
100	0xbdde7a1a	-0.10863133
101	0xbdf52ab4	-0.119710356
102	0xbd3b52c8	-0.045733243
103	0x3de5a8da	0.112138465
104	0xbdc0da58	-0.09416646
105	0xbdc2ef14	-0.09518257
106	0x3d80bf7c	0.06286523
107	0x3d84f498	0.06491965
108	0xbd5832a4	-0.05278267
109	0xbda45766	-0.080244824
110	0x3d9ee156	0.07757823
111	0xbdf9dcb4	-0.12200299
112	0x3d1097d0	0.03530103
113	0x3db8ad54	0.09017435
114	0xbda68138	-0.08130115
115	0xbd3f4a10	-0.04670149
116	0xbc00a2e0	-0.007851332
117	0x3b0b1980	0.0021224916
118	0x3ceec8e0	0.029148519
119	0x3deb6452	0.11493744
120	0xbdfa9cba	-0.122369245
121	0xbceaff10	-0.028686076
122	0xbdc74938	-0.09730762
123	0x3cf18c60	0.029485881
124	0x3da8c6b6	0.08241026
125	0x3da1d6e8	0.07902318
126	0xbdb16ac4	-0.08662942
127	0xbd0d9c6c	-0.034573004
128	0xbda59aa4	-0.08086136
129	0x3da94e9a	0.08266945
130	0xbdf2f478	-0.11863035
131	0xbd6fdecc	-0.058562085
132	0x3d9881ba	0.074466184
133	0xbd1ed5d8	-0.038778156
134	0xbdcbad80	-0.09945202
135	0x3cbe9600	0.023264885
136	0x3cfd2c60	0.030904949
137	0x3da397be	0.07987927
138	0xbd3e13dc	-0.046405658
139	0x3dc20506	0.094736144
140	0x3dfe378a	0.12412937
141	0x3d652e78	0.05595252
142	0xbca0afa0	-0.019614995
143	0x3dbbe594	0.09174648
144	0x3d12f818	0.035881132
145	0xbc01e890	-0.007928982
146	0x3dbc41c8	0.09192234
147	0xbd9de362	-0.077093855
148	0x3df6728a	0.12033565
149	0x3cb166e0	0.0216555
150	0xbde77b9e	-0.11302875
151	0x3defb89c	0.11705133
152	0x3dd537b6	0.10411017
153	0xbdd16ffe	-0.10226439
154	0x3da14682	0.078747764
155	0x3d4dc2bc	0.05023454
156	0xbbd7e380	-0.0065883994
157	0xbd436bb0	-0.04771012
158	0x3d3c9d80	0.04604864
159	0x3d450cb0	0.048107803
160	0xbd02bd6c	-0.031918928
161	0xbd6e2138	-0.05813715
162	0xbd5f5b9c	-0.054530725
163	0xbc0bd880	-0.008535504
164	0x3d8f908c	0.07009992
165	0xbd92de78	-0.07171339
166	0x3c9803b8	0.01855646
167	0x3db25ab4	0.087087065
168	0xbdce6c2c	-0.10079226
169	0xbccef390	-0.025262624
170	0xbbc93ee0	-0.0061415285
171	0xbbaeca40	-0.0053341687
172	0xbd657be0	-0.05602634
173	0xbd409d70	-0.047025144
174	0xbd94a928	-0.072588265
175	0xbc850498	-0.016237542
176	0xbc80ef40	-0.015739083
177	0xbdabfc98	-0.08397788
178	0xbbc80320	-0.006103888
179	0x3d88efbe	0.06686352
180	0x3c8a9058	0.016914532
181	0x3dc0977e	0.09403895
182	0xbd909eb4	-0.0706152
183	0x3d1a4660	0.03766477
184	0xbdeb62fe	-0.11493491
185	0x3d8ecf4a	0.06973131
186	0x3d2434a4	0.040089265
187	0xbdbbbce4	-0.091668874
188	0x3cfd8400	0.030946732
189	0xbdc0bba6	-0.09410791
190	0x3de96e36	0.11397974
191	0xbdab5b60	-0.08367038

bias f4 [3]
0	0xbd8c1276	-0.06839459
1	0x3dfae5fa	0.12250896
2	0xbca5abd0	-0.020223528
