deploy/networks/go2/adaptation_v3/encoder.pt (torch, 37631 bytes, 8 tensors)

weight f4 [30, 53]
-0.06345438 0.1276489 0.002835632 -0.01372484 -0.12060671 -0.032927092 -0.029224232 -0.0602452
0.06992143 -0.093171686 -0.004521089 0.10436512 0.051915262 -0.08637704 0.12146922 -0.0838534
0.059942376 -0.09659987 0.048910644 0.076144025 0.045113064 0.068733156 0.10207803 0.032607436
0.0035814294 -0.017291367 -0.12478819 0.03180552 0.10564531 -0.025442218 0.016341334 0.14542393
0.078725584 -0.03442976 0.0043852814 0.1102762 -0.15572494 0.025352988 0.02300078 0.11266328
-0.024078412 -0.026164832 0.0429503 0.10447906 0.02655738 0.016102277 0.020417947 -0.10085327
-0.054405954 -0.034768973 0.040809322 -0.024811337 0.022550076 0.02435405 -0.028020602 0.007915396
0.108726464 -0.087688394 0.010280211 0.05404096 -0.07485688 -0.0046921386 0.04254742 -0.0030388187
-0.11425907 -0.10509042 -0.09118002 0.06581858 -0.052337226 -0.09892717 -0.14059913 0.0006905595
0.045281682 -0.07357634 -0.010043761 0.23386823 -0.07047046 0.019018428 0.13124911 0.01624596
0.019243635 0.0684601 0.006319942 0.14349827 -0.053212274 -0.0026821448 -0.02891897 -0.080056585
-0.087959826 -0.016847089 0.037389096 -0.00941074 -0.05100114 0.02484905 -0.13360848 -0.0034043489
0.09479974 -0.031261034 -0.10463397 0.06964725 -0.12511598 0.12265785 0.0027868228 0.07700368
-0.08301379 0.081329174 -0.106656484 -0.33095244 -0.17787148 0.12487081 0.110430315 0.043442886
0.06189839 0.09827551 0.07971426 -0.1278975 -0.1731489 0.0072984346 -0.06703456 0.02217711
0.04633654 -0.05175933 -0.0017762086 -0.011669779 -0.06559728 -0.122006655 0.07505035 -0.24431497
-0.26503333 0.09453442 -0.029637989 0.13923427 0.097917 0.06860491 0.016048037 -0.016204374
-0.08572001 -0.13259342 -0.008209671 -0.11215924 -0.07571684 -0.036169592 -0.06745729 -0.09116046
-0.10189305 0.07219937 0.054209247 -0.09678627 -0.08361202 0.055295076 -0.18134621 0.00081130356
0.023451414 -0.08772868 0.0692184 -0.03625014 -0.053567957 0.042587873 0.053631384 0.027207924
-0.052612923 0.063111514 -0.021335168 0.16404076 0.18291508 0.005862029 0.07574269 0.04204987
-0.024254328 -0.14071016 0.09378611 0.050750617 -0.041957285 0.11580271 0.01615324 0.016807815
0.17378946 0.030376092 -0.064654425 -0.094299436 -0.028152073 -0.13083567 0.08476771 -0.1692791
0.35502547 -0.0758343 -0.07004933 0.1254292 0.069878265 -0.108816884 -0.17577104 -0.068954535
-0.13114998 0.02423266 -0.05499617 -0.013046888 0.054142877 0.021190222 -0.07836368 -0.032920748
-0.030218378 0.03852876 0.022149548 -0.0713243 0.0053063943 0.07602439 0.14945549 -0.010470223
0.04753216 -0.035913795 0.13919875 0.025409097 0.23494326 0.012302952 -0.1003745 0.13161144
-0.2563128 -0.070937954 0.08940918 -0.036008485 0.021053102 0.07758942 -0.09762786 -0.053561274
-0.08524433 -0.13865958 0.12833293 0.052409228 0.13111421 0.01606166 -0.08811025 0.0942285
-0.06958895 0.21106437 0.1808896 0.1907642 -0.026625277 0.14628205 0.004641754 0.11756299
-0.036890242 -0.0075370986 0.098726965 0.08689467 0.1952526 -0.057317935 0.120458536 -0.024298618
0.029498383 0.066295825 -0.005459669 0.004997344 -0.02350372 -0.07226426 -0.028658524 0.0009877479
00000000: 5ff4 81bd 65b6 023e 03d6 393b 27de 60bc
00000010: a700 f7bd 8fde 06bd a867 efbc acc3 76bd
00000020: f732 8f3d ccd0 bebd a525 94bb 61bd d53d
00000030: 19a5 543d 72e6 b0bd dbc4 f83d 55bb abbd
00000040: 2386 753d 27d6 c5bd 8756 483d 66f1 9b3d
00000050: 7ac8 383d f8c3 8c3d 490e d13d 608f 053d
00000060: 6ab6 6a3b a0a6 8dbc f390 ffbd 8146 023d
00000070: 915c d83d 336c d0bc 43de 853c 03ea 143e
00000080: e13a a13d 3806 0dbd 68b2 8f3b 7dd8 e13d
00000090: 5c76 1fbe 12b1 cf3c 226c bc3c 01bc e63d
000000a0: 1740 c5bc a157 d6bc a7ec 2f3d 1ef9 d53d
000000b0: dd8e d93c ece8 833c 8a43 a73c 298c cebd
000000c0: c7d8 5ebd e969 0ebd ad27 273d 2541 cbbc
000000d0: f0ba b83c 2582 c73c 768b e5bc 94af 013c
000000e0: fbab de3d f995 b3bd 556e 283c 0e5a 5d3d
000000f0: 904e 99bd 83c0 99bb 3446 2e3d eb26 47bb
00000100: a900 eabd a539 d7bd 97bc babd e4cb 863d
00000110: 8f5f 56bd 549a cabd 38f9 0fbe aa06 353a
00000120: 4979 393d 31af 96bd 968e 24bc 277b 6f3e
00000130: d152 90bd 89cc 9b3c 2b66 063e 3f16 853c
00000140: d4a4 9d3c cf34 8c3d 8417 cf3b 36f1 123e
00000150: 1df5 59bd ecc6 2fbb 7ae7 ecbc b5f4 a3bd
00000160: 4824 b4bd e802 8abc 4f25 193d 812f 1abc
00000170: 92e6 50bd 3c90 cb3c a9d0 08be 7f1b 5fbb
00000180: 5e26 c23d 920b 00bd 564a d6bd 38a3 8e3d
00000190: 671e 00be 0a34 fb3d 21a3 363b 1bb4 9d3d
000001a0: 2203 aabd e98f a63d b76e dabd 9972 a9be
000001b0: f123 36be 44bc ff3d 4a29 e23d 2bf1 313d
000001c0: 2b89 7d3d ac44 c93d 3b41 a33d 90f7 02be
000001d0: f24d 31be b527 ef3b 6a49 89bd c5ac b53c
000001e0: 62cb 3d3d 9701 54bd accf e8ba 9a32 3fbc
000001f0: de57 86bd a0de f9bd ffb3 993d b42d 7abe
00000200: 73b2 87be 439b c13d 5ecb f2bc 6e93 0e3e
00000210: b588 c83d bb80 8c3d 2c77 833c 09bf 84bc
00000220: f98d afbd 92c6 07be db81 06bc beb3 e5bd
00000230: 6e11 9bbd 9126 14bd 0c27 8abd 56b2 babd
00000240: 4ead d0bd 43dd 933d 840a 5e3d e137 c6bd
00000250: c73c abbd 177d 623d d2b2 39be a9ad 543a
00000260: 2e1d c03c 18ab b3bd 60c2 8d3d 077b 14bd
00000270: 136a 5bbd 9f70 2e3d 95ac 5b3d 27e3 de3c
00000280: a680 57bd 9c40 813d 17c7 aebc 4dfa 273e
00000290: 174e 3b3e 4316 c03b fc1e 9b3d 7c3c 2c3d
000002a0: 03b1 c6bc 5316 10be ef12 c03d e1df 4f3d
000002b0: 67db 2bbd f929 ed3d cd53 843c 8bb0 893c
000002c0: ddf5 313e 48d7 f83c 8a69 84bd 1020 c1bd
000002d0: 2d9f e6bc c9f9 05be b19a ad3d 8057 2dbe
000002e0: e6c5 b53e 034f 9bbd 0676 8fbd 8370 003e
000002f0: 561c 8f3d 63db debd 53fd 33be 0938 8dbd
00000300: 2e4c 06be 9283 c63c aa43 61bd 9dc2 55bc
00000310: ecc4 5d3d 1e97 ad3c 237d a0bd e8d7 06bd
00000320: 888c f7bc 55d0 1d3d f872 b53c 7912 92bd
00000330: 43e1 ad3b adb2 9b3d dc0a 193e 4c8b 2bbc
00000340: 15b1 423d 581a 13bd 1e8a 0e3e bd26 d03c
00000350: f794 703e 5292 493c 2591 cdbd 26c5 063e
00000360: 6e3b 83be eb47 91bd 291c b73d a27d 13bd
00000370: 8e77 ac3c 34e7 9e3d 1ef1 c7bd 1163 5bbd
00000380: 9494 aebd c7fc 0dbe b569 033e 0fab 563d
00000390: ce42 063e be93 833c 2673 b4bd dffa c03d
000003a0: a784 8ebd 4221 583e 203b 393e b157 433e
000003b0: 411d dabc f6ca 153e db19 983b ddc4 f03d
000003c0: 391a 17bd c4f9 f6bb 5d31 ca3d d5f5 b13d
000003d0: 4cf0 473e 36c6 6abd f7b2 f63d e50d c7bc
000003e0: 98a6 f13c 1bc6 873d 06e7 b2bb c3c0 a33b
000003f0: e08a c0bc 49ff 93bd 48c5 eabc 5277 813a

bias f4 [30]
0.19955727 0.00044263178 -0.055263054 -0.005241841 0.16478199 -0.030529205 -0.19978593 -0.03229255
0.0054441914 -0.087096035 0.108328804 -0.15975858 -0.17764975 0.090272754 0.07998722 0.030081645
-0.0575231 -0.11609094 -0.07765916 0.17883389 -0.13122477 -0.047629423 0.089494325 -0.047882788
0.12960246 -0.072400674 -0.15682988 0.15337439 -0.06152537 0.11305957
00000000: be58 4c3e 0811 e839 835b 62bd c0c3 abbb
00000010: 9cbc 283e 6218 fabc af94 4cbe 3145 04bd
00000020: 3065 b23b 685f b2bd 7edb dd3d c197 23be
00000030: d1e9 35be ece0 b83d 57d0 a33d c86d f63c
00000040: 589d 6bbd 16c1 edbd c40b 9fbd 3b20 373e
00000050: c95f 06be 1217 43bd cd48 b73d be20 44bd
00000060: 82b6 043e ce46 94bd 0398 20be 2d0e 1d3e
00000070: 0702 7cbd c78b e73d

weight f4 [20, 30, 4]
-0.052834094 -0.01747608 -0.10315107 -0.06838676 0.031451307 0.05923319 -0.08702096 0.044729263
0.010925056 -0.06598256 -0.01837399 -0.1571758 -0.048474986 -0.068407215 0.066236325 -0.024840897
0.047864813 0.027516797 0.055060778 -0.034395315 -0.022463286 0.048144925 0.055783052 -0.034923065
0.047350217 -0.0032349823 -0.03886346 -0.018922266 0.060973614 0.12334744 -0.005250081 0.055531856
-0.12607038 -0.019204983 -0.041537203 -0.07720317 -0.07399319 0.030251168 0.0082410425 0.045958895
-0.042601895 -0.027457748 0.06565943 -0.09645259 -0.0112236235 -0.06709 0.04618715 0.12244544
-0.018486395 -0.10138558 0.0046652565 -0.020156715 0.017205268 -0.09078089 0.016541135 -0.054820508
-0.055661596 -0.010200166 0.04745329 0.030412048 -0.10177423 0.0438057 -0.038040448 -0.069310024
-0.00049591396 -0.033111375 -0.07672066 0.03302836 -0.043607976 -0.041726157 -0.037476324 -0.044953495
0.106528126 -0.029346388 0.05306649 -0.044427235 -0.09032544 -0.0014363577 -0.07411689 -0.012673986
0.024017628 -0.034790352 0.032288298 0.035359778 0.048350275 -0.049332306 0.01883393 -0.06241995
-0.058541417 -0.072274715 -0.039323475 0.010889851 -0.024131142 0.025580222 -0.0048841867 0.020343456
-0.014292099 0.073693804 -0.04099261 -0.13074076 -0.057432506 0.040296365 0.068992004 -0.0064376267
0.0038104071 0.03538024 -0.03953015 0.031095514 0.029904231 -0.13263522 -0.10686237 -0.024135612
-0.06338664 0.034851182 0.045961425 0.13576347 -0.08868695 -0.064360246 -0.10701972 0.019501697
-0.07526181 -0.079634696 -0.048683684 -0.016136706 -0.049874682 0.04509855 0.10253333 0.09052792
-0.006131245 -0.028713843 -0.029064398 -0.03254431 0.083407685 -0.046289377 -0.040074687 -0.055848625
0.029818969 0.031374585 -0.039529916 0.051548418 -0.07065109 -0.039684057 -0.029398441 0.00051966944
-0.063567795 -0.09531511 -0.10082169 -0.08863451 0.039275683 0.091975614 0.022379603 0.07240439
0.04393154 0.057214435 0.007914113 0.016001567 0.056346122 0.08296529 0.04163875 0.020320097
0.02253588 0.029807674 -0.05593214 -0.036569756 0.050299965 0.06302586 -0.06747721 0.09939198
0.031335283 0.0954477 -0.007534137 -0.04144932 0.1001117 -0.038182124 -0.022628883 -0.023516739
0.0148525955 0.03818065 -0.080174945 -0.052949827 0.0140542425 -0.022564767 0.018206848 -0.050335616
0.043707002 0.056397505 0.06741756 0.06488542 -0.013867583 -0.017529737 -0.0543212 0.05031108
-0.0063265595 -0.061133735 0.07099333 -0.020515442 -0.046335526 0.057751887 -0.101970844 -0.042710703
-0.018671209 0.00067958195 0.042295758 0.0018376823 -0.005540954 -0.047092546 0.028844446 0.0732207
0.0009768785 0.0024387317 -0.020465774 -0.010289805 -0.0841248 -0.08854618 -0.013744343 -0.080104925
-0.023054846 0.05526402 -0.044068508 -0.01478138 0.0093305055 0.036976393 0.05329539 -0.059922878
0.04404568 -0.044463847 -0.040866934 -0.01609625 0.028081803 0.05135095 -0.0876675 0.018373646
-0.049658056 0.016570276 -0.09261978 0.02399381 0.022912847 -0.03728227 -0.05263908 0.048138127
-0.047062095 -0.07646554 -0.036869597 -0.07466168 -0.03889423 -0.042310353 -0.013253316 0.0074278936
-0.01518846 -0.029339965 0.068426006 0.0505764 0.03405445 0.06079664 0.06595382 0.09516438
00000000: 9068 58bd ff29 8fbc de40 d3bd 5c0e 8cbd
00000010: 16d3 003d 809e 723d 0c38 b2bd 0836 373d
00000020: 02ff 323c dd21 87bd 0d85 96bc b1f2 20be
00000030: b58d 46bd 1519 8cbd e9a6 873d 237f cbbc
00000040: e50d 443d e86a e13c 6987 613d 1ae2 0cbd
00000050: ed04 b8bc 9d33 453d c57c 643d 7d0b 0fbd
00000060: 4df2 413d ff01 54bb 4b2f 1fbd de02 9bbc
00000070: 78bf 793d 959d fc3d df08 acbb 5f75 633d
00000080: 9818 01be c553 9dbc ea22 2abd b21c 9ebd
00000090: be89 97bd 4cd1 f73c 7005 073c 653f 3c3d
000000a0: 537f 2ebd 12ef e0bc 7478 863d ef88 c5bd
000000b0: 4ae3 37bc 7b66 89bd bd2e 3d3d adc4 fa3d
000000c0: c870 97bc 3ea3 cfbd 02df 983b b21f a5bc
000000d0: 10f2 8c3c 55eb b9bd 4681 873c 788b 60bd
000000e0: 6afd 63bd 991e 27bc 625e 423d b022 f93c
000000f0: 026f d0bd 9b6d 333d 4dd0 1bbd 6af2 8dbd
00000100: 3900 02ba cb9f 07bd b91f 9dbd bf48 073d
00000110: 479e 32bd 0ce9 2abd c680 19bd 2821 38bd
00000120: 6b2b da3d d667 f0bc 3f5c 593d 55f9 35bd
00000130: 8bfc b8bd 2b44 bcba 99ca 97bd 8da6 4fbc
00000140: 9ec0 c43c 5480 0ebd bc40 043d 6ad5 103d
00000150: f00a 463d ac10 4abd 9d49 9a3c 10ac 7fbd
00000160: 20c9 6fbd c404 94bd a711 21bd 586b 323c
00000170: acae c5bc 9d8d d13c 870b a0bb 52a7 a63c
00000180: 6829 6abc c7ec 963d dee7 27bd e8e0 05be
00000190: 593e 6bbd cd0d 253d ae4b 8d3d baf2 d2bb
000001a0: 06b8 793b dfea 103d 5eea 21bd 05bc fe3c
000001b0: b8f9 f43c 87d1 07be a9da dabd 0cb8 c5bc
000001c0: dbd0 81bd 1dc0 0e3d 0c42 3c3d 9405 0b3e
000001d0: 81a1 b5bd 4ecf 83bd 282d dbbd 06c2 9f3c
000001e0: dd22 9abd 8417 a3bd 8b68 47bd 2031 84bc
000001f0: 6549 4cbd 42b9 383d fffc d13d b466 b93d
00000200: 9ce8 c8bb 4b39 ebbc 7618 eebc 2f4d 05bd
00000210: a6d1 aa3d ee99 3dbd 5b25 24bd 87c1 64bd
00000220: e946 f43c a382 003d 1fea 21bd 6f24 533d
00000230: 85b1 90bd c08b 22bd 00d5 f0bc 6d3a 083a
00000240: d52f 82bd 9234 c3bd 9a7b cebd 0386 b5bd
00000250: 8adf 203d b65d bc3d 6e55 b73c c148 943d
00000260: 8ff1 333d af59 6a3d 32aa 013c b815 833c
00000270: 31cb 663d b5e9 a93d 658d 2a3d 5576 a63c
00000280: 2a9d b83c 392f f43c 1a19 65bd 2bca 15bd
00000290: 5607 4e3d b413 813d 7e31 8abd 068e cb3d
000002a0: 6d59 003d 157a c33d ece0 f6bb c3c6 29bd
000002b0: 5d07 cd3d dc64 1cbd 3560 b9bc 2da6 c0bc
000002c0: 4d58 733c 5063 1c3d c332 a4bd ebe1 58bd
000002d0: c443 663c bfd9 b8bc 8726 953c b82c 4ebd
000002e0: 1d06 333d 1201 673d 3812 8a3d a6e2 843d
000002f0: dc34 63bc 869a 8fbc e87f 5ebd fe12 4e3d
00000300: 074f cfbb 5e67 7abd f364 913d 0010 a8bc
00000310: 52ca 3dbd 3e8d 6c3d 17d6 d0bd 6bf1 2ebd
00000320: 5df4 98bc f925 323a 513e 2d3d 63de f03a
00000330: e490 b5bb 1de4 40bd 304b ec3c bcf4 953d
00000340: 9a0a 803a 21d3 1f3b d7a7 a7bc 9296 28bc
00000350: a049 acbd b357 b5bd f42f 61bc 0d0e a4bd
00000360: 84dd bcbc 865c 623d 2e81 34bd 9a2d 72bc
00000370: fade 183c 8f74 173d 444c 5a3d b171 75bd
00000380: 3e69 343d b91f 36bd 1664 27bd 48dc 83bc
00000390: cf0b e63c 6055 523d 058b b3bd 5484 963c
000003a0: 3f66 4bbd 63be 873c 70af bdbd ab8e c43c
000003b0: b9b3 bb3c 4bb5 18bd 139c 57bd 7c2c 453d
000003c0: 2fc4 40bd f799 9cbd 9304 17bd 39e8 98bd
000003d0: 8e4f 1fbd 9f4d 2dbd 7024 59bc b065 f33b
000003e0: 05d9 78bc 5e5a f0bc ef22 8c3d 3329 4f3d
000003f0: ae7c 0b3d e605 793d cc12 873d 8be5 c23d

bias f4 [20]
-0.009592485 0.124106094 -0.113874756 -0.014405543 0.0898532 -0.07889796 0.048519265 -0.0666085
0.06572786 0.02681485 0.13137645 -0.09325665 -0.15054809 -0.09079964 -0.005159315 -0.077502705
-0.030769996 -0.13503951 -0.046853047 -0.028169058
00000000: cc29 1dbc 562b fe3d 2b37 e9bd 3a05 6cbc
00000010: f404 b83d 4195 a1bd 23bc 463d 0a6a 88bd
00000020: 549c 863d d1aa db3c 8c87 063e 58fd bebd
00000030: 4729 1abe 29f5 b9bd 790f a9bb bdb9 9ebd
00000040: 5c11 fcbc cc47 0abe fbe8 3fbd ccc2 e6bc

weight f4 [10, 20, 2]
-0.06674472 0.053748697 -0.14482632 0.07132702 0.10764642 0.07188788 0.024671458 0.048215874
-0.043757834 -0.023354871 -0.055472042 0.13310613 -0.14041187 0.07598481 0.15356086 0.040865306
-0.050477423 -0.009582182 0.019436916 0.05079611 -0.12486545 -0.030967709 -0.03378042 -0.162193
-0.017015148 0.22751227 0.10843783 0.10243048 0.022681799 -0.0055530258 -0.115719005 -0.1428394
-0.08365938 -0.041887093 0.15302563 0.28698635 0.040773254 -0.11130677 0.033493843 0.114991434
0.10892043 0.19441327 -0.13772447 0.010795413 -0.107554294 0.009306205 0.16725631 0.086433135
0.0014378708 -0.11299312 -0.072833695 -0.12317025 -0.15150744 0.035524826 0.09555693 0.10385049
0.02752523 0.073498994 -0.005244574 0.00079345936 -0.10373076 -0.10859074 0.077825844 0.13292193
-0.073052645 0.09624478 0.0811367 0.10441257 -0.033192758 -0.084354654 0.05018273 -0.026520766
0.006679723 0.12853271 0.061161347 0.22942093 -0.06878478 -0.10394898 -0.18493599 0.015314292
-0.10433648 -0.12677091 -0.19187233 -0.1587014 0.16309386 0.09432204 -0.050476577 -0.10786524
-0.046431474 -0.15202259 0.11104039 0.1808166 -0.00646441 -0.1707706 0.11423148 0.14795549
-0.11586979 -0.06168268 -0.059851907 0.11793846 0.060388498 -0.031220179 -0.09953476 -0.024527363
0.23060755 0.2942767 0.15984713 0.11741101 0.09758507 0.04438716 0.01811272 -0.0063835783
0.08548606 -0.022283485 0.1358485 0.063889265 -0.0984348 0.06620482 0.17265564 0.032617707
0.068757564 0.046846945 0.07616322 0.045619525 0.031762272 -0.12023764 0.22298153 0.18549825
0.08696485 0.107471846 -0.10136352 -0.14898863 0.00056760357 0.044999592 -0.057388064 -0.0644775
0.018766223 0.0014998444 0.04498359 -0.14750546 -0.042413466 -0.0067669814 0.049333304 0.13098142
-0.101116 -0.12664244 -0.13102373 0.0055510146 -0.054395355 -0.044569362 0.051286202 -0.005742276
0.021325259 -0.04142369 0.0822621 0.07884227 -0.06791791 0.11521634 0.064386204 -0.08030823
0.055180594 0.004544597 -0.13193178 0.08241413 -0.05270248 -0.19249272 -0.14725547 -0.1398118
-0.062764004 0.19196624 0.0018764838 -0.042702526 0.10738969 -0.043782793 0.09454663 -0.08815675
-0.1507517 -0.015545693 0.15029204 -0.06214128 -0.053229555 -0.059506033 -0.11406899 -0.011861107
0.06796667 -0.021506064 -0.14498052 -0.124841236 -0.06346712 -0.11812607 -0.029138178 0.054031823
0.25239813 -0.031928692 0.11539177 0.13099083 -0.024136798 -0.0038475473 0.08281973 0.07624767
0.08572188 -0.1322132 -0.15774043 -0.065892324 0.14456585 -0.057984956 -0.046107702 0.14864904
0.0041444595 -0.01611036 -0.06243157 -0.11399065 -0.098892495 -0.116962634 -0.029087946 -0.0012146329
-0.1276605 0.05542784 -0.05650825 -0.15419684 -0.08945991 -0.056553286 0.077956565 0.13555062
0.12093332 -0.057549365 -0.100103065 0.108581565 0.035477437 -0.10180168 0.13019799 0.026656495
0.10928793 -0.048567854 0.20348236 0.23240365 0.019249381 0.14359343 0.024283174 0.02033164
0.012150176 -0.044762466 -0.042568438 0.08967423 -0.04195975 0.015874974 0.044374205 0.15309086
0.09259632 0.14343551 0.08344793 -0.1693979 0.036502447 0.026795188 -0.1356408 0.030871565
00000000: 75b1 88bd 9827 5c3d 5a4d 14be e713 923d
00000010: ba75 dc3d f439 933d cc1b ca3c 027e 453d
00000020: 6a3b 33bd b752 bfbc a736 63bd f94c 083e
00000030: 21c8 0fbe ed9d 9b3d 0f3f 1d3e 6162 273d
00000040: 6ac1 4ebd 96fe 1cbc 2b3a 9f3c 950f 503d
00000050: 75b9 ffbd feaf fdbc 565d 0abd ec15 26be
00000060: 5a63 8bbc faf8 683e a714 de3d 12c7 d13d
00000070: 2ecf b93c 28f6 b5bb 16fe ecbd 7e44 12be
00000080: 9c55 abbd cd91 2bbd c0b2 1c3e e0ef 923e
00000090: db01 273d cef4 e3bd d730 093d a180 eb3d
000000a0: ad11 df3d 4614 473e a507 0dbe 3edf 303c
000000b0: 6d45 dcbd 0e79 183c 3d45 2b3e db03 b13d
000000c0: f076 bc3a f068 e7bd d529 95bd af40 fcbd
000000d0: c424 1bbe 7b82 113d 5ab3 c33d 91af d43d
000000e0: 977c e13c a486 963d adda abbb 2800 503a
000000f0: cb70 d4bd d264 debd 2863 9f3d b01c 083e
00000100: a09c 95bd fc1b c53d 002b a63d 42d6 d53d
00000110: 21f5 07bd 22c2 acbd 688c 4d3d 1442 d9bc
00000120: 94e1 da3b 149e 033e 5284 7a3d 52ed 6a3e
00000130: 09df 8cbd 34e3 d4bd dc5f 3dbe cce8 7a3c
00000140: 5dae d5bd 3cd0 01be 2e7a 44be 9f82 22be
00000150: 1402 273e ea2b c13d 87c0 4ebd 73e8 dcbd
00000160: ee2e 3ebd cfab 1bbe 2569 e33d fd27 393e
00000170: 67d3 d3bb 7dde 2ebe 32f2 e93d a581 173e
00000180: 244d edbd faa6 7cbd 4627 75bd b889 f13d
00000190: ee59 773d 76c1 ffbc e1d8 cbbd 9ced c8bc
000001a0: 6324 6c3e 70ab 963e f7ae 233e 2f75 f03d
000001b0: aeda c73d 50cf 353d 2161 943c 562d d1bb
000001c0: 5113 af3d db8b b6bc df1b 0b3e 60d8 823d
000001d0: 2f98 c9bd 6596 873d a4cc 303e 259a 053d
000001e0: c4d0 8c3d 95e2 3f3d 76fb 9b3d 8adb 3a3d
000001f0: 2819 023d 273f f6bd 4555 643e 41f3 3d3e
00000200: a11a b23d 331a dc3d ad97 cfbd 7a90 18be
00000210: 3bcb 143a 7e51 383d bf0f 6bbd c80c 84bd
00000220: 9fbb 993c 6d96 c43a b640 383d ac0b 17be
00000230: beb9 2dbd 8ebd ddbb b811 4a3d fe1f 063e
00000240: e815 cfbd 8eae 01be 162b 06be 49e5 b53b
00000250: aacd 5ebd 5d8e 36bd 7b11 523d b429 bcbb
00000260: 4fb2 ae3c e3ab 29bd 0879 a83d 0e78 a13d
00000270: 8c18 8bbd 8bf6 eb3d eadc 833d a478 a4bd
00000280: 0c05 623d d8ea 943b 2019 07be bdc8 a83d
00000290: 8ede 57bd d01c 45be 23ca 16be d32a 0fbe
000002a0: 6a8a 80bd cc92 443e 59f4 f53a d8e8 2ebd
000002b0: 20ef db3d 9655 33bd aaa1 c13d 878b b4bd
000002c0: a75e 1abe 5db3 7ebc 28e6 193e db87 7ebd
000002d0: 3c07 5abd 99bc 73bd 019d e9bd 1755 42bc
000002e0: 1c32 8b3d 7c2d b0bc c675 14be c3ac ffbd
000002f0: 0dfb 81bd 15ec f1bd 30b3 eebc 7950 5d3d
00000300: 543a 813e a9c7 02bd 8552 ec3d 7622 063e
00000310: 89ba c5bc 2227 7cbb 649d a93d bd27 9c3d
00000320: f48e af3d e662 07be b586 21be 8ef2 86bd
00000330: 1209 143e a281 6dbd 6edb 3cbd 7437 183e
00000340: 3fce 873b e0f9 83bc 3fb8 7fbd ee73 e9bd
00000350: 2688 cabd 1b8a efbd d849 eebc 5134 9fba
00000360: 6fb9 02be 4e08 633d 3275 67bd c7e5 1dbe
00000370: c236 b7bd 6ba4 67bd b1a7 9f3d c8cd 0a3e
00000380: e3ab f73d e2b8 6bbd d602 cdbd 0360 de3d
00000390: ca50 113d 667d d0bd 9f52 053e b95e da3c
000003a0: 5ad2 df3d 16ef 46bd ae5d 503e 39fb 6d3e
000003b0: e1b0 9d3c 280a 133e 82ed c63c 8a8e a63c
000003c0: 8811 473c d958 37bd 3e5c 2ebd 1fa7 b73d
000003d0: fddd 2bbd 3c0c 823c bac1 353d dac3 1c3e
000003e0: 24a3 bd3d c2e0 123e c0e6 aa3d a576 2dbe
000003f0: 9783 153d 9581 db3c 6ce5 0abe 5de6 fc3c

bias f4 [10]
0.09979782 0.07504622 0.013523188 -0.10670106 -0.033155598 -0.11308984 0.058874782 0.13018253
-0.040303543 0.0675986
00000000: cd62 cc3d d5b1 993d 5d90 5d3c 1686 dabd
00000010: 2ace 07bd a59b e7bd af26 713d 924e 053e
00000020: 5415 25bd 2371 8a3d

weight f4 [20, 30]
0.0998847 0.12753487 -0.08592265 -0.075822175 -0.066999264 0.093827106 -0.06594232 0.113062
-0.110126294 0.028742999 0.1064103 -0.11705318 -0.031897906 -0.10883225 0.031717695 -0.03935667
0.20104493 -0.08609169 -0.048778832 0.06323207 0.044334706 0.004994832 0.11241951 0.096110724
-0.03427292 -0.15933341 -0.026497107 0.15318853 -0.055756334 0.082364045 0.06765247 0.12716362
-0.055341 0.0076964735 -0.001852971 -0.18305907 -0.038034666 -0.19428371 0.06798795 0.06888962
-0.08140511 0.067934364 0.031991143 0.031664997 -0.08061575 -0.14665125 -0.1616695 -0.1744898
0.12497463 -0.01800424 0.11475089 0.06747441 -0.08133941 0.09097651 0.075580575 0.0309331
-0.0013773311 -0.1519143 -0.0768059 -0.088452086 0.13679247 0.06406603 0.1530865 0.104814045
0.09083478 -0.12518117 0.029511282 -0.15850084 -0.20045793 0.15106629 -0.014773863 -0.04145343
-0.094331086 -0.0860451 -0.0702924 -0.16262096 -0.18446496 -0.25852454 -0.12402343 -0.083340645
-0.07700622 -0.068528354 -0.009225621 0.17112699 -0.08699403 -0.006047731 0.043343868 -0.13698241
0.0043936544 -0.038456477 -0.057325967 -0.06318725 -0.04390601 -0.14589606 -0.10107673 -0.1730908
0.04413942 0.11951994 -0.114262015 -0.0120604765 0.041473713 0.079752624 -0.022799652 -0.02457786
0.021420378 0.08803449 -0.014454813 0.10733015 0.089076884 0.07155487 -0.0774248 0.060694754
-0.056078244 0.003114954 0.046208538 -0.05564191 0.07635389 0.015080953 -0.20663251 -0.085789725
0.019427031 -0.028547559 0.11092564 0.02318812 -0.11055975 -0.11907197 0.114922464 0.016837493
0.022983197 -0.21059777 -0.19609055 -0.07441374 0.05214072 -0.0045236954 0.19732343 -0.01855009
0.045732256 0.118626796 0.084972486 0.07463985 -0.11854297 -0.02477338 0.04908251 0.097810805
-0.07206669 -0.037529543 -0.040085193 0.11166783 0.0737345 -0.08466956 0.09822794 -0.15015571
0.040012296 0.030448364 0.052763335 0.055534452 -0.097117946 0.15248096 0.024043523 -0.074139066
-0.11384022 -0.050940763 -0.005184362 -0.032305405 0.055296984 0.0063292007 0.04106561 0.07822788
-0.14927277 0.08317057 -0.18399017 0.037547365 -0.031371966 0.11043666 -0.17974226 -0.15131956
-0.21045162 -0.023407025 -0.0069501023 0.048390448 0.029814612 0.14167766 0.10534124 0.061420757
0.02801899 -0.20846894 -0.029298415 -0.10316057 0.0126658445 0.025431657 -0.009570072 -0.15648176
-0.005658942 -0.08532896 0.103796706 0.07437438 -0.04195935 -0.20350224 -0.23658657 -0.17154334
-0.04905188 -0.0014511384 0.027276443 0.1678872 -0.023834279 -0.025271947 -0.021762623 -0.041054595
0.14535403 -0.0025443179 0.12029036 -0.01584947 -0.012177343 0.15480906 0.0067865974 0.24877119
-0.08373118 0.09101324 -0.12624735 -0.10119019 0.08792687 -0.024907148 -0.17818592 0.077942565
-0.022498209 -0.08438171 0.14180179 -0.056909427 0.047075786 -0.030129427 0.094624884 -0.15546572
0.07956737 0.00263165 -0.26393235 -0.07102044 -0.26746807 -0.054270916 -0.013910574 0.05813666
0.18560271 -0.08887082 -0.0043090233 -0.1554263 -0.14445885 -0.1072052 -0.08752006 0.100344084
-0.005413365 0.042829774 -0.0235953 -0.067635104 -0.093329415 0.0010408519 -0.04225532 -0.02583583
00000000: 5990 cc3d 8098 023e 37f8 afbd a848 9bbd
00000010: e936 89bd 6d28 c03d c40c 87bd 0d8d e73d
00000020: e589 e1bd 7076 eb3c a5ed d93d 94b9 efbd
00000030: 61a7 02bd 71e3 debd 6aea 013d 7634 21bd
00000040: b9de 4d3e d750 b0bd 50cc 47bd d17f 813d
00000050: 4f98 353d b0ab a33b 333c e63d b3d5 c43d
00000060: c361 0cbd 4c28 23be 7610 d9bc 74dd 1c3e
00000070: c160 64bd 7bae a83d 618d 8a3d 2e37 023e
00000080: 3fad 62bd b332 fc3b 64df f2ba d673 3bbe
00000090: 3dca 1bbd 4ff2 46be 443d 8b3d 0016 8d3d
000000a0: b9b7 a6bd 2c21 8b3d 2509 033d 28b3 013d
000000b0: df19 a5bd bf2b 16be b08c 25be 74ad 32be
000000c0: b3f2 ff3d a17d 93bc 8402 eb3d 0630 8a3d
000000d0: 4795 a6bd e451 ba3d fdc9 9a3d 6a67 fd3c
000000e0: 9087 b4ba 6c8f 1bbe 694c 9dbd 5e26 b5bd
000000f0: 5313 0c3e 0d35 833d b5c2 1c3e bfa8 d63d
00000100: 9607 ba3d 7e2f 00be a5c1 f13c 0b4e 22be
00000110: d844 4dbe 1fb1 1a3e 130e 72bc 12cb 29bd
00000120: a830 c1bd 6a38 b0bd 76f5 8fbd 1c86 26be
00000130: 62e4 3cbe 545d 84be ffff fdbd 80ae aabd
00000140: 70b5 9dbd 9858 8cbd 0f27 17bc ea3b 2f3e
00000150: ed29 b2bd 0b2c c6bb 5789 313d 1e45 0cbe
00000160: a5f8 8f3b 8a84 1dbd a2ce 6abd 5168 81bd
00000170: cad6 33bd c765 15be 5101 cfbd b73e 31be
00000180: 89cb 343d dfc6 f43d 3402 eabd 4e99 45bc
00000190: 57e0 293d 5855 a33d 56c6 babc 8257 c9bc
000001a0: ca79 af3c 6d4b b43d e1d3 6cbc e9cf db3d
000001b0: f16d b63d 5c8b 923d e590 9ebd 109b 783d
000001c0: 4db2 65bd 4224 4c3b 2a45 3d3d c5e8 63bd
000001d0: 6e5f 9c3d 1a16 773c 7997 53be 86b2 afbd
000001e0: 7025 9f3c 92dc e9bc fb2c e33d 03f5 bd3c
000001f0: 266d e2bd 01dc f3bd 785c eb3d c8ee 893c
00000200: 4247 bc3c f1a6 57be f6cb 48be 3b66 98bd
00000210: 8291 553d 823b 94bb 270f 4a3e 5cf6 97bc
00000220: bf51 3b3d 9bf2 f23d 0e06 ae3d c7dc 983d
00000230: a8c6 f2bd 8bf1 cabc be0a 493d 0851 c83d
00000240: b397 93bd 94b8 19bd 5f30 24bd 1ab2 e43d
00000250: 1d02 973d 3c67 adbd bb2b c93d 6bc2 19be
00000260: efe3 233d d96e f93c 5e1e 583d 1878 633d
00000270: c6e5 c6bd f823 1c3e ecf6 c43c 39d6 97bd
00000280: 1025 e9bd 43a7 50bd 95e1 a9bb ac52 04bd
00000290: 177f 623d 2f65 cf3b 6a34 283d f035 a03d
000002a0: f6da 18be 5555 aa3d eb67 3cbe 44cb 193d
000002b0: e47f 00bd 9e2c e23d 5b0e 38be 84f3 1abe
000002c0: a180 57be 17c0 bfbc afbd e3bb 1035 463d
000002d0: c63d f43c f313 113e 26bd d73d 5594 7b3d
000002e0: 1588 e53c e278 55be 3b03 f0bc d945 d3bd
000002f0: 6784 4f3c 0d56 d03c cbcb 1cbc c13c 20be
00000300: a56e b9bb f3c0 aebd 5e93 d43d 9851 983d
00000310: 91dd 2bbd e462 50be c043 72be 0fa9 2fbe
00000320: a0ea 48bd 2034 beba d972 df3c 9fea 2b3e
00000330: 1b40 c3bc 1d07 cfbc 8747 b2bc dd28 28bd
00000340: b0d7 143e 92be 26bb cb5a f63d bfd6 81bc
00000350: 7a83 47bc 4486 1e3e 1b62 de3b e0bd 7e3e
00000360: 417b abbd 2665 ba3d fc46 01be cd3c cfbd
00000370: 0113 b43d 130a ccbc 5f76 36be 5aa0 9f3d
00000380: 2a4e b8bc 51d0 acbd 7d34 113e dc19 69bd
00000390: 8ad2 403d fdd1 f6bc b1ca c13d 6832 1fbe
000003a0: 38f4 a23d c377 2c3b 2422 87be 2a73 91bd
000003b0: 93f1 88be 2e4b 5ebd 2de9 63bc b520 6e3d
000003c0: a30e 3e3e e801 b6bd b532 8dbb 1228 1fbe
000003d0: 05ed 13be 668e dbbd b83d b3bd 3381 cd3d
000003e0: 9962 b1bb 466e 2f3d ee4a c1bc 4684 8abd
000003f0: 7e23 bfbd 326d 883a ea13 2dbd aaa5 d3bc

bias f4 [20]
0.061988454 0.098334156 -0.022054104 0.02947821 -0.1049491 0.03492022 -0.1669465 0.106818795
0.12001878 0.032248188 -0.006211219 -0.07788838 -0.05801909 -0.0654193 -0.1408443 0.0052172355
-0.17935586 -0.08689293 0.14573577 -0.1361349
00000000: 9be7 7d3d 6b63 c93d cfaa b4bc 497c f13c
00000010: 8eef d6bd 8108 0f3d 06f4 2abe d0c3 da3d
00000020: 68cc f53d ad16 043d 7b87 cbbb f183 9fbd
00000030: 6da5 6dbd 8efa 85bd 7d39 10be 58f5 aa3b
00000040: 10a9 37be ecf4 b1bd c23b 153e f266 0bbe
