deploy/networks/go2/cheetah_v4/encoder.pt (torch, 37519 bytes, 8 tensors)

weight f4 [30, 52]
-0.02569985 -0.045653436 -0.057070866 0.07220152 0.0009355522 0.014419141 -0.061990477 0.01902402
0.040176876 0.015975019 -0.025722725 0.059114613 -0.023657534 -0.09386512 0.05027777 -0.07824178
-0.07103634 -0.011895195 0.047063716 -0.05866069 0.03908089 -0.014690931 0.027948024 0.11576741
-0.091401376 -0.074010536 -0.011836756 0.07443893 -0.08178956 -0.0018104356 -0.037941188 -0.057298526
-0.014877147 0.011625222 -0.030828448 -0.05922956 0.02693282 0.021613397 -0.03232681 -0.086343184
0.048079114 0.0214014 0.041536886 0.04172601 -0.10358763 0.03300912 -0.099758506 -0.0101694185
0.048462186 -0.07191753 0.10329612 0.094273545 -0.054020196 -0.034113742 0.08885784 0.030110905
0.0016892013 -0.0019904072 -0.027574794 -0.06760043 0.08742843 -0.09463812 0.10415751 0.10229718
-0.017509785 -0.083570205 0.06122689 -0.085780255 0.052580617 0.045368686 0.024034929 0.006971011
0.015177512 -0.04855456 -0.0044539617 0.04718027 -0.08476635 -0.054864034 0.036347605 -0.028067918
-0.017245468 -0.0960171 0.050217297 -0.0041117216 -0.04139617 0.004012837 0.03216431 -0.038075227
0.045699283 0.0022033828 -0.047248065 0.038563393 -0.045370746 0.043391492 -0.041838545 0.008578054
-0.004399968 -0.058736406 -0.0071998737 0.08049284 -0.10300691 -0.097538725 -0.049046505 0.12458503
0.0014204229 0.049654752 -0.02667329 0.052908152 0.105058685 0.02103561 -0.13010155 0.14930578
0.0969225 0.0010307688 -0.05210408 -0.02681866 -0.0006176646 -0.051655073 -0.096584514 -0.013257452
0.014436721 0.0029080876 -0.1908459 -0.039515622 0.075907096 0.04100615 0.012496301 -0.008940755
-0.099465944 -0.067010425 -0.09436895 -0.0650062 0.008307409 -0.03452382 -0.16534714 0.029007005
-0.077498406 0.009434847 -0.028802546 0.035581503 0.013289589 0.07000069 0.04048423 0.032055885
-0.022540338 -0.014217939 0.051293917 -0.031706296 0.0041306783 -0.0060821204 -0.01567959 0.11595191
-0.049917612 -0.021755699 -0.094652995 0.016188301 0.037379306 0.010799977 -0.14851254 -0.0024958707
0.017535733 -0.017496388 -0.092140794 0.110956 0.0110043455 0.08128955 -0.00073145237 0.070624515
0.055055622 -0.015348567 -0.12922747 0.14530115 -0.028124824 -0.031953756 -0.21779796 0.11007526
-0.052571747 0.04285451 0.024008177 0.014673045 0.030970285 -0.007541943 0.008760315 0.082632974
0.009680438 -0.054691378 0.011281586 -0.024377584 0.05400686 -0.028956821 -0.032352876 0.01240693
-0.016883615 0.030757 0.035235584 -0.020955015 0.047193963 0.040207945 0.019038938 -0.004390007
0.077416874 -0.090476155 0.0826129 -0.016623775 0.075205415 -0.025547469 0.106526725 -0.01947392
0.01621193 0.045866262 0.046636246 -0.030794417 0.049200784 0.027309092 0.102573976 -0.018852256
0.0272966 -0.0060164426 0.006165164 -0.0038410092 0.056522936 -0.02324591 0.03624747 -0.17715104
-0.040859632 0.0057526776 0.12718973 -0.016451985 -0.065176696 -0.008992962 -0.018853737 -0.05363704
0.02100298 -0.029711088 0.04041131 -0.047314126 0.027154587 -0.06146415 0.07429415 0.023940366
0.01228694 -0.00051576114 0.025136508 0.040341105 -0.012215048 0.010344138 -0.010373783 0.0781076
-0.019242594 0.050531734 -0.093559295 -0.01787662 -0.05601858 -0.08456541 0.15042908 0.118184194
00000000: 7e88 d2bc 19ff 3abd 24c3 69bd 64de 933d
00000010: d83f 753a 433e 6c3c bae9 7dbd 43d8 9b3c
00000020: 8290 243d 0bde 823c 77b8 d2bc 2a22 723d
00000030: 72cd c1bc 5b3c c0bd 10f0 4d3d 3a3d a0bd
00000040: 807b 91bd 10e4 42bc e2c5 403d 3146 70bd
00000050: 4913 203d 3bb2 70bc 41f3 e43c 7717 ed3d
00000060: a530 bbbd d692 97bd f4ee 41bc 7073 983d
00000070: 4981 a7bd 234c edba 3868 1bbd dcb1 6abd
00000080: 47bf 73bc b777 3e3c f18b fcbc b29a 72bd
00000090: 38a2 dc3c 940e b13c 1e69 04bd b2d4 b0bd
000000a0: 9bee 443d fd51 af3c 9522 2a3d e5e8 2a3d
000000b0: c025 d4bd 9234 073d 304e ccbd a29d 26bc
000000c0: 4980 463d 7f49 93bd eb8c d33d 7d12 c13d
000000d0: 4844 5dbd daba 0bbd 19fb b53d 25ab f63c
000000e0: 3168 dd3a 7e71 02bb 89e4 e1bc 1872 8abd
000000f0: ad0d b33d a1d1 c1bd 8850 d53d 2f81 d13d
00000100: ae70 8fbc db26 abbd 0cc9 7a3d 8fad afbd
00000110: c65e 573d 84d4 393d e6e4 c43c 146d e43b
00000120: 19ab 783c 25e1 46bd 8af2 91bb 1940 413d
00000130: fb99 adbd 1cb9 60bd 3ae1 143d b1ee e5bc
00000140: 5e46 8dbc 9da4 c4bd a7b0 4d3d 9fbb 86bb
00000150: 088f 29bd 1e7e 833b b9be 033d c5f4 1bbd
00000160: 2c2f 3b3d a166 103b 3087 41bd a6f4 1d3d
00000170: add6 39bd 47bb 313d e55e 2bbd f78a 0c3c
00000180: 9b2d 90bb 9695 70bd ebec ebbb 6ed9 a43d
00000190: 49f5 d2bd 62c2 c7bd fde4 48bd 7026 ff3d
000001a0: 7c2d ba3a c862 4b3d f281 dabc 38b6 583d
000001b0: 0229 d73d df52 ac3c 5739 05be 9de3 183e
000001c0: 4e7f c63d dd1a 873a 166b 55bd ceb2 dbbc
000001d0: c5ea 21ba 4594 53bd 1ace c5bd c935 59bc
000001e0: ff87 6c3c 9d95 3e3b 1c6d 43be 22db 21bd
000001f0: 2e75 9b3d 11f6 273d 49bd 4c3c 3f7c 12bc
00000200: cdb4 cbbd c33c 89bd 8244 c1bd f821 85bd
00000210: cc1b 083c d968 0dbd c350 29be 19a0 ed3c
00000220: 7cb7 9ebd 9e94 1a3c 51f3 ebbc e9bd 113d
00000230: 94bc 593c 865c 8f3d cbd2 253d 084d 033d
00000240: 84a6 b8bc 5cf2 68bc 9219 523d 76de 01bd
00000250: a45a 873b 864c c7bb 7c72 80bc 3278 ed3d
00000260: 6976 4cbd 0239 b2bc 6ed9 c1bd 549d 843c
00000270: 0b1b 193d 63f2 303c ac13 18be c391 23bb
00000280: 19a7 8f3c 9654 8fbc 50b4 bcbd e63c e33d
00000290: 924b 343c 237b a63d f0be 3fba 96a3 903d
000002a0: 0182 613d 8e78 7bbc 3554 04be d3c9 143e
000002b0: 0866 e6bc f1e1 02bd 6e06 5fbe 236f e13d
000002c0: 7955 57bd 3688 2f3d ccac c43c 3667 703c
000002d0: 65b5 fd3c 6722 f7bb 6d87 0f3c 7a3b a93d
000002e0: b39a 1e3c 1104 60bd 67d6 383c 80b3 c7bc
000002f0: 4c36 5d3d db36 edbc 7384 04bd 7046 4b3c
00000300: 824f 8abc 1bf6 fb3c 3053 103d daa9 abbc
00000310: 754e 413d 16b1 243d 8cf7 9b3c 0cda 8fbb
00000320: bd8c 9e3d 904b b9bd f430 a93d 952e 88bc
00000330: 4c05 9a3d ed48 d1bc af2a da3d c587 9fbc
00000340: e2ce 843c 43de 3b3d a605 3f3d 9344 fcbc
00000350: c386 493d 51b7 df3c 4e12 d23d 0c70 9abc
00000360: 1f9d df3c 9425 c5bb 2505 ca3b 71b9 7bbb
00000370: 9884 673d 356e bebc 3a78 143d 1567 35be
00000380: 6e5c 27bd f580 bc3b 063e 023e 50c6 86bc
00000390: 5c7b 85bd 3757 13bc 2773 9abc 83b2 5bbd
000003a0: 710e ac3c ab64 f3bc 5486 253d 75cc 41bd
000003b0: 4c73 de3c d5c1 7bbd 8827 983d 961e c43c
000003c0: 294f 493c 2534 07ba 14eb cd3c b73c 253d
000003d0: a021 48bc 767a 293c cdf6 29bc e1f6 9f3d
000003e0: a5a2 9dbc 5dfa 4e3d 049c bfbd fd71 92bc
000003f0: bd73 65bd a130 adbd 150a 1a3e 8e0a f23d

bias f4 [30]
0.21295728 0.1750318 -0.083363906 0.07983852 -0.11389375 0.14432845 -0.024004623 0.03837784
-0.044893753 -0.0022394336 0.17456305 0.15168041 0.14473572 0.08069004 -0.10929432 -0.11680595
-0.17740256 0.16598177 -0.13955842 0.18675505 0.2167714 0.065657414 -0.14112641 -0.11140251
0.054695867 0.046029776 -0.15834191 -0.11284898 -0.09714133 0.12679727
00000000: 7911 5a3e 893b 333e b2ba aabd 6182 a33d
00000010: 2041 e9bd d6ca 133e 58a5 c4bc 1532 1d3d
00000020: 83e2 37bd 76c3 12bb a8c0 323e 1c52 1b3e
00000030: 9a35 143e d240 a53d b3d5 dfbd f537 efbd
00000040: 04a9 35be 20f7 293e 67e8 0ebe b73c 3f3e
00000050: 52f9 5d3e 6577 863d 7183 10be 0027 e4bd
00000060: c608 603d b889 3c3d 6224 22be 5e1d e7bd
00000070: 09f2 c6bd 25d7 013e

weight f4 [20, 30, 4]
-0.05637833 -0.09031296 0.0026248274 -0.08807244 -0.022234902 0.011445662 -0.004437707 -0.04821529
-0.052509006 0.017634034 -0.024912402 -0.014535931 -0.050390728 -0.030713793 -0.036022626 0.029430944
-0.012888122 0.011653939 0.008781586 -0.038814116 0.0049874084 -0.07305624 -0.04717089 -0.0740554
-0.019931402 -0.020220349 -0.004060503 0.09603529 -0.06039976 -0.021150082 -0.035611395 -0.040778007
-0.023455823 0.022100532 0.0769137 0.013558047 0.036871918 0.017370388 0.09247468 0.024066629
0.018531278 -0.043594997 0.015847603 -0.01620714 -0.008945601 0.043119524 0.0038322455 0.0099299
0.0019741922 0.0014892655 0.0055897185 -0.004061137 -0.0019138375 0.055193555 -0.062077496 0.06764137
0.024985375 -0.01607055 -0.019309936 -0.013160486 0.07408971 -0.02080841 -0.0140840495 0.02612471
0.027028698 -0.02477192 0.04165681 -0.032021157 0.006947801 0.012833165 0.03561264 -0.046189334
-0.00029955897 0.056792587 -0.07168189 0.014051712 -0.017615657 -0.027741225 -0.01919264 0.04630164
-0.02004813 0.0063782777 -0.003237616 -0.004650905 -0.09596923 -0.0555516 -0.0146550285 0.008247058
0.045291908 0.053755376 -0.01599106 0.046632588 -0.012536208 0.06725362 -0.054396145 0.033758637
-0.012185767 0.008222755 -0.008132733 -0.004629367 0.0076396926 0.046466205 -0.07399367 -0.025031885
0.04267936 -0.0525183 -0.0074809245 -0.040171396 0.019126575 -0.041690033 0.06243712 -0.020881724
0.006376029 -0.004120133 -0.0037742993 -0.03538926 -0.06987832 0.02693796 -0.08911386 -0.015917337
-0.07518142 -0.03001111 0.02689709 0.024905967 -0.015429406 0.006527771 -0.055088256 0.025794048
-0.022601359 0.026827566 -0.03337983 0.012568702 0.018737597 -0.020628508 -0.01868415 -0.028603552
-0.0026260247 0.0009678487 0.115192614 0.032852527 0.024202283 -0.029932305 -0.0036614651 -0.013334101
0.02262262 0.034414254 0.08086124 -0.023440858 0.0113557335 -0.029013777 -0.08600992 -0.035427053
0.02999687 -0.02723044 -0.0017771403 0.015875615 -0.01402221 0.056351427 -0.0017894851 0.034904182
0.06266753 0.026945135 0.011826436 -0.038504012 -0.02723238 -0.042518463 0.010171857 -0.031174555
-0.030477436 -0.049809545 0.02461735 -0.060224358 0.021468686 0.063808344 -0.09706096 -0.101837695
0.05082123 0.003821225 0.031074196 0.07933259 -0.0077288784 0.011603728 -0.034642372 -0.0052258167
0.018727034 0.009362843 -0.052165452 0.01097128 0.0070886635 -0.032658145 -0.04437752 0.030837895
-0.03914853 -0.0047437632 0.03209546 -0.047720697 0.050754033 -0.022387085 -0.07051349 -0.04786772
0.039080314 0.031186368 0.018548306 0.029600272 -0.034508888 -0.0018697105 -0.07110014 -0.0263924
0.024538895 0.04230127 -0.00083795446 0.031441916 -0.04188498 0.02170338 -0.026345275 0.021470007
-0.010103643 -0.06119958 0.02615733 -0.026987068 0.02496922 0.033042494 0.033939462 -0.037498802
-0.056682535 0.04808797 0.017695537 -0.01569137 -0.030958882 -0.011770708 -0.053152714 -0.030096399
0.03896181 -0.042511117 0.026282132 0.10503886 0.032449406 0.067908175 0.056363236 0.0053526172
0.019924985 -0.03307076 -0.060009904 0.035894528 -0.05512263 -0.050210044 -0.04497116 -0.003560647
-0.023695715 -0.029412506 -0.0009692591 -0.014978539 0.029691273 -0.03894643 -0.019829357 0.074137226
00000000: f7ec 66bd 00f6 b8bd 4c05 2c3b 535f b4bd
00000010: f825 b6bc 9686 3b3c 2f6a 91bb 657d 45bd
00000020: af13 57bd 4075 903c 1815 ccbc 1d28 6ebc
00000030: 8266 4ebd 7e9b fbbc 768c 13bd 2a19 f13c
00000040: b428 53bc 2af0 3e3c a4e0 0f3c 8dfb 1ebd
00000050: 6a6d a33b 839e 95bd 4336 41bd 5caa 97bd
00000060: 2e47 a3bc 25a5 a5bc f80d 85bb 26ae c43d
00000070: bd65 77bd f042 adbc 41dd 11bd d706 27bd
00000080: 6d26 c0bc 2d0c b53c ee84 9d3d 9222 5e3c
00000090: 0207 173d 584c 8e3c 5d63 bd3d 6127 c53c
000000a0: e8ce 973c ab90 32bd d5d2 813c d6c4 84bc
000000b0: 9290 12bc 199e 303d 6926 7b3b 05b1 223c
000000c0: 7361 013b 7533 c33a f529 b73b 4913 85bb
000000d0: bbd9 faba a312 623d f944 7ebd 8f87 8a3d
000000e0: 21ae cc3c 63a6 83bc df2f 9ebc 149f 57bc
000000f0: 59bc 973d 6676 aabc c9c0 66bc 7d03 d63c
00000100: 4a6b dd3c 7bee cabc 55a0 2a3d 9e28 03bd
00000110: 61aa e33b 3242 523c 8fde 113d 0731 3dbd
00000120: 200e 9db9 589f 683d f4cd 92bd 2739 663c
00000130: b64e 90bc 9141 e3bc e239 9dbc caa6 3d3d
00000140: fa3b a4bc df00 d13b 2f2e 54bb 9e66 98bb
00000150: 848b c4bd 138a 63bd a51b 70bc ab1e 073c
00000160: 0284 393d 992e 5c3d afff 82bc d001 3f3d
00000170: ab64 4dbc 44bc 893d 7ece 5ebd 7f46 0a3d
00000180: d0a6 47bc bcb8 063c 283f 05bc f2b1 97bb
00000190: 6356 fa3b 5953 3e3d fe89 97bd ab0f cdbc
000001a0: 8dd0 2e3d 6e1d 57bd 8b22 f5bb c38a 24bd
000001b0: 56af 9c3c 2bc3 2abd 11be 7f3d 2610 abbc
000001c0: 02ee d03b 2e02 87bb 3c5a 77bb 54f4 10bd
000001d0: 5d1c 8fbd ffac dc3c 5481 b6bd 1365 82bc
000001e0: b7f8 99bd dcd9 f5bc 4957 dc3c 9907 cc3c
000001f0: 9fcb 7cbc e9e6 d53b 39a4 61bd 0a4e d33c
00000200: 7c26 b9bc 7cc5 db3c 4ab9 08bd f5ec 4d3c
00000210: 977f 993c 1efd a8bc 810f 99bc ff51 eabc
00000220: 6219 2cbb 3ab7 7d3a 1bea eb3d 5f90 063d
00000230: de43 c63c 9834 f5bc 31f5 6fbb 4677 5abc
00000240: 1353 b93c f6f5 0c3d 949a a53d 0b07 c0bc
00000250: 660d 3a3c 4dae edbc f825 b0bd f51b 11bd
00000260: ffbb f53c 5f12 dfbc efee e8ba 940d 823c
00000270: 69bd 65bc c1d0 663d 288d eaba b0f7 0e3d
00000280: d557 803d 0bbc dc3c abc3 413c 62b6 1dbd
00000290: 7116 dfbc d727 2ebd dca7 263c c861 ffbc
000002a0: d1ab f9bc 1805 4cbd 53aa c93c d1ad 76bd
000002b0: 19df af3c f3ad 823d e6c7 c6bd 4890 d0bd
000002c0: ec29 503d 846d 7a3b 508f fe3c 2079 a23d
000002d0: 8842 fdbb 901d 3e3c 29e5 0dbd 543d abbb
000002e0: 7069 993c 9c66 193c 71ab 55bd e2c0 333c
000002f0: 0548 e83b 8cc4 05bd 34c5 35bd c19f fc3c
00000300: 365a 20bd 9271 9bbb 8776 033d c776 43bd
00000310: 76e3 4f3d 1f65 b7bc 6069 90bd f110 44bd
00000320: ae12 203d 8e7a ff3c 9ef2 973c 457c f23c
00000330: 3159 0dbd 1311 f5ba f39c 91bd e034 d8bc
00000340: cb05 c93c 1944 2d3d 2caa 5bba 3dc9 003d
00000350: 968f 2bbd 49cb b13c 0cd2 d7bc dee1 af3c
00000360: c089 25bc 69ac 7abd e647 d63c fc13 ddbc
00000370: 408c cc3c 9157 073d 1b04 0b3d 5898 19bd
00000380: f22b 68bd e4f7 443d 3bf6 903c 308b 80bc
00000390: 7b9d fdbc edd9 40bc a9b6 59bd b98c f6bc
000003a0: 6b96 1f3d 2320 2ebd a04d d73c 9d1e d73d
000003b0: abe9 043d 7113 8b3d 23dd 663d 0265 af3b
000003c0: b939 a33c 3575 07bd f2cc 75bd 2406 133d
000003d0: 44c8 61bd 0ca9 4dbd ae33 38bd be59 69bb
000003e0: 841d c2bc 7ff2 f0bc e115 7eba 8c68 75bc
000003f0: 1d3b f33c 4b86 1fbd 2d71 a2bc 42d5 973d

bias f4 [20]
-0.115151174 0.10191075 -0.055109948 -0.07089889 0.021816047 -0.15849072 0.10063737 -0.0014903382
0.12451809 0.103472374 -0.07660805 0.013343705 -0.017213427 0.046898216 -0.048251446 0.09733862
0.09297411 -0.069452845 0.11941109 -0.096324
00000000: 61d4 ebbd 95b6 d03d f8ba 61bd 7033 91bd
00000010: 91b7 b23c 644b 22be f71a ce3d 7457 c3ba
00000020: 5703 ff3d 53e9 d33d aee4 9cbd 8e9f 5a3c
00000030: 2c03 8dbc 5818 403d 4fa3 45bd 7859 c73d
00000040: 3669 be3d 4b3d 8ebd cd8d f43d 8445 c5bd

weight f4 [10, 20, 2]
0.049679838 0.024705559 0.09073117 0.11680586 -0.023339596 0.018283391 0.051154375 0.08022687
0.07561977 0.011095699 0.11219867 0.031924367 0.065184854 0.055291165 0.028315859 -0.019579796
0.12302959 -0.039984744 -0.059146944 0.07151065 0.04599223 0.00040241578 0.05232317 0.13367504
-0.013692441 0.08541654 0.12559286 0.110741496 -0.13793676 -0.108809076 0.083741695 -0.112762995
-0.007867833 -0.09466068 0.061536737 -0.116829485 -0.10144788 0.02194021 -0.057668656 0.024704408
0.0057053054 -0.096086994 0.006850837 -0.11250513 0.045645047 0.12800382 0.062089812 0.101463534
-0.073545694 -0.014896154 0.00513339 0.098089196 0.008985128 -0.08259036 0.00646993 -0.04226406
0.01895422 0.008607689 -0.12562685 0.019512104 0.013015777 0.021617183 0.017320033 -0.0311171
-0.07299263 0.08574155 -0.0720152 -0.08921422 0.1482171 0.15527393 0.009647338 0.09232387
0.0025144075 0.07298432 -0.04016618 -0.022880526 -0.1202771 0.03143483 -0.04684786 -0.08241351
-0.11255537 -0.09487033 0.039175004 0.063345596 0.1344261 0.10559077 -0.13134529 0.038319778
-0.007626533 0.08399549 -0.047083586 -0.0007231801 0.06637448 0.02223448 0.052036263 0.028797494
0.0028365285 0.07404383 0.041287836 0.0068322807 -0.0918404 0.050318453 0.0453376 0.02354309
0.034475535 0.056496836 -0.09040008 0.1041764 0.09903425 -0.008135649 -0.14033988 -0.033391837
-0.07346598 0.06919414 -0.07316685 0.04665089 0.089952625 -0.032844916 -0.10558712 -0.10509119
0.13923271 0.09521498 -0.011962323 -0.056054518 0.1724918 -0.021361226 -0.10368467 0.1835436
-0.10385118 -0.12724313 0.15458997 0.17450866 0.07066245 -0.1291488 -0.016631143 0.0070149717
-0.15033488 -0.13542552 -0.15527214 -0.1800411 -0.038611077 0.11877392 0.0071875546 -0.051393323
-0.1162049 -0.0046016905 -0.15398708 0.0007289656 0.18813908 0.20632114 -0.07592923 0.053671382
-0.017115746 -0.073790364 0.04488542 0.015577756 0.08509988 -0.2046327 0.027674515 0.06641617
0.07428332 0.16127846 -0.0693437 -0.1040941 0.027693694 -0.018008024 -0.10746542 0.13573523
-0.10340535 -0.09169791 -0.024683733 0.06421752 -0.0053804084 -0.03236798 0.030479461 -0.02198793
-0.08680331 -0.11202791 -0.07852994 -0.13642639 -0.02038842 -0.04391828 -0.050914835 -0.008609867
-0.029355722 -0.030290375 -0.021055436 -0.16026543 0.07066778 0.10084317 -0.049480073 0.057867844
-0.04649496 -0.06934625 -0.0009107095 0.066138096 -0.10853598 0.026722647 0.046442516 0.15893368
-0.03431424 0.046003137 0.012324559 0.027894193 0.013400564 0.036606215 -0.06545383 -0.09200737
0.07553165 0.01339486 0.19327143 0.1641095 -0.043648962 -0.016458403 0.062276118 0.011358475
0.059513442 -0.051680014 -0.04929465 -0.08691376 -0.0029906256 0.089249305 -0.14676003 -0.0759824
0.027328195 0.018703299 -0.053686064 0.029348286 0.10595559 0.14078054 -0.06535734 -0.14903949
-0.093209386 -0.020241478 0.09769888 0.10878945 -0.15822987 -0.055018518 -0.071790844 0.12440898
0.011385127 0.015504023 -0.029645197 0.009685682 -0.0031955203 0.09000214 -0.06261447 -0.07827175
0.0019391475 0.011132655 0.06415934 -0.11478078 0.0017647747 0.1173867 0.05897107 0.014068506
00000000: 167d 4b3d 5063 ca3c 43d1 b93d e937 ef3d
00000010: ae32 bfbc 0dc7 953c 4087 513d fc4d a43d
00000020: 8ade 9a3d bcca 353c 6bc8 e53d 20c3 023d
00000030: a37f 853d fd78 623d a9f6 e73c cf65 a0bc
00000040: f0f6 fb3d 0bc7 23bd 1144 72bd 2d74 923d
00000050: 5962 3c3d 55fb d239 d250 563d 1ce2 083e
00000060: 4356 60bc deee ae3d 6a9b 003e 70cc e23d
00000070: 4b3f 0dbe 4bd7 debd c480 ab3d 49f0 e6bd
00000080: 15e8 00bc 75dd c1bd f20d 7c3d 4c44 efbd
00000090: e8c3 cfbd f5bb b33c f835 6cbd e660 ca3c
000000a0: 92f3 ba3b 42c9 c4bd fc7c e03b 1769 e6bd
000000b0: 4df6 3a3d 6f13 033e e351 7e3d 1dcc cf3d
000000c0: 209f 96bd 000f 74bc ff35 a83b fde2 c83d
000000d0: 5c36 133c 2225 a9bd b501 d43b 141d 2dbd
000000e0: e145 9b3c 4407 0d3c 53a4 00be d9d7 9f3c
000000f0: 2040 553c 8516 b13c bee2 8d3c 4ae9 febc
00000100: 297d 95bd 4499 af3d b57c 93bd f2b5 b6bd
00000110: 39c6 173e 2100 1f3e de0f 1e3c 4c14 bd3d
00000120: c2c8 243b ce78 953d 4b85 24bd f16f bbbc
00000130: d753 f6bd cfc1 003d 8be3 3fbd 6ac8 a8bd
00000140: 6e83 e6bd 604b c2bd f875 203d 56bb 813d
00000150: ffa6 093e f93f d83d 617f 06be 33f5 1c3d
00000160: ffe7 f9bb d405 ac3d b8da 40bd cc93 3dba
00000170: 58ef 873d 1625 b63c fa23 553d b9e8 eb3c
00000180: 0de5 393b 4ba4 973d 6f1d 293d 53e1 df3b
00000190: d216 bcbd b91a 4e3d ebb3 393d 70dd c03c
000001a0: 3836 0d3d 3a69 673d ad23 b9bd 705a d53d
000001b0: 78d2 ca3d 634b 05bc 42b5 0fbe e1c5 08bd
000001c0: 5575 96bd a8b5 8d3d 80d8 95bd 0115 3f3d
000001d0: 1539 b83d 6488 06bd 0f3e d8bd 0d3a d7bd
000001e0: 0593 0e3e 1200 c33d 9ffd 43bc 6c99 65bd
000001f0: b1a1 303e bdfd aebc a158 d4bd daf2 3b3e
00000200: edaf d4bd 064c 02be d54c 1e3e 66b2 323e
00000210: 79b7 903d 953f 04be 093e 88bc d9dd e53b
00000220: 63f1 19be fdac 0abe a9ff 1ebe b25c 38be
00000230: a626 1ebd be3f f33d 9485 eb3b ce81 52bd
00000240: d6fc edbd c7c9 96bb caae 1dbe 0e18 3f3a
00000250: 88a7 403e d945 533e c980 9bbd 86d6 5b3d
00000260: 5236 8cbc 671f 97bd c6d9 373d d839 7f3c
00000270: d948 ae3d 3c8b 51be aab5 e23c 3305 883d
00000280: da21 983d 2e26 253e 1204 8ebd 4a2f d5bd
00000290: e3dd e23c 9085 93bc d516 dcbd 2dfe 0a3e
000002a0: 2fc6 d3bd 1dcc bbbd 8a35 cabc 7a84 833d
000002b0: 234e b0bb 4994 04bd 10b0 f93c 0820 b4bc
000002c0: efc5 b1bd e46e e5bd 4ed4 a0bd 5cb3 0bbe
000002d0: 9e05 a7bc a8e3 33bd 138c 50bd 6610 0dbc
000002e0: 697b f0bc 8523 f8bc 737c acbc 9f1c 24be
000002f0: 45ba 903d dd86 ce3d 9eab 4abd d506 6d3d
00000300: 8071 3ebd 6805 8ebd aebc 6eba 6973 873d
00000310: 1d48 debd 74e9 da3c 823a 3e3d 83bf 223e
00000320: 178d 0cbd c96d 3c3d f2ec 493c 5d82 e43c
00000330: 0a8e 5b3c 66f0 153d a80c 86bd 5c6e bcbd
00000340: 56b0 9a3d 1d76 5b3c f2e8 453e 520c 283e
00000350: 41c9 32bd c6d3 86bc 3e15 7f3d e618 3a3c
00000360: 5ec4 733d 6cae 53bd 30e9 49bd d7ff b1bd
00000370: 5ffe 43bb 57c8 b63d 4348 16be a99c 9bbd
00000380: 61df df3c a937 993c ebe5 5bbd d16b f03c
00000390: 3fff d83d c628 103e 12da 85bd cf9d 18be
000003a0: 90e4 bebd 75d1 a5bc 5a16 c83d 01cd de3d
000003b0: 0307 22be 195b 61bd 1407 93bd 23ca fe3d
000003c0: af88 3a3c 9604 7e3c 7cda f2bc b2b0 1e3c
000003d0: ef6b 51bb 0b53 b83d 043c 80bd f04c a0bd
000003e0: fe2a fe3a bd65 363c f965 833d 3012 ebbd
000003f0: 0350 e73a 7068 f03d a68b 713d 977f 663c

bias f4 [10]
0.11286872 0.01807355 -0.068465725 -0.15071541 -0.028046552 -0.08378477 0.02597433 -0.053743966
-0.09784864 0.17716907
00000000: b727 e73d fb0e 943c c237 8cbd 2455 1abe
00000010: e2c1 e5bc 5997 abbd 1ec8 d43c a222 5cbd
00000020: de64 c8bd cf6b 353e

weight f4 [20, 30]
0.08595973 -0.12796001 -0.046628408 -0.02113933 -0.0706215 0.12113582 0.0122682 0.06750726
-0.021191858 0.14133132 -0.15926066 -0.10553685 0.03056841 -0.11212673 -0.08022077 0.0043786694
0.042495757 -0.11975923 0.18715584 0.15262333 0.0071122004 -0.052817833 -0.13426453 0.12938036
-0.14270993 0.12960328 0.08907912 0.011473023 0.10477437 0.08360972 0.042734124 0.10872883
0.045859434 -0.01241764 0.000486456 0.03925795 0.06514002 -0.103641026 0.055256695 -0.054717317
0.16119105 0.17137393 -0.07126733 0.074258104 0.15470545 0.00483418 0.0006407635 0.06738088
0.0065353503 -0.055259753 0.0358736 -0.1453449 0.1728802 -0.120127596 -0.07382337 0.1484232
0.17060854 -0.027315263 0.034716584 -0.14768274 -0.17567018 -0.18169914 -0.09657921 0.10381937
0.014623819 -0.049079772 0.009591231 -0.05386953 0.09833504 0.022907844 -0.012574971 0.033658348
0.07468112 0.12877889 -0.026119735 0.17857608 -0.120220535 0.06408753 0.04622196 -0.03571609
-0.17335697 0.14945596 0.14023207 -0.08687292 0.15790032 0.14817826 0.18203287 -0.16332339
-0.10750279 -0.11610162 -0.0848286 0.09725325 0.15661682 -0.07094058 -0.042524006 -0.025786195
0.039827563 -0.035936765 0.0024176654 0.10206029 0.09325028 0.13659766 0.039146475 -0.17662553
-0.09053106 0.10614407 0.0008139022 -0.07574578 0.026272269 0.0713143 0.050338708 -0.08147637
-0.012165797 -0.107983574 0.06129942 -0.06729446 -0.04842673 -0.12485128 0.032251284 0.057814978
-0.05696671 0.14905944 0.008512983 -0.042330608 0.09145932 0.12167827 -0.033420585 -0.07479669
-0.079277754 0.051793914 -0.041156914 -0.030102309 0.053719517 -0.019079491 0.050475605 -0.18584898
0.043626543 0.0016901224 -0.0916763 0.14395452 0.15211128 -0.11975478 0.084532075 -0.030745935
-0.16786917 -0.008676944 0.059153967 0.03241044 0.1378207 -0.012944885 0.13062626 -0.08199771
0.019337453 -0.020534014 -0.0060232235 -0.03624102 -0.0330141 0.09886069 0.059897847 -0.008189755
-0.13368028 -0.16374329 -0.023436556 0.0074567543 -0.16153742 -0.16201642 0.11963967 0.0008198217
0.1881642 0.08501145 0.0051548006 0.080016986 -0.20570715 -0.049902786 0.11791567 -0.059620213
0.054258574 0.027295971 0.032515645 0.03494541 0.06797611 -0.037461363 -0.07825974 0.17393418
0.06346248 -0.014511825 -0.20539111 -0.11782589 0.0040849317 0.028480856 0.093760476 -0.035389185
0.046564065 -0.106643215 0.17785172 -0.023575325 0.06147364 -0.13853203 0.16347557 -0.016352793
-0.01101182 0.15849292 0.065088145 -0.124412306 -0.087000996 0.08008064 -0.13455401 -0.07282844
0.0346334 -0.16861382 -0.1418174 0.12769012 -0.069102965 0.03400034 0.028017053 -0.049861092
-0.005714261 0.06898501 0.030998351 -0.16402861 -0.07516189 -0.124264054 0.12187582 0.059001885
0.08676047 0.08443604 0.059814557 -0.055742152 0.10615586 -0.06814332 0.09783613 -0.12692086
-0.039299 -0.12488187 0.00661333 -0.03052438 -0.13951875 0.024228672 -0.14113721 0.0863562
0.14470734 0.043227594 0.052905 -0.013725295 0.061170325 -0.011910399 0.03234687 -0.101511136
0.092781946 -0.115454316 -0.06914643 -0.0799211 0.06739954 -0.15755922 0.11877444 0.01143399
00000000: a80b b03d f307 03be 6efd 3ebd 632c adbc
00000010: 01a2 90bd 0f16 f83d 8f00 493c 3f41 8a3d
00000020: 8c9a adbc 28b9 103e 3a15 23be b423 d8bd
00000030: 9a6a fa3c b3a2 e5bd c94a a4bd f17a 8f3b
00000040: 0810 2e3d 5444 f5bd c8a5 3f3e 4a49 1c3e
00000050: 760d e93b 8357 58bd a47c 09be 497c 043e
00000060: 8d22 12be b9b6 043e 1d6f b63d 59f9 3b3c
00000070: f293 d63d 933b ab3d fa09 2f3d 39ad de3d
00000080: 1ad7 3b3d 5b73 4bbc 050b ff39 f2cc 203d
00000090: 2168 853d bf41 d4bd d854 623d 441f 60bd
000000a0: 440f 253e a67c 2f3e 9bf4 91bd a214 983d
000000b0: 1b6b 1e3e 0b68 9e3b e9f8 273a fdfe 893d
000000c0: 7e26 d63b 0d58 62bd 32f0 123d 4bd5 14be
000000d0: 8207 313e 7505 f6bd b530 97bd 40fc 173e
000000e0: 01b4 2e3e 42c4 dfbc fa32 0e3d 253a 17be
000000f0: e2e2 33be 570f 3abe 52cb c5bd 409f d43d
00000100: be98 6f3c df07 49bd 8a24 1d3c 4ca6 5cbd
00000110: e263 c93d 3ba9 bb3c 4007 4ebc 56dd 093d
00000120: 6af2 983d 9dde 033e 0ef9 d5bc a6dc 363e
00000130: 2f36 f6bd 5340 833d 3d53 3d3d 094b 12bd
00000140: 7d84 31be fc0a 193e ff98 0f3e 6eea b1bd
00000150: 9fb0 213e 0bbc 173e d366 3a3e 3f3e 27be
00000160: 6c2a dcbd b0c6 edbd 9eba adbd b62c c73d
00000170: 2960 203e 4b49 91bd a72d 2ebd 923d d3bc
00000180: 3a22 233d 6e32 13bd b271 1e3b fc04 d13d
00000190: 01fa be3d 42e0 0b3e 0e58 203d 53dd 34be
000001a0: 5968 b9bd 1062 d93d 0d5c 553a 9a20 9bbd
000001b0: f138 d73c 3b0d 923d f62f 4e3d 15dd a6bd
000001c0: 0d53 47bc 7e26 ddbd 1a15 7b3d aed1 89bd
000001d0: 1b5b 46bd 07b2 ffbd ec19 043d 66cf 6c3d
000001e0: ed55 69bd 0aa3 183e 0a7a 0b3c dc62 2dbd
000001f0: 064f bb3d 7532 f93d 06e4 08bd 022f 99bd
00000200: 605c a2bd db25 543d 2794 28bd 1e99 f6bc
00000210: ff08 5c3d 984c 9cbc 82bf 4e3d 324f 3ebe
00000220: bfb1 323d 1987 dd3a c9c0 bbbd d068 133e
00000230: 0fc3 1b3e fe41 f5bd 271f ad3d e6de fbbc
00000240: e5e5 2bbe be29 0ebc 6e4b 723d cfc0 043d
00000250: df20 0d3e c816 54bc e4c2 053e 6aee a7bd
00000260: 9469 9e3c f336 a8bc 765e c5bb 7771 14bd
00000270: cb39 07bd 7977 ca3d 7257 753d 522e 06bc
00000280: 7ce3 08be 52ac 27be 05fe bfbc ca57 f43b
00000290: 116a 25be a2e7 25be a505 f53d 4ee9 563a
000002a0: 1eae 403e 7c1a ae3d 9ae9 a83b f2df a33d
000002b0: e5a4 52be dd66 4cbd c57d f13d 5334 74bd
000002c0: 3d3e 5e3d cd9b df3c 202f 053d eb22 0f3d
000002d0: 0f37 8b3d 1671 19bd a446 a0bd cd1b 323e
000002e0: 9ef8 813d 01c3 6dbc 0c52 52be b34e f1bd
000002f0: e4da 853b af50 e93c 7e05 c03d 40f4 10bd
00000300: f6b9 3e3d c267 dabd c31e 363e 0a21 c1bc
00000310: c9cb 7b3d 57db 0dbe 2466 273e 4bf6 85bc
00000320: ec6a 34bc f84b 223e ef4c 853d e1cb febd
00000330: 942d b2bd 5201 a43d 87c8 09be 1427 95bd
00000340: c1db 0d3d 1aa9 2cbe 9538 11be 33c1 023e
00000350: db85 8dbd f143 0b3d 0584 e53c 253b 4cbd
00000360: b23e bbbb 0348 8d3d 41f0 fd3c 1ef7 27be
00000370: 7aee 99bd 277e febd 089a f93d f6ab 713d
00000380: 79af b13d cdec ac3d 1c00 753d e251 64bd
00000390: 3e68 d93d ba8e 8bbd 4f5e c83d 8bf7 01be
000003a0: fdf7 20bd 11c2 ffbd a2b4 d83b 440e fabc
000003b0: 01de 0ebe 357b c63c 4686 10be 85db b03d
000003c0: 292e 143e 6b0f 313d eab2 583d 0fe0 60bc
000003d0: bc8d 7a3d d623 43bc 277e 043d 12e5 cfbd
000003e0: 7604 be3d 5073 ecbd a59c 8dbd acad a3bd
000003f0: c508 8a3d 3457 21be 0340 f33d a155 3b3c

bias f4 [20]
-0.11988878 0.14765443 0.13560604 0.19533008 -0.02184683 0.018402843 -0.052181445 -0.027376099
0.14834288 0.12080479 -0.059130307 0.15562357 -0.14660913 0.11453226 0.035270363 0.15168229
0.038872734 -0.04143238 -0.07758279 -0.1614464
00000000: 4088 f5bd b932 173e 4fdc 0a3e 9c04 483e
00000010: 20f8 b2bc 8fc1 963c 36bc 55bd d743 e0bc
00000020: 32e7 173e 8068 f73d 9f32 72bd c95b 1f3e
00000030: b420 16be e48f ea3d a877 103d 9a52 1b3e
00000040: 0439 1f3d 00b5 29bd bae3 9ebd 3552 25be
